…
I0312 10:34:30.568409  8753 solver.cpp:87] Creating training net from net file: ../merge_models/res50_multigpu_new.prototxt
I0312 10:34:30.572896  8753 upgrade_proto.cpp:77] Attempting to upgrade batch norm layers using deprecated params: ../merge_models/res50_multigpu_new.prototxt
I0312 10:34:30.572968  8753 upgrade_proto.cpp:80] Successfully upgraded batch norm layers using deprecated params.
I0312 10:34:30.579794  8753 net.cpp:51] Initializing net from parameters: 
name: "ResNet-50"
state {
  phase: TRAIN
}
layer {
  name: "data"
  type: "Python"
  top: "pairs"
  python_param {
    module: "datalayer"
    layer: "DataLayerWLoss"
  }
}
layer {
  name: "slice"
  type: "Slice"
  bottom: "pairs"
  top: "data"
  top: "data_p"
  slice_param {
    slice_point: 3
    axis: 1
  }
}
layer {
  name: "conv1"
  type: "Convolution"
  bottom: "data"
  top: "conv1"
  param {
    name: "conv1_w"
    lr_mult: 1
  }
  param {
    name: "conv1_b"
    lr_mult: 2
  }
  convolution_param {
    num_output: 64
    pad: 3
    kernel_size: 7
    stride: 2
  }
}
layer {
  name: "bn_conv1"
  type: "BatchNorm"
  bottom: "conv1"
  top: "conv1"
  param {
    name: "bn_conv1_mean"
    lr_mult: 0
    decay_mult: 0
  }
  param {
    name: "bn_conv1_variance"
    lr_mult: 0
    decay_mult: 0
  }
  param {
    name: "bn_conv1_scale_factor"
    lr_mult: 0
    decay_mult: 0
  }
  batch_norm_param {
    use_global_stats: false
  }
}
layer {
  name: "scale_conv1"
  type: "Scale"
  bottom: "conv1"
  top: "conv1"
  param {
    name: "scale_conv1_alpha"
  }
  param {
    name: "scale_conv1_beta"
  }
  scale_param {
    bias_term: true
  }
}
layer {
  name: "conv1_relu"
  type: "ReLU"
  bottom: "conv1"
  top: "conv1"
}
layer {
  name: "pool1"
  type: "Pooling"
  bottom: "conv1"
  top: "pool1"
  pooling_param {
    pool: MAX
    kernel_size: 3
    stride: 2
  }
}
layer {
  name: "res2a_branch1"
  type: "Convolution"
  bottom: "pool1"
  top: "res2a_branch1"
  param {
    name: "res2a_branch1_w"
    lr_mult: 1
  }
  convolution_param {
    num_output: 256
    bias_term: false
    pad: 0
    kernel_size: 1
    stride: 1
  }
}
layer {
  name: "bn2a_branch1"
  type: "BatchNorm"
  bottom: "res2a_branch1"
  top: "res2a_branch1"
  param {
    name: "bn2a_branch1_mean"
    lr_mult: 0
    decay_mult: 0
  }
  param {
    name: "bn2a_branch1_variance"
    lr_mult: 0
    decay_mult: 0
  }
  param {
    name: "bn2a_branch1_scale_factor"
    lr_mult: 0
    decay_mult: 0
  }
  batch_norm_param {
    use_global_stats: false
  }
}
layer {
  name: "scale2a_branch1"
  type: "Scale"
  bottom: "res2a_branch1"
  top: "res2a_branch1"
  param {
    name: "scale2a_branch1_alpha"
  }
  param {
    name: "scale2a_branch1_beta"
  }
  scale_param {
    bias_term: true
  }
}
layer {
  name: "res2a_branch2a"
  type: "Convolution"
  bottom: "pool1"
  top: "res2a_branch2a"
  param {
    name: "res2a_branch2a_w"
    lr_mult: 1
  }
  convolution_param {
    num_output: 64
    bias_term: false
    pad: 0
    kernel_size: 1
    stride: 1
  }
}
layer {
  name: "bn2a_branch2a"
  type: "BatchNorm"
  bottom: "res2a_branch2a"
  top: "res2a_branch2a"
  param {
    name: "bn2a_branch2a_mean"
    lr_mult: 0
    decay_mult: 0
  }
  param {
    name: "bn2a_branch2a_variance"
    lr_mult: 0
    decay_mult: 0
  }
  param {
    name: "bn2a_branch2a_scale_factor"
    lr_mult: 0
    decay_mult: 0
  }
  batch_norm_param {
    use_global_stats: false
  }
}
layer {
  name: "scale2a_branch2a"
  type: "Scale"
  bottom: "res2a_branch2a"
  top: "res2a_branch2a"
  param {
    name: "scale2a_branch2a_alpha"
  }
  param {
    name: "scale2a_branch2a_beta"
  }
  scale_param {
    bias_term: true
  }
}
layer {
  name: "res2a_branch2a_relu"
  type: "ReLU"
  bottom: "res2a_branch2a"
  top: "res2a_branch2a"
}
layer {
  name: "res2a_branch2b"
  type: "Convolution"
  bottom: "res2a_branch2a"
  top: "res2a_branch2b"
  param {
    name: "res2a_branch2b_w"
    lr_mult: 1
  }
  convolution_param {
    num_output: 64
    bias_term: false
    pad: 1
    kernel_size: 3
    stride: 1
  }
}
layer {
  name: "bn2a_branch2b"
  type: "BatchNorm"
  bottom: "res2a_branch2b"
  top: "res2a_branch2b"
  param {
    name: "bn2a_branch2b_mean"
    lr_mult: 0
    decay_mult: 0
  }
  param {
    name: "bn2a_branch2b_variance"
    lr_mult: 0
    decay_mult: 0
  }
  param {
    name: "bn2a_branch2b_scale_factor"
    lr_mult: 0
    decay_mult: 0
  }
  batch_norm_param {
    use_global_stats: false
  }
}
layer {
  name: "scale2a_branch2b"
  type: "Scale"
  bottom: "res2a_branch2b"
  top: "res2a_branch2b"
  param {
    name: "scale2a_branch2b_alpha"
  }
  param {
    name: "scale2a_branch2b_beta"
  }
  scale_param {
    bias_term: true
  }
}
layer {
  name: "res2a_branch2b_relu"
  type: "ReLU"
  bottom: "res2a_branch2b"
  top: "res2a_branch2b"
}
layer {
  name: "res2a_branch2c"
  type: "Convolution"
  bottom: "res2a_branch2b"
  top: "res2a_branch2c"
  param {
    name: "res2a_branch2c_w"
    lr_mult: 1
  }
  convolution_param {
    num_output: 256
    bias_term: false
    pad: 0
    kernel_size: 1
    stride: 1
  }
}
layer {
  name: "bn2a_branch2c"
  type: "BatchNorm"
  bottom: "res2a_branch2c"
  top: "res2a_branch2c"
  param {
    name: "bn2a_branch2c_mean"
    lr_mult: 0
    decay_mult: 0
  }
  param {
    name: "bn2a_branch2c_variance"
    lr_mult: 0
    decay_mult: 0
  }
  param {
    name: "bn2a_branch2c_scale_factor"
    lr_mult: 0
    decay_mult: 0
  }
  batch_norm_param {
    use_global_stats: false
  }
}
layer {
  name: "scale2a_branch2c"
  type: "Scale"
  bottom: "res2a_branch2c"
  top: "res2a_branch2c"
  param {
    name: "scale2a_branch2c_alpha"
  }
  param {
    name: "scale2a_branch2c_beta"
  }
  scale_param {
    bias_term: true
  }
}
layer {
  name: "res2a"
  type: "Eltwise"
  bottom: "res2a_branch1"
  bottom: "res2a_branch2c"
  top: "res2a"
}
layer {
  name: "res2a_relu"
  type: "ReLU"
  bottom: "res2a"
  top: "res2a"
}
layer {
  name: "res2b_branch2a"
  type: "Convolution"
  bottom: "res2a"
  top: "res2b_branch2a"
  param {
    name: "res2b_branch2a_w"
    lr_mult: 1
  }
  convolution_param {
    num_output: 64
    bias_term: false
    pad: 0
    kernel_size: 1
    stride: 1
  }
}
layer {
  name: "bn2b_branch2a"
  type: "BatchNorm"
  bottom: "res2b_branch2a"
  top: "res2b_branch2a"
  param {
    name: "bn2b_branch2a_mean"
    lr_mult: 0
    decay_mult: 0
  }
  param {
    name: "bn2b_branch2a_variance"
    lr_mult: 0
    decay_mult: 0
  }
  param {
    name: "bn2b_branch2a_scale_factor"
    lr_mult: 0
    decay_mult: 0
  }
  batch_norm_param {
    use_global_stats: false
  }
}
layer {
  name: "scale2b_branch2a"
  type: "Scale"
  bottom: "res2b_branch2a"
  top: "res2b_branch2a"
  param {
    name: "scale2b_branch2a_alpha"
  }
  param {
    name: "scale2b_branch2a_beta"
  }
  scale_param {
    bias_term: true
  }
}
layer {
  name: "res2b_branch2a_relu"
  type: "ReLU"
  bottom: "res2b_branch2a"
  top: "res2b_branch2a"
}
layer {
  name: "res2b_branch2b"
  type: "Convolution"
  bottom: "res2b_branch2a"
  top: "res2b_branch2b"
  param {
    name: "res2b_branch2b_w"
    lr_mult: 1
  }
  convolution_param {
    num_output: 64
    bias_term: false
    pad: 1
    kernel_size: 3
    stride: 1
  }
}
layer {
  name: "bn2b_branch2b"
  type: "BatchNorm"
  bottom: "res2b_branch2b"
  top: "res2b_branch2b"
  param {
    name: "bn2b_branch2b_mean"
    lr_mult: 0
    decay_mult: 0
  }
  param {
    name: "bn2b_branch2b_variance"
    lr_mult: 0
    decay_mult: 0
  }
  param {
    name: "bn2b_branch2b_scale_factor"
    lr_mult: 0
    decay_mult: 0
  }
  batch_norm_param {
    use_global_stats: false
  }
}
layer {
  name: "scale2b_branch2b"
  type: "Scale"
  bottom: "res2b_branch2b"
  top: "res2b_branch2b"
  param {
    name: "scale2b_branch2b_alpha"
  }
  param {
    name: "scale2b_branch2b_beta"
  }
  scale_param {
    bias_term: true
  }
}
layer {
  name: "res2b_branch2b_relu"
  type: "ReLU"
  bottom: "res2b_branch2b"
  top: "res2b_branch2b"
}
layer {
  name: "res2b_branch2c"
  type: "Convolution"
  bottom: "res2b_branch2b"
  top: "res2b_branch2c"
  param {
    name: "res2b_branch2c_w"
    lr_mult: 1
  }
  convolution_param {
    num_output: 256
    bias_term: false
    pad: 0
    kernel_size: 1
    stride: 1
  }
}
layer {
  name: "bn2b_branch2c"
  type: "BatchNorm"
  bottom: "res2b_branch2c"
  top: "res2b_branch2c"
  param {
    name: "bn2b_branch2c_mean"
    lr_mult: 0
    decay_mult: 0
  }
  param {
    name: "bn2b_branch2c_variance"
    lr_mult: 0
    decay_mult: 0
  }
  param {
    name: "bn2b_branch2c_scale_factor"
    lr_mult: 0
    decay_mult: 0
  }
  batch_norm_param {
    use_global_stats: false
  }
}
layer {
  name: "scale2b_branch2c"
  type: "Scale"
  bottom: "res2b_branch2c"
  top: "res2b_branch2c"
  param {
    name: "scale2b_branch2c_alpha"
  }
  param {
    name: "scale2b_branch2c_beta"
  }
  scale_param {
    bias_term: true
  }
}
layer {
  name: "res2b"
  type: "Eltwise"
  bottom: "res2a"
  bottom: "res2b_branch2c"
  top: "res2b"
}
layer {
  name: "res2b_relu"
  type: "ReLU"
  bottom: "res2b"
  top: "res2b"
}
layer {
  name: "res2c_branch2a"
  type: "Convolution"
  bottom: "res2b"
  top: "res2c_branch2a"
  param {
    name: "res2c_branch2a_w"
    lr_mult: 1
  }
  convolution_param {
    num_output: 64
    bias_term: false
    pad: 0
    kernel_size: 1
    stride: 1
  }
}
layer {
  name: "bn2c_branch2a"
  type: "BatchNorm"
  bottom: "res2c_branch2a"
  top: "res2c_branch2a"
  param {
    name: "bn2c_branch2a_mean"
    lr_mult: 0
    decay_mult: 0
  }
  param {
    name: "bn2c_branch2a_variance"
    lr_mult: 0
    decay_mult: 0
  }
  param {
    name: "bn2c_branch2a_scale_factor"
    lr_mult: 0
    decay_mult: 0
  }
  batch_norm_param {
    use_global_stats: false
  }
}
layer {
  name: "scale2c_branch2a"
  type: "Scale"
  bottom: "res2c_branch2a"
  top: "res2c_branch2a"
  param {
    name: "scale2c_branch2a_alpha"
  }
  param {
    name: "scale2c_branch2a_beta"
  }
  scale_param {
    bias_term: true
  }
}
layer {
  name: "res2c_branch2a_relu"
  type: "ReLU"
  bottom: "res2c_branch2a"
  top: "res2c_branch2a"
}
layer {
  name: "res2c_branch2b"
  type: "Convolution"
  bottom: "res2c_branch2a"
  top: "res2c_branch2b"
  param {
    name: "res2c_branch2b_w"
    lr_mult: 1
  }
  convolution_param {
    num_output: 64
    bias_term: false
    pad: 1
    kernel_size: 3
    stride: 1
  }
}
layer {
  name: "bn2c_branch2b"
  type: "BatchNorm"
  bottom: "res2c_branch2b"
  top: "res2c_branch2b"
  param {
    name: "bn2c_branch2b_mean"
    lr_mult: 0
    decay_mult: 0
  }
  param {
    name: "bn2c_branch2b_variance"
    lr_mult: 0
    decay_mult: 0
  }
  param {
    name: "bn2c_branch2b_scale_factor"
    lr_mult: 0
    decay_mult: 0
  }
  batch_norm_param {
    use_global_stats: false
  }
}
layer {
  name: "scale2c_branch2b"
  type: "Scale"
  bottom: "res2c_branch2b"
  top: "res2c_branch2b"
  param {
    name: "scale2c_branch2b_alpha"
  }
  param {
    name: "scale2c_branch2b_beta"
  }
  scale_param {
    bias_term: true
  }
}
layer {
  name: "res2c_branch2b_relu"
  type: "ReLU"
  bottom: "res2c_branch2b"
  top: "res2c_branch2b"
}
layer {
  name: "res2c_branch2c"
  type: "Convolution"
  bottom: "res2c_branch2b"
  top: "res2c_branch2c"
  param {
    name: "res2c_branch2c_w"
    lr_mult: 1
  }
  convolution_param {
    num_output: 256
    bias_term: false
    pad: 0
    kernel_size: 1
    stride: 1
  }
}
layer {
  name: "bn2c_branch2c"
  type: "BatchNorm"
  bottom: "res2c_branch2c"
  top: "res2c_branch2c"
  param {
    name: "bn2c_branch2c_mean"
    lr_mult: 0
    decay_mult: 0
  }
  param {
    name: "bn2c_branch2c_variance"
    lr_mult: 0
    decay_mult: 0
  }
  param {
    name: "bn2c_branch2c_scale_factor"
    lr_mult: 0
    decay_mult: 0
  }
  batch_norm_param {
    use_global_stats: false
  }
}
layer {
  name: "scale2c_branch2c"
  type: "Scale"
  bottom: "res2c_branch2c"
  top: "res2c_branch2c"
  param {
    name: "scale2c_branch2c_alpha"
  }
  param {
    name: "scale2c_branch2c_beta"
  }
  scale_param {
    bias_term: true
  }
}
layer {
  name: "res2c"
  type: "Eltwise"
  bottom: "res2b"
  bottom: "res2c_branch2c"
  top: "res2c"
}
layer {
  name: "res2c_relu"
  type: "ReLU"
  bottom: "res2c"
  top: "res2c"
}
layer {
  name: "res3a_branch1"
  type: "Convolution"
  bottom: "res2c"
  top: "res3a_branch1"
  param {
    name: "res3a_branch1_w"
    lr_mult: 1
  }
  convolution_param {
    num_output: 512
    bias_term: false
    pad: 0
    kernel_size: 1
    stride: 2
  }
}
layer {
  name: "bn3a_branch1"
  type: "BatchNorm"
  bottom: "res3a_branch1"
  top: "res3a_branch1"
  param {
    name: "bn3a_branch1_mean"
    lr_mult: 0
    decay_mult: 0
  }
  param {
    name: "bn3a_branch1_variance"
    lr_mult: 0
    decay_mult: 0
  }
  param {
    name: "bn3a_branch1_scale_factor"
    lr_mult: 0
    decay_mult: 0
  }
  batch_norm_param {
    use_global_stats: false
  }
}
layer {
  name: "scale3a_branch1"
  type: "Scale"
  bottom: "res3a_branch1"
  top: "res3a_branch1"
  param {
    name: "scale3a_branch1_alpha"
  }
  param {
    name: "scale3a_branch1_beta"
  }
  scale_param {
    bias_term: true
  }
}
layer {
  name: "res3a_branch2a"
  type: "Convolution"
  bottom: "res2c"
  top: "res3a_branch2a"
  param {
    name: "res3a_branch2a_w"
    lr_mult: 1
  }
  convolution_param {
    num_output: 128
    bias_term: false
    pad: 0
    kernel_size: 1
    stride: 2
  }
}
layer {
  name: "bn3a_branch2a"
  type: "BatchNorm"
  bottom: "res3a_branch2a"
  top: "res3a_branch2a"
  param {
    name: "bn3a_branch2a_mean"
    lr_mult: 0
    decay_mult: 0
  }
  param {
    name: "bn3a_branch2a_variance"
    lr_mult: 0
    decay_mult: 0
  }
  param {
    name: "bn3a_branch2a_scale_factor"
    lr_mult: 0
    decay_mult: 0
  }
  batch_norm_param {
    use_global_stats: false
  }
}
layer {
  name: "scale3a_branch2a"
  type: "Scale"
  bottom: "res3a_branch2a"
  top: "res3a_branch2a"
  param {
    name: "scale3a_branch2a_alpha"
  }
  param {
    name: "scale3a_branch2a_beta"
  }
  scale_param {
    bias_term: true
  }
}
layer {
  name: "res3a_branch2a_relu"
  type: "ReLU"
  bottom: "res3a_branch2a"
  top: "res3a_branch2a"
}
layer {
  name: "res3a_branch2b"
  type: "Convolution"
  bottom: "res3a_branch2a"
  top: "res3a_branch2b"
  param {
    name: "res3a_branch2b_w"
    lr_mult: 1
  }
  convolution_param {
    num_output: 128
    bias_term: false
    pad: 1
    kernel_size: 3
    stride: 1
  }
}
layer {
  name: "bn3a_branch2b"
  type: "BatchNorm"
  bottom: "res3a_branch2b"
  top: "res3a_branch2b"
  param {
    name: "bn3a_branch2b_mean"
    lr_mult: 0
    decay_mult: 0
  }
  param {
    name: "bn3a_branch2b_variance"
    lr_mult: 0
    decay_mult: 0
  }
  param {
    name: "bn3a_branch2b_scale_factor"
    lr_mult: 0
    decay_mult: 0
  }
  batch_norm_param {
    use_global_stats: false
  }
}
layer {
  name: "scale3a_branch2b"
  type: "Scale"
  bottom: "res3a_branch2b"
  top: "res3a_branch2b"
  param {
    name: "scale3a_branch2b_alpha"
  }
  param {
    name: "scale3a_branch2b_beta"
  }
  scale_param {
    bias_term: true
  }
}
layer {
  name: "res3a_branch2b_relu"
  type: "ReLU"
  bottom: "res3a_branch2b"
  top: "res3a_branch2b"
}
layer {
  name: "res3a_branch2c"
  type: "Convolution"
  bottom: "res3a_branch2b"
  top: "res3a_branch2c"
  param {
    name: "res3a_branch2c_w"
    lr_mult: 1
  }
  convolution_param {
    num_output: 512
    bias_term: false
    pad: 0
    kernel_size: 1
    stride: 1
  }
}
layer {
  name: "bn3a_branch2c"
  type: "BatchNorm"
  bottom: "res3a_branch2c"
  top: "res3a_branch2c"
  param {
    name: "bn3a_branch2c_mean"
    lr_mult: 0
    decay_mult: 0
  }
  param {
    name: "bn3a_branch2c_variance"
    lr_mult: 0
    decay_mult: 0
  }
  param {
    name: "bn3a_branch2c_scale_factor"
    lr_mult: 0
    decay_mult: 0
  }
  batch_norm_param {
    use_global_stats: false
  }
}
layer {
  name: "scale3a_branch2c"
  type: "Scale"
  bottom: "res3a_branch2c"
  top: "res3a_branch2c"
  param {
    name: "scale3a_branch2c_alpha"
  }
  param {
    name: "scale3a_branch2c_beta"
  }
  scale_param {
    bias_term: true
  }
}
layer {
  name: "res3a"
  type: "Eltwise"
  bottom: "res3a_branch1"
  bottom: "res3a_branch2c"
  top: "res3a"
}
layer {
  name: "res3a_relu"
  type: "ReLU"
  bottom: "res3a"
  top: "res3a"
}
layer {
  name: "res3b_branch2a"
  type: "Convolution"
  bottom: "res3a"
  top: "res3b_branch2a"
  param {
    name: "res3b_branch2a_w"
    lr_mult: 1
  }
  convolution_param {
    num_output: 128
    bias_term: false
    pad: 0
    kernel_size: 1
    stride: 1
  }
}
layer {
  name: "bn3b_branch2a"
  type: "BatchNorm"
  bottom: "res3b_branch2a"
  top: "res3b_branch2a"
  param {
    name: "bn3b_branch2a_mean"
    lr_mult: 0
    decay_mult: 0
  }
  param {
    name: "bn3b_branch2a_variance"
    lr_mult: 0
    decay_mult: 0
  }
  param {
    name: "bn3b_branch2a_scale_factor"
    lr_mult: 0
    decay_mult: 0
  }
  batch_norm_param {
    use_global_stats: false
  }
}
layer {
  name: "scale3b_branch2a"
  type: "Scale"
  bottom: "res3b_branch2a"
  top: "res3b_branch2a"
  param {
    name: "scale3b_branch2a_alpha"
  }
  param {
    name: "scale3b_branch2a_beta"
  }
  scale_param {
    bias_term: true
  }
}
layer {
  name: "res3b_branch2a_relu"
  type: "ReLU"
  bottom: "res3b_branch2a"
  top: "res3b_branch2a"
}
layer {
  name: "res3b_branch2b"
  type: "Convolution"
  bottom: "res3b_branch2a"
  top: "res3b_branch2b"
  param {
    name: "res3b_branch2b_w"
    lr_mult: 1
  }
  convolution_param {
    num_output: 128
    bias_term: false
    pad: 1
    kernel_size: 3
    stride: 1
  }
}
layer {
  name: "bn3b_branch2b"
  type: "BatchNorm"
  bottom: "res3b_branch2b"
  top: "res3b_branch2b"
  param {
    name: "bn3b_branch2b_mean"
    lr_mult: 0
    decay_mult: 0
  }
  param {
    name: "bn3b_branch2b_variance"
    lr_mult: 0
    decay_mult: 0
  }
  param {
    name: "bn3b_branch2b_scale_factor"
    lr_mult: 0
    decay_mult: 0
  }
  batch_norm_param {
    use_global_stats: false
  }
}
layer {
  name: "scale3b_branch2b"
  type: "Scale"
  bottom: "res3b_branch2b"
  top: "res3b_branch2b"
  param {
    name: "scale3b_branch2b_alpha"
  }
  param {
    name: "scale3b_branch2b_beta"
  }
  scale_param {
    bias_term: true
  }
}
layer {
  name: "res3b_branch2b_relu"
  type: "ReLU"
  bottom: "res3b_branch2b"
  top: "res3b_branch2b"
}
layer {
  name: "res3b_branch2c"
  type: "Convolution"
  bottom: "res3b_branch2b"
  top: "res3b_branch2c"
  param {
    name: "res3b_branch2c_w"
    lr_mult: 1
  }
  convolution_param {
    num_output: 512
    bias_term: false
    pad: 0
    kernel_size: 1
    stride: 1
  }
}
layer {
  name: "bn3b_branch2c"
  type: "BatchNorm"
  bottom: "res3b_branch2c"
  top: "res3b_branch2c"
  param {
    name: "bn3b_branch2c_mean"
    lr_mult: 0
    decay_mult: 0
  }
  param {
    name: "bn3b_branch2c_variance"
    lr_mult: 0
    decay_mult: 0
  }
  param {
    name: "bn3b_branch2c_scale_factor"
    lr_mult: 0
    decay_mult: 0
  }
  batch_norm_param {
    use_global_stats: false
  }
}
layer {
  name: "scale3b_branch2c"
  type: "Scale"
  bottom: "res3b_branch2c"
  top: "res3b_branch2c"
  param {
    name: "scale3b_branch2c_alpha"
  }
  param {
    name: "scale3b_branch2c_beta"
  }
  scale_param {
    bias_term: true
  }
}
layer {
  name: "res3b"
  type: "Eltwise"
  bottom: "res3a"
  bottom: "res3b_branch2c"
  top: "res3b"
}
layer {
  name: "res3b_relu"
  type: "ReLU"
  bottom: "res3b"
  top: "res3b"
}
layer {
  name: "res3c_branch2a"
  type: "Convolution"
  bottom: "res3b"
  top: "res3c_branch2a"
  param {
    name: "res3c_branch2a_w"
    lr_mult: 1
  }
  convolution_param {
    num_output: 128
    bias_term: false
    pad: 0
    kernel_size: 1
    stride: 1
  }
}
layer {
  name: "bn3c_branch2a"
  type: "BatchNorm"
  bottom: "res3c_branch2a"
  top: "res3c_branch2a"
  param {
    name: "bn3c_branch2a_mean"
    lr_mult: 0
    decay_mult: 0
  }
  param {
    name: "bn3c_branch2a_variance"
    lr_mult: 0
    decay_mult: 0
  }
  param {
    name: "bn3c_branch2a_scale_factor"
    lr_mult: 0
    decay_mult: 0
  }
  batch_norm_param {
    use_global_stats: false
  }
}
layer {
  name: "scale3c_branch2a"
  type: "Scale"
  bottom: "res3c_branch2a"
  top: "res3c_branch2a"
  param {
    name: "scale3c_branch2a_alpha"
  }
  param {
    name: "scale3c_branch2a_beta"
  }
  scale_param {
    bias_term: true
  }
}
layer {
  name: "res3c_branch2a_relu"
  type: "ReLU"
  bottom: "res3c_branch2a"
  top: "res3c_branch2a"
}
layer {
  name: "res3c_branch2b"
  type: "Convolution"
  bottom: "res3c_branch2a"
  top: "res3c_branch2b"
  param {
    name: "res3c_branch2b_w"
    lr_mult: 1
  }
  convolution_param {
    num_output: 128
    bias_term: false
    pad: 1
    kernel_size: 3
    stride: 1
  }
}
layer {
  name: "bn3c_branch2b"
  type: "BatchNorm"
  bottom: "res3c_branch2b"
  top: "res3c_branch2b"
  param {
    name: "bn3c_branch2b_mean"
    lr_mult: 0
    decay_mult: 0
  }
  param {
    name: "bn3c_branch2b_variance"
    lr_mult: 0
    decay_mult: 0
  }
  param {
    name: "bn3c_branch2b_scale_factor"
    lr_mult: 0
    decay_mult: 0
  }
  batch_norm_param {
    use_global_stats: false
  }
}
layer {
  name: "scale3c_branch2b"
  type: "Scale"
  bottom: "res3c_branch2b"
  top: "res3c_branch2b"
  param {
    name: "scale3c_branch2b_alpha"
  }
  param {
    name: "scale3c_branch2b_beta"
  }
  scale_param {
    bias_term: true
  }
}
layer {
  name: "res3c_branch2b_relu"
  type: "ReLU"
  bottom: "res3c_branch2b"
  top: "res3c_branch2b"
}
layer {
  name: "res3c_branch2c"
  type: "Convolution"
  bottom: "res3c_branch2b"
  top: "res3c_branch2c"
  param {
    name: "res3c_branch2c_w"
    lr_mult: 1
  }
  convolution_param {
    num_output: 512
    bias_term: false
    pad: 0
    kernel_size: 1
    stride: 1
  }
}
layer {
  name: "bn3c_branch2c"
  type: "BatchNorm"
  bottom: "res3c_branch2c"
  top: "res3c_branch2c"
  param {
    name: "bn3c_branch2c_mean"
    lr_mult: 0
    decay_mult: 0
  }
  param {
    name: "bn3c_branch2c_variance"
    lr_mult: 0
    decay_mult: 0
  }
  param {
    name: "bn3c_branch2c_scale_factor"
    lr_mult: 0
    decay_mult: 0
  }
  batch_norm_param {
    use_global_stats: false
  }
}
layer {
  name: "scale3c_branch2c"
  type: "Scale"
  bottom: "res3c_branch2c"
  top: "res3c_branch2c"
  param {
    name: "scale3c_branch2c_alpha"
  }
  param {
    name: "scale3c_branch2c_beta"
  }
  scale_param {
    bias_term: true
  }
}
layer {
  name: "res3c"
  type: "Eltwise"
  bottom: "res3b"
  bottom: "res3c_branch2c"
  top: "res3c"
}
layer {
  name: "res3c_relu"
  type: "ReLU"
  bottom: "res3c"
  top: "res3c"
}
layer {
  name: "res3d_branch2a"
  type: "Convolution"
  bottom: "res3c"
  top: "res3d_branch2a"
  param {
    name: "res3d_branch2a_w"
    lr_mult: 1
  }
  convolution_param {
    num_output: 128
    bias_term: false
    pad: 0
    kernel_size: 1
    stride: 1
  }
}
layer {
  name: "bn3d_branch2a"
  type: "BatchNorm"
  bottom: "res3d_branch2a"
  top: "res3d_branch2a"
  param {
    name: "bn3d_branch2a_mean"
    lr_mult: 0
    decay_mult: 0
  }
  param {
    name: "bn3d_branch2a_variance"
    lr_mult: 0
    decay_mult: 0
  }
  param {
    name: "bn3d_branch2a_scale_factor"
    lr_mult: 0
    decay_mult: 0
  }
  batch_norm_param {
    use_global_stats: false
  }
}
layer {
  name: "scale3d_branch2a"
  type: "Scale"
  bottom: "res3d_branch2a"
  top: "res3d_branch2a"
  param {
    name: "scale3d_branch2a_alpha"
  }
  param {
    name: "scale3d_branch2a_beta"
  }
  scale_param {
    bias_term: true
  }
}
layer {
  name: "res3d_branch2a_relu"
  type: "ReLU"
  bottom: "res3d_branch2a"
  top: "res3d_branch2a"
}
layer {
  name: "res3d_branch2b"
  type: "Convolution"
  bottom: "res3d_branch2a"
  top: "res3d_branch2b"
  param {
    name: "res3d_branch2b_w"
    lr_mult: 1
  }
  convolution_param {
    num_output: 128
    bias_term: false
    pad: 1
    kernel_size: 3
    stride: 1
  }
}
layer {
  name: "bn3d_branch2b"
  type: "BatchNorm"
  bottom: "res3d_branch2b"
  top: "res3d_branch2b"
  param {
    name: "bn3d_branch2b_mean"
    lr_mult: 0
    decay_mult: 0
  }
  param {
    name: "bn3d_branch2b_variance"
    lr_mult: 0
    decay_mult: 0
  }
  param {
    name: "bn3d_branch2b_scale_factor"
    lr_mult: 0
    decay_mult: 0
  }
  batch_norm_param {
    use_global_stats: false
  }
}
layer {
  name: "scale3d_branch2b"
  type: "Scale"
  bottom: "res3d_branch2b"
  top: "res3d_branch2b"
  param {
    name: "scale3d_branch2b_alpha"
  }
  param {
    name: "scale3d_branch2b_beta"
  }
  scale_param {
    bias_term: true
  }
}
layer {
  name: "res3d_branch2b_relu"
  type: "ReLU"
  bottom: "res3d_branch2b"
  top: "res3d_branch2b"
}
layer {
  name: "res3d_branch2c"
  type: "Convolution"
  bottom: "res3d_branch2b"
  top: "res3d_branch2c"
  param {
    name: "res3d_branch2c_w"
    lr_mult: 1
  }
  convolution_param {
    num_output: 512
    bias_term: false
    pad: 0
    kernel_size: 1
    stride: 1
  }
}
layer {
  name: "bn3d_branch2c"
  type: "BatchNorm"
  bottom: "res3d_branch2c"
  top: "res3d_branch2c"
  param {
    name: "bn3d_branch2c_mean"
    lr_mult: 0
    decay_mult: 0
  }
  param {
    name: "bn3d_branch2c_variance"
    lr_mult: 0
    decay_mult: 0
  }
  param {
    name: "bn3d_branch2c_scale_factor"
    lr_mult: 0
    decay_mult: 0
  }
  batch_norm_param {
    use_global_stats: false
  }
}
layer {
  name: "scale3d_branch2c"
  type: "Scale"
  bottom: "res3d_branch2c"
  top: "res3d_branch2c"
  param {
    name: "scale3d_branch2c_alpha"
  }
  param {
    name: "scale3d_branch2c_beta"
  }
  scale_param {
    bias_term: true
  }
}
layer {
  name: "res3d"
  type: "Eltwise"
  bottom: "res3c"
  bottom: "res3d_branch2c"
  top: "res3d"
}
layer {
  name: "res3d_relu"
  type: "ReLU"
  bottom: "res3d"
  top: "res3d"
}
layer {
  name: "res4a_branch1"
  type: "Convolution"
  bottom: "res3d"
  top: "res4a_branch1"
  param {
    name: "res4a_branch1_w"
    lr_mult: 1
  }
  convolution_param {
    num_output: 1024
    bias_term: false
    pad: 0
    kernel_size: 1
    stride: 2
  }
}
layer {
  name: "bn4a_branch1"
  type: "BatchNorm"
  bottom: "res4a_branch1"
  top: "res4a_branch1"
  param {
    name: "bn4a_branch1_mean"
    lr_mult: 0
    decay_mult: 0
  }
  param {
    name: "bn4a_branch1_variance"
    lr_mult: 0
    decay_mult: 0
  }
  param {
    name: "bn4a_branch1_scale_factor"
    lr_mult: 0
    decay_mult: 0
  }
  batch_norm_param {
    use_global_stats: false
  }
}
layer {
  name: "scale4a_branch1"
  type: "Scale"
  bottom: "res4a_branch1"
  top: "res4a_branch1"
  param {
    name: "scale4a_branch1_alpha"
  }
  param {
    name: "scale4a_branch1_beta"
  }
  scale_param {
    bias_term: true
  }
}
layer {
  name: "res4a_branch2a"
  type: "Convolution"
  bottom: "res3d"
  top: "res4a_branch2a"
  param {
    name: "res4a_branch2a_w"
    lr_mult: 1
  }
  convolution_param {
    num_output: 256
    bias_term: false
    pad: 0
    kernel_size: 1
    stride: 2
  }
}
layer {
  name: "bn4a_branch2a"
  type: "BatchNorm"
  bottom: "res4a_branch2a"
  top: "res4a_branch2a"
  param {
    name: "bn4a_branch2a_mean"
    lr_mult: 0
    decay_mult: 0
  }
  param {
    name: "bn4a_branch2a_variance"
    lr_mult: 0
    decay_mult: 0
  }
  param {
    name: "bn4a_branch2a_scale_factor"
    lr_mult: 0
    decay_mult: 0
  }
  batch_norm_param {
    use_global_stats: false
  }
}
layer {
  name: "scale4a_branch2a"
  type: "Scale"
  bottom: "res4a_branch2a"
  top: "res4a_branch2a"
  param {
    name: "scale4a_branch2a_alpha"
  }
  param {
    name: "scale4a_branch2a_beta"
  }
  scale_param {
    bias_term: true
  }
}
layer {
  name: "res4a_branch2a_relu"
  type: "ReLU"
  bottom: "res4a_branch2a"
  top: "res4a_branch2a"
}
layer {
  name: "res4a_branch2b"
  type: "Convolution"
  bottom: "res4a_branch2a"
  top: "res4a_branch2b"
  param {
    name: "res4a_branch2b_w"
    lr_mult: 1
  }
  convolution_param {
    num_output: 256
    bias_term: false
    pad: 1
    kernel_size: 3
    stride: 1
  }
}
layer {
  name: "bn4a_branch2b"
  type: "BatchNorm"
  bottom: "res4a_branch2b"
  top: "res4a_branch2b"
  param {
    name: "bn4a_branch2b_mean"
    lr_mult: 0
    decay_mult: 0
  }
  param {
    name: "bn4a_branch2b_variance"
    lr_mult: 0
    decay_mult: 0
  }
  param {
    name: "bn4a_branch2b_scale_factor"
    lr_mult: 0
    decay_mult: 0
  }
  batch_norm_param {
    use_global_stats: false
  }
}
layer {
  name: "scale4a_branch2b"
  type: "Scale"
  bottom: "res4a_branch2b"
  top: "res4a_branch2b"
  param {
    name: "scale4a_branch2b_alpha"
  }
  param {
    name: "scale4a_branch2b_beta"
  }
  scale_param {
    bias_term: true
  }
}
layer {
  name: "res4a_branch2b_relu"
  type: "ReLU"
  bottom: "res4a_branch2b"
  top: "res4a_branch2b"
}
layer {
  name: "res4a_branch2c"
  type: "Convolution"
  bottom: "res4a_branch2b"
  top: "res4a_branch2c"
  param {
    name: "res4a_branch2c_w"
    lr_mult: 1
  }
  convolution_param {
    num_output: 1024
    bias_term: false
    pad: 0
    kernel_size: 1
    stride: 1
  }
}
layer {
  name: "bn4a_branch2c"
  type: "BatchNorm"
  bottom: "res4a_branch2c"
  top: "res4a_branch2c"
  param {
    name: "bn4a_branch2c_mean"
    lr_mult: 0
    decay_mult: 0
  }
  param {
    name: "bn4a_branch2c_variance"
    lr_mult: 0
    decay_mult: 0
  }
  param {
    name: "bn4a_branch2c_scale_factor"
    lr_mult: 0
    decay_mult: 0
  }
  batch_norm_param {
    use_global_stats: false
  }
}
layer {
  name: "scale4a_branch2c"
  type: "Scale"
  bottom: "res4a_branch2c"
  top: "res4a_branch2c"
  param {
    name: "scale4a_branch2c_alpha"
  }
  param {
    name: "scale4a_branch2c_beta"
  }
  scale_param {
    bias_term: true
  }
}
layer {
  name: "res4a"
  type: "Eltwise"
  bottom: "res4a_branch1"
  bottom: "res4a_branch2c"
  top: "res4a"
}
layer {
  name: "res4a_relu"
  type: "ReLU"
  bottom: "res4a"
  top: "res4a"
}
layer {
  name: "res4b_branch2a"
  type: "Convolution"
  bottom: "res4a"
  top: "res4b_branch2a"
  param {
    name: "res4b_branch2a_w"
    lr_mult: 1
  }
  convolution_param {
    num_output: 256
    bias_term: false
    pad: 0
    kernel_size: 1
    stride: 1
  }
}
layer {
  name: "bn4b_branch2a"
  type: "BatchNorm"
  bottom: "res4b_branch2a"
  top: "res4b_branch2a"
  param {
    name: "bn4b_branch2a_mean"
    lr_mult: 0
    decay_mult: 0
  }
  param {
    name: "bn4b_branch2a_variance"
    lr_mult: 0
    decay_mult: 0
  }
  param {
    name: "bn4b_branch2a_scale_factor"
    lr_mult: 0
    decay_mult:
I0312 10:34:30.583403  8753 layer_factory.hpp:77] Creating layer data
I0312 10:34:30.739851  8753 net.cpp:84] Creating Layer data
I0312 10:34:30.739889  8753 net.cpp:380] data -> pairs
I0312 10:34:30.741088  8753 net.cpp:122] Setting up data
I0312 10:34:30.741109  8753 net.cpp:129] Top shape: 8 6 224 224 (2408448)
I0312 10:34:30.741114  8753 net.cpp:137] Memory required for data: 9633792
I0312 10:34:30.741122  8753 layer_factory.hpp:77] Creating layer slice
I0312 10:34:30.741138  8753 net.cpp:84] Creating Layer slice
I0312 10:34:30.741144  8753 net.cpp:406] slice <- pairs
I0312 10:34:30.741156  8753 net.cpp:380] slice -> data
I0312 10:34:30.741165  8753 net.cpp:380] slice -> data_p
I0312 10:34:30.741219  8753 net.cpp:122] Setting up slice
I0312 10:34:30.741227  8753 net.cpp:129] Top shape: 8 3 224 224 (1204224)
I0312 10:34:30.741232  8753 net.cpp:129] Top shape: 8 3 224 224 (1204224)
I0312 10:34:30.741236  8753 net.cpp:137] Memory required for data: 19267584
I0312 10:34:30.741257  8753 layer_factory.hpp:77] Creating layer conv1
I0312 10:34:30.741291  8753 net.cpp:84] Creating Layer conv1
I0312 10:34:30.741295  8753 net.cpp:406] conv1 <- data
I0312 10:34:30.741303  8753 net.cpp:380] conv1 -> conv1
I0312 10:34:31.319010  8753 net.cpp:122] Setting up conv1
I0312 10:34:31.319042  8753 net.cpp:129] Top shape: 8 64 112 112 (6422528)
I0312 10:34:31.319047  8753 net.cpp:137] Memory required for data: 44957696
I0312 10:34:31.319066  8753 layer_factory.hpp:77] Creating layer bn_conv1
I0312 10:34:31.319079  8753 net.cpp:84] Creating Layer bn_conv1
I0312 10:34:31.319085  8753 net.cpp:406] bn_conv1 <- conv1
I0312 10:34:31.319092  8753 net.cpp:367] bn_conv1 -> conv1 (in-place)
I0312 10:34:31.319293  8753 net.cpp:122] Setting up bn_conv1
I0312 10:34:31.319303  8753 net.cpp:129] Top shape: 8 64 112 112 (6422528)
I0312 10:34:31.319314  8753 net.cpp:137] Memory required for data: 70647808
I0312 10:34:31.319327  8753 layer_factory.hpp:77] Creating layer scale_conv1
I0312 10:34:31.319337  8753 net.cpp:84] Creating Layer scale_conv1
I0312 10:34:31.319342  8753 net.cpp:406] scale_conv1 <- conv1
I0312 10:34:31.319350  8753 net.cpp:367] scale_conv1 -> conv1 (in-place)
I0312 10:34:31.319397  8753 layer_factory.hpp:77] Creating layer scale_conv1
I0312 10:34:31.319531  8753 net.cpp:122] Setting up scale_conv1
I0312 10:34:31.319540  8753 net.cpp:129] Top shape: 8 64 112 112 (6422528)
I0312 10:34:31.319545  8753 net.cpp:137] Memory required for data: 96337920
I0312 10:34:31.319553  8753 layer_factory.hpp:77] Creating layer conv1_relu
I0312 10:34:31.319561  8753 net.cpp:84] Creating Layer conv1_relu
I0312 10:34:31.319566  8753 net.cpp:406] conv1_relu <- conv1
I0312 10:34:31.319571  8753 net.cpp:367] conv1_relu -> conv1 (in-place)
I0312 10:34:31.319756  8753 net.cpp:122] Setting up conv1_relu
I0312 10:34:31.319766  8753 net.cpp:129] Top shape: 8 64 112 112 (6422528)
I0312 10:34:31.319772  8753 net.cpp:137] Memory required for data: 122028032
I0312 10:34:31.319775  8753 layer_factory.hpp:77] Creating layer pool1
I0312 10:34:31.319783  8753 net.cpp:84] Creating Layer pool1
I0312 10:34:31.319787  8753 net.cpp:406] pool1 <- conv1
I0312 10:34:31.319795  8753 net.cpp:380] pool1 -> pool1
I0312 10:34:31.319845  8753 net.cpp:122] Setting up pool1
I0312 10:34:31.319854  8753 net.cpp:129] Top shape: 8 64 56 56 (1605632)
I0312 10:34:31.319857  8753 net.cpp:137] Memory required for data: 128450560
I0312 10:34:31.319861  8753 layer_factory.hpp:77] Creating layer pool1_pool1_0_split
I0312 10:34:31.319872  8753 net.cpp:84] Creating Layer pool1_pool1_0_split
I0312 10:34:31.319876  8753 net.cpp:406] pool1_pool1_0_split <- pool1
I0312 10:34:31.319883  8753 net.cpp:380] pool1_pool1_0_split -> pool1_pool1_0_split_0
I0312 10:34:31.319891  8753 net.cpp:380] pool1_pool1_0_split -> pool1_pool1_0_split_1
I0312 10:34:31.319926  8753 net.cpp:122] Setting up pool1_pool1_0_split
I0312 10:34:31.319932  8753 net.cpp:129] Top shape: 8 64 56 56 (1605632)
I0312 10:34:31.319937  8753 net.cpp:129] Top shape: 8 64 56 56 (1605632)
I0312 10:34:31.319942  8753 net.cpp:137] Memory required for data: 141295616
I0312 10:34:31.319947  8753 layer_factory.hpp:77] Creating layer res2a_branch1
I0312 10:34:31.319958  8753 net.cpp:84] Creating Layer res2a_branch1
I0312 10:34:31.319962  8753 net.cpp:406] res2a_branch1 <- pool1_pool1_0_split_0
I0312 10:34:31.319969  8753 net.cpp:380] res2a_branch1 -> res2a_branch1
I0312 10:34:31.321005  8753 net.cpp:122] Setting up res2a_branch1
I0312 10:34:31.321022  8753 net.cpp:129] Top shape: 8 256 56 56 (6422528)
I0312 10:34:31.321027  8753 net.cpp:137] Memory required for data: 166985728
I0312 10:34:31.321034  8753 layer_factory.hpp:77] Creating layer bn2a_branch1
I0312 10:34:31.321043  8753 net.cpp:84] Creating Layer bn2a_branch1
I0312 10:34:31.321048  8753 net.cpp:406] bn2a_branch1 <- res2a_branch1
I0312 10:34:31.321054  8753 net.cpp:367] bn2a_branch1 -> res2a_branch1 (in-place)
I0312 10:34:31.322178  8753 net.cpp:122] Setting up bn2a_branch1
I0312 10:34:31.322194  8753 net.cpp:129] Top shape: 8 256 56 56 (6422528)
I0312 10:34:31.322199  8753 net.cpp:137] Memory required for data: 192675840
I0312 10:34:31.322212  8753 layer_factory.hpp:77] Creating layer scale2a_branch1
I0312 10:34:31.322221  8753 net.cpp:84] Creating Layer scale2a_branch1
I0312 10:34:31.322227  8753 net.cpp:406] scale2a_branch1 <- res2a_branch1
I0312 10:34:31.322235  8753 net.cpp:367] scale2a_branch1 -> res2a_branch1 (in-place)
I0312 10:34:31.322275  8753 layer_factory.hpp:77] Creating layer scale2a_branch1
I0312 10:34:31.322374  8753 net.cpp:122] Setting up scale2a_branch1
I0312 10:34:31.322382  8753 net.cpp:129] Top shape: 8 256 56 56 (6422528)
I0312 10:34:31.322386  8753 net.cpp:137] Memory required for data: 218365952
I0312 10:34:31.322394  8753 layer_factory.hpp:77] Creating layer res2a_branch2a
I0312 10:34:31.322403  8753 net.cpp:84] Creating Layer res2a_branch2a
I0312 10:34:31.322408  8753 net.cpp:406] res2a_branch2a <- pool1_pool1_0_split_1
I0312 10:34:31.322422  8753 net.cpp:380] res2a_branch2a -> res2a_branch2a
I0312 10:34:31.323424  8753 net.cpp:122] Setting up res2a_branch2a
I0312 10:34:31.323441  8753 net.cpp:129] Top shape: 8 64 56 56 (1605632)
I0312 10:34:31.323446  8753 net.cpp:137] Memory required for data: 224788480
I0312 10:34:31.323452  8753 layer_factory.hpp:77] Creating layer bn2a_branch2a
I0312 10:34:31.323460  8753 net.cpp:84] Creating Layer bn2a_branch2a
I0312 10:34:31.323465  8753 net.cpp:406] bn2a_branch2a <- res2a_branch2a
I0312 10:34:31.323474  8753 net.cpp:367] bn2a_branch2a -> res2a_branch2a (in-place)
I0312 10:34:31.323644  8753 net.cpp:122] Setting up bn2a_branch2a
I0312 10:34:31.323652  8753 net.cpp:129] Top shape: 8 64 56 56 (1605632)
I0312 10:34:31.323657  8753 net.cpp:137] Memory required for data: 231211008
I0312 10:34:31.323668  8753 layer_factory.hpp:77] Creating layer scale2a_branch2a
I0312 10:34:31.323678  8753 net.cpp:84] Creating Layer scale2a_branch2a
I0312 10:34:31.323681  8753 net.cpp:406] scale2a_branch2a <- res2a_branch2a
I0312 10:34:31.323688  8753 net.cpp:367] scale2a_branch2a -> res2a_branch2a (in-place)
I0312 10:34:31.323724  8753 layer_factory.hpp:77] Creating layer scale2a_branch2a
I0312 10:34:31.323829  8753 net.cpp:122] Setting up scale2a_branch2a
I0312 10:34:31.323837  8753 net.cpp:129] Top shape: 8 64 56 56 (1605632)
I0312 10:34:31.323840  8753 net.cpp:137] Memory required for data: 237633536
I0312 10:34:31.323849  8753 layer_factory.hpp:77] Creating layer res2a_branch2a_relu
I0312 10:34:31.323856  8753 net.cpp:84] Creating Layer res2a_branch2a_relu
I0312 10:34:31.323860  8753 net.cpp:406] res2a_branch2a_relu <- res2a_branch2a
I0312 10:34:31.323868  8753 net.cpp:367] res2a_branch2a_relu -> res2a_branch2a (in-place)
I0312 10:34:31.324038  8753 net.cpp:122] Setting up res2a_branch2a_relu
I0312 10:34:31.324046  8753 net.cpp:129] Top shape: 8 64 56 56 (1605632)
I0312 10:34:31.324050  8753 net.cpp:137] Memory required for data: 244056064
I0312 10:34:31.324055  8753 layer_factory.hpp:77] Creating layer res2a_branch2b
I0312 10:34:31.324064  8753 net.cpp:84] Creating Layer res2a_branch2b
I0312 10:34:31.324069  8753 net.cpp:406] res2a_branch2b <- res2a_branch2a
I0312 10:34:31.324074  8753 net.cpp:380] res2a_branch2b -> res2a_branch2b
I0312 10:34:31.326354  8753 net.cpp:122] Setting up res2a_branch2b
I0312 10:34:31.326375  8753 net.cpp:129] Top shape: 8 64 56 56 (1605632)
I0312 10:34:31.326378  8753 net.cpp:137] Memory required for data: 250478592
I0312 10:34:31.326386  8753 layer_factory.hpp:77] Creating layer bn2a_branch2b
I0312 10:34:31.326400  8753 net.cpp:84] Creating Layer bn2a_branch2b
I0312 10:34:31.326405  8753 net.cpp:406] bn2a_branch2b <- res2a_branch2b
I0312 10:34:31.326411  8753 net.cpp:367] bn2a_branch2b -> res2a_branch2b (in-place)
I0312 10:34:31.326592  8753 net.cpp:122] Setting up bn2a_branch2b
I0312 10:34:31.326601  8753 net.cpp:129] Top shape: 8 64 56 56 (1605632)
I0312 10:34:31.326604  8753 net.cpp:137] Memory required for data: 256901120
I0312 10:34:31.326616  8753 layer_factory.hpp:77] Creating layer scale2a_branch2b
I0312 10:34:31.326624  8753 net.cpp:84] Creating Layer scale2a_branch2b
I0312 10:34:31.326628  8753 net.cpp:406] scale2a_branch2b <- res2a_branch2b
I0312 10:34:31.326634  8753 net.cpp:367] scale2a_branch2b -> res2a_branch2b (in-place)
I0312 10:34:31.326671  8753 layer_factory.hpp:77] Creating layer scale2a_branch2b
I0312 10:34:31.326778  8753 net.cpp:122] Setting up scale2a_branch2b
I0312 10:34:31.326786  8753 net.cpp:129] Top shape: 8 64 56 56 (1605632)
I0312 10:34:31.326789  8753 net.cpp:137] Memory required for data: 263323648
I0312 10:34:31.326797  8753 layer_factory.hpp:77] Creating layer res2a_branch2b_relu
I0312 10:34:31.326803  8753 net.cpp:84] Creating Layer res2a_branch2b_relu
I0312 10:34:31.326807  8753 net.cpp:406] res2a_branch2b_relu <- res2a_branch2b
I0312 10:34:31.326814  8753 net.cpp:367] res2a_branch2b_relu -> res2a_branch2b (in-place)
I0312 10:34:31.326990  8753 net.cpp:122] Setting up res2a_branch2b_relu
I0312 10:34:31.327006  8753 net.cpp:129] Top shape: 8 64 56 56 (1605632)
I0312 10:34:31.327010  8753 net.cpp:137] Memory required for data: 269746176
I0312 10:34:31.327014  8753 layer_factory.hpp:77] Creating layer res2a_branch2c
I0312 10:34:31.327024  8753 net.cpp:84] Creating Layer res2a_branch2c
I0312 10:34:31.327028  8753 net.cpp:406] res2a_branch2c <- res2a_branch2b
I0312 10:34:31.327035  8753 net.cpp:380] res2a_branch2c -> res2a_branch2c
I0312 10:34:31.328022  8753 net.cpp:122] Setting up res2a_branch2c
I0312 10:34:31.328037  8753 net.cpp:129] Top shape: 8 256 56 56 (6422528)
I0312 10:34:31.328042  8753 net.cpp:137] Memory required for data: 295436288
I0312 10:34:31.328052  8753 layer_factory.hpp:77] Creating layer bn2a_branch2c
I0312 10:34:31.328061  8753 net.cpp:84] Creating Layer bn2a_branch2c
I0312 10:34:31.328065  8753 net.cpp:406] bn2a_branch2c <- res2a_branch2c
I0312 10:34:31.328073  8753 net.cpp:367] bn2a_branch2c -> res2a_branch2c (in-place)
I0312 10:34:31.328243  8753 net.cpp:122] Setting up bn2a_branch2c
I0312 10:34:31.328249  8753 net.cpp:129] Top shape: 8 256 56 56 (6422528)
I0312 10:34:31.328253  8753 net.cpp:137] Memory required for data: 321126400
I0312 10:34:31.328261  8753 layer_factory.hpp:77] Creating layer scale2a_branch2c
I0312 10:34:31.328269  8753 net.cpp:84] Creating Layer scale2a_branch2c
I0312 10:34:31.328274  8753 net.cpp:406] scale2a_branch2c <- res2a_branch2c
I0312 10:34:31.328279  8753 net.cpp:367] scale2a_branch2c -> res2a_branch2c (in-place)
I0312 10:34:31.328315  8753 layer_factory.hpp:77] Creating layer scale2a_branch2c
I0312 10:34:31.328418  8753 net.cpp:122] Setting up scale2a_branch2c
I0312 10:34:31.328425  8753 net.cpp:129] Top shape: 8 256 56 56 (6422528)
I0312 10:34:31.328429  8753 net.cpp:137] Memory required for data: 346816512
I0312 10:34:31.328435  8753 layer_factory.hpp:77] Creating layer res2a
I0312 10:34:31.328449  8753 net.cpp:84] Creating Layer res2a
I0312 10:34:31.328454  8753 net.cpp:406] res2a <- res2a_branch1
I0312 10:34:31.328459  8753 net.cpp:406] res2a <- res2a_branch2c
I0312 10:34:31.328465  8753 net.cpp:380] res2a -> res2a
I0312 10:34:31.328490  8753 net.cpp:122] Setting up res2a
I0312 10:34:31.328495  8753 net.cpp:129] Top shape: 8 256 56 56 (6422528)
I0312 10:34:31.328500  8753 net.cpp:137] Memory required for data: 372506624
I0312 10:34:31.328503  8753 layer_factory.hpp:77] Creating layer res2a_relu
I0312 10:34:31.328510  8753 net.cpp:84] Creating Layer res2a_relu
I0312 10:34:31.328513  8753 net.cpp:406] res2a_relu <- res2a
I0312 10:34:31.328518  8753 net.cpp:367] res2a_relu -> res2a (in-place)
I0312 10:34:31.328689  8753 net.cpp:122] Setting up res2a_relu
I0312 10:34:31.328698  8753 net.cpp:129] Top shape: 8 256 56 56 (6422528)
I0312 10:34:31.328702  8753 net.cpp:137] Memory required for data: 398196736
I0312 10:34:31.328708  8753 layer_factory.hpp:77] Creating layer res2a_res2a_relu_0_split
I0312 10:34:31.328716  8753 net.cpp:84] Creating Layer res2a_res2a_relu_0_split
I0312 10:34:31.328719  8753 net.cpp:406] res2a_res2a_relu_0_split <- res2a
I0312 10:34:31.328727  8753 net.cpp:380] res2a_res2a_relu_0_split -> res2a_res2a_relu_0_split_0
I0312 10:34:31.328735  8753 net.cpp:380] res2a_res2a_relu_0_split -> res2a_res2a_relu_0_split_1
I0312 10:34:31.328770  8753 net.cpp:122] Setting up res2a_res2a_relu_0_split
I0312 10:34:31.328778  8753 net.cpp:129] Top shape: 8 256 56 56 (6422528)
I0312 10:34:31.328783  8753 net.cpp:129] Top shape: 8 256 56 56 (6422528)
I0312 10:34:31.328785  8753 net.cpp:137] Memory required for data: 449576960
I0312 10:34:31.328789  8753 layer_factory.hpp:77] Creating layer res2b_branch2a
I0312 10:34:31.328799  8753 net.cpp:84] Creating Layer res2b_branch2a
I0312 10:34:31.328802  8753 net.cpp:406] res2b_branch2a <- res2a_res2a_relu_0_split_0
I0312 10:34:31.328809  8753 net.cpp:380] res2b_branch2a -> res2b_branch2a
I0312 10:34:31.329835  8753 net.cpp:122] Setting up res2b_branch2a
I0312 10:34:31.329852  8753 net.cpp:129] Top shape: 8 64 56 56 (1605632)
I0312 10:34:31.329856  8753 net.cpp:137] Memory required for data: 455999488
I0312 10:34:31.329866  8753 layer_factory.hpp:77] Creating layer bn2b_branch2a
I0312 10:34:31.329881  8753 net.cpp:84] Creating Layer bn2b_branch2a
I0312 10:34:31.329886  8753 net.cpp:406] bn2b_branch2a <- res2b_branch2a
I0312 10:34:31.329895  8753 net.cpp:367] bn2b_branch2a -> res2b_branch2a (in-place)
I0312 10:34:31.330076  8753 net.cpp:122] Setting up bn2b_branch2a
I0312 10:34:31.330083  8753 net.cpp:129] Top shape: 8 64 56 56 (1605632)
I0312 10:34:31.330088  8753 net.cpp:137] Memory required for data: 462422016
I0312 10:34:31.330104  8753 layer_factory.hpp:77] Creating layer scale2b_branch2a
I0312 10:34:31.330113  8753 net.cpp:84] Creating Layer scale2b_branch2a
I0312 10:34:31.330117  8753 net.cpp:406] scale2b_branch2a <- res2b_branch2a
I0312 10:34:31.330124  8753 net.cpp:367] scale2b_branch2a -> res2b_branch2a (in-place)
I0312 10:34:31.330160  8753 layer_factory.hpp:77] Creating layer scale2b_branch2a
I0312 10:34:31.330267  8753 net.cpp:122] Setting up scale2b_branch2a
I0312 10:34:31.330274  8753 net.cpp:129] Top shape: 8 64 56 56 (1605632)
I0312 10:34:31.330278  8753 net.cpp:137] Memory required for data: 468844544
I0312 10:34:31.330286  8753 layer_factory.hpp:77] Creating layer res2b_branch2a_relu
I0312 10:34:31.330292  8753 net.cpp:84] Creating Layer res2b_branch2a_relu
I0312 10:34:31.330296  8753 net.cpp:406] res2b_branch2a_relu <- res2b_branch2a
I0312 10:34:31.330303  8753 net.cpp:367] res2b_branch2a_relu -> res2b_branch2a (in-place)
I0312 10:34:31.330471  8753 net.cpp:122] Setting up res2b_branch2a_relu
I0312 10:34:31.330480  8753 net.cpp:129] Top shape: 8 64 56 56 (1605632)
I0312 10:34:31.330484  8753 net.cpp:137] Memory required for data: 475267072
I0312 10:34:31.330489  8753 layer_factory.hpp:77] Creating layer res2b_branch2b
I0312 10:34:31.330498  8753 net.cpp:84] Creating Layer res2b_branch2b
I0312 10:34:31.330502  8753 net.cpp:406] res2b_branch2b <- res2b_branch2a
I0312 10:34:31.330508  8753 net.cpp:380] res2b_branch2b -> res2b_branch2b
I0312 10:34:31.331502  8753 net.cpp:122] Setting up res2b_branch2b
I0312 10:34:31.331517  8753 net.cpp:129] Top shape: 8 64 56 56 (1605632)
I0312 10:34:31.331522  8753 net.cpp:137] Memory required for data: 481689600
I0312 10:34:31.331532  8753 layer_factory.hpp:77] Creating layer bn2b_branch2b
I0312 10:34:31.331547  8753 net.cpp:84] Creating Layer bn2b_branch2b
I0312 10:34:31.331552  8753 net.cpp:406] bn2b_branch2b <- res2b_branch2b
I0312 10:34:31.331560  8753 net.cpp:367] bn2b_branch2b -> res2b_branch2b (in-place)
I0312 10:34:31.331764  8753 net.cpp:122] Setting up bn2b_branch2b
I0312 10:34:31.331773  8753 net.cpp:129] Top shape: 8 64 56 56 (1605632)
I0312 10:34:31.331778  8753 net.cpp:137] Memory required for data: 488112128
I0312 10:34:31.331786  8753 layer_factory.hpp:77] Creating layer scale2b_branch2b
I0312 10:34:31.331794  8753 net.cpp:84] Creating Layer scale2b_branch2b
I0312 10:34:31.331799  8753 net.cpp:406] scale2b_branch2b <- res2b_branch2b
I0312 10:34:31.331804  8753 net.cpp:367] scale2b_branch2b -> res2b_branch2b (in-place)
I0312 10:34:31.331842  8753 layer_factory.hpp:77] Creating layer scale2b_branch2b
I0312 10:34:31.331974  8753 net.cpp:122] Setting up scale2b_branch2b
I0312 10:34:31.331993  8753 net.cpp:129] Top shape: 8 64 56 56 (1605632)
I0312 10:34:31.331997  8753 net.cpp:137] Memory required for data: 494534656
I0312 10:34:31.332005  8753 layer_factory.hpp:77] Creating layer res2b_branch2b_relu
I0312 10:34:31.332016  8753 net.cpp:84] Creating Layer res2b_branch2b_relu
I0312 10:34:31.332020  8753 net.cpp:406] res2b_branch2b_relu <- res2b_branch2b
I0312 10:34:31.332028  8753 net.cpp:367] res2b_branch2b_relu -> res2b_branch2b (in-place)
I0312 10:34:31.332497  8753 net.cpp:122] Setting up res2b_branch2b_relu
I0312 10:34:31.332511  8753 net.cpp:129] Top shape: 8 64 56 56 (1605632)
I0312 10:34:31.332516  8753 net.cpp:137] Memory required for data: 500957184
I0312 10:34:31.332522  8753 layer_factory.hpp:77] Creating layer res2b_branch2c
I0312 10:34:31.332532  8753 net.cpp:84] Creating Layer res2b_branch2c
I0312 10:34:31.332537  8753 net.cpp:406] res2b_branch2c <- res2b_branch2b
I0312 10:34:31.332551  8753 net.cpp:380] res2b_branch2c -> res2b_branch2c
I0312 10:34:31.337218  8753 net.cpp:122] Setting up res2b_branch2c
I0312 10:34:31.337236  8753 net.cpp:129] Top shape: 8 256 56 56 (6422528)
I0312 10:34:31.337240  8753 net.cpp:137] Memory required for data: 526647296
I0312 10:34:31.337249  8753 layer_factory.hpp:77] Creating layer bn2b_branch2c
I0312 10:34:31.337258  8753 net.cpp:84] Creating Layer bn2b_branch2c
I0312 10:34:31.337263  8753 net.cpp:406] bn2b_branch2c <- res2b_branch2c
I0312 10:34:31.337287  8753 net.cpp:367] bn2b_branch2c -> res2b_branch2c (in-place)
I0312 10:34:31.337474  8753 net.cpp:122] Setting up bn2b_branch2c
I0312 10:34:31.337482  8753 net.cpp:129] Top shape: 8 256 56 56 (6422528)
I0312 10:34:31.337486  8753 net.cpp:137] Memory required for data: 552337408
I0312 10:34:31.337494  8753 layer_factory.hpp:77] Creating layer scale2b_branch2c
I0312 10:34:31.337502  8753 net.cpp:84] Creating Layer scale2b_branch2c
I0312 10:34:31.337505  8753 net.cpp:406] scale2b_branch2c <- res2b_branch2c
I0312 10:34:31.337512  8753 net.cpp:367] scale2b_branch2c -> res2b_branch2c (in-place)
I0312 10:34:31.337548  8753 layer_factory.hpp:77] Creating layer scale2b_branch2c
I0312 10:34:31.337646  8753 net.cpp:122] Setting up scale2b_branch2c
I0312 10:34:31.337652  8753 net.cpp:129] Top shape: 8 256 56 56 (6422528)
I0312 10:34:31.337672  8753 net.cpp:137] Memory required for data: 578027520
I0312 10:34:31.337682  8753 layer_factory.hpp:77] Creating layer res2b
I0312 10:34:31.337689  8753 net.cpp:84] Creating Layer res2b
I0312 10:34:31.337694  8753 net.cpp:406] res2b <- res2a_res2a_relu_0_split_1
I0312 10:34:31.337702  8753 net.cpp:406] res2b <- res2b_branch2c
I0312 10:34:31.337707  8753 net.cpp:380] res2b -> res2b
I0312 10:34:31.337733  8753 net.cpp:122] Setting up res2b
I0312 10:34:31.337755  8753 net.cpp:129] Top shape: 8 256 56 56 (6422528)
I0312 10:34:31.337759  8753 net.cpp:137] Memory required for data: 603717632
I0312 10:34:31.337764  8753 layer_factory.hpp:77] Creating layer res2b_relu
I0312 10:34:31.337769  8753 net.cpp:84] Creating Layer res2b_relu
I0312 10:34:31.337774  8753 net.cpp:406] res2b_relu <- res2b
I0312 10:34:31.337779  8753 net.cpp:367] res2b_relu -> res2b (in-place)
I0312 10:34:31.339327  8753 net.cpp:122] Setting up res2b_relu
I0312 10:34:31.339337  8753 net.cpp:129] Top shape: 8 256 56 56 (6422528)
I0312 10:34:31.339341  8753 net.cpp:137] Memory required for data: 629407744
I0312 10:34:31.339345  8753 layer_factory.hpp:77] Creating layer res2b_res2b_relu_0_split
I0312 10:34:31.339351  8753 net.cpp:84] Creating Layer res2b_res2b_relu_0_split
I0312 10:34:31.339356  8753 net.cpp:406] res2b_res2b_relu_0_split <- res2b
I0312 10:34:31.339363  8753 net.cpp:380] res2b_res2b_relu_0_split -> res2b_res2b_relu_0_split_0
I0312 10:34:31.339370  8753 net.cpp:380] res2b_res2b_relu_0_split -> res2b_res2b_relu_0_split_1
I0312 10:34:31.339406  8753 net.cpp:122] Setting up res2b_res2b_relu_0_split
I0312 10:34:31.339412  8753 net.cpp:129] Top shape: 8 256 56 56 (6422528)
I0312 10:34:31.339417  8753 net.cpp:129] Top shape: 8 256 56 56 (6422528)
I0312 10:34:31.339421  8753 net.cpp:137] Memory required for data: 680787968
I0312 10:34:31.339426  8753 layer_factory.hpp:77] Creating layer res2c_branch2a
I0312 10:34:31.339434  8753 net.cpp:84] Creating Layer res2c_branch2a
I0312 10:34:31.339438  8753 net.cpp:406] res2c_branch2a <- res2b_res2b_relu_0_split_0
I0312 10:34:31.339444  8753 net.cpp:380] res2c_branch2a -> res2c_branch2a
I0312 10:34:31.346101  8753 net.cpp:122] Setting up res2c_branch2a
I0312 10:34:31.346117  8753 net.cpp:129] Top shape: 8 64 56 56 (1605632)
I0312 10:34:31.346122  8753 net.cpp:137] Memory required for data: 687210496
I0312 10:34:31.346128  8753 layer_factory.hpp:77] Creating layer bn2c_branch2a
I0312 10:34:31.346137  8753 net.cpp:84] Creating Layer bn2c_branch2a
I0312 10:34:31.346141  8753 net.cpp:406] bn2c_branch2a <- res2c_branch2a
I0312 10:34:31.346150  8753 net.cpp:367] bn2c_branch2a -> res2c_branch2a (in-place)
I0312 10:34:31.346329  8753 net.cpp:122] Setting up bn2c_branch2a
I0312 10:34:31.346343  8753 net.cpp:129] Top shape: 8 64 56 56 (1605632)
I0312 10:34:31.346346  8753 net.cpp:137] Memory required for data: 693633024
I0312 10:34:31.346355  8753 layer_factory.hpp:77] Creating layer scale2c_branch2a
I0312 10:34:31.346362  8753 net.cpp:84] Creating Layer scale2c_branch2a
I0312 10:34:31.346367  8753 net.cpp:406] scale2c_branch2a <- res2c_branch2a
I0312 10:34:31.346374  8753 net.cpp:367] scale2c_branch2a -> res2c_branch2a (in-place)
I0312 10:34:31.346410  8753 layer_factory.hpp:77] Creating layer scale2c_branch2a
I0312 10:34:31.346515  8753 net.cpp:122] Setting up scale2c_branch2a
I0312 10:34:31.346523  8753 net.cpp:129] Top shape: 8 64 56 56 (1605632)
I0312 10:34:31.346526  8753 net.cpp:137] Memory required for data: 700055552
I0312 10:34:31.346535  8753 layer_factory.hpp:77] Creating layer res2c_branch2a_relu
I0312 10:34:31.346541  8753 net.cpp:84] Creating Layer res2c_branch2a_relu
I0312 10:34:31.346545  8753 net.cpp:406] res2c_branch2a_relu <- res2c_branch2a
I0312 10:34:31.346550  8753 net.cpp:367] res2c_branch2a_relu -> res2c_branch2a (in-place)
I0312 10:34:31.348184  8753 net.cpp:122] Setting up res2c_branch2a_relu
I0312 10:34:31.348193  8753 net.cpp:129] Top shape: 8 64 56 56 (1605632)
I0312 10:34:31.348197  8753 net.cpp:137] Memory required for data: 706478080
I0312 10:34:31.348201  8753 layer_factory.hpp:77] Creating layer res2c_branch2b
I0312 10:34:31.348209  8753 net.cpp:84] Creating Layer res2c_branch2b
I0312 10:34:31.348214  8753 net.cpp:406] res2c_branch2b <- res2c_branch2a
I0312 10:34:31.348220  8753 net.cpp:380] res2c_branch2b -> res2c_branch2b
I0312 10:34:31.353598  8754 upgrade_proto.cpp:77] Attempting to upgrade batch norm layers using deprecated params: ../merge_models/res50_multigpu_new.prototxt
I0312 10:34:31.353653  8754 upgrade_proto.cpp:80] Successfully upgraded batch norm layers using deprecated params.
I0312 10:34:31.355207  8753 net.cpp:122] Setting up res2c_branch2b
I0312 10:34:31.355221  8753 net.cpp:129] Top shape: 8 64 56 56 (1605632)
I0312 10:34:31.355226  8753 net.cpp:137] Memory required for data: 712900608
I0312 10:34:31.355233  8753 layer_factory.hpp:77] Creating layer bn2c_branch2b
I0312 10:34:31.355242  8753 net.cpp:84] Creating Layer bn2c_branch2b
I0312 10:34:31.355247  8753 net.cpp:406] bn2c_branch2b <- res2c_branch2b
I0312 10:34:31.355254  8753 net.cpp:367] bn2c_branch2b -> res2c_branch2b (in-place)
I0312 10:34:31.355437  8753 net.cpp:122] Setting up bn2c_branch2b
I0312 10:34:31.355444  8753 net.cpp:129] Top shape: 8 64 56 56 (1605632)
I0312 10:34:31.355448  8753 net.cpp:137] Memory required for data: 719323136
I0312 10:34:31.355456  8753 layer_factory.hpp:77] Creating layer scale2c_branch2b
I0312 10:34:31.355463  8753 net.cpp:84] Creating Layer scale2c_branch2b
I0312 10:34:31.355468  8753 net.cpp:406] scale2c_branch2b <- res2c_branch2b
I0312 10:34:31.355473  8753 net.cpp:367] scale2c_branch2b -> res2c_branch2b (in-place)
I0312 10:34:31.355510  8753 layer_factory.hpp:77] Creating layer scale2c_branch2b
I0312 10:34:31.355617  8753 net.cpp:122] Setting up scale2c_branch2b
I0312 10:34:31.355624  8753 net.cpp:129] Top shape: 8 64 56 56 (1605632)
I0312 10:34:31.355628  8753 net.cpp:137] Memory required for data: 725745664
I0312 10:34:31.355636  8753 layer_factory.hpp:77] Creating layer res2c_branch2b_relu
I0312 10:34:31.355643  8753 net.cpp:84] Creating Layer res2c_branch2b_relu
I0312 10:34:31.355646  8753 net.cpp:406] res2c_branch2b_relu <- res2c_branch2b
I0312 10:34:31.355653  8753 net.cpp:367] res2c_branch2b_relu -> res2c_branch2b (in-place)
I0312 10:34:31.355825  8753 net.cpp:122] Setting up res2c_branch2b_relu
I0312 10:34:31.355834  8753 net.cpp:129] Top shape: 8 64 56 56 (1605632)
I0312 10:34:31.355839  8753 net.cpp:137] Memory required for data: 732168192
I0312 10:34:31.355842  8753 layer_factory.hpp:77] Creating layer res2c_branch2c
I0312 10:34:31.355851  8753 net.cpp:84] Creating Layer res2c_branch2c
I0312 10:34:31.355855  8753 net.cpp:406] res2c_branch2c <- res2c_branch2b
I0312 10:34:31.355861  8753 net.cpp:380] res2c_branch2c -> res2c_branch2c
I0312 10:34:31.362409  8753 net.cpp:122] Setting up res2c_branch2c
I0312 10:34:31.362426  8753 net.cpp:129] Top shape: 8 256 56 56 (6422528)
I0312 10:34:31.362429  8753 net.cpp:137] Memory required for data: 757858304
I0312 10:34:31.362437  8753 layer_factory.hpp:77] Creating layer bn2c_branch2c
I0312 10:34:31.362445  8753 net.cpp:84] Creating Layer bn2c_branch2c
I0312 10:34:31.362450  8753 net.cpp:406] bn2c_branch2c <- res2c_branch2c
I0312 10:34:31.362458  8753 net.cpp:367] bn2c_branch2c -> res2c_branch2c (in-place)
I0312 10:34:31.362630  8753 net.cpp:122] Setting up bn2c_branch2c
I0312 10:34:31.362637  8753 net.cpp:129] Top shape: 8 256 56 56 (6422528)
I0312 10:34:31.362642  8753 net.cpp:137] Memory required for data: 783548416
I0312 10:34:31.362665  8753 layer_factory.hpp:77] Creating layer scale2c_branch2c
I0312 10:34:31.362673  8753 net.cpp:84] Creating Layer scale2c_branch2c
I0312 10:34:31.362677  8753 net.cpp:406] scale2c_branch2c <- res2c_branch2c
I0312 10:34:31.362684  8753 net.cpp:367] scale2c_branch2c -> res2c_branch2c (in-place)
I0312 10:34:31.362720  8753 layer_factory.hpp:77] Creating layer scale2c_branch2c
I0312 10:34:31.362821  8753 net.cpp:122] Setting up scale2c_branch2c
I0312 10:34:31.362828  8753 net.cpp:129] Top shape: 8 256 56 56 (6422528)
I0312 10:34:31.362831  8753 net.cpp:137] Memory required for data: 809238528
I0312 10:34:31.362839  8753 layer_factory.hpp:77] Creating layer res2c
I0312 10:34:31.362846  8753 net.cpp:84] Creating Layer res2c
I0312 10:34:31.362850  8753 net.cpp:406] res2c <- res2b_res2b_relu_0_split_1
I0312 10:34:31.362856  8753 net.cpp:406] res2c <- res2c_branch2c
I0312 10:34:31.362861  8753 net.cpp:380] res2c -> res2c
I0312 10:34:31.362884  8753 net.cpp:122] Setting up res2c
I0312 10:34:31.362890  8753 net.cpp:129] Top shape: 8 256 56 56 (6422528)
I0312 10:34:31.362895  8753 net.cpp:137] Memory required for data: 834928640
I0312 10:34:31.362897  8753 layer_factory.hpp:77] Creating layer res2c_relu
I0312 10:34:31.362903  8753 net.cpp:84] Creating Layer res2c_relu
I0312 10:34:31.362907  8753 net.cpp:406] res2c_relu <- res2c
I0312 10:34:31.362912  8753 net.cpp:367] res2c_relu -> res2c (in-place)
I0312 10:34:31.364533  8753 net.cpp:122] Setting up res2c_relu
I0312 10:34:31.364543  8753 net.cpp:129] Top shape: 8 256 56 56 (6422528)
I0312 10:34:31.364547  8753 net.cpp:137] Memory required for data: 860618752
I0312 10:34:31.364552  8753 layer_factory.hpp:77] Creating layer res2c_res2c_relu_0_split
I0312 10:34:31.364559  8753 net.cpp:84] Creating Layer res2c_res2c_relu_0_split
I0312 10:34:31.364563  8753 net.cpp:406] res2c_res2c_relu_0_split <- res2c
I0312 10:34:31.364570  8753 net.cpp:380] res2c_res2c_relu_0_split -> res2c_res2c_relu_0_split_0
I0312 10:34:31.364578  8753 net.cpp:380] res2c_res2c_relu_0_split -> res2c_res2c_relu_0_split_1
I0312 10:34:31.364614  8753 net.cpp:122] Setting up res2c_res2c_relu_0_split
I0312 10:34:31.364619  8753 net.cpp:129] Top shape: 8 256 56 56 (6422528)
I0312 10:34:31.364624  8753 net.cpp:129] Top shape: 8 256 56 56 (6422528)
I0312 10:34:31.364627  8753 net.cpp:137] Memory required for data: 911998976
I0312 10:34:31.364631  8753 layer_factory.hpp:77] Creating layer res3a_branch1
I0312 10:34:31.364639  8753 net.cpp:84] Creating Layer res3a_branch1
I0312 10:34:31.364645  8753 net.cpp:406] res3a_branch1 <- res2c_res2c_relu_0_split_0
I0312 10:34:31.364650  8753 net.cpp:380] res3a_branch1 -> res3a_branch1
I0312 10:34:31.371209  8753 net.cpp:122] Setting up res3a_branch1
I0312 10:34:31.371228  8753 net.cpp:129] Top shape: 8 512 28 28 (3211264)
I0312 10:34:31.371232  8753 net.cpp:137] Memory required for data: 924844032
I0312 10:34:31.371240  8753 layer_factory.hpp:77] Creating layer bn3a_branch1
I0312 10:34:31.371249  8753 net.cpp:84] Creating Layer bn3a_branch1
I0312 10:34:31.371255  8753 net.cpp:406] bn3a_branch1 <- res3a_branch1
I0312 10:34:31.371265  8753 net.cpp:367] bn3a_branch1 -> res3a_branch1 (in-place)
I0312 10:34:31.372407  8753 net.cpp:122] Setting up bn3a_branch1
I0312 10:34:31.372424  8753 net.cpp:129] Top shape: 8 512 28 28 (3211264)
I0312 10:34:31.372436  8753 net.cpp:137] Memory required for data: 937689088
I0312 10:34:31.372450  8753 layer_factory.hpp:77] Creating layer scale3a_branch1
I0312 10:34:31.372459  8753 net.cpp:84] Creating Layer scale3a_branch1
I0312 10:34:31.372464  8753 net.cpp:406] scale3a_branch1 <- res3a_branch1
I0312 10:34:31.372472  8753 net.cpp:367] scale3a_branch1 -> res3a_branch1 (in-place)
I0312 10:34:31.372519  8753 layer_factory.hpp:77] Creating layer scale3a_branch1
I0312 10:34:31.372627  8753 net.cpp:122] Setting up scale3a_branch1
I0312 10:34:31.372635  8753 net.cpp:129] Top shape: 8 512 28 28 (3211264)
I0312 10:34:31.372639  8753 net.cpp:137] Memory required for data: 950534144
I0312 10:34:31.372648  8753 layer_factory.hpp:77] Creating layer res3a_branch2a
I0312 10:34:31.372658  8753 net.cpp:84] Creating Layer res3a_branch2a
I0312 10:34:31.372663  8753 net.cpp:406] res3a_branch2a <- res2c_res2c_relu_0_split_1
I0312 10:34:31.372670  8753 net.cpp:380] res3a_branch2a -> res3a_branch2a
I0312 10:34:31.377877  8753 net.cpp:122] Setting up res3a_branch2a
I0312 10:34:31.377894  8753 net.cpp:129] Top shape: 8 128 28 28 (802816)
I0312 10:34:31.377899  8753 net.cpp:137] Memory required for data: 953745408
I0312 10:34:31.377908  8753 layer_factory.hpp:77] Creating layer bn3a_branch2a
I0312 10:34:31.377918  8753 net.cpp:84] Creating Layer bn3a_branch2a
I0312 10:34:31.377923  8753 net.cpp:406] bn3a_branch2a <- res3a_branch2a
I0312 10:34:31.377930  8753 net.cpp:367] bn3a_branch2a -> res3a_branch2a (in-place)
I0312 10:34:31.378130  8753 net.cpp:122] Setting up bn3a_branch2a
I0312 10:34:31.378139  8753 net.cpp:129] Top shape: 8 128 28 28 (802816)
I0312 10:34:31.378144  8753 net.cpp:137] Memory required for data: 956956672
I0312 10:34:31.378156  8753 layer_factory.hpp:77] Creating layer scale3a_branch2a
I0312 10:34:31.378165  8753 net.cpp:84] Creating Layer scale3a_branch2a
I0312 10:34:31.378170  8753 net.cpp:406] scale3a_branch2a <- res3a_branch2a
I0312 10:34:31.378176  8753 net.cpp:367] scale3a_branch2a -> res3a_branch2a (in-place)
I0312 10:34:31.378219  8753 layer_factory.hpp:77] Creating layer scale3a_branch2a
I0312 10:34:31.378330  8753 net.cpp:122] Setting up scale3a_branch2a
I0312 10:34:31.378338  8753 net.cpp:129] Top shape: 8 128 28 28 (802816)
I0312 10:34:31.378342  8753 net.cpp:137] Memory required for data: 960167936
I0312 10:34:31.378351  8753 layer_factory.hpp:77] Creating layer res3a_branch2a_relu
I0312 10:34:31.378360  8753 net.cpp:84] Creating Layer res3a_branch2a_relu
I0312 10:34:31.378363  8753 net.cpp:406] res3a_branch2a_relu <- res3a_branch2a
I0312 10:34:31.378370  8753 net.cpp:367] res3a_branch2a_relu -> res3a_branch2a (in-place)
I0312 10:34:31.378559  8753 net.cpp:122] Setting up res3a_branch2a_relu
I0312 10:34:31.378569  8753 net.cpp:129] Top shape: 8 128 28 28 (802816)
I0312 10:34:31.378574  8753 net.cpp:137] Memory required for data: 963379200
I0312 10:34:31.378579  8753 layer_factory.hpp:77] Creating layer res3a_branch2b
I0312 10:34:31.378588  8753 net.cpp:84] Creating Layer res3a_branch2b
I0312 10:34:31.378593  8753 net.cpp:406] res3a_branch2b <- res3a_branch2a
I0312 10:34:31.378602  8753 net.cpp:380] res3a_branch2b -> res3a_branch2b
I0312 10:34:31.380116  8753 net.cpp:122] Setting up res3a_branch2b
I0312 10:34:31.380132  8753 net.cpp:129] Top shape: 8 128 28 28 (802816)
I0312 10:34:31.380137  8753 net.cpp:137] Memory required for data: 966590464
I0312 10:34:31.380146  8753 layer_factory.hpp:77] Creating layer bn3a_branch2b
I0312 10:34:31.380156  8753 net.cpp:84] Creating Layer bn3a_branch2b
I0312 10:34:31.380162  8753 net.cpp:406] bn3a_branch2b <- res3a_branch2b
I0312 10:34:31.380169  8753 net.cpp:367] bn3a_branch2b -> res3a_branch2b (in-place)
I0312 10:34:31.380370  8753 net.cpp:122] Setting up bn3a_branch2b
I0312 10:34:31.380379  8753 net.cpp:129] Top shape: 8 128 28 28 (802816)
I0312 10:34:31.380383  8753 net.cpp:137] Memory required for data: 969801728
I0312 10:34:31.380395  8753 layer_factory.hpp:77] Creating layer scale3a_branch2b
I0312 10:34:31.380403  8753 net.cpp:84] Creating Layer scale3a_branch2b
I0312 10:34:31.380414  8753 net.cpp:406] scale3a_branch2b <- res3a_branch2b
I0312 10:34:31.380422  8753 net.cpp:367] scale3a_branch2b -> res3a_branch2b (in-place)
I0312 10:34:31.380466  8753 layer_factory.hpp:77] Creating layer scale3a_branch2b
I0312 10:34:31.380578  8753 net.cpp:122] Setting up scale3a_branch2b
I0312 10:34:31.380586  8753 net.cpp:129] Top shape: 8 128 28 28 (802816)
I0312 10:34:31.380591  8753 net.cpp:137] Memory required for data: 973012992
I0312 10:34:31.380599  8753 layer_factory.hpp:77] Creating layer res3a_branch2b_relu
I0312 10:34:31.380606  8753 net.cpp:84] Creating Layer res3a_branch2b_relu
I0312 10:34:31.380611  8753 net.cpp:406] res3a_branch2b_relu <- res3a_branch2b
I0312 10:34:31.380617  8753 net.cpp:367] res3a_branch2b_relu -> res3a_branch2b (in-place)
I0312 10:34:31.381150  8753 net.cpp:122] Setting up res3a_branch2b_relu
I0312 10:34:31.381167  8753 net.cpp:129] Top shape: 8 128 28 28 (802816)
I0312 10:34:31.381171  8753 net.cpp:137] Memory required for data: 976224256
I0312 10:34:31.381176  8753 layer_factory.hpp:77] Creating layer res3a_branch2c
I0312 10:34:31.381196  8753 net.cpp:84] Creating Layer res3a_branch2c
I0312 10:34:31.381202  8753 net.cpp:406] res3a_branch2c <- res3a_branch2b
I0312 10:34:31.381211  8753 net.cpp:380] res3a_branch2c -> res3a_branch2c
I0312 10:34:31.382047  8753 net.cpp:122] Setting up res3a_branch2c
I0312 10:34:31.382061  8753 net.cpp:129] Top shape: 8 512 28 28 (3211264)
I0312 10:34:31.382066  8753 net.cpp:137] Memory required for data: 989069312
I0312 10:34:31.382076  8753 layer_factory.hpp:77] Creating layer bn3a_branch2c
I0312 10:34:31.382084  8753 net.cpp:84] Creating Layer bn3a_branch2c
I0312 10:34:31.382089  8753 net.cpp:406] bn3a_branch2c <- res3a_branch2c
I0312 10:34:31.382097  8753 net.cpp:367] bn3a_branch2c -> res3a_branch2c (in-place)
I0312 10:34:31.382293  8753 net.cpp:122] Setting up bn3a_branch2c
I0312 10:34:31.382302  8753 net.cpp:129] Top shape: 8 512 28 28 (3211264)
I0312 10:34:31.382306  8753 net.cpp:137] Memory required for data: 1001914368
I0312 10:34:31.382315  8753 layer_factory.hpp:77] Creating layer scale3a_branch2c
I0312 10:34:31.382323  8753 net.cpp:84] Creating Layer scale3a_branch2c
I0312 10:34:31.382328  8753 net.cpp:406] scale3a_branch2c <- res3a_branch2c
I0312 10:34:31.382336  8753 net.cpp:367] scale3a_branch2c -> res3a_branch2c (in-place)
I0312 10:34:31.382378  8753 layer_factory.hpp:77] Creating layer scale3a_branch2c
I0312 10:34:31.382490  8753 net.cpp:122] Setting up scale3a_branch2c
I0312 10:34:31.382498  8753 net.cpp:129] Top shape: 8 512 28 28 (3211264)
I0312 10:34:31.382503  8753 net.cpp:137] Memory required for data: 1014759424
I0312 10:34:31.382513  8753 layer_factory.hpp:77] Creating layer res3a
I0312 10:34:31.382519  8753 net.cpp:84] Creating Layer res3a
I0312 10:34:31.382524  8753 net.cpp:406] res3a <- res3a_branch1
I0312 10:34:31.382530  8753 net.cpp:406] res3a <- res3a_branch2c
I0312 10:34:31.382535  8753 net.cpp:380] res3a -> res3a
I0312 10:34:31.382562  8753 net.cpp:122] Setting up res3a
I0312 10:34:31.382570  8753 net.cpp:129] Top shape: 8 512 28 28 (3211264)
I0312 10:34:31.382575  8753 net.cpp:137] Memory required for data: 1027604480
I0312 10:34:31.382580  8753 layer_factory.hpp:77] Creating layer res3a_relu
I0312 10:34:31.382586  8753 net.cpp:84] Creating Layer res3a_relu
I0312 10:34:31.382591  8753 net.cpp:406] res3a_relu <- res3a
I0312 10:34:31.382597  8753 net.cpp:367] res3a_relu -> res3a (in-place)
I0312 10:34:31.383136  8753 net.cpp:122] Setting up res3a_relu
I0312 10:34:31.383152  8753 net.cpp:129] Top shape: 8 512 28 28 (3211264)
I0312 10:34:31.383157  8753 net.cpp:137] Memory required for data: 1040449536
I0312 10:34:31.383162  8753 layer_factory.hpp:77] Creating layer res3a_res3a_relu_0_split
I0312 10:34:31.383170  8753 net.cpp:84] Creating Layer res3a_res3a_relu_0_split
I0312 10:34:31.383175  8753 net.cpp:406] res3a_res3a_relu_0_split <- res3a
I0312 10:34:31.383183  8753 net.cpp:380] res3a_res3a_relu_0_split -> res3a_res3a_relu_0_split_0
I0312 10:34:31.383191  8753 net.cpp:380] res3a_res3a_relu_0_split -> res3a_res3a_relu_0_split_1
I0312 10:34:31.383246  8753 net.cpp:122] Setting up res3a_res3a_relu_0_split
I0312 10:34:31.383255  8753 net.cpp:129] Top shape: 8 512 28 28 (3211264)
I0312 10:34:31.383261  8753 net.cpp:129] Top shape: 8 512 28 28 (3211264)
I0312 10:34:31.383265  8753 net.cpp:137] Memory required for data: 1066139648
I0312 10:34:31.383270  8753 layer_factory.hpp:77] Creating layer res3b_branch2a
I0312 10:34:31.383280  8753 net.cpp:84] Creating Layer res3b_branch2a
I0312 10:34:31.383283  8753 net.cpp:406] res3b_branch2a <- res3a_res3a_relu_0_split_0
I0312 10:34:31.383291  8753 net.cpp:380] res3b_branch2a -> res3b_branch2a
I0312 10:34:31.384765  8753 net.cpp:122] Setting up res3b_branch2a
I0312 10:34:31.384781  8753 net.cpp:129] Top shape: 8 128 28 28 (802816)
I0312 10:34:31.384786  8753 net.cpp:137] Memory required for data: 1069350912
I0312 10:34:31.384798  8753 layer_factory.hpp:77] Creating layer bn3b_branch2a
I0312 10:34:31.384806  8753 net.cpp:84] Creating Layer bn3b_branch2a
I0312 10:34:31.384811  8753 net.cpp:406] bn3b_branch2a <- res3b_branch2a
I0312 10:34:31.384819  8753 net.cpp:367] bn3b_branch2a -> res3b_branch2a (in-place)
I0312 10:34:31.385031  8753 net.cpp:122] Setting up bn3b_branch2a
I0312 10:34:31.385041  8753 net.cpp:129] Top shape: 8 128 28 28 (802816)
I0312 10:34:31.385046  8753 net.cpp:137] Memory required for data: 1072562176
I0312 10:34:31.385056  8753 layer_factory.hpp:77] Creating layer scale3b_branch2a
I0312 10:34:31.385064  8753 net.cpp:84] Creating Layer scale3b_branch2a
I0312 10:34:31.385071  8753 net.cpp:406] scale3b_branch2a <- res3b_branch2a
I0312 10:34:31.385078  8753 net.cpp:367] scale3b_branch2a -> res3b_branch2a (in-place)
I0312 10:34:31.385119  8753 layer_factory.hpp:77] Creating layer scale3b_branch2a
I0312 10:34:31.385233  8753 net.cpp:122] Setting up scale3b_branch2a
I0312 10:34:31.385241  8753 net.cpp:129] Top shape: 8 128 28 28 (802816)
I0312 10:34:31.385246  8753 net.cpp:137] Memory required for data: 1075773440
I0312 10:34:31.385253  8753 layer_factory.hpp:77] Creating layer res3b_branch2a_relu
I0312 10:34:31.385260  8753 net.cpp:84] Creating Layer res3b_branch2a_relu
I0312 10:34:31.385265  8753 net.cpp:406] res3b_branch2a_relu <- res3b_branch2a
I0312 10:34:31.385272  8753 net.cpp:367] res3b_branch2a_relu -> res3b_branch2a (in-place)
I0312 10:34:31.385493  8753 net.cpp:122] Setting up res3b_branch2a_relu
I0312 10:34:31.385502  8753 net.cpp:129] Top shape: 8 128 28 28 (802816)
I0312 10:34:31.385507  8753 net.cpp:137] Memory required for data: 1078984704
I0312 10:34:31.385514  8753 layer_factory.hpp:77] Creating layer res3b_branch2b
I0312 10:34:31.385522  8753 net.cpp:84] Creating Layer res3b_branch2b
I0312 10:34:31.385527  8753 net.cpp:406] res3b_branch2b <- res3b_branch2a
I0312 10:34:31.385536  8753 net.cpp:380] res3b_branch2b -> res3b_branch2b
I0312 10:34:31.387462  8753 net.cpp:122] Setting up res3b_branch2b
I0312 10:34:31.387480  8753 net.cpp:129] Top shape: 8 128 28 28 (802816)
I0312 10:34:31.387485  8753 net.cpp:137] Memory required for data: 1082195968
I0312 10:34:31.387495  8753 layer_factory.hpp:77] Creating layer bn3b_branch2b
I0312 10:34:31.387502  8753 net.cpp:84] Creating Layer bn3b_branch2b
I0312 10:34:31.387508  8753 net.cpp:406] bn3b_branch2b <- res3b_branch2b
I0312 10:34:31.387516  8753 net.cpp:367] bn3b_branch2b -> res3b_branch2b (in-place)
I0312 10:34:31.387724  8753 net.cpp:122] Setting up bn3b_branch2b
I0312 10:34:31.387732  8753 net.cpp:129] Top shape: 8 128 28 28 (802816)
I0312 10:34:31.387737  8753 net.cpp:137] Memory required for data: 1085407232
I0312 10:34:31.387748  8753 layer_factory.hpp:77] Creating layer scale3b_branch2b
I0312 10:34:31.387756  8753 net.cpp:84] Creating Layer scale3b_branch2b
I0312 10:34:31.387760  8753 net.cpp:406] scale3b_branch2b <- res3b_branch2b
I0312 10:34:31.387768  8753 net.cpp:367] scale3b_branch2b -> res3b_branch2b (in-place)
I0312 10:34:31.387810  8753 layer_factory.hpp:77] Creating layer scale3b_branch2b
I0312 10:34:31.387925  8753 net.cpp:122] Setting up scale3b_branch2b
I0312 10:34:31.387933  8753 net.cpp:129] Top shape: 8 128 28 28 (802816)
I0312 10:34:31.387944  8753 net.cpp:137] Memory required for data: 1088618496
I0312 10:34:31.387954  8753 layer_factory.hpp:77] Creating layer res3b_branch2b_relu
I0312 10:34:31.387960  8753 net.cpp:84] Creating Layer res3b_branch2b_relu
I0312 10:34:31.387965  8753 net.cpp:406] res3b_branch2b_relu <- res3b_branch2b
I0312 10:34:31.387971  8753 net.cpp:367] res3b_branch2b_relu -> res3b_branch2b (in-place)
I0312 10:34:31.388173  8753 net.cpp:122] Setting up res3b_branch2b_relu
I0312 10:34:31.388185  8753 net.cpp:129] Top shape: 8 128 28 28 (802816)
I0312 10:34:31.388188  8753 net.cpp:137] Memory required for data: 1091829760
I0312 10:34:31.388195  8753 layer_factory.hpp:77] Creating layer res3b_branch2c
I0312 10:34:31.388204  8753 net.cpp:84] Creating Layer res3b_branch2c
I0312 10:34:31.388209  8753 net.cpp:406] res3b_branch2c <- res3b_branch2b
I0312 10:34:31.388217  8753 net.cpp:380] res3b_branch2c -> res3b_branch2c
I0312 10:34:31.389402  8753 net.cpp:122] Setting up res3b_branch2c
I0312 10:34:31.389420  8753 net.cpp:129] Top shape: 8 512 28 28 (3211264)
I0312 10:34:31.389425  8753 net.cpp:137] Memory required for data: 1104674816
I0312 10:34:31.389432  8753 layer_factory.hpp:77] Creating layer bn3b_branch2c
I0312 10:34:31.389441  8753 net.cpp:84] Creating Layer bn3b_branch2c
I0312 10:34:31.389447  8753 net.cpp:406] bn3b_branch2c <- res3b_branch2c
I0312 10:34:31.389454  8753 net.cpp:367] bn3b_branch2c -> res3b_branch2c (in-place)
I0312 10:34:31.389662  8753 net.cpp:122] Setting up bn3b_branch2c
I0312 10:34:31.389670  8753 net.cpp:129] Top shape: 8 512 28 28 (3211264)
I0312 10:34:31.389675  8753 net.cpp:137] Memory required for data: 1117519872
I0312 10:34:31.389684  8753 layer_factory.hpp:77] Creating layer scale3b_branch2c
I0312 10:34:31.389693  8753 net.cpp:84] Creating Layer scale3b_branch2c
I0312 10:34:31.389698  8753 net.cpp:406] scale3b_branch2c <- res3b_branch2c
I0312 10:34:31.389704  8753 net.cpp:367] scale3b_branch2c -> res3b_branch2c (in-place)
I0312 10:34:31.389749  8753 layer_factory.hpp:77] Creating layer scale3b_branch2c
I0312 10:34:31.389863  8753 net.cpp:122] Setting up scale3b_branch2c
I0312 10:34:31.389870  8753 net.cpp:129] Top shape: 8 512 28 28 (3211264)
I0312 10:34:31.389874  8753 net.cpp:137] Memory required for data: 1130364928
I0312 10:34:31.389884  8753 layer_factory.hpp:77] Creating layer res3b
I0312 10:34:31.389892  8753 net.cpp:84] Creating Layer res3b
I0312 10:34:31.389897  8753 net.cpp:406] res3b <- res3a_res3a_relu_0_split_1
I0312 10:34:31.389904  8753 net.cpp:406] res3b <- res3b_branch2c
I0312 10:34:31.389909  8753 net.cpp:380] res3b -> res3b
I0312 10:34:31.389935  8753 net.cpp:122] Setting up res3b
I0312 10:34:31.389942  8753 net.cpp:129] Top shape: 8 512 28 28 (3211264)
I0312 10:34:31.389946  8753 net.cpp:137] Memory required for data: 1143209984
I0312 10:34:31.389950  8753 layer_factory.hpp:77] Creating layer res3b_relu
I0312 10:34:31.389957  8753 net.cpp:84] Creating Layer res3b_relu
I0312 10:34:31.389962  8753 net.cpp:406] res3b_relu <- res3b
I0312 10:34:31.389968  8753 net.cpp:367] res3b_relu -> res3b (in-place)
I0312 10:34:31.390161  8753 net.cpp:122] Setting up res3b_relu
I0312 10:34:31.390172  8753 net.cpp:129] Top shape: 8 512 28 28 (3211264)
I0312 10:34:31.390175  8753 net.cpp:137] Memory required for data: 1156055040
I0312 10:34:31.390180  8753 layer_factory.hpp:77] Creating layer res3b_res3b_relu_0_split
I0312 10:34:31.390187  8753 net.cpp:84] Creating Layer res3b_res3b_relu_0_split
I0312 10:34:31.390192  8753 net.cpp:406] res3b_res3b_relu_0_split <- res3b
I0312 10:34:31.390199  8753 net.cpp:380] res3b_res3b_relu_0_split -> res3b_res3b_relu_0_split_0
I0312 10:34:31.390208  8753 net.cpp:380] res3b_res3b_relu_0_split -> res3b_res3b_relu_0_split_1
I0312 10:34:31.390250  8753 net.cpp:122] Setting up res3b_res3b_relu_0_split
I0312 10:34:31.390257  8753 net.cpp:129] Top shape: 8 512 28 28 (3211264)
I0312 10:34:31.390262  8753 net.cpp:129] Top shape: 8 512 28 28 (3211264)
I0312 10:34:31.390267  8753 net.cpp:137] Memory required for data: 1181745152
I0312 10:34:31.390280  8753 layer_factory.hpp:77] Creating layer res3c_branch2a
I0312 10:34:31.390288  8753 net.cpp:84] Creating Layer res3c_branch2a
I0312 10:34:31.390293  8753 net.cpp:406] res3c_branch2a <- res3b_res3b_relu_0_split_0
I0312 10:34:31.390301  8753 net.cpp:380] res3c_branch2a -> res3c_branch2a
I0312 10:34:31.391463  8753 net.cpp:122] Setting up res3c_branch2a
I0312 10:34:31.391479  8753 net.cpp:129] Top shape: 8 128 28 28 (802816)
I0312 10:34:31.391484  8753 net.cpp:137] Memory required for data: 1184956416
I0312 10:34:31.391492  8753 layer_factory.hpp:77] Creating layer bn3c_branch2a
I0312 10:34:31.391500  8753 net.cpp:84] Creating Layer bn3c_branch2a
I0312 10:34:31.391506  8753 net.cpp:406] bn3c_branch2a <- res3c_branch2a
I0312 10:34:31.391515  8753 net.cpp:367] bn3c_branch2a -> res3c_branch2a (in-place)
I0312 10:34:31.391718  8753 net.cpp:122] Setting up bn3c_branch2a
I0312 10:34:31.391726  8753 net.cpp:129] Top shape: 8 128 28 28 (802816)
I0312 10:34:31.391731  8753 net.cpp:137] Memory required for data: 1188167680
I0312 10:34:31.391741  8753 layer_factory.hpp:77] Creating layer scale3c_branch2a
I0312 10:34:31.391749  8753 net.cpp:84] Creating Layer scale3c_branch2a
I0312 10:34:31.391754  8753 net.cpp:406] scale3c_branch2a <- res3c_branch2a
I0312 10:34:31.391760  8753 net.cpp:367] scale3c_branch2a -> res3c_branch2a (in-place)
I0312 10:34:31.391803  8753 layer_factory.hpp:77] Creating layer scale3c_branch2a
I0312 10:34:31.391916  8753 net.cpp:122] Setting up scale3c_branch2a
I0312 10:34:31.391923  8753 net.cpp:129] Top shape: 8 128 28 28 (802816)
I0312 10:34:31.391927  8753 net.cpp:137] Memory required for data: 1191378944
I0312 10:34:31.391938  8753 layer_factory.hpp:77] Creating layer res3c_branch2a_relu
I0312 10:34:31.391945  8753 net.cpp:84] Creating Layer res3c_branch2a_relu
I0312 10:34:31.391949  8753 net.cpp:406] res3c_branch2a_relu <- res3c_branch2a
I0312 10:34:31.391955  8753 net.cpp:367] res3c_branch2a_relu -> res3c_branch2a (in-place)
I0312 10:34:31.392143  8753 net.cpp:122] Setting up res3c_branch2a_relu
I0312 10:34:31.392154  8753 net.cpp:129] Top shape: 8 128 28 28 (802816)
I0312 10:34:31.392158  8753 net.cpp:137] Memory required for data: 1194590208
I0312 10:34:31.392163  8753 layer_factory.hpp:77] Creating layer res3c_branch2b
I0312 10:34:31.392171  8753 net.cpp:84] Creating Layer res3c_branch2b
I0312 10:34:31.392176  8753 net.cpp:406] res3c_branch2b <- res3c_branch2a
I0312 10:34:31.392184  8753 net.cpp:380] res3c_branch2b -> res3c_branch2b
I0312 10:34:31.394665  8753 net.cpp:122] Setting up res3c_branch2b
I0312 10:34:31.394682  8753 net.cpp:129] Top shape: 8 128 28 28 (802816)
I0312 10:34:31.394687  8753 net.cpp:137] Memory required for data: 1197801472
I0312 10:34:31.394695  8753 layer_factory.hpp:77] Creating layer bn3c_branch2b
I0312 10:34:31.394703  8753 net.cpp:84] Creating Layer bn3c_branch2b
I0312 10:34:31.394708  8753 net.cpp:406] bn3c_branch2b <- res3c_branch2b
I0312 10:34:31.394716  8753 net.cpp:367] bn3c_branch2b -> res3c_branch2b (in-place)
I0312 10:34:31.394914  8753 net.cpp:122] Setting up bn3c_branch2b
I0312 10:34:31.394922  8753 net.cpp:129] Top shape: 8 128 28 28 (802816)
I0312 10:34:31.394927  8753 net.cpp:137] Memory required for data: 1201012736
I0312 10:34:31.394939  8753 layer_factory.hpp:77] Creating layer scale3c_branch2b
I0312 10:34:31.394948  8753 net.cpp:84] Creating Layer scale3c_branch2b
I0312 10:34:31.394951  8753 net.cpp:406] scale3c_branch2b <- res3c_branch2b
I0312 10:34:31.394958  8753 net.cpp:367] scale3c_branch2b -> res3c_branch2b (in-place)
I0312 10:34:31.394999  8753 layer_factory.hpp:77] Creating layer scale3c_branch2b
I0312 10:34:31.395109  8753 net.cpp:122] Setting up scale3c_branch2b
I0312 10:34:31.395117  8753 net.cpp:129] Top shape: 8 128 28 28 (802816)
I0312 10:34:31.395121  8753 net.cpp:137] Memory required for data: 1204224000
I0312 10:34:31.395129  8753 layer_factory.hpp:77] Creating layer res3c_branch2b_relu
I0312 10:34:31.395136  8753 net.cpp:84] Creating Layer res3c_branch2b_relu
I0312 10:34:31.395140  8753 net.cpp:406] res3c_branch2b_relu <- res3c_branch2b
I0312 10:34:31.395151  8753 net.cpp:367] res3c_branch2b_relu -> res3c_branch2b (in-place)
I0312 10:34:31.395658  8753 net.cpp:122] Setting up res3c_branch2b_relu
I0312 10:34:31.395673  8753 net.cpp:129] Top shape: 8 128 28 28 (802816)
I0312 10:34:31.395676  8753 net.cpp:137] Memory required for data: 1207435264
I0312 10:34:31.395680  8753 layer_factory.hpp:77] Creating layer res3c_branch2c
I0312 10:34:31.395690  8753 net.cpp:84] Creating Layer res3c_branch2c
I0312 10:34:31.395695  8753 net.cpp:406] res3c_branch2c <- res3c_branch2b
I0312 10:34:31.395704  8753 net.cpp:380] res3c_branch2c -> res3c_branch2c
I0312 10:34:31.396555  8753 net.cpp:122] Setting up res3c_branch2c
I0312 10:34:31.396569  8753 net.cpp:129] Top shape: 8 512 28 28 (3211264)
I0312 10:34:31.396572  8753 net.cpp:137] Memory required for data: 1220280320
I0312 10:34:31.396579  8753 layer_factory.hpp:77] Creating layer bn3c_branch2c
I0312 10:34:31.396587  8753 net.cpp:84] Creating Layer bn3c_branch2c
I0312 10:34:31.396592  8753 net.cpp:406] bn3c_branch2c <- res3c_branch2c
I0312 10:34:31.396600  8753 net.cpp:367] bn3c_branch2c -> res3c_branch2c (in-place)
I0312 10:34:31.396792  8753 net.cpp:122] Setting up bn3c_branch2c
I0312 10:34:31.396800  8753 net.cpp:129] Top shape: 8 512 28 28 (3211264)
I0312 10:34:31.396806  8753 net.cpp:137] Memory required for data: 1233125376
I0312 10:34:31.396816  8753 layer_factory.hpp:77] Creating layer scale3c_branch2c
I0312 10:34:31.396824  8753 net.cpp:84] Creating Layer scale3c_branch2c
I0312 10:34:31.396829  8753 net.cpp:406] scale3c_branch2c <- res3c_branch2c
I0312 10:34:31.396836  8753 net.cpp:367] scale3c_branch2c -> res3c_branch2c (in-place)
I0312 10:34:31.396879  8753 layer_factory.hpp:77] Creating layer scale3c_branch2c
I0312 10:34:31.397011  8753 net.cpp:122] Setting up scale3c_branch2c
I0312 10:34:31.397022  8753 net.cpp:129] Top shape: 8 512 28 28 (3211264)
I0312 10:34:31.397025  8753 net.cpp:137] Memory required for data: 1245970432
I0312 10:34:31.397034  8753 layer_factory.hpp:77] Creating layer res3c
I0312 10:34:31.397042  8753 net.cpp:84] Creating Layer res3c
I0312 10:34:31.397047  8753 net.cpp:406] res3c <- res3b_res3b_relu_0_split_1
I0312 10:34:31.397053  8753 net.cpp:406] res3c <- res3c_branch2c
I0312 10:34:31.397058  8753 net.cpp:380] res3c -> res3c
I0312 10:34:31.397084  8753 net.cpp:122] Setting up res3c
I0312 10:34:31.397091  8753 net.cpp:129] Top shape: 8 512 28 28 (3211264)
I0312 10:34:31.397096  8753 net.cpp:137] Memory required for data: 1258815488
I0312 10:34:31.397099  8753 layer_factory.hpp:77] Creating layer res3c_relu
I0312 10:34:31.397106  8753 net.cpp:84] Creating Layer res3c_relu
I0312 10:34:31.397111  8753 net.cpp:406] res3c_relu <- res3c
I0312 10:34:31.397117  8753 net.cpp:367] res3c_relu -> res3c (in-place)
I0312 10:34:31.397658  8753 net.cpp:122] Setting up res3c_relu
I0312 10:34:31.397672  8753 net.cpp:129] Top shape: 8 512 28 28 (3211264)
I0312 10:34:31.397677  8753 net.cpp:137] Memory required for data: 1271660544
I0312 10:34:31.397683  8753 layer_factory.hpp:77] Creating layer res3c_res3c_relu_0_split
I0312 10:34:31.397692  8753 net.cpp:84] Creating Layer res3c_res3c_relu_0_split
I0312 10:34:31.397697  8753 net.cpp:406] res3c_res3c_relu_0_split <- res3c
I0312 10:34:31.397704  8753 net.cpp:380] res3c_res3c_relu_0_split -> res3c_res3c_relu_0_split_0
I0312 10:34:31.397712  8753 net.cpp:380] res3c_res3c_relu_0_split -> res3c_res3c_relu_0_split_1
I0312 10:34:31.397758  8753 net.cpp:122] Setting up res3c_res3c_relu_0_split
I0312 10:34:31.397764  8753 net.cpp:129] Top shape: 8 512 28 28 (3211264)
I0312 10:34:31.397769  8753 net.cpp:129] Top shape: 8 512 28 28 (3211264)
I0312 10:34:31.397773  8753 net.cpp:137] Memory required for data: 1297350656
I0312 10:34:31.397778  8753 layer_factory.hpp:77] Creating layer res3d_branch2a
I0312 10:34:31.397785  8753 net.cpp:84] Creating Layer res3d_branch2a
I0312 10:34:31.397790  8753 net.cpp:406] res3d_branch2a <- res3c_res3c_relu_0_split_0
I0312 10:34:31.397797  8753 net.cpp:380] res3d_branch2a -> res3d_branch2a
I0312 10:34:31.399857  8753 net.cpp:122] Setting up res3d_branch2a
I0312 10:34:31.399879  8753 net.cpp:129] Top shape: 8 128 28 28 (802816)
I0312 10:34:31.399884  8753 net.cpp:137] Memory required for data: 1300561920
I0312 10:34:31.399893  8753 layer_factory.hpp:77] Creating layer bn3d_branch2a
I0312 10:34:31.399902  8753 net.cpp:84] Creating Layer bn3d_branch2a
I0312 10:34:31.399907  8753 net.cpp:406] bn3d_branch2a <- res3d_branch2a
I0312 10:34:31.399915  8753 net.cpp:367] bn3d_branch2a -> res3d_branch2a (in-place)
I0312 10:34:31.400116  8753 net.cpp:122] Setting up bn3d_branch2a
I0312 10:34:31.400125  8753 net.cpp:129] Top shape: 8 128 28 28 (802816)
I0312 10:34:31.400128  8753 net.cpp:137] Memory required for data: 1303773184
I0312 10:34:31.400168  8753 layer_factory.hpp:77] Creating layer scale3d_branch2a
I0312 10:34:31.400178  8753 net.cpp:84] Creating Layer scale3d_branch2a
I0312 10:34:31.400182  8753 net.cpp:406] scale3d_branch2a <- res3d_branch2a
I0312 10:34:31.400189  8753 net.cpp:367] scale3d_branch2a -> res3d_branch2a (in-place)
I0312 10:34:31.400233  8753 layer_factory.hpp:77] Creating layer scale3d_branch2a
I0312 10:34:31.400348  8753 net.cpp:122] Setting up scale3d_branch2a
I0312 10:34:31.400357  8753 net.cpp:129] Top shape: 8 128 28 28 (802816)
I0312 10:34:31.400360  8753 net.cpp:137] Memory required for data: 1306984448
I0312 10:34:31.400368  8753 layer_factory.hpp:77] Creating layer res3d_branch2a_relu
I0312 10:34:31.400375  8753 net.cpp:84] Creating Layer res3d_branch2a_relu
I0312 10:34:31.400379  8753 net.cpp:406] res3d_branch2a_relu <- res3d_branch2a
I0312 10:34:31.400385  8753 net.cpp:367] res3d_branch2a_relu -> res3d_branch2a (in-place)
I0312 10:34:31.400570  8753 net.cpp:122] Setting up res3d_branch2a_relu
I0312 10:34:31.400581  8753 net.cpp:129] Top shape: 8 128 28 28 (802816)
I0312 10:34:31.400585  8753 net.cpp:137] Memory required for data: 1310195712
I0312 10:34:31.400590  8753 layer_factory.hpp:77] Creating layer res3d_branch2b
I0312 10:34:31.400599  8753 net.cpp:84] Creating Layer res3d_branch2b
I0312 10:34:31.400604  8753 net.cpp:406] res3d_branch2b <- res3d_branch2a
I0312 10:34:31.400610  8753 net.cpp:380] res3d_branch2b -> res3d_branch2b
I0312 10:34:31.402171  8753 net.cpp:122] Setting up res3d_branch2b
I0312 10:34:31.402189  8753 net.cpp:129] Top shape: 8 128 28 28 (802816)
I0312 10:34:31.402194  8753 net.cpp:137] Memory required for data: 1313406976
I0312 10:34:31.402204  8753 layer_factory.hpp:77] Creating layer bn3d_branch2b
I0312 10:34:31.402212  8753 net.cpp:84] Creating Layer bn3d_branch2b
I0312 10:34:31.402217  8753 net.cpp:406] bn3d_branch2b <- res3d_branch2b
I0312 10:34:31.402225  8753 net.cpp:367] bn3d_branch2b -> res3d_branch2b (in-place)
I0312 10:34:31.402431  8753 net.cpp:122] Setting up bn3d_branch2b
I0312 10:34:31.402439  8753 net.cpp:129] Top shape: 8 128 28 28 (802816)
I0312 10:34:31.402443  8753 net.cpp:137] Memory required for data: 1316618240
I0312 10:34:31.402453  8753 layer_factory.hpp:77] Creating layer scale3d_branch2b
I0312 10:34:31.402462  8753 net.cpp:84] Creating Layer scale3d_branch2b
I0312 10:34:31.402465  8753 net.cpp:406] scale3d_branch2b <- res3d_branch2b
I0312 10:34:31.402473  8753 net.cpp:367] scale3d_branch2b -> res3d_branch2b (in-place)
I0312 10:34:31.402516  8753 layer_factory.hpp:77] Creating layer scale3d_branch2b
I0312 10:34:31.402628  8753 net.cpp:122] Setting up scale3d_branch2b
I0312 10:34:31.402637  8753 net.cpp:129] Top shape: 8 128 28 28 (802816)
I0312 10:34:31.402640  8753 net.cpp:137] Memory required for data: 1319829504
I0312 10:34:31.402648  8753 layer_factory.hpp:77] Creating layer res3d_branch2b_relu
I0312 10:34:31.402655  8753 net.cpp:84] Creating Layer res3d_branch2b_relu
I0312 10:34:31.402659  8753 net.cpp:406] res3d_branch2b_relu <- res3d_branch2b
I0312 10:34:31.402665  8753 net.cpp:367] res3d_branch2b_relu -> res3d_branch2b (in-place)
I0312 10:34:31.402859  8753 net.cpp:122] Setting up res3d_branch2b_relu
I0312 10:34:31.402869  8753 net.cpp:129] Top shape: 8 128 28 28 (802816)
I0312 10:34:31.402873  8753 net.cpp:137] Memory required for data: 1323040768
I0312 10:34:31.402882  8753 layer_factory.hpp:77] Creating layer res3d_branch2c
I0312 10:34:31.402891  8753 net.cpp:84] Creating Layer res3d_branch2c
I0312 10:34:31.402896  8753 net.cpp:406] res3d_branch2c <- res3d_branch2b
I0312 10:34:31.402904  8753 net.cpp:380] res3d_branch2c -> res3d_branch2c
I0312 10:34:31.404032  8753 net.cpp:122] Setting up res3d_branch2c
I0312 10:34:31.404048  8753 net.cpp:129] Top shape: 8 512 28 28 (3211264)
I0312 10:34:31.404052  8753 net.cpp:137] Memory required for data: 1335885824
I0312 10:34:31.404062  8753 layer_factory.hpp:77] Creating layer bn3d_branch2c
I0312 10:34:31.404072  8753 net.cpp:84] Creating Layer bn3d_branch2c
I0312 10:34:31.404078  8753 net.cpp:406] bn3d_branch2c <- res3d_branch2c
I0312 10:34:31.404083  8753 net.cpp:367] bn3d_branch2c -> res3d_branch2c (in-place)
I0312 10:34:31.404285  8753 net.cpp:122] Setting up bn3d_branch2c
I0312 10:34:31.404294  8753 net.cpp:129] Top shape: 8 512 28 28 (3211264)
I0312 10:34:31.404297  8753 net.cpp:137] Memory required for data: 1348730880
I0312 10:34:31.404307  8753 layer_factory.hpp:77] Creating layer scale3d_branch2c
I0312 10:34:31.404314  8753 net.cpp:84] Creating Layer scale3d_branch2c
I0312 10:34:31.404320  8753 net.cpp:406] scale3d_branch2c <- res3d_branch2c
I0312 10:34:31.404325  8753 net.cpp:367] scale3d_branch2c -> res3d_branch2c (in-place)
I0312 10:34:31.404369  8753 layer_factory.hpp:77] Creating layer scale3d_branch2c
I0312 10:34:31.404479  8753 net.cpp:122] Setting up scale3d_branch2c
I0312 10:34:31.404486  8753 net.cpp:129] Top shape: 8 512 28 28 (3211264)
I0312 10:34:31.404491  8753 net.cpp:137] Memory required for data: 1361575936
I0312 10:34:31.404498  8753 layer_factory.hpp:77] Creating layer res3d
I0312 10:34:31.404505  8753 net.cpp:84] Creating Layer res3d
I0312 10:34:31.404510  8753 net.cpp:406] res3d <- res3c_res3c_relu_0_split_1
I0312 10:34:31.404516  8753 net.cpp:406] res3d <- res3d_branch2c
I0312 10:34:31.404521  8753 net.cpp:380] res3d -> res3d
I0312 10:34:31.404546  8753 net.cpp:122] Setting up res3d
I0312 10:34:31.404553  8753 net.cpp:129] Top shape: 8 512 28 28 (3211264)
I0312 10:34:31.404557  8753 net.cpp:137] Memory required for data: 1374420992
I0312 10:34:31.404563  8753 layer_factory.hpp:77] Creating layer res3d_relu
I0312 10:34:31.404569  8753 net.cpp:84] Creating Layer res3d_relu
I0312 10:34:31.404574  8753 net.cpp:406] res3d_relu <- res3d
I0312 10:34:31.404580  8753 net.cpp:367] res3d_relu -> res3d (in-place)
I0312 10:34:31.404764  8753 net.cpp:122] Setting up res3d_relu
I0312 10:34:31.404773  8753 net.cpp:129] Top shape: 8 512 28 28 (3211264)
I0312 10:34:31.404778  8753 net.cpp:137] Memory required for data: 1387266048
I0312 10:34:31.404783  8753 layer_factory.hpp:77] Creating layer res3d_res3d_relu_0_split
I0312 10:34:31.404789  8753 net.cpp:84] Creating Layer res3d_res3d_relu_0_split
I0312 10:34:31.404794  8753 net.cpp:406] res3d_res3d_relu_0_split <- res3d
I0312 10:34:31.404800  8753 net.cpp:380] res3d_res3d_relu_0_split -> res3d_res3d_relu_0_split_0
I0312 10:34:31.404808  8753 net.cpp:380] res3d_res3d_relu_0_split -> res3d_res3d_relu_0_split_1
I0312 10:34:31.404850  8753 net.cpp:122] Setting up res3d_res3d_relu_0_split
I0312 10:34:31.404856  8753 net.cpp:129] Top shape: 8 512 28 28 (3211264)
I0312 10:34:31.404861  8753 net.cpp:129] Top shape: 8 512 28 28 (3211264)
I0312 10:34:31.404865  8753 net.cpp:137] Memory required for data: 1412956160
I0312 10:34:31.404870  8753 layer_factory.hpp:77] Creating layer res4a_branch1
I0312 10:34:31.404877  8753 net.cpp:84] Creating Layer res4a_branch1
I0312 10:34:31.404882  8753 net.cpp:406] res4a_branch1 <- res3d_res3d_relu_0_split_0
I0312 10:34:31.404889  8753 net.cpp:380] res4a_branch1 -> res4a_branch1
I0312 10:34:31.407328  8753 net.cpp:122] Setting up res4a_branch1
I0312 10:34:31.407346  8753 net.cpp:129] Top shape: 8 1024 14 14 (1605632)
I0312 10:34:31.407351  8753 net.cpp:137] Memory required for data: 1419378688
I0312 10:34:31.407361  8753 layer_factory.hpp:77] Creating layer bn4a_branch1
I0312 10:34:31.407371  8753 net.cpp:84] Creating Layer bn4a_branch1
I0312 10:34:31.407382  8753 net.cpp:406] bn4a_branch1 <- res4a_branch1
I0312 10:34:31.407388  8753 net.cpp:367] bn4a_branch1 -> res4a_branch1 (in-place)
I0312 10:34:31.407603  8753 net.cpp:122] Setting up bn4a_branch1
I0312 10:34:31.407610  8753 net.cpp:129] Top shape: 8 1024 14 14 (1605632)
I0312 10:34:31.407614  8753 net.cpp:137] Memory required for data: 1425801216
I0312 10:34:31.407624  8753 layer_factory.hpp:77] Creating layer scale4a_branch1
I0312 10:34:31.407632  8753 net.cpp:84] Creating Layer scale4a_branch1
I0312 10:34:31.407636  8753 net.cpp:406] scale4a_branch1 <- res4a_branch1
I0312 10:34:31.407644  8753 net.cpp:367] scale4a_branch1 -> res4a_branch1 (in-place)
I0312 10:34:31.407682  8753 layer_factory.hpp:77] Creating layer scale4a_branch1
I0312 10:34:31.407799  8753 net.cpp:122] Setting up scale4a_branch1
I0312 10:34:31.407806  8753 net.cpp:129] Top shape: 8 1024 14 14 (1605632)
I0312 10:34:31.407810  8753 net.cpp:137] Memory required for data: 1432223744
I0312 10:34:31.407817  8753 layer_factory.hpp:77] Creating layer res4a_branch2a
I0312 10:34:31.407826  8753 net.cpp:84] Creating Layer res4a_branch2a
I0312 10:34:31.407831  8753 net.cpp:406] res4a_branch2a <- res3d_res3d_relu_0_split_1
I0312 10:34:31.407838  8753 net.cpp:380] res4a_branch2a -> res4a_branch2a
I0312 10:34:31.409045  8753 net.cpp:122] Setting up res4a_branch2a
I0312 10:34:31.409063  8753 net.cpp:129] Top shape: 8 256 14 14 (401408)
I0312 10:34:31.409067  8753 net.cpp:137] Memory required for data: 1433829376
I0312 10:34:31.409078  8753 layer_factory.hpp:77] Creating layer bn4a_branch2a
I0312 10:34:31.409087  8753 net.cpp:84] Creating Layer bn4a_branch2a
I0312 10:34:31.409092  8753 net.cpp:406] bn4a_branch2a <- res4a_branch2a
I0312 10:34:31.409101  8753 net.cpp:367] bn4a_branch2a -> res4a_branch2a (in-place)
I0312 10:34:31.409327  8753 net.cpp:122] Setting up bn4a_branch2a
I0312 10:34:31.409333  8753 net.cpp:129] Top shape: 8 256 14 14 (401408)
I0312 10:34:31.409338  8753 net.cpp:137] Memory required for data: 1435435008
I0312 10:34:31.409348  8753 layer_factory.hpp:77] Creating layer scale4a_branch2a
I0312 10:34:31.409355  8753 net.cpp:84] Creating Layer scale4a_branch2a
I0312 10:34:31.409359  8753 net.cpp:406] scale4a_branch2a <- res4a_branch2a
I0312 10:34:31.409366  8753 net.cpp:367] scale4a_branch2a -> res4a_branch2a (in-place)
I0312 10:34:31.409407  8753 layer_factory.hpp:77] Creating layer scale4a_branch2a
I0312 10:34:31.409519  8753 net.cpp:122] Setting up scale4a_branch2a
I0312 10:34:31.409528  8753 net.cpp:129] Top shape: 8 256 14 14 (401408)
I0312 10:34:31.409531  8753 net.cpp:137] Memory required for data: 1437040640
I0312 10:34:31.409539  8753 layer_factory.hpp:77] Creating layer res4a_branch2a_relu
I0312 10:34:31.409545  8753 net.cpp:84] Creating Layer res4a_branch2a_relu
I0312 10:34:31.409549  8753 net.cpp:406] res4a_branch2a_relu <- res4a_branch2a
I0312 10:34:31.409555  8753 net.cpp:367] res4a_branch2a_relu -> res4a_branch2a (in-place)
I0312 10:34:31.409739  8753 net.cpp:122] Setting up res4a_branch2a_relu
I0312 10:34:31.409749  8753 net.cpp:129] Top shape: 8 256 14 14 (401408)
I0312 10:34:31.409754  8753 net.cpp:137] Memory required for data: 1438646272
I0312 10:34:31.409759  8753 layer_factory.hpp:77] Creating layer res4a_branch2b
I0312 10:34:31.409767  8753 net.cpp:84] Creating Layer res4a_branch2b
I0312 10:34:31.409772  8753 net.cpp:406] res4a_branch2b <- res4a_branch2a
I0312 10:34:31.409780  8753 net.cpp:380] res4a_branch2b -> res4a_branch2b
I0312 10:34:31.412613  8753 net.cpp:122] Setting up res4a_branch2b
I0312 10:34:31.412631  8753 net.cpp:129] Top shape: 8 256 14 14 (401408)
I0312 10:34:31.412636  8753 net.cpp:137] Memory required for data: 1440251904
I0312 10:34:31.412644  8753 layer_factory.hpp:77] Creating layer bn4a_branch2b
I0312 10:34:31.412655  8753 net.cpp:84] Creating Layer bn4a_branch2b
I0312 10:34:31.412660  8753 net.cpp:406] bn4a_branch2b <- res4a_branch2b
I0312 10:34:31.412667  8753 net.cpp:367] bn4a_branch2b -> res4a_branch2b (in-place)
I0312 10:34:31.412901  8753 net.cpp:122] Setting up bn4a_branch2b
I0312 10:34:31.412915  8753 net.cpp:129] Top shape: 8 256 14 14 (401408)
I0312 10:34:31.412920  8753 net.cpp:137] Memory required for data: 1441857536
I0312 10:34:31.412930  8753 layer_factory.hpp:77] Creating layer scale4a_branch2b
I0312 10:34:31.412964  8753 net.cpp:84] Creating Layer scale4a_branch2b
I0312 10:34:31.412971  8753 net.cpp:406] scale4a_branch2b <- res4a_branch2b
I0312 10:34:31.412978  8753 net.cpp:367] scale4a_branch2b -> res4a_branch2b (in-place)
I0312 10:34:31.413028  8753 layer_factory.hpp:77] Creating layer scale4a_branch2b
I0312 10:34:31.413151  8753 net.cpp:122] Setting up scale4a_branch2b
I0312 10:34:31.413161  8753 net.cpp:129] Top shape: 8 256 14 14 (401408)
I0312 10:34:31.413166  8753 net.cpp:137] Memory required for data: 1443463168
I0312 10:34:31.413175  8753 layer_factory.hpp:77] Creating layer res4a_branch2b_relu
I0312 10:34:31.413182  8753 net.cpp:84] Creating Layer res4a_branch2b_relu
I0312 10:34:31.413187  8753 net.cpp:406] res4a_branch2b_relu <- res4a_branch2b
I0312 10:34:31.413193  8753 net.cpp:367] res4a_branch2b_relu -> res4a_branch2b (in-place)
I0312 10:34:31.413430  8753 net.cpp:122] Setting up res4a_branch2b_relu
I0312 10:34:31.413440  8753 net.cpp:129] Top shape: 8 256 14 14 (401408)
I0312 10:34:31.413445  8753 net.cpp:137] Memory required for data: 1445068800
I0312 10:34:31.413450  8753 layer_factory.hpp:77] Creating layer res4a_branch2c
I0312 10:34:31.413460  8753 net.cpp:84] Creating Layer res4a_branch2c
I0312 10:34:31.413465  8753 net.cpp:406] res4a_branch2c <- res4a_branch2b
I0312 10:34:31.413472  8753 net.cpp:380] res4a_branch2c -> res4a_branch2c
I0312 10:34:31.415719  8753 net.cpp:122] Setting up res4a_branch2c
I0312 10:34:31.415738  8753 net.cpp:129] Top shape: 8 1024 14 14 (1605632)
I0312 10:34:31.415742  8753 net.cpp:137] Memory required for data: 1451491328
I0312 10:34:31.415751  8753 layer_factory.hpp:77] Creating layer bn4a_branch2c
I0312 10:34:31.415762  8753 net.cpp:84] Creating Layer bn4a_branch2c
I0312 10:34:31.415767  8753 net.cpp:406] bn4a_branch2c <- res4a_branch2c
I0312 10:34:31.415776  8753 net.cpp:367] bn4a_branch2c -> res4a_branch2c (in-place)
I0312 10:34:31.416000  8753 net.cpp:122] Setting up bn4a_branch2c
I0312 10:34:31.416009  8753 net.cpp:129] Top shape: 8 1024 14 14 (1605632)
I0312 10:34:31.416013  8753 net.cpp:137] Memory required for data: 1457913856
I0312 10:34:31.416024  8753 layer_factory.hpp:77] Creating layer scale4a_branch2c
I0312 10:34:31.416033  8753 net.cpp:84] Creating Layer scale4a_branch2c
I0312 10:34:31.416038  8753 net.cpp:406] scale4a_branch2c <- res4a_branch2c
I0312 10:34:31.416043  8753 net.cpp:367] scale4a_branch2c -> res4a_branch2c (in-place)
I0312 10:34:31.416090  8753 layer_factory.hpp:77] Creating layer scale4a_branch2c
I0312 10:34:31.416220  8753 net.cpp:122] Setting up scale4a_branch2c
I0312 10:34:31.416227  8753 net.cpp:129] Top shape: 8 1024 14 14 (1605632)
I0312 10:34:31.416231  8753 net.cpp:137] Memory required for data: 1464336384
I0312 10:34:31.416241  8753 layer_factory.hpp:77] Creating layer res4a
I0312 10:34:31.416250  8753 net.cpp:84] Creating Layer res4a
I0312 10:34:31.416255  8753 net.cpp:406] res4a <- res4a_branch1
I0312 10:34:31.416260  8753 net.cpp:406] res4a <- res4a_branch2c
I0312 10:34:31.416266  8753 net.cpp:380] res4a -> res4a
I0312 10:34:31.416296  8753 net.cpp:122] Setting up res4a
I0312 10:34:31.416303  8753 net.cpp:129] Top shape: 8 1024 14 14 (1605632)
I0312 10:34:31.416307  8753 net.cpp:137] Memory required for data: 1470758912
I0312 10:34:31.416311  8753 layer_factory.hpp:77] Creating layer res4a_relu
I0312 10:34:31.416318  8753 net.cpp:84] Creating Layer res4a_relu
I0312 10:34:31.416322  8753 net.cpp:406] res4a_relu <- res4a
I0312 10:34:31.416328  8753 net.cpp:367] res4a_relu -> res4a (in-place)
I0312 10:34:31.416887  8753 net.cpp:122] Setting up res4a_relu
I0312 10:34:31.416904  8753 net.cpp:129] Top shape: 8 1024 14 14 (1605632)
I0312 10:34:31.416909  8753 net.cpp:137] Memory required for data: 1477181440
I0312 10:34:31.416913  8753 layer_factory.hpp:77] Creating layer res4a_res4a_relu_0_split
I0312 10:34:31.416980  8753 net.cpp:84] Creating Layer res4a_res4a_relu_0_split
I0312 10:34:31.416988  8753 net.cpp:406] res4a_res4a_relu_0_split <- res4a
I0312 10:34:31.416997  8753 net.cpp:380] res4a_res4a_relu_0_split -> res4a_res4a_relu_0_split_0
I0312 10:34:31.417006  8753 net.cpp:380] res4a_res4a_relu_0_split -> res4a_res4a_relu_0_split_1
I0312 10:34:31.417057  8753 net.cpp:122] Setting up res4a_res4a_relu_0_split
I0312 10:34:31.417064  8753 net.cpp:129] Top shape: 8 1024 14 14 (1605632)
I0312 10:34:31.417069  8753 net.cpp:129] Top shape: 8 1024 14 14 (1605632)
I0312 10:34:31.417073  8753 net.cpp:137] Memory required for data: 1490026496
I0312 10:34:31.417080  8753 layer_factory.hpp:77] Creating layer res4b_branch2a
I0312 10:34:31.417093  8753 net.cpp:84] Creating Layer res4b_branch2a
I0312 10:34:31.417098  8753 net.cpp:406] res4b_branch2a <- res4a_res4a_relu_0_split_0
I0312 10:34:31.417105  8753 net.cpp:380] res4b_branch2a -> res4b_branch2a
I0312 10:34:31.418154  8753 net.cpp:122] Setting up res4b_branch2a
I0312 10:34:31.418167  8753 net.cpp:129] Top shape: 8 256 14 14 (401408)
I0312 10:34:31.418171  8753 net.cpp:137] Memory required for data: 1491632128
I0312 10:34:31.418179  8753 layer_factory.hpp:77] Creating layer bn4b_branch2a
I0312 10:34:31.418189  8753 net.cpp:84] Creating Layer bn4b_branch2a
I0312 10:34:31.418193  8753 net.cpp:406] bn4b_branch2a <- res4b_branch2a
I0312 10:34:31.418200  8753 net.cpp:367] bn4b_branch2a -> res4b_branch2a (in-place)
I0312 10:34:31.418408  8753 net.cpp:122] Setting up bn4b_branch2a
I0312 10:34:31.418416  8753 net.cpp:129] Top shape: 8 256 14 14 (401408)
I0312 10:34:31.418419  8753 net.cpp:137] Memory required for data: 1493237760
I0312 10:34:31.418431  8753 layer_factory.hpp:77] Creating layer scale4b_branch2a
I0312 10:34:31.418438  8753 net.cpp:84] Creating Layer scale4b_branch2a
I0312 10:34:31.418442  8753 net.cpp:406] scale4b_branch2a <- res4b_branch2a
I0312 10:34:31.418449  8753 net.cpp:367] scale4b_branch2a -> res4b_branch2a (in-place)
I0312 10:34:31.418496  8753 layer_factory.hpp:77] Creating layer scale4b_branch2a
I0312 10:34:31.418613  8753 net.cpp:122] Setting up scale4b_branch2a
I0312 10:34:31.418620  8753 net.cpp:129] Top shape: 8 256 14 14 (401408)
I0312 10:34:31.418625  8753 net.cpp:137] Memory required for data: 1494843392
I0312 10:34:31.418634  8753 layer_factory.hpp:77] Creating layer res4b_branch2a_relu
I0312 10:34:31.418642  8753 net.cpp:84] Creating Layer res4b_branch2a_relu
I0312 10:34:31.418646  8753 net.cpp:406] res4b_branch2a_relu <- res4b_branch2a
I0312 10:34:31.418653  8753 net.cpp:367] res4b_branch2a_relu -> res4b_branch2a (in-place)
I0312 10:34:31.419179  8753 net.cpp:122] Setting up res4b_branch2a_relu
I0312 10:34:31.419193  8753 net.cpp:129] Top shape: 8 256 14 14 (401408)
I0312 10:34:31.419198  8753 net.cpp:137] Memory required for data: 1496449024
I0312 10:34:31.419203  8753 layer_factory.hpp:77] Creating layer res4b_branch2b
I0312 10:34:31.419212  8753 net.cpp:84] Creating Layer res4b_branch2b
I0312 10:34:31.419217  8753 net.cpp:406] res4b_branch2b <- res4b_branch2a
I0312 10:34:31.419227  8753 net.cpp:380] res4b_branch2b -> res4b_branch2b
I0312 10:34:31.422224  8753 net.cpp:122] Setting up res4b_branch2b
I0312 10:34:31.422245  8753 net.cpp:129] Top shape: 8 256 14 14 (401408)
I0312 10:34:31.422248  8753 net.cpp:137] Memory required for data: 1498054656
I0312 10:34:31.422257  8753 layer_factory.hpp:77] Creating layer bn4b_branch2b
I0312 10:34:31.422267  8753 net.cpp:84] Creating Layer bn4b_branch2b
I0312 10:34:31.422272  8753 net.cpp:406] bn4b_branch2b <- res4b_branch2b
I0312 10:34:31.422278  8753 net.cpp:367] bn4b_branch2b -> res4b_branch2b (in-place)
I0312 10:34:31.422497  8753 net.cpp:122] Setting up bn4b_branch2b
I0312 10:34:31.422504  8753 net.cpp:129] Top shape: 8 256 14 14 (401408)
I0312 10:34:31.422508  8753 net.cpp:137] Memory required for data: 1499660288
I0312 10:34:31.422521  8753 layer_factory.hpp:77] Creating layer scale4b_branch2b
I0312 10:34:31.422531  8753 net.cpp:84] Creating Layer scale4b_branch2b
I0312 10:34:31.422535  8753 net.cpp:406] scale4b_branch2b <- res4b_branch2b
I0312 10:34:31.422549  8753 net.cpp:367] scale4b_branch2b -> res4b_branch2b (in-place)
I0312 10:34:31.422597  8753 layer_factory.hpp:77] Creating layer scale4b_branch2b
I0312 10:34:31.422718  8753 net.cpp:122] Setting up scale4b_branch2b
I0312 10:34:31.422725  8753 net.cpp:129] Top shape: 8 256 14 14 (401408)
I0312 10:34:31.422729  8753 net.cpp:137] Memory required for data: 1501265920
I0312 10:34:31.422737  8753 layer_factory.hpp:77] Creating layer res4b_branch2b_relu
I0312 10:34:31.422745  8753 net.cpp:84] Creating Layer res4b_branch2b_relu
I0312 10:34:31.422750  8753 net.cpp:406] res4b_branch2b_relu <- res4b_branch2b
I0312 10:34:31.422755  8753 net.cpp:367] res4b_branch2b_relu -> res4b_branch2b (in-place)
I0312 10:34:31.422958  8753 net.cpp:122] Setting up res4b_branch2b_relu
I0312 10:34:31.422968  8753 net.cpp:129] Top shape: 8 256 14 14 (401408)
I0312 10:34:31.422972  8753 net.cpp:137] Memory required for data: 1502871552
I0312 10:34:31.422976  8753 layer_factory.hpp:77] Creating layer res4b_branch2c
I0312 10:34:31.422987  8753 net.cpp:84] Creating Layer res4b_branch2c
I0312 10:34:31.422991  8753 net.cpp:406] res4b_branch2c <- res4b_branch2b
I0312 10:34:31.423000  8753 net.cpp:380] res4b_branch2c -> res4b_branch2c
I0312 10:34:31.425364  8753 net.cpp:122] Setting up res4b_branch2c
I0312 10:34:31.425382  8753 net.cpp:129] Top shape: 8 1024 14 14 (1605632)
I0312 10:34:31.425387  8753 net.cpp:137] Memory required for data: 1509294080
I0312 10:34:31.425395  8753 layer_factory.hpp:77] Creating layer bn4b_branch2c
I0312 10:34:31.425406  8753 net.cpp:84] Creating Layer bn4b_branch2c
I0312 10:34:31.425411  8753 net.cpp:406] bn4b_branch2c <- res4b_branch2c
I0312 10:34:31.425420  8753 net.cpp:367] bn4b_branch2c -> res4b_branch2c (in-place)
I0312 10:34:31.425667  8753 net.cpp:122] Setting up bn4b_branch2c
I0312 10:34:31.425674  8753 net.cpp:129] Top shape: 8 1024 14 14 (1605632)
I0312 10:34:31.425678  8753 net.cpp:137] Memory required for data: 1515716608
I0312 10:34:31.425701  8753 layer_factory.hpp:77] Creating layer scale4b_branch2c
I0312 10:34:31.425710  8753 net.cpp:84] Creating Layer scale4b_branch2c
I0312 10:34:31.425715  8753 net.cpp:406] scale4b_branch2c <- res4b_branch2c
I0312 10:34:31.425721  8753 net.cpp:367] scale4b_branch2c -> res4b_branch2c (in-place)
I0312 10:34:31.425768  8753 layer_factory.hpp:77] Creating layer scale4b_branch2c
I0312 10:34:31.425911  8753 net.cpp:122] Setting up scale4b_branch2c
I0312 10:34:31.425931  8753 net.cpp:129] Top shape: 8 1024 14 14 (1605632)
I0312 10:34:31.425935  8753 net.cpp:137] Memory required for data: 1522139136
I0312 10:34:31.425943  8753 layer_factory.hpp:77] Creating layer res4b
I0312 10:34:31.425952  8753 net.cpp:84] Creating Layer res4b
I0312 10:34:31.425957  8753 net.cpp:406] res4b <- res4a_res4a_relu_0_split_1
I0312 10:34:31.425963  8753 net.cpp:406] res4b <- res4b_branch2c
I0312 10:34:31.425968  8753 net.cpp:380] res4b -> res4b
I0312 10:34:31.426002  8753 net.cpp:122] Setting up res4b
I0312 10:34:31.426008  8753 net.cpp:129] Top shape: 8 1024 14 14 (1605632)
I0312 10:34:31.426012  8753 net.cpp:137] Memory required for data: 1528561664
I0312 10:34:31.426015  8753 layer_factory.hpp:77] Creating layer res4b_relu
I0312 10:34:31.426023  8753 net.cpp:84] Creating Layer res4b_relu
I0312 10:34:31.426026  8753 net.cpp:406] res4b_relu <- res4b
I0312 10:34:31.426033  8753 net.cpp:367] res4b_relu -> res4b (in-place)
I0312 10:34:31.426259  8753 net.cpp:122] Setting up res4b_relu
I0312 10:34:31.426270  8753 net.cpp:129] Top shape: 8 1024 14 14 (1605632)
I0312 10:34:31.426273  8753 net.cpp:137] Memory required for data: 1534984192
I0312 10:34:31.426280  8753 layer_factory.hpp:77] Creating layer res4b_res4b_relu_0_split
I0312 10:34:31.426286  8753 net.cpp:84] Creating Layer res4b_res4b_relu_0_split
I0312 10:34:31.426291  8753 net.cpp:406] res4b_res4b_relu_0_split <- res4b
I0312 10:34:31.426300  8753 net.cpp:380] res4b_res4b_relu_0_split -> res4b_res4b_relu_0_split_0
I0312 10:34:31.426306  8753 net.cpp:380] res4b_res4b_relu_0_split -> res4b_res4b_relu_0_split_1
I0312 10:34:31.426359  8753 net.cpp:122] Setting up res4b_res4b_relu_0_split
I0312 10:34:31.426367  8753 net.cpp:129] Top shape: 8 1024 14 14 (1605632)
I0312 10:34:31.426373  8753 net.cpp:129] Top shape: 8 1024 14 14 (1605632)
I0312 10:34:31.426375  8753 net.cpp:137] Memory required for data: 1547829248
I0312 10:34:31.426379  8753 layer_factory.hpp:77] Creating layer res4c_branch2a
I0312 10:34:31.426393  8753 net.cpp:84] Creating Layer res4c_branch2a
I0312 10:34:31.426398  8753 net.cpp:406] res4c_branch2a <- res4b_res4b_relu_0_split_0
I0312 10:34:31.426404  8753 net.cpp:380] res4c_branch2a -> res4c_branch2a
I0312 10:34:31.427804  8753 net.cpp:122] Setting up res4c_branch2a
I0312 10:34:31.427821  8753 net.cpp:129] Top shape: 8 256 14 14 (401408)
I0312 10:34:31.427825  8753 net.cpp:137] Memory required for data: 1549434880
I0312 10:34:31.427834  8753 layer_factory.hpp:77] Creating layer bn4c_branch2a
I0312 10:34:31.427844  8753 net.cpp:84] Creating Layer bn4c_branch2a
I0312 10:34:31.427848  8753 net.cpp:406] bn4c_branch2a <- res4c_branch2a
I0312 10:34:31.427856  8753 net.cpp:367] bn4c_branch2a -> res4c_branch2a (in-place)
I0312 10:34:31.428069  8753 net.cpp:122] Setting up bn4c_branch2a
I0312 10:34:31.428077  8753 net.cpp:129] Top shape: 8 256 14 14 (401408)
I0312 10:34:31.428081  8753 net.cpp:137] Memory required for data: 1551040512
I0312 10:34:31.428093  8753 layer_factory.hpp:77] Creating layer scale4c_branch2a
I0312 10:34:31.428100  8753 net.cpp:84] Creating Layer scale4c_branch2a
I0312 10:34:31.428105  8753 net.cpp:406] scale4c_branch2a <- res4c_branch2a
I0312 10:34:31.428112  8753 net.cpp:367] scale4c_branch2a -> res4c_branch2a (in-place)
I0312 10:34:31.428155  8753 layer_factory.hpp:77] Creating layer scale4c_branch2a
I0312 10:34:31.428274  8753 net.cpp:122] Setting up scale4c_branch2a
I0312 10:34:31.428282  8753 net.cpp:129] Top shape: 8 256 14 14 (401408)
I0312 10:34:31.428287  8753 net.cpp:137] Memory required for data: 1552646144
I0312 10:34:31.428294  8753 layer_factory.hpp:77] Creating layer res4c_branch2a_relu
I0312 10:34:31.428300  8753 net.cpp:84] Creating Layer res4c_branch2a_relu
I0312 10:34:31.428304  8753 net.cpp:406] res4c_branch2a_relu <- res4c_branch2a
I0312 10:34:31.428311  8753 net.cpp:367] res4c_branch2a_relu -> res4c_branch2a (in-place)
I0312 10:34:31.428503  8753 net.cpp:122] Setting up res4c_branch2a_relu
I0312 10:34:31.428513  8753 net.cpp:129] Top shape: 8 256 14 14 (401408)
I0312 10:34:31.428516  8753 net.cpp:137] Memory required for data: 1554251776
I0312 10:34:31.428521  8753 layer_factory.hpp:77] Creating layer res4c_branch2b
I0312 10:34:31.428531  8753 net.cpp:84] Creating Layer res4c_branch2b
I0312 10:34:31.428535  8753 net.cpp:406] res4c_branch2b <- res4c_branch2a
I0312 10:34:31.428542  8753 net.cpp:380] res4c_branch2b -> res4c_branch2b
I0312 10:34:31.431761  8753 net.cpp:122] Setting up res4c_branch2b
I0312 10:34:31.431779  8753 net.cpp:129] Top shape: 8 256 14 14 (401408)
I0312 10:34:31.431784  8753 net.cpp:137] Memory required for data: 1555857408
I0312 10:34:31.431794  8753 layer_factory.hpp:77] Creating layer bn4c_branch2b
I0312 10:34:31.431804  8753 net.cpp:84] Creating Layer bn4c_branch2b
I0312 10:34:31.431810  8753 net.cpp:406] bn4c_branch2b <- res4c_branch2b
I0312 10:34:31.431818  8753 net.cpp:367] bn4c_branch2b -> res4c_branch2b (in-place)
I0312 10:34:31.432039  8753 net.cpp:122] Setting up bn4c_branch2b
I0312 10:34:31.432047  8753 net.cpp:129] Top shape: 8 256 14 14 (401408)
I0312 10:34:31.432051  8753 net.cpp:137] Memory required for data: 1557463040
I0312 10:34:31.432061  8753 layer_factory.hpp:77] Creating layer scale4c_branch2b
I0312 10:34:31.432068  8753 net.cpp:84] Creating Layer scale4c_branch2b
I0312 10:34:31.432073  8753 net.cpp:406] scale4c_branch2b <- res4c_branch2b
I0312 10:34:31.432080  8753 net.cpp:367] scale4c_branch2b -> res4c_branch2b (in-place)
I0312 10:34:31.432124  8753 layer_factory.hpp:77] Creating layer scale4c_branch2b
I0312 10:34:31.432245  8753 net.cpp:122] Setting up scale4c_branch2b
I0312 10:34:31.432253  8753 net.cpp:129] Top shape: 8 256 14 14 (401408)
I0312 10:34:31.432262  8753 net.cpp:137] Memory required for data: 1559068672
I0312 10:34:31.432271  8753 layer_factory.hpp:77] Creating layer res4c_branch2b_relu
I0312 10:34:31.432277  8753 net.cpp:84] Creating Layer res4c_branch2b_relu
I0312 10:34:31.432282  8753 net.cpp:406] res4c_branch2b_relu <- res4c_branch2b
I0312 10:34:31.432289  8753 net.cpp:367] res4c_branch2b_relu -> res4c_branch2b (in-place)
I0312 10:34:31.432492  8753 net.cpp:122] Setting up res4c_branch2b_relu
I0312 10:34:31.432502  8753 net.cpp:129] Top shape: 8 256 14 14 (401408)
I0312 10:34:31.432507  8753 net.cpp:137] Memory required for data: 1560674304
I0312 10:34:31.432512  8753 layer_factory.hpp:77] Creating layer res4c_branch2c
I0312 10:34:31.432523  8753 net.cpp:84] Creating Layer res4c_branch2c
I0312 10:34:31.432528  8753 net.cpp:406] res4c_branch2c <- res4c_branch2b
I0312 10:34:31.432535  8753 net.cpp:380] res4c_branch2c -> res4c_branch2c
I0312 10:34:31.434867  8753 net.cpp:122] Setting up res4c_branch2c
I0312 10:34:31.434886  8753 net.cpp:129] Top shape: 8 1024 14 14 (1605632)
I0312 10:34:31.434890  8753 net.cpp:137] Memory required for data: 1567096832
I0312 10:34:31.434898  8753 layer_factory.hpp:77] Creating layer bn4c_branch2c
I0312 10:34:31.434908  8753 net.cpp:84] Creating Layer bn4c_branch2c
I0312 10:34:31.434914  8753 net.cpp:406] bn4c_branch2c <- res4c_branch2c
I0312 10:34:31.434922  8753 net.cpp:367] bn4c_branch2c -> res4c_branch2c (in-place)
I0312 10:34:31.435147  8753 net.cpp:122] Setting up bn4c_branch2c
I0312 10:34:31.435154  8753 net.cpp:129] Top shape: 8 1024 14 14 (1605632)
I0312 10:34:31.435158  8753 net.cpp:137] Memory required for data: 1573519360
I0312 10:34:31.435168  8753 layer_factory.hpp:77] Creating layer scale4c_branch2c
I0312 10:34:31.435176  8753 net.cpp:84] Creating Layer scale4c_branch2c
I0312 10:34:31.435180  8753 net.cpp:406] scale4c_branch2c <- res4c_branch2c
I0312 10:34:31.435187  8753 net.cpp:367] scale4c_branch2c -> res4c_branch2c (in-place)
I0312 10:34:31.435230  8753 layer_factory.hpp:77] Creating layer scale4c_branch2c
I0312 10:34:31.435359  8753 net.cpp:122] Setting up scale4c_branch2c
I0312 10:34:31.435365  8753 net.cpp:129] Top shape: 8 1024 14 14 (1605632)
I0312 10:34:31.435369  8753 net.cpp:137] Memory required for data: 1579941888
I0312 10:34:31.435377  8753 layer_factory.hpp:77] Creating layer res4c
I0312 10:34:31.435384  8753 net.cpp:84] Creating Layer res4c
I0312 10:34:31.435389  8753 net.cpp:406] res4c <- res4b_res4b_relu_0_split_1
I0312 10:34:31.435395  8753 net.cpp:406] res4c <- res4c_branch2c
I0312 10:34:31.435400  8753 net.cpp:380] res4c -> res4c
I0312 10:34:31.435430  8753 net.cpp:122] Setting up res4c
I0312 10:34:31.435436  8753 net.cpp:129] Top shape: 8 1024 14 14 (1605632)
I0312 10:34:31.435439  8753 net.cpp:137] Memory required for data: 1586364416
I0312 10:34:31.435446  8753 layer_factory.hpp:77] Creating layer res4c_relu
I0312 10:34:31.435454  8753 net.cpp:84] Creating Layer res4c_relu
I0312 10:34:31.435458  8753 net.cpp:406] res4c_relu <- res4c
I0312 10:34:31.435463  8753 net.cpp:367] res4c_relu -> res4c (in-place)
I0312 10:34:31.435989  8753 net.cpp:122] Setting up res4c_relu
I0312 10:34:31.436004  8753 net.cpp:129] Top shape: 8 1024 14 14 (1605632)
I0312 10:34:31.436008  8753 net.cpp:137] Memory required for data: 1592786944
I0312 10:34:31.436012  8753 layer_factory.hpp:77] Creating layer res4c_res4c_relu_0_split
I0312 10:34:31.436022  8753 net.cpp:84] Creating Layer res4c_res4c_relu_0_split
I0312 10:34:31.436028  8753 net.cpp:406] res4c_res4c_relu_0_split <- res4c
I0312 10:34:31.436033  8753 net.cpp:380] res4c_res4c_relu_0_split -> res4c_res4c_relu_0_split_0
I0312 10:34:31.436041  8753 net.cpp:380] res4c_res4c_relu_0_split -> res4c_res4c_relu_0_split_1
I0312 10:34:31.436090  8753 net.cpp:122] Setting up res4c_res4c_relu_0_split
I0312 10:34:31.436097  8753 net.cpp:129] Top shape: 8 1024 14 14 (1605632)
I0312 10:34:31.436102  8753 net.cpp:129] Top shape: 8 1024 14 14 (1605632)
I0312 10:34:31.436106  8753 net.cpp:137] Memory required for data: 1605632000
I0312 10:34:31.436117  8753 layer_factory.hpp:77] Creating layer res4d_branch2a
I0312 10:34:31.436128  8753 net.cpp:84] Creating Layer res4d_branch2a
I0312 10:34:31.436132  8753 net.cpp:406] res4d_branch2a <- res4c_res4c_relu_0_split_0
I0312 10:34:31.436141  8753 net.cpp:380] res4d_branch2a -> res4d_branch2a
I0312 10:34:31.442291  8753 net.cpp:122] Setting up res4d_branch2a
I0312 10:34:31.442306  8753 net.cpp:129] Top shape: 8 256 14 14 (401408)
I0312 10:34:31.442309  8753 net.cpp:137] Memory required for data: 1607237632
I0312 10:34:31.442317  8753 layer_factory.hpp:77] Creating layer bn4d_branch2a
I0312 10:34:31.442327  8753 net.cpp:84] Creating Layer bn4d_branch2a
I0312 10:34:31.442332  8753 net.cpp:406] bn4d_branch2a <- res4d_branch2a
I0312 10:34:31.442339  8753 net.cpp:367] bn4d_branch2a -> res4d_branch2a (in-place)
I0312 10:34:31.442551  8753 net.cpp:122] Setting up bn4d_branch2a
I0312 10:34:31.442559  8753 net.cpp:129] Top shape: 8 256 14 14 (401408)
I0312 10:34:31.442564  8753 net.cpp:137] Memory required for data: 1608843264
I0312 10:34:31.442572  8753 layer_factory.hpp:77] Creating layer scale4d_branch2a
I0312 10:34:31.442581  8753 net.cpp:84] Creating Layer scale4d_branch2a
I0312 10:34:31.442586  8753 net.cpp:406] scale4d_branch2a <- res4d_branch2a
I0312 10:34:31.442592  8753 net.cpp:367] scale4d_branch2a -> res4d_branch2a (in-place)
I0312 10:34:31.442637  8753 layer_factory.hpp:77] Creating layer scale4d_branch2a
I0312 10:34:31.442759  8753 net.cpp:122] Setting up scale4d_branch2a
I0312 10:34:31.442766  8753 net.cpp:129] Top shape: 8 256 14 14 (401408)
I0312 10:34:31.442770  8753 net.cpp:137] Memory required for data: 1610448896
I0312 10:34:31.442778  8753 layer_factory.hpp:77] Creating layer res4d_branch2a_relu
I0312 10:34:31.442786  8753 net.cpp:84] Creating Layer res4d_branch2a_relu
I0312 10:34:31.442790  8753 net.cpp:406] res4d_branch2a_relu <- res4d_branch2a
I0312 10:34:31.442797  8753 net.cpp:367] res4d_branch2a_relu -> res4d_branch2a (in-place)
I0312 10:34:31.444407  8753 net.cpp:122] Setting up res4d_branch2a_relu
I0312 10:34:31.444422  8753 net.cpp:129] Top shape: 8 256 14 14 (401408)
I0312 10:34:31.444427  8753 net.cpp:137] Memory required for data: 1612054528
I0312 10:34:31.444433  8753 layer_factory.hpp:77] Creating layer res4d_branch2b
I0312 10:34:31.444444  8753 net.cpp:84] Creating Layer res4d_branch2b
I0312 10:34:31.444449  8753 net.cpp:406] res4d_branch2b <- res4d_branch2a
I0312 10:34:31.444456  8753 net.cpp:380] res4d_branch2b -> res4d_branch2b
I0312 10:34:31.451376  8753 net.cpp:122] Setting up res4d_branch2b
I0312 10:34:31.451393  8753 net.cpp:129] Top shape: 8 256 14 14 (401408)
I0312 10:34:31.451398  8753 net.cpp:137] Memory required for data: 1613660160
I0312 10:34:31.451406  8753 layer_factory.hpp:77] Creating layer bn4d_branch2b
I0312 10:34:31.451416  8753 net.cpp:84] Creating Layer bn4d_branch2b
I0312 10:34:31.451421  8753 net.cpp:406] bn4d_branch2b <- res4d_branch2b
I0312 10:34:31.451429  8753 net.cpp:367] bn4d_branch2b -> res4d_branch2b (in-place)
I0312 10:34:31.451652  8753 net.cpp:122] Setting up bn4d_branch2b
I0312 10:34:31.451659  8753 net.cpp:129] Top shape: 8 256 14 14 (401408)
I0312 10:34:31.451663  8753 net.cpp:137] Memory required for data: 1615265792
I0312 10:34:31.451673  8753 layer_factory.hpp:77] Creating layer scale4d_branch2b
I0312 10:34:31.451683  8753 net.cpp:84] Creating Layer scale4d_branch2b
I0312 10:34:31.451687  8753 net.cpp:406] scale4d_branch2b <- res4d_branch2b
I0312 10:34:31.451694  8753 net.cpp:367] scale4d_branch2b -> res4d_branch2b (in-place)
I0312 10:34:31.451740  8753 layer_factory.hpp:77] Creating layer scale4d_branch2b
I0312 10:34:31.451861  8753 net.cpp:122] Setting up scale4d_branch2b
I0312 10:34:31.451869  8753 net.cpp:129] Top shape: 8 256 14 14 (401408)
I0312 10:34:31.451874  8753 net.cpp:137] Memory required for data: 1616871424
I0312 10:34:31.451884  8753 layer_factory.hpp:77] Creating layer res4d_branch2b_relu
I0312 10:34:31.451890  8753 net.cpp:84] Creating Layer res4d_branch2b_relu
I0312 10:34:31.451895  8753 net.cpp:406] res4d_branch2b_relu <- res4d_branch2b
I0312 10:34:31.451908  8753 net.cpp:367] res4d_branch2b_relu -> res4d_branch2b (in-place)
I0312 10:34:31.453220  8753 net.cpp:122] Setting up res4d_branch2b_relu
I0312 10:34:31.453236  8753 net.cpp:129] Top shape: 8 256 14 14 (401408)
I0312 10:34:31.453241  8753 net.cpp:137] Memory required for data: 1618477056
I0312 10:34:31.453261  8753 layer_factory.hpp:77] Creating layer res4d_branch2c
I0312 10:34:31.453270  8753 net.cpp:84] Creating Layer res4d_branch2c
I0312 10:34:31.453294  8753 net.cpp:406] res4d_branch2c <- res4d_branch2b
I0312 10:34:31.453302  8753 net.cpp:380] res4d_branch2c -> res4d_branch2c
I0312 10:34:31.457932  8753 net.cpp:122] Setting up res4d_branch2c
I0312 10:34:31.457949  8753 net.cpp:129] Top shape: 8 1024 14 14 (1605632)
I0312 10:34:31.457953  8753 net.cpp:137] Memory required for data: 1624899584
I0312 10:34:31.457962  8753 layer_factory.hpp:77] Creating layer bn4d_branch2c
I0312 10:34:31.457973  8753 net.cpp:84] Creating Layer bn4d_branch2c
I0312 10:34:31.457978  8753 net.cpp:406] bn4d_branch2c <- res4d_branch2c
I0312 10:34:31.457986  8753 net.cpp:367] bn4d_branch2c -> res4d_branch2c (in-place)
I0312 10:34:31.458240  8753 net.cpp:122] Setting up bn4d_branch2c
I0312 10:34:31.458247  8753 net.cpp:129] Top shape: 8 1024 14 14 (1605632)
I0312 10:34:31.458251  8753 net.cpp:137] Memory required for data: 1631322112
I0312 10:34:31.458263  8753 layer_factory.hpp:77] Creating layer scale4d_branch2c
I0312 10:34:31.458272  8753 net.cpp:84] Creating Layer scale4d_branch2c
I0312 10:34:31.458277  8753 net.cpp:406] scale4d_branch2c <- res4d_branch2c
I0312 10:34:31.458283  8753 net.cpp:367] scale4d_branch2c -> res4d_branch2c (in-place)
I0312 10:34:31.458329  8753 layer_factory.hpp:77] Creating layer scale4d_branch2c
I0312 10:34:31.458463  8753 net.cpp:122] Setting up scale4d_branch2c
I0312 10:34:31.458490  8753 net.cpp:129] Top shape: 8 1024 14 14 (1605632)
I0312 10:34:31.458494  8753 net.cpp:137] Memory required for data: 1637744640
I0312 10:34:31.458501  8753 layer_factory.hpp:77] Creating layer res4d
I0312 10:34:31.458510  8753 net.cpp:84] Creating Layer res4d
I0312 10:34:31.458515  8753 net.cpp:406] res4d <- res4c_res4c_relu_0_split_1
I0312 10:34:31.458521  8753 net.cpp:406] res4d <- res4d_branch2c
I0312 10:34:31.458526  8753 net.cpp:380] res4d -> res4d
I0312 10:34:31.458555  8753 net.cpp:122] Setting up res4d
I0312 10:34:31.458564  8753 net.cpp:129] Top shape: 8 1024 14 14 (1605632)
I0312 10:34:31.458566  8753 net.cpp:137] Memory required for data: 1644167168
I0312 10:34:31.458570  8753 layer_factory.hpp:77] Creating layer res4d_relu
I0312 10:34:31.458576  8753 net.cpp:84] Creating Layer res4d_relu
I0312 10:34:31.458581  8753 net.cpp:406] res4d_relu <- res4d
I0312 10:34:31.458588  8753 net.cpp:367] res4d_relu -> res4d (in-place)
I0312 10:34:31.458775  8753 net.cpp:122] Setting up res4d_relu
I0312 10:34:31.458784  8753 net.cpp:129] Top shape: 8 1024 14 14 (1605632)
I0312 10:34:31.458788  8753 net.cpp:137] Memory required for data: 1650589696
I0312 10:34:31.458794  8753 layer_factory.hpp:77] Creating layer res4d_res4d_relu_0_split
I0312 10:34:31.458801  8753 net.cpp:84] Creating Layer res4d_res4d_relu_0_split
I0312 10:34:31.458806  8753 net.cpp:406] res4d_res4d_relu_0_split <- res4d
I0312 10:34:31.458813  8753 net.cpp:380] res4d_res4d_relu_0_split -> res4d_res4d_relu_0_split_0
I0312 10:34:31.458820  8753 net.cpp:380] res4d_res4d_relu_0_split -> res4d_res4d_relu_0_split_1
I0312 10:34:31.458868  8753 net.cpp:122] Setting up res4d_res4d_relu_0_split
I0312 10:34:31.458874  8753 net.cpp:129] Top shape: 8 1024 14 14 (1605632)
I0312 10:34:31.458879  8753 net.cpp:129] Top shape: 8 1024 14 14 (1605632)
I0312 10:34:31.458883  8753 net.cpp:137] Memory required for data: 1663434752
I0312 10:34:31.458886  8753 layer_factory.hpp:77] Creating layer res4e_branch2a
I0312 10:34:31.458896  8753 net.cpp:84] Creating Layer res4e_branch2a
I0312 10:34:31.458901  8753 net.cpp:406] res4e_branch2a <- res4d_res4d_relu_0_split_0
I0312 10:34:31.458909  8753 net.cpp:380] res4e_branch2a -> res4e_branch2a
I0312 10:34:31.464751  8753 net.cpp:122] Setting up res4e_branch2a
I0312 10:34:31.464771  8753 net.cpp:129] Top shape: 8 256 14 14 (401408)
I0312 10:34:31.464776  8753 net.cpp:137] Memory required for data: 1665040384
I0312 10:34:31.464782  8753 layer_factory.hpp:77] Creating layer bn4e_branch2a
I0312 10:34:31.464792  8753 net.cpp:84] Creating Layer bn4e_branch2a
I0312 10:34:31.464797  8753 net.cpp:406] bn4e_branch2a <- res4e_branch2a
I0312 10:34:31.464804  8753 net.cpp:367] bn4e_branch2a -> res4e_branch2a (in-place)
I0312 10:34:31.465054  8753 net.cpp:122] Setting up bn4e_branch2a
I0312 10:34:31.465062  8753 net.cpp:129] Top shape: 8 256 14 14 (401408)
I0312 10:34:31.465067  8753 net.cpp:137] Memory required for data: 1666646016
I0312 10:34:31.465077  8753 layer_factory.hpp:77] Creating layer scale4e_branch2a
I0312 10:34:31.465085  8753 net.cpp:84] Creating Layer scale4e_branch2a
I0312 10:34:31.465090  8753 net.cpp:406] scale4e_branch2a <- res4e_branch2a
I0312 10:34:31.465097  8753 net.cpp:367] scale4e_branch2a -> res4e_branch2a (in-place)
I0312 10:34:31.465147  8753 layer_factory.hpp:77] Creating layer scale4e_branch2a
I0312 10:34:31.465317  8753 net.cpp:122] Setting up scale4e_branch2a
I0312 10:34:31.465327  8753 net.cpp:129] Top shape: 8 256 14 14 (401408)
I0312 10:34:31.465330  8753 net.cpp:137] Memory required for data: 1668251648
I0312 10:34:31.465339  8753 layer_factory.hpp:77] Creating layer res4e_branch2a_relu
I0312 10:34:31.465346  8753 net.cpp:84] Creating Layer res4e_branch2a_relu
I0312 10:34:31.465350  8753 net.cpp:406] res4e_branch2a_relu <- res4e_branch2a
I0312 10:34:31.465356  8753 net.cpp:367] res4e_branch2a_relu -> res4e_branch2a (in-place)
I0312 10:34:31.466856  8753 net.cpp:122] Setting up res4e_branch2a_relu
I0312 10:34:31.466866  8753 net.cpp:129] Top shape: 8 256 14 14 (401408)
I0312 10:34:31.466869  8753 net.cpp:137] Memory required for data: 1669857280
I0312 10:34:31.466873  8753 layer_factory.hpp:77] Creating layer res4e_branch2b
I0312 10:34:31.466883  8753 net.cpp:84] Creating Layer res4e_branch2b
I0312 10:34:31.466888  8753 net.cpp:406] res4e_branch2b <- res4e_branch2a
I0312 10:34:31.466897  8753 net.cpp:380] res4e_branch2b -> res4e_branch2b
I0312 10:34:31.473852  8753 net.cpp:122] Setting up res4e_branch2b
I0312 10:34:31.473870  8753 net.cpp:129] Top shape: 8 256 14 14 (401408)
I0312 10:34:31.473875  8753 net.cpp:137] Memory required for data: 1671462912
I0312 10:34:31.473882  8753 layer_factory.hpp:77] Creating layer bn4e_branch2b
I0312 10:34:31.473892  8753 net.cpp:84] Creating Layer bn4e_branch2b
I0312 10:34:31.473897  8753 net.cpp:406] bn4e_branch2b <- res4e_branch2b
I0312 10:34:31.473906  8753 net.cpp:367] bn4e_branch2b -> res4e_branch2b (in-place)
I0312 10:34:31.474128  8753 net.cpp:122] Setting up bn4e_branch2b
I0312 10:34:31.474136  8753 net.cpp:129] Top shape: 8 256 14 14 (401408)
I0312 10:34:31.474140  8753 net.cpp:137] Memory required for data: 1673068544
I0312 10:34:31.474151  8753 layer_factory.hpp:77] Creating layer scale4e_branch2b
I0312 10:34:31.474161  8753 net.cpp:84] Creating Layer scale4e_branch2b
I0312 10:34:31.474166  8753 net.cpp:406] scale4e_branch2b <- res4e_branch2b
I0312 10:34:31.474172  8753 net.cpp:367] scale4e_branch2b -> res4e_branch2b (in-place)
I0312 10:34:31.474220  8753 layer_factory.hpp:77] Creating layer scale4e_branch2b
I0312 10:34:31.474342  8753 net.cpp:122] Setting up scale4e_branch2b
I0312 10:34:31.474350  8753 net.cpp:129] Top shape: 8 256 14 14 (401408)
I0312 10:34:31.474354  8753 net.cpp:137] Memory required for data: 1674674176
I0312 10:34:31.474361  8753 layer_factory.hpp:77] Creating layer res4e_branch2b_relu
I0312 10:34:31.474371  8753 net.cpp:84] Creating Layer res4e_branch2b_relu
I0312 10:34:31.474376  8753 net.cpp:406] res4e_branch2b_relu <- res4e_branch2b
I0312 10:34:31.474383  8753 net.cpp:367] res4e_branch2b_relu -> res4e_branch2b (in-place)
I0312 10:34:31.475648  8753 net.cpp:122] Setting up res4e_branch2b_relu
I0312 10:34:31.475661  8753 net.cpp:129] Top shape: 8 256 14 14 (401408)
I0312 10:34:31.475664  8753 net.cpp:137] Memory required for data: 1676279808
I0312 10:34:31.475675  8753 layer_factory.hpp:77] Creating layer res4e_branch2c
I0312 10:34:31.475684  8753 net.cpp:84] Creating Layer res4e_branch2c
I0312 10:34:31.475689  8753 net.cpp:406] res4e_branch2c <- res4e_branch2b
I0312 10:34:31.475697  8753 net.cpp:380] res4e_branch2c -> res4e_branch2c
I0312 10:34:31.480901  8753 net.cpp:122] Setting up res4e_branch2c
I0312 10:34:31.480921  8753 net.cpp:129] Top shape: 8 1024 14 14 (1605632)
I0312 10:34:31.480924  8753 net.cpp:137] Memory required for data: 1682702336
I0312 10:34:31.480934  8753 layer_factory.hpp:77] Creating layer bn4e_branch2c
I0312 10:34:31.480975  8753 net.cpp:84] Creating Layer bn4e_branch2c
I0312 10:34:31.480980  8753 net.cpp:406] bn4e_branch2c <- res4e_branch2c
I0312 10:34:31.480988  8753 net.cpp:367] bn4e_branch2c -> res4e_branch2c (in-place)
I0312 10:34:31.481230  8753 net.cpp:122] Setting up bn4e_branch2c
I0312 10:34:31.481238  8753 net.cpp:129] Top shape: 8 1024 14 14 (1605632)
I0312 10:34:31.481242  8753 net.cpp:137] Memory required for data: 1689124864
I0312 10:34:31.481252  8753 layer_factory.hpp:77] Creating layer scale4e_branch2c
I0312 10:34:31.481262  8753 net.cpp:84] Creating Layer scale4e_branch2c
I0312 10:34:31.481266  8753 net.cpp:406] scale4e_branch2c <- res4e_branch2c
I0312 10:34:31.481272  8753 net.cpp:367] scale4e_branch2c -> res4e_branch2c (in-place)
I0312 10:34:31.481338  8753 layer_factory.hpp:77] Creating layer scale4e_branch2c
I0312 10:34:31.481499  8753 net.cpp:122] Setting up scale4e_branch2c
I0312 10:34:31.481508  8753 net.cpp:129] Top shape: 8 1024 14 14 (1605632)
I0312 10:34:31.481511  8753 net.cpp:137] Memory required for data: 1695547392
I0312 10:34:31.481519  8753 layer_factory.hpp:77] Creating layer res4e
I0312 10:34:31.481528  8753 net.cpp:84] Creating Layer res4e
I0312 10:34:31.481534  8753 net.cpp:406] res4e <- res4d_res4d_relu_0_split_1
I0312 10:34:31.481539  8753 net.cpp:406] res4e <- res4e_branch2c
I0312 10:34:31.481544  8753 net.cpp:380] res4e -> res4e
I0312 10:34:31.481576  8753 net.cpp:122] Setting up res4e
I0312 10:34:31.481583  8753 net.cpp:129] Top shape: 8 1024 14 14 (1605632)
I0312 10:34:31.481587  8753 net.cpp:137] Memory required for data: 1701969920
I0312 10:34:31.481611  8753 layer_factory.hpp:77] Creating layer res4e_relu
I0312 10:34:31.481617  8753 net.cpp:84] Creating Layer res4e_relu
I0312 10:34:31.481621  8753 net.cpp:406] res4e_relu <- res4e
I0312 10:34:31.481631  8753 net.cpp:367] res4e_relu -> res4e (in-place)
I0312 10:34:31.482220  8753 net.cpp:122] Setting up res4e_relu
I0312 10:34:31.482235  8753 net.cpp:129] Top shape: 8 1024 14 14 (1605632)
I0312 10:34:31.482239  8753 net.cpp:137] Memory required for data: 1708392448
I0312 10:34:31.482244  8753 layer_factory.hpp:77] Creating layer res4e_res4e_relu_0_split
I0312 10:34:31.482251  8753 net.cpp:84] Creating Layer res4e_res4e_relu_0_split
I0312 10:34:31.482256  8753 net.cpp:406] res4e_res4e_relu_0_split <- res4e
I0312 10:34:31.482264  8753 net.cpp:380] res4e_res4e_relu_0_split -> res4e_res4e_relu_0_split_0
I0312 10:34:31.482273  8753 net.cpp:380] res4e_res4e_relu_0_split -> res4e_res4e_relu_0_split_1
I0312 10:34:31.482324  8753 net.cpp:122] Setting up res4e_res4e_relu_0_split
I0312 10:34:31.482332  8753 net.cpp:129] Top shape: 8 1024 14 14 (1605632)
I0312 10:34:31.482336  8753 net.cpp:129] Top shape: 8 1024 14 14 (1605632)
I0312 10:34:31.482340  8753 net.cpp:137] Memory required for data: 1721237504
I0312 10:34:31.482344  8753 layer_factory.hpp:77] Creating layer res4f_branch2a
I0312 10:34:31.482354  8753 net.cpp:84] Creating Layer res4f_branch2a
I0312 10:34:31.482358  8753 net.cpp:406] res4f_branch2a <- res4e_res4e_relu_0_split_0
I0312 10:34:31.482365  8753 net.cpp:380] res4f_branch2a -> res4f_branch2a
I0312 10:34:31.483356  8753 net.cpp:122] Setting up res4f_branch2a
I0312 10:34:31.483371  8753 net.cpp:129] Top shape: 8 256 14 14 (401408)
I0312 10:34:31.483374  8753 net.cpp:137] Memory required for data: 1722843136
I0312 10:34:31.483381  8753 layer_factory.hpp:77] Creating layer bn4f_branch2a
I0312 10:34:31.483391  8753 net.cpp:84] Creating Layer bn4f_branch2a
I0312 10:34:31.483400  8753 net.cpp:406] bn4f_branch2a <- res4f_branch2a
I0312 10:34:31.483407  8753 net.cpp:367] bn4f_branch2a -> res4f_branch2a (in-place)
I0312 10:34:31.483628  8753 net.cpp:122] Setting up bn4f_branch2a
I0312 10:34:31.483635  8753 net.cpp:129] Top shape: 8 256 14 14 (401408)
I0312 10:34:31.483639  8753 net.cpp:137] Memory required for data: 1724448768
I0312 10:34:31.483650  8753 layer_factory.hpp:77] Creating layer scale4f_branch2a
I0312 10:34:31.483657  8753 net.cpp:84] Creating Layer scale4f_branch2a
I0312 10:34:31.483661  8753 net.cpp:406] scale4f_branch2a <- res4f_branch2a
I0312 10:34:31.483667  8753 net.cpp:367] scale4f_branch2a -> res4f_branch2a (in-place)
I0312 10:34:31.483716  8753 layer_factory.hpp:77] Creating layer scale4f_branch2a
I0312 10:34:31.483839  8753 net.cpp:122] Setting up scale4f_branch2a
I0312 10:34:31.483847  8753 net.cpp:129] Top shape: 8 256 14 14 (401408)
I0312 10:34:31.483852  8753 net.cpp:137] Memory required for data: 1726054400
I0312 10:34:31.483860  8753 layer_factory.hpp:77] Creating layer res4f_branch2a_relu
I0312 10:34:31.483865  8753 net.cpp:84] Creating Layer res4f_branch2a_relu
I0312 10:34:31.483870  8753 net.cpp:406] res4f_branch2a_relu <- res4f_branch2a
I0312 10:34:31.483875  8753 net.cpp:367] res4f_branch2a_relu -> res4f_branch2a (in-place)
I0312 10:34:31.484436  8753 net.cpp:122] Setting up res4f_branch2a_relu
I0312 10:34:31.484452  8753 net.cpp:129] Top shape: 8 256 14 14 (401408)
I0312 10:34:31.484455  8753 net.cpp:137] Memory required for data: 1727660032
I0312 10:34:31.484460  8753 layer_factory.hpp:77] Creating layer res4f_branch2b
I0312 10:34:31.484472  8753 net.cpp:84] Creating Layer res4f_branch2b
I0312 10:34:31.484477  8753 net.cpp:406] res4f_branch2b <- res4f_branch2a
I0312 10:34:31.484484  8753 net.cpp:380] res4f_branch2b -> res4f_branch2b
I0312 10:34:31.487485  8753 net.cpp:122] Setting up res4f_branch2b
I0312 10:34:31.487504  8753 net.cpp:129] Top shape: 8 256 14 14 (401408)
I0312 10:34:31.487507  8753 net.cpp:137] Memory required for data: 1729265664
I0312 10:34:31.487517  8753 layer_factory.hpp:77] Creating layer bn4f_branch2b
I0312 10:34:31.487529  8753 net.cpp:84] Creating Layer bn4f_branch2b
I0312 10:34:31.487535  8753 net.cpp:406] bn4f_branch2b <- res4f_branch2b
I0312 10:34:31.487541  8753 net.cpp:367] bn4f_branch2b -> res4f_branch2b (in-place)
I0312 10:34:31.487771  8753 net.cpp:122] Setting up bn4f_branch2b
I0312 10:34:31.487778  8753 net.cpp:129] Top shape: 8 256 14 14 (401408)
I0312 10:34:31.487782  8753 net.cpp:137] Memory required for data: 1730871296
I0312 10:34:31.487792  8753 layer_factory.hpp:77] Creating layer scale4f_branch2b
I0312 10:34:31.487799  8753 net.cpp:84] Creating Layer scale4f_branch2b
I0312 10:34:31.487804  8753 net.cpp:406] scale4f_branch2b <- res4f_branch2b
I0312 10:34:31.487810  8753 net.cpp:367] scale4f_branch2b -> res4f_branch2b (in-place)
I0312 10:34:31.487859  8753 layer_factory.hpp:77] Creating layer scale4f_branch2b
I0312 10:34:31.487983  8753 net.cpp:122] Setting up scale4f_branch2b
I0312 10:34:31.487993  8753 net.cpp:129] Top shape: 8 256 14 14 (401408)
I0312 10:34:31.487998  8753 net.cpp:137] Memory required for data: 1732476928
I0312 10:34:31.488005  8753 layer_factory.hpp:77] Creating layer res4f_branch2b_relu
I0312 10:34:31.488011  8753 net.cpp:84] Creating Layer res4f_branch2b_relu
I0312 10:34:31.488016  8753 net.cpp:406] res4f_branch2b_relu <- res4f_branch2b
I0312 10:34:31.488021  8753 net.cpp:367] res4f_branch2b_relu -> res4f_branch2b (in-place)
I0312 10:34:31.488234  8753 net.cpp:122] Setting up res4f_branch2b_relu
I0312 10:34:31.488245  8753 net.cpp:129] Top shape: 8 256 14 14 (401408)
I0312 10:34:31.488248  8753 net.cpp:137] Memory required for data: 1734082560
I0312 10:34:31.488253  8753 layer_factory.hpp:77] Creating layer res4f_branch2c
I0312 10:34:31.488265  8753 net.cpp:84] Creating Layer res4f_branch2c
I0312 10:34:31.488270  8753 net.cpp:406] res4f_branch2c <- res4f_branch2b
I0312 10:34:31.488277  8753 net.cpp:380] res4f_branch2c -> res4f_branch2c
I0312 10:34:31.490604  8753 net.cpp:122] Setting up res4f_branch2c
I0312 10:34:31.490628  8753 net.cpp:129] Top shape: 8 1024 14 14 (1605632)
I0312 10:34:31.490633  8753 net.cpp:137] Memory required for data: 1740505088
I0312 10:34:31.490641  8753 layer_factory.hpp:77] Creating layer bn4f_branch2c
I0312 10:34:31.490651  8753 net.cpp:84] Creating Layer bn4f_branch2c
I0312 10:34:31.490656  8753 net.cpp:406] bn4f_branch2c <- res4f_branch2c
I0312 10:34:31.490662  8753 net.cpp:367] bn4f_branch2c -> res4f_branch2c (in-place)
I0312 10:34:31.490897  8753 net.cpp:122] Setting up bn4f_branch2c
I0312 10:34:31.490906  8753 net.cpp:129] Top shape: 8 1024 14 14 (1605632)
I0312 10:34:31.490908  8753 net.cpp:137] Memory required for data: 1746927616
I0312 10:34:31.490972  8753 layer_factory.hpp:77] Creating layer scale4f_branch2c
I0312 10:34:31.490981  8753 net.cpp:84] Creating Layer scale4f_branch2c
I0312 10:34:31.490986  8753 net.cpp:406] scale4f_branch2c <- res4f_branch2c
I0312 10:34:31.490991  8753 net.cpp:367] scale4f_branch2c -> res4f_branch2c (in-place)
I0312 10:34:31.491040  8753 layer_factory.hpp:77] Creating layer scale4f_branch2c
I0312 10:34:31.491178  8753 net.cpp:122] Setting up scale4f_branch2c
I0312 10:34:31.491185  8753 net.cpp:129] Top shape: 8 1024 14 14 (1605632)
I0312 10:34:31.491189  8753 net.cpp:137] Memory required for data: 1753350144
I0312 10:34:31.491199  8753 layer_factory.hpp:77] Creating layer res4f
I0312 10:34:31.491205  8753 net.cpp:84] Creating Layer res4f
I0312 10:34:31.491210  8753 net.cpp:406] res4f <- res4e_res4e_relu_0_split_1
I0312 10:34:31.491215  8753 net.cpp:406] res4f <- res4f_branch2c
I0312 10:34:31.491222  8753 net.cpp:380] res4f -> res4f
I0312 10:34:31.491252  8753 net.cpp:122] Setting up res4f
I0312 10:34:31.491259  8753 net.cpp:129] Top shape: 8 1024 14 14 (1605632)
I0312 10:34:31.491263  8753 net.cpp:137] Memory required for data: 1759772672
I0312 10:34:31.491267  8753 layer_factory.hpp:77] Creating layer res4f_relu
I0312 10:34:31.491273  8753 net.cpp:84] Creating Layer res4f_relu
I0312 10:34:31.491277  8753 net.cpp:406] res4f_relu <- res4f
I0312 10:34:31.491282  8753 net.cpp:367] res4f_relu -> res4f (in-place)
I0312 10:34:31.491479  8753 net.cpp:122] Setting up res4f_relu
I0312 10:34:31.491489  8753 net.cpp:129] Top shape: 8 1024 14 14 (1605632)
I0312 10:34:31.491493  8753 net.cpp:137] Memory required for data: 1766195200
I0312 10:34:31.491497  8753 layer_factory.hpp:77] Creating layer res4f_res4f_relu_0_split
I0312 10:34:31.491504  8753 net.cpp:84] Creating Layer res4f_res4f_relu_0_split
I0312 10:34:31.491509  8753 net.cpp:406] res4f_res4f_relu_0_split <- res4f
I0312 10:34:31.491516  8753 net.cpp:380] res4f_res4f_relu_0_split -> res4f_res4f_relu_0_split_0
I0312 10:34:31.491524  8753 net.cpp:380] res4f_res4f_relu_0_split -> res4f_res4f_relu_0_split_1
I0312 10:34:31.491572  8753 net.cpp:122] Setting up res4f_res4f_relu_0_split
I0312 10:34:31.491580  8753 net.cpp:129] Top shape: 8 1024 14 14 (1605632)
I0312 10:34:31.491585  8753 net.cpp:129] Top shape: 8 1024 14 14 (1605632)
I0312 10:34:31.491588  8753 net.cpp:137] Memory required for data: 1779040256
I0312 10:34:31.491593  8753 layer_factory.hpp:77] Creating layer res5a_branch1
I0312 10:34:31.491605  8753 net.cpp:84] Creating Layer res5a_branch1
I0312 10:34:31.491608  8753 net.cpp:406] res5a_branch1 <- res4f_res4f_relu_0_split_0
I0312 10:34:31.491616  8753 net.cpp:380] res5a_branch1 -> res5a_branch1
I0312 10:34:31.497054  8753 net.cpp:122] Setting up res5a_branch1
I0312 10:34:31.497081  8753 net.cpp:129] Top shape: 8 2048 7 7 (802816)
I0312 10:34:31.497086  8753 net.cpp:137] Memory required for data: 1782251520
I0312 10:34:31.497095  8753 layer_factory.hpp:77] Creating layer bn5a_branch1
I0312 10:34:31.497107  8753 net.cpp:84] Creating Layer bn5a_branch1
I0312 10:34:31.497113  8753 net.cpp:406] bn5a_branch1 <- res5a_branch1
I0312 10:34:31.497120  8753 net.cpp:367] bn5a_branch1 -> res5a_branch1 (in-place)
I0312 10:34:31.497412  8753 net.cpp:122] Setting up bn5a_branch1
I0312 10:34:31.497421  8753 net.cpp:129] Top shape: 8 2048 7 7 (802816)
I0312 10:34:31.497424  8753 net.cpp:137] Memory required for data: 1785462784
I0312 10:34:31.497442  8753 layer_factory.hpp:77] Creating layer scale5a_branch1
I0312 10:34:31.497452  8753 net.cpp:84] Creating Layer scale5a_branch1
I0312 10:34:31.497455  8753 net.cpp:406] scale5a_branch1 <- res5a_branch1
I0312 10:34:31.497465  8753 net.cpp:367] scale5a_branch1 -> res5a_branch1 (in-place)
I0312 10:34:31.497519  8753 layer_factory.hpp:77] Creating layer scale5a_branch1
I0312 10:34:31.497656  8753 net.cpp:122] Setting up scale5a_branch1
I0312 10:34:31.497664  8753 net.cpp:129] Top shape: 8 2048 7 7 (802816)
I0312 10:34:31.497668  8753 net.cpp:137] Memory required for data: 1788674048
I0312 10:34:31.497676  8753 layer_factory.hpp:77] Creating layer res5a_branch2a
I0312 10:34:31.497687  8753 net.cpp:84] Creating Layer res5a_branch2a
I0312 10:34:31.497692  8753 net.cpp:406] res5a_branch2a <- res4f_res4f_relu_0_split_1
I0312 10:34:31.497699  8753 net.cpp:380] res5a_branch2a -> res5a_branch2a
I0312 10:34:31.500214  8753 net.cpp:122] Setting up res5a_branch2a
I0312 10:34:31.500234  8753 net.cpp:129] Top shape: 8 512 7 7 (200704)
I0312 10:34:31.500238  8753 net.cpp:137] Memory required for data: 1789476864
I0312 10:34:31.500248  8753 layer_factory.hpp:77] Creating layer bn5a_branch2a
I0312 10:34:31.500259  8753 net.cpp:84] Creating Layer bn5a_branch2a
I0312 10:34:31.500265  8753 net.cpp:406] bn5a_branch2a <- res5a_branch2a
I0312 10:34:31.500273  8753 net.cpp:367] bn5a_branch2a -> res5a_branch2a (in-place)
I0312 10:34:31.500514  8753 net.cpp:122] Setting up bn5a_branch2a
I0312 10:34:31.500524  8753 net.cpp:129] Top shape: 8 512 7 7 (200704)
I0312 10:34:31.500526  8753 net.cpp:137] Memory required for data: 1790279680
I0312 10:34:31.500536  8753 layer_factory.hpp:77] Creating layer scale5a_branch2a
I0312 10:34:31.500545  8753 net.cpp:84] Creating Layer scale5a_branch2a
I0312 10:34:31.500550  8753 net.cpp:406] scale5a_branch2a <- res5a_branch2a
I0312 10:34:31.500555  8753 net.cpp:367] scale5a_branch2a -> res5a_branch2a (in-place)
I0312 10:34:31.500602  8753 layer_factory.hpp:77] Creating layer scale5a_branch2a
I0312 10:34:31.500739  8753 net.cpp:122] Setting up scale5a_branch2a
I0312 10:34:31.500747  8753 net.cpp:129] Top shape: 8 512 7 7 (200704)
I0312 10:34:31.500751  8753 net.cpp:137] Memory required for data: 1791082496
I0312 10:34:31.500759  8753 layer_factory.hpp:77] Creating layer res5a_branch2a_relu
I0312 10:34:31.500768  8753 net.cpp:84] Creating Layer res5a_branch2a_relu
I0312 10:34:31.500772  8753 net.cpp:406] res5a_branch2a_relu <- res5a_branch2a
I0312 10:34:31.500777  8753 net.cpp:367] res5a_branch2a_relu -> res5a_branch2a (in-place)
I0312 10:34:31.501003  8753 net.cpp:122] Setting up res5a_branch2a_relu
I0312 10:34:31.501016  8753 net.cpp:129] Top shape: 8 512 7 7 (200704)
I0312 10:34:31.501020  8753 net.cpp:137] Memory required for data: 1791885312
I0312 10:34:31.501026  8753 layer_factory.hpp:77] Creating layer res5a_branch2b
I0312 10:34:31.501036  8753 net.cpp:84] Creating Layer res5a_branch2b
I0312 10:34:31.501041  8753 net.cpp:406] res5a_branch2b <- res5a_branch2a
I0312 10:34:31.501050  8753 net.cpp:380] res5a_branch2b -> res5a_branch2b
I0312 10:34:31.506938  8753 net.cpp:122] Setting up res5a_branch2b
I0312 10:34:31.506965  8753 net.cpp:129] Top shape: 8 512 7 7 (200704)
I0312 10:34:31.506969  8753 net.cpp:137] Memory required for data: 1792688128
I0312 10:34:31.506979  8753 layer_factory.hpp:77] Creating layer bn5a_branch2b
I0312 10:34:31.506992  8753 net.cpp:84] Creating Layer bn5a_branch2b
I0312 10:34:31.506997  8753 net.cpp:406] bn5a_branch2b <- res5a_branch2b
I0312 10:34:31.507006  8753 net.cpp:367] bn5a_branch2b -> res5a_branch2b (in-place)
I0312 10:34:31.507254  8753 net.cpp:122] Setting up bn5a_branch2b
I0312 10:34:31.507262  8753 net.cpp:129] Top shape: 8 512 7 7 (200704)
I0312 10:34:31.507266  8753 net.cpp:137] Memory required for data: 1793490944
I0312 10:34:31.507277  8753 layer_factory.hpp:77] Creating layer scale5a_branch2b
I0312 10:34:31.507287  8753 net.cpp:84] Creating Layer scale5a_branch2b
I0312 10:34:31.507292  8753 net.cpp:406] scale5a_branch2b <- res5a_branch2b
I0312 10:34:31.507304  8753 net.cpp:367] scale5a_branch2b -> res5a_branch2b (in-place)
I0312 10:34:31.507355  8753 layer_factory.hpp:77] Creating layer scale5a_branch2b
I0312 10:34:31.507493  8753 net.cpp:122] Setting up scale5a_branch2b
I0312 10:34:31.507501  8753 net.cpp:129] Top shape: 8 512 7 7 (200704)
I0312 10:34:31.507505  8753 net.cpp:137] Memory required for data: 1794293760
I0312 10:34:31.507516  8753 layer_factory.hpp:77] Creating layer res5a_branch2b_relu
I0312 10:34:31.507525  8753 net.cpp:84] Creating Layer res5a_branch2b_relu
I0312 10:34:31.507530  8753 net.cpp:406] res5a_branch2b_relu <- res5a_branch2b
I0312 10:34:31.507535  8753 net.cpp:367] res5a_branch2b_relu -> res5a_branch2b (in-place)
I0312 10:34:31.507730  8753 net.cpp:122] Setting up res5a_branch2b_relu
I0312 10:34:31.507741  8753 net.cpp:129] Top shape: 8 512 7 7 (200704)
I0312 10:34:31.507745  8753 net.cpp:137] Memory required for data: 1795096576
I0312 10:34:31.507750  8753 layer_factory.hpp:77] Creating layer res5a_branch2c
I0312 10:34:31.507758  8753 net.cpp:84] Creating Layer res5a_branch2c
I0312 10:34:31.507763  8753 net.cpp:406] res5a_branch2c <- res5a_branch2b
I0312 10:34:31.507771  8753 net.cpp:380] res5a_branch2c -> res5a_branch2c
I0312 10:34:31.511191  8753 net.cpp:122] Setting up res5a_branch2c
I0312 10:34:31.511211  8753 net.cpp:129] Top shape: 8 2048 7 7 (802816)
I0312 10:34:31.511215  8753 net.cpp:137] Memory required for data: 1798307840
I0312 10:34:31.511224  8753 layer_factory.hpp:77] Creating layer bn5a_branch2c
I0312 10:34:31.511232  8753 net.cpp:84] Creating Layer bn5a_branch2c
I0312 10:34:31.511237  8753 net.cpp:406] bn5a_branch2c <- res5a_branch2c
I0312 10:34:31.511248  8753 net.cpp:367] bn5a_branch2c -> res5a_branch2c (in-place)
I0312 10:34:31.511495  8753 net.cpp:122] Setting up bn5a_branch2c
I0312 10:34:31.511503  8753 net.cpp:129] Top shape: 8 2048 7 7 (802816)
I0312 10:34:31.511508  8753 net.cpp:137] Memory required for data: 1801519104
I0312 10:34:31.511518  8753 layer_factory.hpp:77] Creating layer scale5a_branch2c
I0312 10:34:31.511526  8753 net.cpp:84] Creating Layer scale5a_branch2c
I0312 10:34:31.511530  8753 net.cpp:406] scale5a_branch2c <- res5a_branch2c
I0312 10:34:31.511538  8753 net.cpp:367] scale5a_branch2c -> res5a_branch2c (in-place)
I0312 10:34:31.511587  8753 layer_factory.hpp:77] Creating layer scale5a_branch2c
I0312 10:34:31.511729  8753 net.cpp:122] Setting up scale5a_branch2c
I0312 10:34:31.511736  8753 net.cpp:129] Top shape: 8 2048 7 7 (802816)
I0312 10:34:31.511740  8753 net.cpp:137] Memory required for data: 1804730368
I0312 10:34:31.511749  8753 layer_factory.hpp:77] Creating layer res5a
I0312 10:34:31.511756  8753 net.cpp:84] Creating Layer res5a
I0312 10:34:31.511761  8753 net.cpp:406] res5a <- res5a_branch1
I0312 10:34:31.511767  8753 net.cpp:406] res5a <- res5a_branch2c
I0312 10:34:31.511772  8753 net.cpp:380] res5a -> res5a
I0312 10:34:31.511803  8753 net.cpp:122] Setting up res5a
…
I0312 10:34:31.722386  8753 net.cpp:465] Sharing parameters 'bn4e_branch2c_scale_factor' owned by layer 'bn4e_branch2c', param index 2
I0312 10:34:31.722393  8753 layer_factory.hpp:77] Creating layer scale4e_branch2c_p
I0312 10:34:31.722407  8753 net.cpp:84] Creating Layer scale4e_branch2c_p
I0312 10:34:31.722412  8753 net.cpp:406] scale4e_branch2c_p <- res4e_branch2c_p
I0312 10:34:31.722419  8753 net.cpp:367] scale4e_branch2c_p -> res4e_branch2c_p (in-place)
I0312 10:34:31.722476  8753 layer_factory.hpp:77] Creating layer scale4e_branch2c_p
I0312 10:34:31.722641  8753 net.cpp:122] Setting up scale4e_branch2c_p
I0312 10:34:31.722651  8753 net.cpp:129] Top shape: 8 1024 14 14 (1605632)
I0312 10:34:31.722656  8753 net.cpp:137] Memory required for data: 3545366528
I0312 10:34:31.722661  8753 net.cpp:465] Sharing parameters 'scale4e_branch2c_alpha' owned by layer 'scale4e_branch2c', param index 0
I0312 10:34:31.722666  8753 net.cpp:465] Sharing parameters 'scale4e_branch2c_beta' owned by layer 'scale4e_branch2c', param index 1
I0312 10:34:31.722671  8753 layer_factory.hpp:77] Creating layer res4e_p
I0312 10:34:31.722677  8753 net.cpp:84] Creating Layer res4e_p
I0312 10:34:31.722682  8753 net.cpp:406] res4e_p <- res4d_p_res4d_relu_p_0_split_1
I0312 10:34:31.722688  8753 net.cpp:406] res4e_p <- res4e_branch2c_p
I0312 10:34:31.722693  8753 net.cpp:380] res4e_p -> res4e_p
I0312 10:34:31.722730  8753 net.cpp:122] Setting up res4e_p
I0312 10:34:31.722738  8753 net.cpp:129] Top shape: 8 1024 14 14 (1605632)
I0312 10:34:31.722740  8753 net.cpp:137] Memory required for data: 3551789056
I0312 10:34:31.722745  8753 layer_factory.hpp:77] Creating layer res4e_relu_p
I0312 10:34:31.722751  8753 net.cpp:84] Creating Layer res4e_relu_p
I0312 10:34:31.722756  8753 net.cpp:406] res4e_relu_p <- res4e_p
I0312 10:34:31.722764  8753 net.cpp:367] res4e_relu_p -> res4e_p (in-place)
I0312 10:34:31.722968  8753 net.cpp:122] Setting up res4e_relu_p
I0312 10:34:31.722977  8753 net.cpp:129] Top shape: 8 1024 14 14 (1605632)
I0312 10:34:31.722981  8753 net.cpp:137] Memory required for data: 3558211584
I0312 10:34:31.722985  8753 layer_factory.hpp:77] Creating layer res4e_p_res4e_relu_p_0_split
I0312 10:34:31.722992  8753 net.cpp:84] Creating Layer res4e_p_res4e_relu_p_0_split
I0312 10:34:31.722997  8753 net.cpp:406] res4e_p_res4e_relu_p_0_split <- res4e_p
I0312 10:34:31.723004  8753 net.cpp:380] res4e_p_res4e_relu_p_0_split -> res4e_p_res4e_relu_p_0_split_0
I0312 10:34:31.723012  8753 net.cpp:380] res4e_p_res4e_relu_p_0_split -> res4e_p_res4e_relu_p_0_split_1
I0312 10:34:31.723070  8753 net.cpp:122] Setting up res4e_p_res4e_relu_p_0_split
I0312 10:34:31.723078  8753 net.cpp:129] Top shape: 8 1024 14 14 (1605632)
I0312 10:34:31.723083  8753 net.cpp:129] Top shape: 8 1024 14 14 (1605632)
I0312 10:34:31.723086  8753 net.cpp:137] Memory required for data: 3571056640
I0312 10:34:31.723089  8753 layer_factory.hpp:77] Creating layer res4f_branch2a_p
I0312 10:34:31.723101  8753 net.cpp:84] Creating Layer res4f_branch2a_p
I0312 10:34:31.723105  8753 net.cpp:406] res4f_branch2a_p <- res4e_p_res4e_relu_p_0_split_0
I0312 10:34:31.723114  8753 net.cpp:380] res4f_branch2a_p -> res4f_branch2a_p
I0312 10:34:31.724680  8753 net.cpp:122] Setting up res4f_branch2a_p
I0312 10:34:31.724696  8753 net.cpp:129] Top shape: 8 256 14 14 (401408)
I0312 10:34:31.724700  8753 net.cpp:137] Memory required for data: 3572662272
I0312 10:34:31.724707  8753 net.cpp:465] Sharing parameters 'res4f_branch2a_w' owned by layer 'res4f_branch2a', param index 0
I0312 10:34:31.724711  8753 layer_factory.hpp:77] Creating layer bn4f_branch2a_p
I0312 10:34:31.724721  8753 net.cpp:84] Creating Layer bn4f_branch2a_p
I0312 10:34:31.724726  8753 net.cpp:406] bn4f_branch2a_p <- res4f_branch2a_p
I0312 10:34:31.724735  8753 net.cpp:367] bn4f_branch2a_p -> res4f_branch2a_p (in-place)
I0312 10:34:31.725070  8753 net.cpp:122] Setting up bn4f_branch2a_p
I0312 10:34:31.725080  8753 net.cpp:129] Top shape: 8 256 14 14 (401408)
I0312 10:34:31.725085  8753 net.cpp:137] Memory required for data: 3574267904
I0312 10:34:31.725090  8753 net.cpp:465] Sharing parameters 'bn4f_branch2a_mean' owned by layer 'bn4f_branch2a', param index 0
I0312 10:34:31.725096  8753 net.cpp:465] Sharing parameters 'bn4f_branch2a_variance' owned by layer 'bn4f_branch2a', param index 1
I0312 10:34:31.725107  8753 net.cpp:465] Sharing parameters 'bn4f_branch2a_scale_factor' owned by layer 'bn4f_branch2a', param index 2
I0312 10:34:31.725114  8753 layer_factory.hpp:77] Creating layer scale4f_branch2a_p
I0312 10:34:31.725124  8753 net.cpp:84] Creating Layer scale4f_branch2a_p
I0312 10:34:31.725129  8753 net.cpp:406] scale4f_branch2a_p <- res4f_branch2a_p
I0312 10:34:31.725136  8753 net.cpp:367] scale4f_branch2a_p -> res4f_branch2a_p (in-place)
I0312 10:34:31.725199  8753 layer_factory.hpp:77] Creating layer scale4f_branch2a_p
I0312 10:34:31.725391  8753 net.cpp:122] Setting up scale4f_branch2a_p
I0312 10:34:31.725399  8753 net.cpp:129] Top shape: 8 256 14 14 (401408)
I0312 10:34:31.725404  8753 net.cpp:137] Memory required for data: 3575873536
I0312 10:34:31.725410  8753 net.cpp:465] Sharing parameters 'scale4f_branch2a_alpha' owned by layer 'scale4f_branch2a', param index 0
I0312 10:34:31.725416  8753 net.cpp:465] Sharing parameters 'scale4f_branch2a_beta' owned by layer 'scale4f_branch2a', param index 1
I0312 10:34:31.725420  8753 layer_factory.hpp:77] Creating layer res4f_branch2a_relu_p
I0312 10:34:31.725427  8753 net.cpp:84] Creating Layer res4f_branch2a_relu_p
I0312 10:34:31.725431  8753 net.cpp:406] res4f_branch2a_relu_p <- res4f_branch2a_p
I0312 10:34:31.725437  8753 net.cpp:367] res4f_branch2a_relu_p -> res4f_branch2a_p (in-place)
I0312 10:34:31.725641  8753 net.cpp:122] Setting up res4f_branch2a_relu_p
I0312 10:34:31.725651  8753 net.cpp:129] Top shape: 8 256 14 14 (401408)
I0312 10:34:31.725654  8753 net.cpp:137] Memory required for data: 3577479168
I0312 10:34:31.725657  8753 layer_factory.hpp:77] Creating layer res4f_branch2b_p
I0312 10:34:31.725667  8753 net.cpp:84] Creating Layer res4f_branch2b_p
I0312 10:34:31.725672  8753 net.cpp:406] res4f_branch2b_p <- res4f_branch2a_p
I0312 10:34:31.725682  8753 net.cpp:380] res4f_branch2b_p -> res4f_branch2b_p
I0312 10:34:31.729359  8753 net.cpp:122] Setting up res4f_branch2b_p
I0312 10:34:31.729382  8753 net.cpp:129] Top shape: 8 256 14 14 (401408)
I0312 10:34:31.729387  8753 net.cpp:137] Memory required for data: 3579084800
I0312 10:34:31.729393  8753 net.cpp:465] Sharing parameters 'res4f_branch2b_w' owned by layer 'res4f_branch2b', param index 0
I0312 10:34:31.729401  8753 layer_factory.hpp:77] Creating layer bn4f_branch2b_p
I0312 10:34:31.729411  8753 net.cpp:84] Creating Layer bn4f_branch2b_p
I0312 10:34:31.729418  8753 net.cpp:406] bn4f_branch2b_p <- res4f_branch2b_p
I0312 10:34:31.729426  8753 net.cpp:367] bn4f_branch2b_p -> res4f_branch2b_p (in-place)
I0312 10:34:31.729717  8753 net.cpp:122] Setting up bn4f_branch2b_p
I0312 10:34:31.729725  8753 net.cpp:129] Top shape: 8 256 14 14 (401408)
I0312 10:34:31.729729  8753 net.cpp:137] Memory required for data: 3580690432
I0312 10:34:31.729735  8753 net.cpp:465] Sharing parameters 'bn4f_branch2b_mean' owned by layer 'bn4f_branch2b', param index 0
I0312 10:34:31.729742  8753 net.cpp:465] Sharing parameters 'bn4f_branch2b_variance' owned by layer 'bn4f_branch2b', param index 1
I0312 10:34:31.729746  8753 net.cpp:465] Sharing parameters 'bn4f_branch2b_scale_factor' owned by layer 'bn4f_branch2b', param index 2
I0312 10:34:31.729750  8753 layer_factory.hpp:77] Creating layer scale4f_branch2b_p
I0312 10:34:31.729763  8753 net.cpp:84] Creating Layer scale4f_branch2b_p
I0312 10:34:31.729768  8753 net.cpp:406] scale4f_branch2b_p <- res4f_branch2b_p
I0312 10:34:31.729773  8753 net.cpp:367] scale4f_branch2b_p -> res4f_branch2b_p (in-place)
I0312 10:34:31.729835  8753 layer_factory.hpp:77] Creating layer scale4f_branch2b_p
I0312 10:34:31.729996  8753 net.cpp:122] Setting up scale4f_branch2b_p
I0312 10:34:31.730005  8753 net.cpp:129] Top shape: 8 256 14 14 (401408)
I0312 10:34:31.730007  8753 net.cpp:137] Memory required for data: 3582296064
I0312 10:34:31.730015  8753 net.cpp:465] Sharing parameters 'scale4f_branch2b_alpha' owned by layer 'scale4f_branch2b', param index 0
I0312 10:34:31.730020  8753 net.cpp:465] Sharing parameters 'scale4f_branch2b_beta' owned by layer 'scale4f_branch2b', param index 1
I0312 10:34:31.730032  8753 layer_factory.hpp:77] Creating layer res4f_branch2b_relu_p
I0312 10:34:31.730041  8753 net.cpp:84] Creating Layer res4f_branch2b_relu_p
I0312 10:34:31.730046  8753 net.cpp:406] res4f_branch2b_relu_p <- res4f_branch2b_p
I0312 10:34:31.730051  8753 net.cpp:367] res4f_branch2b_relu_p -> res4f_branch2b_p (in-place)
I0312 10:34:31.730263  8753 net.cpp:122] Setting up res4f_branch2b_relu_p
I0312 10:34:31.730273  8753 net.cpp:129] Top shape: 8 256 14 14 (401408)
I0312 10:34:31.730278  8753 net.cpp:137] Memory required for data: 3583901696
I0312 10:34:31.730281  8753 layer_factory.hpp:77] Creating layer res4f_branch2c_p
I0312 10:34:31.730293  8753 net.cpp:84] Creating Layer res4f_branch2c_p
I0312 10:34:31.730298  8753 net.cpp:406] res4f_branch2c_p <- res4f_branch2b_p
I0312 10:34:31.730305  8753 net.cpp:380] res4f_branch2c_p -> res4f_branch2c_p
I0312 10:34:31.732872  8753 net.cpp:122] Setting up res4f_branch2c_p
I0312 10:34:31.732894  8753 net.cpp:129] Top shape: 8 1024 14 14 (1605632)
I0312 10:34:31.732898  8753 net.cpp:137] Memory required for data: 3590324224
I0312 10:34:31.732906  8753 net.cpp:465] Sharing parameters 'res4f_branch2c_w' owned by layer 'res4f_branch2c', param index 0
I0312 10:34:31.732911  8753 layer_factory.hpp:77] Creating layer bn4f_branch2c_p
I0312 10:34:31.732920  8753 net.cpp:84] Creating Layer bn4f_branch2c_p
I0312 10:34:31.732925  8753 net.cpp:406] bn4f_branch2c_p <- res4f_branch2c_p
I0312 10:34:31.732934  8753 net.cpp:367] bn4f_branch2c_p -> res4f_branch2c_p (in-place)
I0312 10:34:31.733283  8753 net.cpp:122] Setting up bn4f_branch2c_p
I0312 10:34:31.733310  8753 net.cpp:129] Top shape: 8 1024 14 14 (1605632)
I0312 10:34:31.733314  8753 net.cpp:137] Memory required for data: 3596746752
I0312 10:34:31.733321  8753 net.cpp:465] Sharing parameters 'bn4f_branch2c_mean' owned by layer 'bn4f_branch2c', param index 0
I0312 10:34:31.733327  8753 net.cpp:465] Sharing parameters 'bn4f_branch2c_variance' owned by layer 'bn4f_branch2c', param index 1
I0312 10:34:31.733332  8753 net.cpp:465] Sharing parameters 'bn4f_branch2c_scale_factor' owned by layer 'bn4f_branch2c', param index 2
I0312 10:34:31.733338  8753 layer_factory.hpp:77] Creating layer scale4f_branch2c_p
I0312 10:34:31.733347  8753 net.cpp:84] Creating Layer scale4f_branch2c_p
I0312 10:34:31.733351  8753 net.cpp:406] scale4f_branch2c_p <- res4f_branch2c_p
I0312 10:34:31.733358  8753 net.cpp:367] scale4f_branch2c_p -> res4f_branch2c_p (in-place)
I0312 10:34:31.733438  8753 layer_factory.hpp:77] Creating layer scale4f_branch2c_p
I0312 10:34:31.733606  8753 net.cpp:122] Setting up scale4f_branch2c_p
I0312 10:34:31.733614  8753 net.cpp:129] Top shape: 8 1024 14 14 (1605632)
I0312 10:34:31.733618  8753 net.cpp:137] Memory required for data: 3603169280
I0312 10:34:31.733623  8753 net.cpp:465] Sharing parameters 'scale4f_branch2c_alpha' owned by layer 'scale4f_branch2c', param index 0
I0312 10:34:31.733630  8753 net.cpp:465] Sharing parameters 'scale4f_branch2c_beta' owned by layer 'scale4f_branch2c', param index 1
I0312 10:34:31.733634  8753 layer_factory.hpp:77] Creating layer res4f_p
I0312 10:34:31.733642  8753 net.cpp:84] Creating Layer res4f_p
I0312 10:34:31.733647  8753 net.cpp:406] res4f_p <- res4e_p_res4e_relu_p_0_split_1
I0312 10:34:31.733654  8753 net.cpp:406] res4f_p <- res4f_branch2c_p
I0312 10:34:31.733659  8753 net.cpp:380] res4f_p -> res4f_p
I0312 10:34:31.733696  8753 net.cpp:122] Setting up res4f_p
I0312 10:34:31.733703  8753 net.cpp:129] Top shape: 8 1024 14 14 (1605632)
I0312 10:34:31.733707  8753 net.cpp:137] Memory required for data: 3609591808
I0312 10:34:31.733711  8753 layer_factory.hpp:77] Creating layer res4f_relu_p
I0312 10:34:31.733733  8753 net.cpp:84] Creating Layer res4f_relu_p
I0312 10:34:31.733737  8753 net.cpp:406] res4f_relu_p <- res4f_p
I0312 10:34:31.733745  8753 net.cpp:367] res4f_relu_p -> res4f_p (in-place)
I0312 10:34:31.733984  8753 net.cpp:122] Setting up res4f_relu_p
I0312 10:34:31.733994  8753 net.cpp:129] Top shape: 8 1024 14 14 (1605632)
I0312 10:34:31.734006  8753 net.cpp:137] Memory required for data: 3616014336
I0312 10:34:31.734011  8753 layer_factory.hpp:77] Creating layer res4f_p_res4f_relu_p_0_split
I0312 10:34:31.734020  8753 net.cpp:84] Creating Layer res4f_p_res4f_relu_p_0_split
I0312 10:34:31.734025  8753 net.cpp:406] res4f_p_res4f_relu_p_0_split <- res4f_p
I0312 10:34:31.734032  8753 net.cpp:380] res4f_p_res4f_relu_p_0_split -> res4f_p_res4f_relu_p_0_split_0
I0312 10:34:31.734040  8753 net.cpp:380] res4f_p_res4f_relu_p_0_split -> res4f_p_res4f_relu_p_0_split_1
I0312 10:34:31.734104  8753 net.cpp:122] Setting up res4f_p_res4f_relu_p_0_split
I0312 10:34:31.734113  8753 net.cpp:129] Top shape: 8 1024 14 14 (1605632)
I0312 10:34:31.734119  8753 net.cpp:129] Top shape: 8 1024 14 14 (1605632)
I0312 10:34:31.734123  8753 net.cpp:137] Memory required for data: 3628859392
I0312 10:34:31.734128  8753 layer_factory.hpp:77] Creating layer res5a_branch1_p
I0312 10:34:31.734138  8753 net.cpp:84] Creating Layer res5a_branch1_p
I0312 10:34:31.734143  8753 net.cpp:406] res5a_branch1_p <- res4f_p_res4f_relu_p_0_split_0
I0312 10:34:31.734151  8753 net.cpp:380] res5a_branch1_p -> res5a_branch1_p
I0312 10:34:31.742830  8753 net.cpp:122] Setting up res5a_branch1_p
I0312 10:34:31.742862  8753 net.cpp:129] Top shape: 8 2048 7 7 (802816)
I0312 10:34:31.742866  8753 net.cpp:137] Memory required for data: 3632070656
I0312 10:34:31.742875  8753 net.cpp:465] Sharing parameters 'res5a_branch1_w' owned by layer 'res5a_branch1', param index 0
I0312 10:34:31.742882  8753 layer_factory.hpp:77] Creating layer bn5a_branch1_p
I0312 10:34:31.742892  8753 net.cpp:84] Creating Layer bn5a_branch1_p
I0312 10:34:31.742897  8753 net.cpp:406] bn5a_branch1_p <- res5a_branch1_p
I0312 10:34:31.742908  8753 net.cpp:367] bn5a_branch1_p -> res5a_branch1_p (in-place)
I0312 10:34:31.743239  8753 net.cpp:122] Setting up bn5a_branch1_p
I0312 10:34:31.743248  8753 net.cpp:129] Top shape: 8 2048 7 7 (802816)
I0312 10:34:31.743252  8753 net.cpp:137] Memory required for data: 3635281920
I0312 10:34:31.743258  8753 net.cpp:465] Sharing parameters 'bn5a_branch1_mean' owned by layer 'bn5a_branch1', param index 0
I0312 10:34:31.743264  8753 net.cpp:465] Sharing parameters 'bn5a_branch1_variance' owned by layer 'bn5a_branch1', param index 1
I0312 10:34:31.743270  8753 net.cpp:465] Sharing parameters 'bn5a_branch1_scale_factor' owned by layer 'bn5a_branch1', param index 2
I0312 10:34:31.743276  8753 layer_factory.hpp:77] Creating layer scale5a_branch1_p
I0312 10:34:31.743286  8753 net.cpp:84] Creating Layer scale5a_branch1_p
I0312 10:34:31.743291  8753 net.cpp:406] scale5a_branch1_p <- res5a_branch1_p
I0312 10:34:31.743297  8753 net.cpp:367] scale5a_branch1_p -> res5a_branch1_p (in-place)
I0312 10:34:31.743363  8753 layer_factory.hpp:77] Creating layer scale5a_branch1_p
I0312 10:34:31.743541  8753 net.cpp:122] Setting up scale5a_branch1_p
I0312 10:34:31.743549  8753 net.cpp:129] Top shape: 8 2048 7 7 (802816)
I0312 10:34:31.743553  8753 net.cpp:137] Memory required for data: 3638493184
I0312 10:34:31.743559  8753 net.cpp:465] Sharing parameters 'scale5a_branch1_alpha' owned by layer 'scale5a_branch1', param index 0
I0312 10:34:31.743566  8753 net.cpp:465] Sharing parameters 'scale5a_branch1_beta' owned by layer 'scale5a_branch1', param index 1
I0312 10:34:31.743569  8753 layer_factory.hpp:77] Creating layer res5a_branch2a_p
I0312 10:34:31.743582  8753 net.cpp:84] Creating Layer res5a_branch2a_p
I0312 10:34:31.743587  8753 net.cpp:406] res5a_branch2a_p <- res4f_p_res4f_relu_p_0_split_1
I0312 10:34:31.743595  8753 net.cpp:380] res5a_branch2a_p -> res5a_branch2a_p
I0312 10:34:31.749408  8753 net.cpp:122] Setting up res5a_branch2a_p
I0312 10:34:31.749426  8753 net.cpp:129] Top shape: 8 512 7 7 (200704)
I0312 10:34:31.749431  8753 net.cpp:137] Memory required for data: 3639296000
I0312 10:34:31.749438  8753 net.cpp:465] Sharing parameters 'res5a_branch2a_w' owned by layer 'res5a_branch2a', param index 0
I0312 10:34:31.749442  8753 layer_factory.hpp:77] Creating layer bn5a_branch2a_p
I0312 10:34:31.749459  8753 net.cpp:84] Creating Layer bn5a_branch2a_p
I0312 10:34:31.749465  8753 net.cpp:406] bn5a_branch2a_p <- res5a_branch2a_p
I0312 10:34:31.749472  8753 net.cpp:367] bn5a_branch2a_p -> res5a_branch2a_p (in-place)
I0312 10:34:31.749819  8753 net.cpp:122] Setting up bn5a_branch2a_p
I0312 10:34:31.749827  8753 net.cpp:129] Top shape: 8 512 7 7 (200704)
I0312 10:34:31.749831  8753 net.cpp:137] Memory required for data: 3640098816
I0312 10:34:31.749837  8753 net.cpp:465] Sharing parameters 'bn5a_branch2a_mean' owned by layer 'bn5a_branch2a', param index 0
I0312 10:34:31.749843  8753 net.cpp:465] Sharing parameters 'bn5a_branch2a_variance' owned by layer 'bn5a_branch2a', param index 1
I0312 10:34:31.749848  8753 net.cpp:465] Sharing parameters 'bn5a_branch2a_scale_factor' owned by layer 'bn5a_branch2a', param index 2
I0312 10:34:31.749855  8753 layer_factory.hpp:77] Creating layer scale5a_branch2a_p
I0312 10:34:31.749866  8753 net.cpp:84] Creating Layer scale5a_branch2a_p
I0312 10:34:31.749869  8753 net.cpp:406] scale5a_branch2a_p <- res5a_branch2a_p
I0312 10:34:31.749876  8753 net.cpp:367] scale5a_branch2a_p -> res5a_branch2a_p (in-place)
I0312 10:34:31.749958  8753 layer_factory.hpp:77] Creating layer scale5a_branch2a_p
I0312 10:34:31.750147  8753 net.cpp:122] Setting up scale5a_branch2a_p
I0312 10:34:31.750155  8753 net.cpp:129] Top shape: 8 512 7 7 (200704)
I0312 10:34:31.750159  8753 net.cpp:137] Memory required for data: 3640901632
I0312 10:34:31.750165  8753 net.cpp:465] Sharing parameters 'scale5a_branch2a_alpha' owned by layer 'scale5a_branch2a', param index 0
I0312 10:34:31.750171  8753 net.cpp:465] Sharing parameters 'scale5a_branch2a_beta' owned by layer 'scale5a_branch2a', param index 1
I0312 10:34:31.750175  8753 layer_factory.hpp:77] Creating layer res5a_branch2a_relu_p
I0312 10:34:31.750183  8753 net.cpp:84] Creating Layer res5a_branch2a_relu_p
I0312 10:34:31.750187  8753 net.cpp:406] res5a_branch2a_relu_p <- res5a_branch2a_p
I0312 10:34:31.750193  8753 net.cpp:367] res5a_branch2a_relu_p -> res5a_branch2a_p (in-place)
I0312 10:34:31.751488  8753 net.cpp:122] Setting up res5a_branch2a_relu_p
I0312 10:34:31.751497  8753 net.cpp:129] Top shape: 8 512 7 7 (200704)
I0312 10:34:31.751502  8753 net.cpp:137] Memory required for data: 3641704448
I0312 10:34:31.751507  8753 layer_factory.hpp:77] Creating layer res5a_branch2b_p
I0312 10:34:31.751516  8753 net.cpp:84] Creating Layer res5a_branch2b_p
I0312 10:34:31.751521  8753 net.cpp:406] res5a_branch2b_p <- res5a_branch2a_p
I0312 10:34:31.751528  8753 net.cpp:380] res5a_branch2b_p -> res5a_branch2b_p
I0312 10:34:31.760740  8753 net.cpp:122] Setting up res5a_branch2b_p
I0312 10:34:31.760768  8753 net.cpp:129] Top shape: 8 512 7 7 (200704)
I0312 10:34:31.760772  8753 net.cpp:137] Memory required for data: 3642507264
I0312 10:34:31.760781  8753 net.cpp:465] Sharing parameters 'res5a_branch2b_w' owned by layer 'res5a_branch2b', param index 0
I0312 10:34:31.760788  8753 layer_factory.hpp:77] Creating layer bn5a_branch2b_p
I0312 10:34:31.760802  8753 net.cpp:84] Creating Layer bn5a_branch2b_p
I0312 10:34:31.760808  8753 net.cpp:406] bn5a_branch2b_p <- res5a_branch2b_p
I0312 10:34:31.760815  8753 net.cpp:367] bn5a_branch2b_p -> res5a_branch2b_p (in-place)
I0312 10:34:31.761211  8753 net.cpp:122] Setting up bn5a_branch2b_p
I0312 10:34:31.761224  8753 net.cpp:129] Top shape: 8 512 7 7 (200704)
I0312 10:34:31.761227  8753 net.cpp:137] Memory required for data: 3643310080
I0312 10:34:31.761234  8753 net.cpp:465] Sharing parameters 'bn5a_branch2b_mean' owned by layer 'bn5a_branch2b', param index 0
I0312 10:34:31.761241  8753 net.cpp:465] Sharing parameters 'bn5a_branch2b_variance' owned by layer 'bn5a_branch2b', param index 1
I0312 10:34:31.761247  8753 net.cpp:465] Sharing parameters 'bn5a_branch2b_scale_factor' owned by layer 'bn5a_branch2b', param index 2
I0312 10:34:31.761252  8753 layer_factory.hpp:77] Creating layer scale5a_branch2b_p
I0312 10:34:31.761261  8753 net.cpp:84] Creating Layer scale5a_branch2b_p
I0312 10:34:31.761266  8753 net.cpp:406] scale5a_branch2b_p <- res5a_branch2b_p
I0312 10:34:31.761281  8753 net.cpp:367] scale5a_branch2b_p -> res5a_branch2b_p (in-place)
I0312 10:34:31.761384  8753 layer_factory.hpp:77] Creating layer scale5a_branch2b_p
I0312 10:34:31.761571  8753 net.cpp:122] Setting up scale5a_branch2b_p
I0312 10:34:31.761580  8753 net.cpp:129] Top shape: 8 512 7 7 (200704)
I0312 10:34:31.761584  8753 net.cpp:137] Memory required for data: 3644112896
I0312 10:34:31.761590  8753 net.cpp:465] Sharing parameters 'scale5a_branch2b_alpha' owned by layer 'scale5a_branch2b', param index 0
I0312 10:34:31.761595  8753 net.cpp:465] Sharing parameters 'scale5a_branch2b_beta' owned by layer 'scale5a_branch2b', param index 1
I0312 10:34:31.761600  8753 layer_factory.hpp:77] Creating layer res5a_branch2b_relu_p
I0312 10:34:31.761608  8753 net.cpp:84] Creating Layer res5a_branch2b_relu_p
I0312 10:34:31.761612  8753 net.cpp:406] res5a_branch2b_relu_p <- res5a_branch2b_p
I0312 10:34:31.761617  8753 net.cpp:367] res5a_branch2b_relu_p -> res5a_branch2b_p (in-place)
I0312 10:34:31.762801  8753 net.cpp:122] Setting up res5a_branch2b_relu_p
I0312 10:34:31.762816  8753 net.cpp:129] Top shape: 8 512 7 7 (200704)
I0312 10:34:31.762820  8753 net.cpp:137] Memory required for data: 3644915712
I0312 10:34:31.762826  8753 layer_factory.hpp:77] Creating layer res5a_branch2c_p
I0312 10:34:31.762838  8753 net.cpp:84] Creating Layer res5a_branch2c_p
I0312 10:34:31.762843  8753 net.cpp:406] res5a_branch2c_p <- res5a_branch2b_p
I0312 10:34:31.762851  8753 net.cpp:380] res5a_branch2c_p -> res5a_branch2c_p
I0312 10:34:31.769512  8753 net.cpp:122] Setting up res5a_branch2c_p
I0312 10:34:31.769534  8753 net.cpp:129] Top shape: 8 2048 7 7 (802816)
I0312 10:34:31.769538  8753 net.cpp:137] Memory required for data: 3648126976
I0312 10:34:31.769546  8753 net.cpp:465] Sharing parameters 'res5a_branch2c_w' owned by layer 'res5a_branch2c', param index 0
I0312 10:34:31.769551  8753 layer_factory.hpp:77] Creating layer bn5a_branch2c_p
I0312 10:34:31.769562  8753 net.cpp:84] Creating Layer bn5a_branch2c_p
I0312 10:34:31.769567  8753 net.cpp:406] bn5a_branch2c_p <- res5a_branch2c_p
I0312 10:34:31.769577  8753 net.cpp:367] bn5a_branch2c_p -> res5a_branch2c_p (in-place)
I0312 10:34:31.769883  8753 net.cpp:122] Setting up bn5a_branch2c_p
I0312 10:34:31.769893  8753 net.cpp:129] Top shape: 8 2048 7 7 (802816)
I0312 10:34:31.769896  8753 net.cpp:137] Memory required for data: 3651338240
I0312 10:34:31.769903  8753 net.cpp:465] Sharing parameters 'bn5a_branch2c_mean' owned by layer 'bn5a_branch2c', param index 0
I0312 10:34:31.769908  8753 net.cpp:465] Sharing parameters 'bn5a_branch2c_variance' owned by layer 'bn5a_branch2c', param index 1
I0312 10:34:31.769914  8753 net.cpp:465] Sharing parameters 'bn5a_branch2c_scale_factor' owned by layer 'bn5a_branch2c', param index 2
I0312 10:34:31.769918  8753 layer_factory.hpp:77] Creating layer scale5a_branch2c_p
I0312 10:34:31.769925  8753 net.cpp:84] Creating Layer scale5a_branch2c_p
I0312 10:34:31.769929  8753 net.cpp:406] scale5a_branch2c_p <- res5a_branch2c_p
I0312 10:34:31.769938  8753 net.cpp:367] scale5a_branch2c_p -> res5a_branch2c_p (in-place)
I0312 10:34:31.769999  8753 layer_factory.hpp:77] Creating layer scale5a_branch2c_p
I0312 10:34:31.770171  8753 net.cpp:122] Setting up scale5a_branch2c_p
I0312 10:34:31.770179  8753 net.cpp:129] Top shape: 8 2048 7 7 (802816)
I0312 10:34:31.770184  8753 net.cpp:137] Memory required for data: 3654549504
I0312 10:34:31.770190  8753 net.cpp:465] Sharing parameters 'scale5a_branch2c_alpha' owned by layer 'scale5a_branch2c', param index 0
I0312 10:34:31.770195  8753 net.cpp:465] Sharing parameters 'scale5a_branch2c_beta' owned by layer 'scale5a_branch2c', param index 1
I0312 10:34:31.770200  8753 layer_factory.hpp:77] Creating layer res5a_p
I0312 10:34:31.770206  8753 net.cpp:84] Creating Layer res5a_p
I0312 10:34:31.770211  8753 net.cpp:406] res5a_p <- res5a_branch1_p
I0312 10:34:31.770216  8753 net.cpp:406] res5a_p <- res5a_branch2c_p
I0312 10:34:31.770223  8753 net.cpp:380] res5a_p -> res5a_p
I0312 10:34:31.770259  8753 net.cpp:122] Setting up res5a_p
I0312 10:34:31.770274  8753 net.cpp:129] Top shape: 8 2048 7 7 (802816)
I0312 10:34:31.770278  8753 net.cpp:137] Memory required for data: 3657760768
I0312 10:34:31.770282  8753 layer_factory.hpp:77] Creating layer res5a_relu_p
I0312 10:34:31.770288  8753 net.cpp:84] Creating Layer res5a_relu_p
I0312 10:34:31.770293  8753 net.cpp:406] res5a_relu_p <- res5a_p
I0312 10:34:31.770298  8753 net.cpp:367] res5a_relu_p -> res5a_p (in-place)
I0312 10:34:31.771690  8753 net.cpp:122] Setting up res5a_relu_p
I0312 10:34:31.771718  8753 net.cpp:129] Top shape: 8 2048 7 7 (802816)
I0312 10:34:31.771724  8753 net.cpp:137] Memory required for data: 3660972032
I0312 10:34:31.771733  8753 layer_factory.hpp:77] Creating layer res5a_p_res5a_relu_p_0_split
I0312 10:34:31.771757  8753 net.cpp:84] Creating Layer res5a_p_res5a_relu_p_0_split
I0312 10:34:31.771766  8753 net.cpp:406] res5a_p_res5a_relu_p_0_split <- res5a_p
I0312 10:34:31.771780  8753 net.cpp:380] res5a_p_res5a_relu_p_0_split -> res5a_p_res5a_relu_p_0_split_0
I0312 10:34:31.771805  8753 net.cpp:380] res5a_p_res5a_relu_p_0_split -> res5a_p_res5a_relu_p_0_split_1
I0312 10:34:31.772024  8753 net.cpp:122] Setting up res5a_p_res5a_relu_p_0_split
I0312 10:34:31.772048  8753 net.cpp:129] Top shape: 8 2048 7 7 (802816)
I0312 10:34:31.772061  8753 net.cpp:129] Top shape: 8 2048 7 7 (802816)
I0312 10:34:31.772069  8753 net.cpp:137] Memory required for data: 3667394560
I0312 10:34:31.772080  8753 layer_factory.hpp:77] Creating layer res5b_branch2a_p
I0312 10:34:31.772109  8753 net.cpp:84] Creating Layer res5b_branch2a_p
I0312 10:34:31.772122  8753 net.cpp:406] res5b_branch2a_p <- res5a_p_res5a_relu_p_0_split_0
I0312 10:34:31.772146  8753 net.cpp:380] res5b_branch2a_p -> res5b_branch2a_p
I0312 10:34:31.778854  8753 net.cpp:122] Setting up res5b_branch2a_p
I0312 10:34:31.778875  8753 net.cpp:129] Top shape: 8 512 7 7 (200704)
I0312 10:34:31.778880  8753 net.cpp:137] Memory required for data: 3668197376
I0312 10:34:31.778887  8753 net.cpp:465] Sharing parameters 'res5b_branch2a_w' owned by layer 'res5b_branch2a', param index 0
I0312 10:34:31.778895  8753 layer_factory.hpp:77] Creating layer bn5b_branch2a_p
I0312 10:34:31.778905  8753 net.cpp:84] Creating Layer bn5b_branch2a_p
I0312 10:34:31.778910  8753 net.cpp:406] bn5b_branch2a_p <- res5b_branch2a_p
I0312 10:34:31.778936  8753 net.cpp:367] bn5b_branch2a_p -> res5b_branch2a_p (in-place)
I0312 10:34:31.779278  8753 net.cpp:122] Setting up bn5b_branch2a_p
I0312 10:34:31.779287  8753 net.cpp:129] Top shape: 8 512 7 7 (200704)
I0312 10:34:31.779291  8753 net.cpp:137] Memory required for data: 3669000192
I0312 10:34:31.779297  8753 net.cpp:465] Sharing parameters 'bn5b_branch2a_mean' owned by layer 'bn5b_branch2a', param index 0
I0312 10:34:31.779304  8753 net.cpp:465] Sharing parameters 'bn5b_branch2a_variance' owned by layer 'bn5b_branch2a', param index 1
I0312 10:34:31.779309  8753 net.cpp:465] Sharing parameters 'bn5b_branch2a_scale_factor' owned by layer 'bn5b_branch2a', param index 2
I0312 10:34:31.779314  8753 layer_factory.hpp:77] Creating layer scale5b_branch2a_p
I0312 10:34:31.779321  8753 net.cpp:84] Creating Layer scale5b_branch2a_p
I0312 10:34:31.779326  8753 net.cpp:406] scale5b_branch2a_p <- res5b_branch2a_p
I0312 10:34:31.779335  8753 net.cpp:367] scale5b_branch2a_p -> res5b_branch2a_p (in-place)
I0312 10:34:31.779395  8753 layer_factory.hpp:77] Creating layer scale5b_branch2a_p
I0312 10:34:31.779637  8753 net.cpp:122] Setting up scale5b_branch2a_p
I0312 10:34:31.779646  8753 net.cpp:129] Top shape: 8 512 7 7 (200704)
I0312 10:34:31.779650  8753 net.cpp:137] Memory required for data: 3669803008
I0312 10:34:31.779657  8753 net.cpp:465] Sharing parameters 'scale5b_branch2a_alpha' owned by layer 'scale5b_branch2a', param index 0
I0312 10:34:31.779664  8753 net.cpp:465] Sharing parameters 'scale5b_branch2a_beta' owned by layer 'scale5b_branch2a', param index 1
I0312 10:34:31.779669  8753 layer_factory.hpp:77] Creating layer res5b_branch2a_relu_p
I0312 10:34:31.779675  8753 net.cpp:84] Creating Layer res5b_branch2a_relu_p
I0312 10:34:31.779686  8753 net.cpp:406] res5b_branch2a_relu_p <- res5b_branch2a_p
I0312 10:34:31.779697  8753 net.cpp:367] res5b_branch2a_relu_p -> res5b_branch2a_p (in-place)
I0312 10:34:31.779974  8753 net.cpp:122] Setting up res5b_branch2a_relu_p
I0312 10:34:31.779984  8753 net.cpp:129] Top shape: 8 512 7 7 (200704)
I0312 10:34:31.779989  8753 net.cpp:137] Memory required for data: 3670605824
I0312 10:34:31.779994  8753 layer_factory.hpp:77] Creating layer res5b_branch2b_p
I0312 10:34:31.780005  8753 net.cpp:84] Creating Layer res5b_branch2b_p
I0312 10:34:31.780010  8753 net.cpp:406] res5b_branch2b_p <- res5b_branch2a_p
I0312 10:34:31.780020  8753 net.cpp:380] res5b_branch2b_p -> res5b_branch2b_p
I0312 10:34:31.786351  8753 net.cpp:122] Setting up res5b_branch2b_p
I0312 10:34:31.786378  8753 net.cpp:129] Top shape: 8 512 7 7 (200704)
I0312 10:34:31.786383  8753 net.cpp:137] Memory required for data: 3671408640
I0312 10:34:31.786391  8753 net.cpp:465] Sharing parameters 'res5b_branch2b_w' owned by layer 'res5b_branch2b', param index 0
I0312 10:34:31.786397  8753 layer_factory.hpp:77] Creating layer bn5b_branch2b_p
I0312 10:34:31.786411  8753 net.cpp:84] Creating Layer bn5b_branch2b_p
I0312 10:34:31.786417  8753 net.cpp:406] bn5b_branch2b_p <- res5b_branch2b_p
I0312 10:34:31.786427  8753 net.cpp:367] bn5b_branch2b_p -> res5b_branch2b_p (in-place)
I0312 10:34:31.786777  8753 net.cpp:122] Setting up bn5b_branch2b_p
I0312 10:34:31.786785  8753 net.cpp:129] Top shape: 8 512 7 7 (200704)
I0312 10:34:31.786789  8753 net.cpp:137] Memory required for data: 3672211456
I0312 10:34:31.786797  8753 net.cpp:465] Sharing parameters 'bn5b_branch2b_mean' owned by layer 'bn5b_branch2b', param index 0
I0312 10:34:31.786803  8753 net.cpp:465] Sharing parameters 'bn5b_branch2b_variance' owned by layer 'bn5b_branch2b', param index 1
I0312 10:34:31.786808  8753 net.cpp:465] Sharing parameters 'bn5b_branch2b_scale_factor' owned by layer 'bn5b_branch2b', param index 2
I0312 10:34:31.786814  8753 layer_factory.hpp:77] Creating layer scale5b_branch2b_p
I0312 10:34:31.786823  8753 net.cpp:84] Creating Layer scale5b_branch2b_p
I0312 10:34:31.786826  8753 net.cpp:406] scale5b_branch2b_p <- res5b_branch2b_p
I0312 10:34:31.786834  8753 net.cpp:367] scale5b_branch2b_p -> res5b_branch2b_p (in-place)
I0312 10:34:31.786897  8753 layer_factory.hpp:77] Creating layer scale5b_branch2b_p
I0312 10:34:31.787083  8753 net.cpp:122] Setting up scale5b_branch2b_p
I0312 10:34:31.787092  8753 net.cpp:129] Top shape: 8 512 7 7 (200704)
I0312 10:34:31.787096  8753 net.cpp:137] Memory required for data: 3673014272
I0312 10:34:31.787102  8753 net.cpp:465] Sharing parameters 'scale5b_branch2b_alpha' owned by layer 'scale5b_branch2b', param index 0
I0312 10:34:31.787108  8753 net.cpp:465] Sharing parameters 'scale5b_branch2b_beta' owned by layer 'scale5b_branch2b', param index 1
I0312 10:34:31.787112  8753 layer_factory.hpp:77] Creating layer res5b_branch2b_relu_p
I0312 10:34:31.787119  8753 net.cpp:84] Creating Layer res5b_branch2b_relu_p
I0312 10:34:31.787123  8753 net.cpp:406] res5b_branch2b_relu_p <- res5b_branch2b_p
I0312 10:34:31.787132  8753 net.cpp:367] res5b_branch2b_relu_p -> res5b_branch2b_p (in-place)
I0312 10:34:31.787359  8753 net.cpp:122] Setting up res5b_branch2b_relu_p
I0312 10:34:31.787369  8753 net.cpp:129] Top shape: 8 512 7 7 (200704)
I0312 10:34:31.787374  8753 net.cpp:137] Memory required for data: 3673817088
I0312 10:34:31.787377  8753 layer_factory.hpp:77] Creating layer res5b_branch2c_p
I0312 10:34:31.787389  8753 net.cpp:84] Creating Layer res5b_branch2c_p
I0312 10:34:31.787394  8753 net.cpp:406] res5b_branch2c_p <- res5b_branch2b_p
I0312 10:34:31.787401  8753 net.cpp:380] res5b_branch2c_p -> res5b_branch2c_p
I0312 10:34:31.794145  8753 net.cpp:122] Setting up res5b_branch2c_p
I0312 10:34:31.794164  8753 net.cpp:129] Top shape: 8 2048 7 7 (802816)
I0312 10:34:31.794168  8753 net.cpp:137] Memory required for data: 3677028352
I0312 10:34:31.794176  8753 net.cpp:465] Sharing parameters 'res5b_branch2c_w' owned by layer 'res5b_branch2c', param index 0
I0312 10:34:31.794189  8753 layer_factory.hpp:77] Creating layer bn5b_branch2c_p
I0312 10:34:31.794200  8753 net.cpp:84] Creating Layer bn5b_branch2c_p
I0312 10:34:31.794205  8753 net.cpp:406] bn5b_branch2c_p <- res5b_branch2c_p
I0312 10:34:31.794214  8753 net.cpp:367] bn5b_branch2c_p -> res5b_branch2c_p (in-place)
I0312 10:34:31.794556  8753 net.cpp:122] Setting up bn5b_branch2c_p
I0312 10:34:31.794565  8753 net.cpp:129] Top shape: 8 2048 7 7 (802816)
I0312 10:34:31.794569  8753 net.cpp:137] Memory required for data: 3680239616
I0312 10:34:31.794576  8753 net.cpp:465] Sharing parameters 'bn5b_branch2c_mean' owned by layer 'bn5b_branch2c', param index 0
I0312 10:34:31.794584  8753 net.cpp:465] Sharing parameters 'bn5b_branch2c_variance' owned by layer 'bn5b_branch2c', param index 1
I0312 10:34:31.794589  8753 net.cpp:465] Sharing parameters 'bn5b_branch2c_scale_factor' owned by layer 'bn5b_branch2c', param index 2
I0312 10:34:31.794592  8753 layer_factory.hpp:77] Creating layer scale5b_branch2c_p
I0312 10:34:31.794601  8753 net.cpp:84] Creating Layer scale5b_branch2c_p
I0312 10:34:31.794605  8753 net.cpp:406] scale5b_branch2c_p <- res5b_branch2c_p
I0312 10:34:31.794615  8753 net.cpp:367] scale5b_branch2c_p -> res5b_branch2c_p (in-place)
I0312 10:34:31.794677  8753 layer_factory.hpp:77] Creating layer scale5b_branch2c_p
I0312 10:34:31.794880  8753 net.cpp:122] Setting up scale5b_branch2c_p
I0312 10:34:31.794889  8753 net.cpp:129] Top shape: 8 2048 7 7 (802816)
I0312 10:34:31.794893  8753 net.cpp:137] Memory required for data: 3683450880
I0312 10:34:31.794898  8753 net.cpp:465] Sharing parameters 'scale5b_branch2c_alpha' owned by layer 'scale5b_branch2c', param index 0
I0312 10:34:31.794905  8753 net.cpp:465] Sharing parameters 'scale5b_branch2c_beta' owned by layer 'scale5b_branch2c', param index 1
I0312 10:34:31.794909  8753 layer_factory.hpp:77] Creating layer res5b_p
I0312 10:34:31.794916  8753 net.cpp:84] Creating Layer res5b_p
I0312 10:34:31.794921  8753 net.cpp:406] res5b_p <- res5a_p_res5a_relu_p_0_split_1
I0312 10:34:31.794927  8753 net.cpp:406] res5b_p <- res5b_branch2c_p
I0312 10:34:31.794934  8753 net.cpp:380] res5b_p -> res5b_p
I0312 10:34:31.794971  8753 net.cpp:122] Setting up res5b_p
I0312 10:34:31.794980  8753 net.cpp:129] Top shape: 8 2048 7 7 (802816)
I0312 10:34:31.794983  8753 net.cpp:137] Memory required for data: 3686662144
I0312 10:34:31.794987  8753 layer_factory.hpp:77] Creating layer res5b_relu_p
I0312 10:34:31.794994  8753 net.cpp:84] Creating Layer res5b_relu_p
I0312 10:34:31.794999  8753 net.cpp:406] res5b_relu_p <- res5b_p
I0312 10:34:31.795004  8753 net.cpp:367] res5b_relu_p -> res5b_p (in-place)
I0312 10:34:31.795267  8753 net.cpp:122] Setting up res5b_relu_p
I0312 10:34:31.795294  8753 net.cpp:129] Top shape: 8 2048 7 7 (802816)
I0312 10:34:31.795303  8753 net.cpp:137] Memory required for data: 3689873408
I0312 10:34:31.795315  8753 layer_factory.hpp:77] Creating layer res5b_p_res5b_relu_p_0_split
I0312 10:34:31.795331  8753 net.cpp:84] Creating Layer res5b_p_res5b_relu_p_0_split
I0312 10:34:31.795346  8753 net.cpp:406] res5b_p_res5b_relu_p_0_split <- res5b_p
I0312 10:34:31.795361  8753 net.cpp:380] res5b_p_res5b_relu_p_0_split -> res5b_p_res5b_relu_p_0_split_0
I0312 10:34:31.795370  8753 net.cpp:380] res5b_p_res5b_relu_p_0_split -> res5b_p_res5b_relu_p_0_split_1
I0312 10:34:31.795512  8753 net.cpp:122] Setting up res5b_p_res5b_relu_p_0_split
I0312 10:34:31.795526  8753 net.cpp:129] Top shape: 8 2048 7 7 (802816)
I0312 10:34:31.795539  8753 net.cpp:129] Top shape: 8 2048 7 7 (802816)
I0312 10:34:31.795547  8753 net.cpp:137] Memory required for data: 3696295936
I0312 10:34:31.795555  8753 layer_factory.hpp:77] Creating layer res5c_branch2a_p
I0312 10:34:31.795572  8753 net.cpp:84] Creating Layer res5c_branch2a_p
I0312 10:34:31.795588  8753 net.cpp:406] res5c_branch2a_p <- res5b_p_res5b_relu_p_0_split_0
I0312 10:34:31.795599  8753 net.cpp:380] res5c_branch2a_p -> res5c_branch2a_p
I0312 10:34:31.801573  8753 net.cpp:122] Setting up res5c_branch2a_p
I0312 10:34:31.801609  8753 net.cpp:129] Top shape: 8 512 7 7 (200704)
I0312 10:34:31.801614  8753 net.cpp:137] Memory required for data: 3697098752
I0312 10:34:31.801623  8753 net.cpp:465] Sharing parameters 'res5c_branch2a_w' owned by layer 'res5c_branch2a', param index 0
I0312 10:34:31.801630  8753 layer_factory.hpp:77] Creating layer bn5c_branch2a_p
I0312 10:34:31.801641  8753 net.cpp:84] Creating Layer bn5c_branch2a_p
I0312 10:34:31.801646  8753 net.cpp:406] bn5c_branch2a_p <- res5c_branch2a_p
I0312 10:34:31.801656  8753 net.cpp:367] bn5c_branch2a_p -> res5c_branch2a_p (in-place)
I0312 10:34:31.801971  8753 net.cpp:122] Setting up bn5c_branch2a_p
I0312 10:34:31.801980  8753 net.cpp:129] Top shape: 8 512 7 7 (200704)
I0312 10:34:31.801983  8753 net.cpp:137] Memory required for data: 3697901568
I0312 10:34:31.801990  8753 net.cpp:465] Sharing parameters 'bn5c_branch2a_mean' owned by layer 'bn5c_branch2a', param index 0
I0312 10:34:31.801995  8753 net.cpp:465] Sharing parameters 'bn5c_branch2a_variance' owned by layer 'bn5c_branch2a', param index 1
I0312 10:34:31.802000  8753 net.cpp:465] Sharing parameters 'bn5c_branch2a_scale_factor' owned by layer 'bn5c_branch2a', param index 2
I0312 10:34:31.802004  8753 layer_factory.hpp:77] Creating layer scale5c_branch2a_p
I0312 10:34:31.802012  8753 net.cpp:84] Creating Layer scale5c_branch2a_p
I0312 10:34:31.802016  8753 net.cpp:406] scale5c_branch2a_p <- res5c_branch2a_p
I0312 10:34:31.802024  8753 net.cpp:367] scale5c_branch2a_p -> res5c_branch2a_p (in-place)
I0312 10:34:31.802084  8753 layer_factory.hpp:77] Creating layer scale5c_branch2a_p
I0312 10:34:31.802260  8753 net.cpp:122] Setting up scale5c_branch2a_p
I0312 10:34:31.802268  8753 net.cpp:129] Top shape: 8 512 7 7 (200704)
I0312 10:34:31.802273  8753 net.cpp:137] Memory required for data: 3698704384
I0312 10:34:31.802278  8753 net.cpp:465] Sharing parameters 'scale5c_branch2a_alpha' owned by layer 'scale5c_branch2a', param index 0
I0312 10:34:31.802284  8753 net.cpp:465] Sharing parameters 'scale5c_branch2a_beta' owned by layer 'scale5c_branch2a', param index 1
I0312 10:34:31.802289  8753 layer_factory.hpp:77] Creating layer res5c_branch2a_relu_p
I0312 10:34:31.802294  8753 net.cpp:84] Creating Layer res5c_branch2a_relu_p
I0312 10:34:31.802299  8753 net.cpp:406] res5c_branch2a_relu_p <- res5c_branch2a_p
I0312 10:34:31.802306  8753 net.cpp:367] res5c_branch2a_relu_p -> res5c_branch2a_p (in-place)
I0312 10:34:31.802517  8753 net.cpp:122] Setting up res5c_branch2a_relu_p
I0312 10:34:31.802526  8753 net.cpp:129] Top shape: 8 512 7 7 (200704)
I0312 10:34:31.802531  8753 net.cpp:137] Memory required for data: 3699507200
I0312 10:34:31.802537  8753 layer_factory.hpp:77] Creating layer res5c_branch2b_p
I0312 10:34:31.802547  8753 net.cpp:84] Creating Layer res5c_branch2b_p
I0312 10:34:31.802552  8753 net.cpp:406] res5c_branch2b_p <- res5c_branch2a_p
I0312 10:34:31.802558  8753 net.cpp:380] res5c_branch2b_p -> res5c_branch2b_p
I0312 10:34:31.808593  8753 net.cpp:122] Setting up res5c_branch2b_p
I0312 10:34:31.808621  8753 net.cpp:129] Top shape: 8 512 7 7 (200704)
I0312 10:34:31.808625  8753 net.cpp:137] Memory required for data: 3700310016
I0312 10:34:31.808634  8753 net.cpp:465] Sharing parameters 'res5c_branch2b_w' owned by layer 'res5c_branch2b', param index 0
I0312 10:34:31.808640  8753 layer_factory.hpp:77] Creating layer bn5c_branch2b_p
I0312 10:34:31.808651  8753 net.cpp:84] Creating Layer bn5c_branch2b_p
I0312 10:34:31.808657  8753 net.cpp:406] bn5c_branch2b_p <- res5c_branch2b_p
I0312 10:34:31.808665  8753 net.cpp:367] bn5c_branch2b_p -> res5c_branch2b_p (in-place)
I0312 10:34:31.809011  8753 net.cpp:122] Setting up bn5c_branch2b_p
I0312 10:34:31.809020  8753 net.cpp:129] Top shape: 8 512 7 7 (200704)
I0312 10:34:31.809025  8753 net.cpp:137] Memory required for data: 3701112832
I0312 10:34:31.809032  8753 net.cpp:465] Sharing parameters 'bn5c_branch2b_mean' owned by layer 'bn5c_branch2b', param index 0
I0312 10:34:31.809038  8753 net.cpp:465] Sharing parameters 'bn5c_branch2b_variance' owned by layer 'bn5c_branch2b', param index 1
I0312 10:34:31.809051  8753 net.cpp:465] Sharing parameters 'bn5c_branch2b_scale_factor' owned by layer 'bn5c_branch2b', param index 2
I0312 10:34:31.809058  8753 layer_factory.hpp:77] Creating layer scale5c_branch2b_p
I0312 10:34:31.809067  8753 net.cpp:84] Creating Layer scale5c_branch2b_p
I0312 10:34:31.809072  8753 net.cpp:406] scale5c_branch2b_p <- res5c_branch2b_p
I0312 10:34:31.809079  8753 net.cpp:367] scale5c_branch2b_p -> res5c_branch2b_p (in-place)
I0312 10:34:31.809145  8753 layer_factory.hpp:77] Creating layer scale5c_branch2b_p
I0312 10:34:31.809367  8753 net.cpp:122] Setting up scale5c_branch2b_p
I0312 10:34:31.809376  8753 net.cpp:129] Top shape: 8 512 7 7 (200704)
I0312 10:34:31.809379  8753 net.cpp:137] Memory required for data: 3701915648
I0312 10:34:31.809386  8753 net.cpp:465] Sharing parameters 'scale5c_branch2b_alpha' owned by layer 'scale5c_branch2b', param index 0
I0312 10:34:31.809391  8753 net.cpp:465] Sharing parameters 'scale5c_branch2b_beta' owned by layer 'scale5c_branch2b', param index 1
I0312 10:34:31.809396  8753 layer_factory.hpp:77] Creating layer res5c_branch2b_relu_p
I0312 10:34:31.809402  8753 net.cpp:84] Creating Layer res5c_branch2b_relu_p
I0312 10:34:31.809406  8753 net.cpp:406] res5c_branch2b_relu_p <- res5c_branch2b_p
I0312 10:34:31.809414  8753 net.cpp:367] res5c_branch2b_relu_p -> res5c_branch2b_p (in-place)
I0312 10:34:31.810061  8753 net.cpp:122] Setting up res5c_branch2b_relu_p
I0312 10:34:31.810076  8753 net.cpp:129] Top shape: 8 512 7 7 (200704)
I0312 10:34:31.810081  8753 net.cpp:137] Memory required for data: 3702718464
I0312 10:34:31.810086  8753 layer_factory.hpp:77] Creating layer res5c_branch2c_p
I0312 10:34:31.810096  8753 net.cpp:84] Creating Layer res5c_branch2c_p
I0312 10:34:31.810101  8753 net.cpp:406] res5c_branch2c_p <- res5c_branch2b_p
I0312 10:34:31.810108  8753 net.cpp:380] res5c_branch2c_p -> res5c_branch2c_p
I0312 10:34:31.813768  8753 net.cpp:122] Setting up res5c_branch2c_p
I0312 10:34:31.813788  8753 net.cpp:129] Top shape: 8 2048 7 7 (802816)
I0312 10:34:31.813792  8753 net.cpp:137] Memory required for data: 3705929728
I0312 10:34:31.813799  8753 net.cpp:465] Sharing parameters 'res5c_branch2c_w' owned by layer 'res5c_branch2c', param index 0
I0312 10:34:31.813807  8753 layer_factory.hpp:77] Creating layer bn5c_branch2c_p
I0312 10:34:31.813818  8753 net.cpp:84] Creating Layer bn5c_branch2c_p
I0312 10:34:31.813824  8753 net.cpp:406] bn5c_branch2c_p <- res5c_branch2c_p
I0312 10:34:31.813832  8753 net.cpp:367] bn5c_branch2c_p -> res5c_branch2c_p (in-place)
I0312 10:34:31.814163  8753 net.cpp:122] Setting up bn5c_branch2c_p
I0312 10:34:31.814172  8753 net.cpp:129] Top shape: 8 2048 7 7 (802816)
I0312 10:34:31.814177  8753 net.cpp:137] Memory required for data: 3709140992
I0312 10:34:31.814182  8753 net.cpp:465] Sharing parameters 'bn5c_branch2c_mean' owned by layer 'bn5c_branch2c', param index 0
I0312 10:34:31.814188  8753 net.cpp:465] Sharing parameters 'bn5c_branch2c_variance' owned by layer 'bn5c_branch2c', param index 1
I0312 10:34:31.814194  8753 net.cpp:465] Sharing parameters 'bn5c_branch2c_scale_factor' owned by layer 'bn5c_branch2c', param index 2
I0312 10:34:31.814198  8753 layer_factory.hpp:77] Creating layer scale5c_branch2c_p
I0312 10:34:31.814208  8753 net.cpp:84] Creating Layer scale5c_branch2c_p
I0312 10:34:31.814213  8753 net.cpp:406] scale5c_branch2c_p <- res5c_branch2c_p
I0312 10:34:31.814218  8753 net.cpp:367] scale5c_branch2c_p -> res5c_branch2c_p (in-place)
I0312 10:34:31.814283  8753 layer_factory.hpp:77] Creating layer scale5c_branch2c_p
I0312 10:34:31.814465  8753 net.cpp:122] Setting up scale5c_branch2c_p
I0312 10:34:31.814472  8753 net.cpp:129] Top shape: 8 2048 7 7 (802816)
I0312 10:34:31.814476  8753 net.cpp:137] Memory required for data: 3712352256
I0312 10:34:31.814482  8753 net.cpp:465] Sharing parameters 'scale5c_branch2c_alpha' owned by layer 'scale5c_branch2c', param index 0
I0312 10:34:31.814488  8753 net.cpp:465] Sharing parameters 'scale5c_branch2c_beta' owned by layer 'scale5c_branch2c', param index 1
I0312 10:34:31.814499  8753 layer_factory.hpp:77] Creating layer res5c_p
I0312 10:34:31.814509  8753 net.cpp:84] Creating Layer res5c_p
I0312 10:34:31.814514  8753 net.cpp:406] res5c_p <- res5b_p_res5b_relu_p_0_split_1
I0312 10:34:31.814519  8753 net.cpp:406] res5c_p <- res5c_branch2c_p
I0312 10:34:31.814525  8753 net.cpp:380] res5c_p -> res5c_p
I0312 10:34:31.814564  8753 net.cpp:122] Setting up res5c_p
I0312 10:34:31.814573  8753 net.cpp:129] Top shape: 8 2048 7 7 (802816)
I0312 10:34:31.814575  8753 net.cpp:137] Memory required for data: 3715563520
I0312 10:34:31.814580  8753 layer_factory.hpp:77] Creating layer res5c_relu_p
I0312 10:34:31.814587  8753 net.cpp:84] Creating Layer res5c_relu_p
I0312 10:34:31.814591  8753 net.cpp:406] res5c_relu_p <- res5c_p
I0312 10:34:31.814597  8753 net.cpp:367] res5c_relu_p -> res5c_p (in-place)
I0312 10:34:31.814808  8753 net.cpp:122] Setting up res5c_relu_p
I0312 10:34:31.814818  8753 net.cpp:129] Top shape: 8 2048 7 7 (802816)
I0312 10:34:31.814822  8753 net.cpp:137] Memory required for data: 3718774784
I0312 10:34:31.814826  8753 layer_factory.hpp:77] Creating layer pool_p
I0312 10:34:31.814834  8753 net.cpp:84] Creating Layer pool_p
I0312 10:34:31.814839  8753 net.cpp:406] pool_p <- res5c_p
I0312 10:34:31.814847  8753 net.cpp:380] pool_p -> pool_p
I0312 10:34:31.815083  8753 net.cpp:122] Setting up pool_p
I0312 10:34:31.815093  8753 net.cpp:129] Top shape: 8 2048 1 1 (16384)
I0312 10:34:31.815096  8753 net.cpp:137] Memory required for data: 3718840320
I0312 10:34:31.815100  8753 layer_factory.hpp:77] Creating layer ip1_p
I0312 10:34:31.815110  8753 net.cpp:84] Creating Layer ip1_p
I0312 10:34:31.815114  8753 net.cpp:406] ip1_p <- pool_p
I0312 10:34:31.815122  8753 net.cpp:380] ip1_p -> ip1_p
I0312 10:34:31.822901  8753 net.cpp:122] Setting up ip1_p
I0312 10:34:31.822930  8753 net.cpp:129] Top shape: 8 512 (4096)
I0312 10:34:31.822934  8753 net.cpp:137] Memory required for data: 3718856704
I0312 10:34:31.822943  8753 net.cpp:465] Sharing parameters 'ip1_w' owned by layer 'ip1', param index 0
I0312 10:34:31.822949  8753 net.cpp:465] Sharing parameters 'ip1_b' owned by layer 'ip1', param index 1
I0312 10:34:31.822954  8753 layer_factory.hpp:77] Creating layer relu1_p
I0312 10:34:31.822963  8753 net.cpp:84] Creating Layer relu1_p
I0312 10:34:31.822969  8753 net.cpp:406] relu1_p <- ip1_p
I0312 10:34:31.822978  8753 net.cpp:367] relu1_p -> ip1_p (in-place)
I0312 10:34:31.823240  8753 net.cpp:122] Setting up relu1_p
I0312 10:34:31.823249  8753 net.cpp:129] Top shape: 8 512 (4096)
I0312 10:34:31.823253  8753 net.cpp:137] Memory required for data: 3718873088
I0312 10:34:31.823261  8753 layer_factory.hpp:77] Creating layer ip2_p
I0312 10:34:31.823268  8753 net.cpp:84] Creating Layer ip2_p
I0312 10:34:31.823272  8753 net.cpp:406] ip2_p <- ip1_p
I0312 10:34:31.823282  8753 net.cpp:380] ip2_p -> ip2_p
I0312 10:34:31.825073  8753 net.cpp:122] Setting up ip2_p
I0312 10:34:31.825083  8753 net.cpp:129] Top shape: 8 512 (4096)
I0312 10:34:31.825086  8753 net.cpp:137] Memory required for data: 3718889472
I0312 10:34:31.825093  8753 net.cpp:465] Sharing parameters 'ip2_w' owned by layer 'ip2', param index 0
I0312 10:34:31.825099  8753 net.cpp:465] Sharing parameters 'ip2_b' owned by layer 'ip2', param index 1
I0312 10:34:31.825103  8753 layer_factory.hpp:77] Creating layer feat_p
I0312 10:34:31.825114  8753 net.cpp:84] Creating Layer feat_p
I0312 10:34:31.825119  8753 net.cpp:406] feat_p <- ip2_p
I0312 10:34:31.825127  8753 net.cpp:380] feat_p -> feat_p
I0312 10:34:31.827895  8753 net.cpp:122] Setting up feat_p
I0312 10:34:31.827914  8753 net.cpp:129] Top shape: 8 512 (4096)
I0312 10:34:31.827919  8753 net.cpp:137] Memory required for data: 3718905856
I0312 10:34:31.827924  8753 net.cpp:465] Sharing parameters 'feat_w' owned by layer 'feat', param index 0
I0312 10:34:31.827930  8753 net.cpp:465] Sharing parameters 'feat_b' owned by layer 'feat', param index 1
I0312 10:34:31.827934  8753 layer_factory.hpp:77] Creating layer loss
I0312 10:34:31.925395  8753 net.cpp:84] Creating Layer loss
I0312 10:34:31.925426  8753 net.cpp:406] loss <- feat
I0312 10:34:31.925441  8753 net.cpp:406] loss <- feat_p
I0312 10:34:31.925448  8753 net.cpp:380] loss -> loss
I0312 10:34:31.926015  8753 net.cpp:122] Setting up loss
I0312 10:34:31.926030  8753 net.cpp:129] Top shape: 1 (1)
I0312 10:34:31.926034  8753 net.cpp:132]     with loss weight 1
I0312 10:34:31.926043  8753 net.cpp:137] Memory required for data: 3718905860
I0312 10:34:31.926049  8753 net.cpp:198] loss needs backward computation.
I0312 10:34:31.926054  8753 net.cpp:198] feat_p needs backward computation.
I0312 10:34:31.926059  8753 net.cpp:198] ip2_p needs backward computation.
I0312 10:34:31.926064  8753 net.cpp:198] relu1_p needs backward computation.
…
