…
I0306 19:36:15.252542  8714 upgrade_proto.cpp:77] Attempting to upgrade batch norm layers using deprecated params: ../merge_models/res50_train_multiprocess.prototxt
I0306 19:36:15.252564  8714 upgrade_proto.cpp:80] Successfully upgraded batch norm layers using deprecated params.
I0306 19:36:15.254905  8714 net.cpp:58] Initializing net from parameters: 
name: "ResNet-50"
state {
  phase: TRAIN
}
layer {
  name: "data"
  type: "MemoryData"
  top: "pairs"
  top: "label"
  memory_data_param {
    batch_size: 8
    channels: 6
    height: 224
    width: 224
  }
}
layer {
  name: "slice"
  type: "Slice"
  bottom: "pairs"
  top: "data"
  top: "data_p"
  slice_param {
    slice_point: 3
    axis: 1
  }
}
layer {
  name: "conv1"
  type: "Convolution"
  bottom: "data"
  top: "conv1"
  param {
    name: "conv1_w"
    lr_mult: 1
  }
  param {
    name: "conv1_b"
    lr_mult: 2
  }
  convolution_param {
    num_output: 64
    pad: 3
    kernel_size: 7
    stride: 2
  }
}
layer {
  name: "bn_conv1"
  type: "BatchNorm"
  bottom: "conv1"
  top: "conv1"
  batch_norm_param {
    use_global_stats: false
  }
}
layer {
  name: "scale_conv1"
  type: "Scale"
  bottom: "conv1"
  top: "conv1"
  param {
    name: "scale_conv1_alpha"
  }
  param {
    name: "scale_conv1_beta"
  }
  scale_param {
    bias_term: true
  }
}
layer {
  name: "conv1_relu"
  type: "ReLU"
  bottom: "conv1"
  top: "conv1"
}
layer {
  name: "pool1"
  type: "Pooling"
  bottom: "conv1"
  top: "pool1"
  pooling_param {
    pool: MAX
    kernel_size: 3
    stride: 2
  }
}
layer {
  name: "res2a_branch1"
  type: "Convolution"
  bottom: "pool1"
  top: "res2a_branch1"
  param {
    name: "res2a_branch1_w"
    lr_mult: 1
  }
  convolution_param {
    num_output: 256
    bias_term: false
    pad: 0
    kernel_size: 1
    stride: 1
  }
}
layer {
  name: "bn2a_branch1"
  type: "BatchNorm"
  bottom: "res2a_branch1"
  top: "res2a_branch1"
  batch_norm_param {
    use_global_stats: false
  }
}
layer {
  name: "scale2a_branch1"
  type: "Scale"
  bottom: "res2a_branch1"
  top: "res2a_branch1"
  param {
    name: "scale2a_branch1_alpha"
  }
  param {
    name: "scale2a_branch1_beta"
  }
  scale_param {
    bias_term: true
  }
}
layer {
  name: "res2a_branch2a"
  type: "Convolution"
  bottom: "pool1"
  top: "res2a_branch2a"
  param {
    name: "res2a_branch2a_w"
    lr_mult: 1
  }
  convolution_param {
    num_output: 64
    bias_term: false
    pad: 0
    kernel_size: 1
    stride: 1
  }
}
layer {
  name: "bn2a_branch2a"
  type: "BatchNorm"
  bottom: "res2a_branch2a"
  top: "res2a_branch2a"
  batch_norm_param {
    use_global_stats: false
  }
}
layer {
  name: "scale2a_branch2a"
  type: "Scale"
  bottom: "res2a_branch2a"
  top: "res2a_branch2a"
  param {
    name: "scale2a_branch2a_alpha"
  }
  param {
    name: "scale2a_branch2a_beta"
  }
  scale_param {
    bias_term: true
  }
}
layer {
  name: "res2a_branch2a_relu"
  type: "ReLU"
  bottom: "res2a_branch2a"
  top: "res2a_branch2a"
}
layer {
  name: "res2a_branch2b"
  type: "Convolution"
  bottom: "res2a_branch2a"
  top: "res2a_branch2b"
  param {
    name: "res2a_branch2b_w"
    lr_mult: 1
  }
  convolution_param {
    num_output: 64
    bias_term: false
    pad: 1
    kernel_size: 3
    stride: 1
  }
}
layer {
  name: "bn2a_branch2b"
  type: "BatchNorm"
  bottom: "res2a_branch2b"
  top: "res2a_branch2b"
  batch_norm_param {
    use_global_stats: false
  }
}
layer {
  name: "scale2a_branch2b"
  type: "Scale"
  bottom: "res2a_branch2b"
  top: "res2a_branch2b"
  param {
    name: "scale2a_branch2b_alpha"
  }
  param {
    name: "scale2a_branch2b_beta"
  }
  scale_param {
    bias_term: true
  }
}
layer {
  name: "res2a_branch2b_relu"
  type: "ReLU"
  bottom: "res2a_branch2b"
  top: "res2a_branch2b"
}
layer {
  name: "res2a_branch2c"
  type: "Convolution"
  bottom: "res2a_branch2b"
  top: "res2a_branch2c"
  param {
    name: "res2a_branch2c_w"
    lr_mult: 1
  }
  convolution_param {
    num_output: 256
    bias_term: false
    pad: 0
    kernel_size: 1
    stride: 1
  }
}
layer {
  name: "bn2a_branch2c"
  type: "BatchNorm"
  bottom: "res2a_branch2c"
  top: "res2a_branch2c"
  batch_norm_param {
    use_global_stats: false
  }
}
layer {
  name: "scale2a_branch2c"
  type: "Scale"
  bottom: "res2a_branch2c"
  top: "res2a_branch2c"
  param {
    name: "scale2a_branch2c_alpha"
  }
  param {
    name: "scale2a_branch2c_beta"
  }
  scale_param {
    bias_term: true
  }
}
layer {
  name: "res2a"
  type: "Eltwise"
  bottom: "res2a_branch1"
  bottom: "res2a_branch2c"
  top: "res2a"
}
layer {
  name: "res2a_relu"
  type: "ReLU"
  bottom: "res2a"
  top: "res2a"
}
layer {
  name: "res2b_branch2a"
  type: "Convolution"
  bottom: "res2a"
  top: "res2b_branch2a"
  param {
    name: "res2b_branch2a_w"
    lr_mult: 1
  }
  convolution_param {
    num_output: 64
    bias_term: false
    pad: 0
    kernel_size: 1
    stride: 1
  }
}
layer {
  name: "bn2b_branch2a"
  type: "BatchNorm"
  bottom: "res2b_branch2a"
  top: "res2b_branch2a"
  batch_norm_param {
    use_global_stats: false
  }
}
layer {
  name: "scale2b_branch2a"
  type: "Scale"
  bottom: "res2b_branch2a"
  top: "res2b_branch2a"
  param {
    name: "scale2b_branch2a_alpha"
  }
  param {
    name: "scale2b_branch2a_beta"
  }
  scale_param {
    bias_term: true
  }
}
layer {
  name: "res2b_branch2a_relu"
  type: "ReLU"
  bottom: "res2b_branch2a"
  top: "res2b_branch2a"
}
layer {
  name: "res2b_branch2b"
  type: "Convolution"
  bottom: "res2b_branch2a"
  top: "res2b_branch2b"
  param {
    name: "res2b_branch2b_w"
    lr_mult: 1
  }
  convolution_param {
    num_output: 64
    bias_term: false
    pad: 1
    kernel_size: 3
    stride: 1
  }
}
layer {
  name: "bn2b_branch2b"
  type: "BatchNorm"
  bottom: "res2b_branch2b"
  top: "res2b_branch2b"
  batch_norm_param {
    use_global_stats: false
  }
}
layer {
  name: "scale2b_branch2b"
  type: "Scale"
  bottom: "res2b_branch2b"
  top: "res2b_branch2b"
  param {
    name: "scale2b_branch2b_alpha"
  }
  param {
    name: "scale2b_branch2b_beta"
  }
  scale_param {
    bias_term: true
  }
}
layer {
  name: "res2b_branch2b_relu"
  type: "ReLU"
  bottom: "res2b_branch2b"
  top: "res2b_branch2b"
}
layer {
  name: "res2b_branch2c"
  type: "Convolution"
  bottom: "res2b_branch2b"
  top: "res2b_branch2c"
  param {
    name: "res2b_branch2c_w"
    lr_mult: 1
  }
  convolution_param {
    num_output: 256
    bias_term: false
    pad: 0
    kernel_size: 1
    stride: 1
  }
}
layer {
  name: "bn2b_branch2c"
  type: "BatchNorm"
  bottom: "res2b_branch2c"
  top: "res2b_branch2c"
  batch_norm_param {
    use_global_stats: false
  }
}
layer {
  name: "scale2b_branch2c"
  type: "Scale"
  bottom: "res2b_branch2c"
  top: "res2b_branch2c"
  param {
    name: "scale2b_branch2c_alpha"
  }
  param {
    name: "scale2b_branch2c_beta"
  }
  scale_param {
    bias_term: true
  }
}
layer {
  name: "res2b"
  type: "Eltwise"
  bottom: "res2a"
  bottom: "res2b_branch2c"
  top: "res2b"
}
layer {
  name: "res2b_relu"
  type: "ReLU"
  bottom: "res2b"
  top: "res2b"
}
layer {
  name: "res2c_branch2a"
  type: "Convolution"
  bottom: "res2b"
  top: "res2c_branch2a"
  param {
    name: "res2c_branch2a_w"
    lr_mult: 1
  }
  convolution_param {
    num_output: 64
    bias_term: false
    pad: 0
    kernel_size: 1
    stride: 1
  }
}
layer {
  name: "bn2c_branch2a"
  type: "BatchNorm"
  bottom: "res2c_branch2a"
  top: "res2c_branch2a"
  batch_norm_param {
    use_global_stats: false
  }
}
layer {
  name: "scale2c_branch2a"
  type: "Scale"
  bottom: "res2c_branch2a"
  top: "res2c_branch2a"
  param {
    name: "scale2c_branch2a_alpha"
  }
  param {
    name: "scale2c_branch2a_beta"
  }
  scale_param {
    bias_term: true
  }
}
layer {
  name: "res2c_branch2a_relu"
  type: "ReLU"
  bottom: "res2c_branch2a"
  top: "res2c_branch2a"
}
layer {
  name: "res2c_branch2b"
  type: "Convolution"
  bottom: "res2c_branch2a"
  top: "res2c_branch2b"
  param {
    name: "res2c_branch2b_w"
    lr_mult: 1
  }
  convolution_param {
    num_output: 64
    bias_term: false
    pad: 1
    kernel_size: 3
    stride: 1
  }
}
layer {
  name: "bn2c_branch2b"
  type: "BatchNorm"
  bottom: "res2c_branch2b"
  top: "res2c_branch2b"
  batch_norm_param {
    use_global_stats: false
  }
}
layer {
  name: "scale2c_branch2b"
  type: "Scale"
  bottom: "res2c_branch2b"
  top: "res2c_branch2b"
  param {
    name: "scale2c_branch2b_alpha"
  }
  param {
    name: "scale2c_branch2b_beta"
  }
  scale_param {
    bias_term: true
  }
}
layer {
  name: "res2c_branch2b_relu"
  type: "ReLU"
  bottom: "res2c_branch2b"
  top: "res2c_branch2b"
}
layer {
  name: "res2c_branch2c"
  type: "Convolution"
  bottom: "res2c_branch2b"
  top: "res2c_branch2c"
  param {
    name: "res2c_branch2c_w"
    lr_mult: 1
  }
  convolution_param {
    num_output: 256
    bias_term: false
    pad: 0
    kernel_size: 1
    stride: 1
  }
}
layer {
  name: "bn2c_branch2c"
  type: "BatchNorm"
  bottom: "res2c_branch2c"
  top: "res2c_branch2c"
  batch_norm_param {
    use_global_stats: false
  }
}
layer {
  name: "scale2c_branch2c"
  type: "Scale"
  bottom: "res2c_branch2c"
  top: "res2c_branch2c"
  param {
    name: "scale2c_branch2c_alpha"
  }
  param {
    name: "scale2c_branch2c_beta"
  }
  scale_param {
    bias_term: true
  }
}
layer {
  name: "res2c"
  type: "Eltwise"
  bottom: "res2b"
  bottom: "res2c_branch2c"
  top: "res2c"
}
layer {
  name: "res2c_relu"
  type: "ReLU"
  bottom: "res2c"
  top: "res2c"
}
layer {
  name: "res3a_branch1"
  type: "Convolution"
  bottom: "res2c"
  top: "res3a_branch1"
  param {
    name: "res3a_branch1_w"
    lr_mult: 1
  }
  convolution_param {
    num_output: 512
    bias_term: false
    pad: 0
    kernel_size: 1
    stride: 2
  }
}
layer {
  name: "bn3a_branch1"
  type: "BatchNorm"
  bottom: "res3a_branch1"
  top: "res3a_branch1"
  batch_norm_param {
    use_global_stats: false
  }
}
layer {
  name: "scale3a_branch1"
  type: "Scale"
  bottom: "res3a_branch1"
  top: "res3a_branch1"
  param {
    name: "scale3a_branch1_alpha"
  }
  param {
    name: "scale3a_branch1_beta"
  }
  scale_param {
    bias_term: true
  }
}
layer {
  name: "res3a_branch2a"
  type: "Convolution"
  bottom: "res2c"
  top: "res3a_branch2a"
  param {
    name: "res3a_branch2a_w"
    lr_mult: 1
  }
  convolution_param {
    num_output: 128
    bias_term: false
    pad: 0
    kernel_size: 1
    stride: 2
  }
}
layer {
  name: "bn3a_branch2a"
  type: "BatchNorm"
  bottom: "res3a_branch2a"
  top: "res3a_branch2a"
  batch_norm_param {
    use_global_stats: false
  }
}
layer {
  name: "scale3a_branch2a"
  type: "Scale"
  bottom: "res3a_branch2a"
  top: "res3a_branch2a"
  param {
    name: "scale3a_branch2a_alpha"
  }
  param {
    name: "scale3a_branch2a_beta"
  }
  scale_param {
    bias_term: true
  }
}
layer {
  name: "res3a_branch2a_relu"
  type: "ReLU"
  bottom: "res3a_branch2a"
  top: "res3a_branch2a"
}
layer {
  name: "res3a_branch2b"
  type: "Convolution"
  bottom: "res3a_branch2a"
  top: "res3a_branch2b"
  param {
    name: "res3a_branch2b_w"
    lr_mult: 1
  }
  convolution_param {
    num_output: 128
    bias_term: false
    pad: 1
    kernel_size: 3
    stride: 1
  }
}
layer {
  name: "bn3a_branch2b"
  type: "BatchNorm"
  bottom: "res3a_branch2b"
  top: "res3a_branch2b"
  batch_norm_param {
    use_global_stats: false
  }
}
layer {
  name: "scale3a_branch2b"
  type: "Scale"
  bottom: "res3a_branch2b"
  top: "res3a_branch2b"
  param {
    name: "scale3a_branch2b_alpha"
  }
  param {
    name: "scale3a_branch2b_beta"
  }
  scale_param {
    bias_term: true
  }
}
layer {
  name: "res3a_branch2b_relu"
  type: "ReLU"
  bottom: "res3a_branch2b"
  top: "res3a_branch2b"
}
layer {
  name: "res3a_branch2c"
  type: "Convolution"
  bottom: "res3a_branch2b"
  top: "res3a_branch2c"
  param {
    name: "res3a_branch2c_w"
    lr_mult: 1
  }
  convolution_param {
    num_output: 512
    bias_term: false
    pad: 0
    kernel_size: 1
    stride: 1
  }
}
layer {
  name: "bn3a_branch2c"
  type: "BatchNorm"
  bottom: "res3a_branch2c"
  top: "res3a_branch2c"
  batch_norm_param {
    use_global_stats: false
  }
}
layer {
  name: "scale3a_branch2c"
  type: "Scale"
  bottom: "res3a_branch2c"
  top: "res3a_branch2c"
  param {
    name: "scale3a_branch2c_alpha"
  }
  param {
    name: "scale3a_branch2c_beta"
  }
  scale_param {
    bias_term: true
  }
}
layer {
  name: "res3a"
  type: "Eltwise"
  bottom: "res3a_branch1"
  bottom: "res3a_branch2c"
  top: "res3a"
}
layer {
  name: "res3a_relu"
  type: "ReLU"
  bottom: "res3a"
  top: "res3a"
}
layer {
  name: "res3b_branch2a"
  type: "Convolution"
  bottom: "res3a"
  top: "res3b_branch2a"
  param {
    name: "res3b_branch2a_w"
    lr_mult: 1
  }
  convolution_param {
    num_output: 128
    bias_term: false
    pad: 0
    kernel_size: 1
    stride: 1
  }
}
layer {
  name: "bn3b_branch2a"
  type: "BatchNorm"
  bottom: "res3b_branch2a"
  top: "res3b_branch2a"
  batch_norm_param {
    use_global_stats: false
  }
}
layer {
  name: "scale3b_branch2a"
  type: "Scale"
  bottom: "res3b_branch2a"
  top: "res3b_branch2a"
  param {
    name: "scale3b_branch2a_alpha"
  }
  param {
    name: "scale3b_branch2a_beta"
  }
  scale_param {
    bias_term: true
  }
}
layer {
  name: "res3b_branch2a_relu"
  type: "ReLU"
  bottom: "res3b_branch2a"
  top: "res3b_branch2a"
}
layer {
  name: "res3b_branch2b"
  type: "Convolution"
  bottom: "res3b_branch2a"
  top: "res3b_branch2b"
  param {
    name: "res3b_branch2b_w"
    lr_mult: 1
  }
  convolution_param {
    num_output: 128
    bias_term: false
    pad: 1
    kernel_size: 3
    stride: 1
  }
}
layer {
  name: "bn3b_branch2b"
  type: "BatchNorm"
  bottom: "res3b_branch2b"
  top: "res3b_branch2b"
  batch_norm_param {
    use_global_stats: false
  }
}
layer {
  name: "scale3b_branch2b"
  type: "Scale"
  bottom: "res3b_branch2b"
  top: "res3b_branch2b"
  param {
    name: "scale3b_branch2b_alpha"
  }
  param {
    name: "scale3b_branch2b_beta"
  }
  scale_param {
    bias_term: true
  }
}
layer {
  name: "res3b_branch2b_relu"
  type: "ReLU"
  bottom: "res3b_branch2b"
  top: "res3b_branch2b"
}
layer {
  name: "res3b_branch2c"
  type: "Convolution"
  bottom: "res3b_branch2b"
  top: "res3b_branch2c"
  param {
    name: "res3b_branch2c_w"
    lr_mult: 1
  }
  convolution_param {
    num_output: 512
    bias_term: false
    pad: 0
    kernel_size: 1
    stride: 1
  }
}
layer {
  name: "bn3b_branch2c"
  type: "BatchNorm"
  bottom: "res3b_branch2c"
  top: "res3b_branch2c"
  batch_norm_param {
    use_global_stats: false
  }
}
layer {
  name: "scale3b_branch2c"
  type: "Scale"
  bottom: "res3b_branch2c"
  top: "res3b_branch2c"
  param {
    name: "scale3b_branch2c_alpha"
  }
  param {
    name: "scale3b_branch2c_beta"
  }
  scale_param {
    bias_term: true
  }
}
layer {
  name: "res3b"
  type: "Eltwise"
  bottom: "res3a"
  bottom: "res3b_branch2c"
  top: "res3b"
}
layer {
  name: "res3b_relu"
  type: "ReLU"
  bottom: "res3b"
  top: "res3b"
}
layer {
  name: "res3c_branch2a"
  type: "Convolution"
  bottom: "res3b"
  top: "res3c_branch2a"
  param {
    name: "res3c_branch2a_w"
    lr_mult: 1
  }
  convolution_param {
    num_output: 128
    bias_term: false
    pad: 0
    kernel_size: 1
    stride: 1
  }
}
layer {
  name: "bn3c_branch2a"
  type: "BatchNorm"
  bottom: "res3c_branch2a"
  top: "res3c_branch2a"
  batch_norm_param {
    use_global_stats: false
  }
}
layer {
  name: "scale3c_branch2a"
  type: "Scale"
  bottom: "res3c_branch2a"
  top: "res3c_branch2a"
  param {
    name: "scale3c_branch2a_alpha"
  }
  param {
    name: "scale3c_branch2a_beta"
  }
  scale_param {
    bias_term: true
  }
}
layer {
  name: "res3c_branch2a_relu"
  type: "ReLU"
  bottom: "res3c_branch2a"
  top: "res3c_branch2a"
}
layer {
  name: "res3c_branch2b"
  type: "Convolution"
  bottom: "res3c_branch2a"
  top: "res3c_branch2b"
  param {
    name: "res3c_branch2b_w"
    lr_mult: 1
  }
  convolution_param {
    num_output: 128
    bias_term: false
    pad: 1
    kernel_size: 3
    stride: 1
  }
}
layer {
  name: "bn3c_branch2b"
  type: "BatchNorm"
  bottom: "res3c_branch2b"
  top: "res3c_branch2b"
  batch_norm_param {
    use_global_stats: false
  }
}
layer {
  name: "scale3c_branch2b"
  type: "Scale"
  bottom: "res3c_branch2b"
  top: "res3c_branch2b"
  param {
    name: "scale3c_branch2b_alpha"
  }
  param {
    name: "scale3c_branch2b_beta"
  }
  scale_param {
    bias_term: true
  }
}
layer {
  name: "res3c_branch2b_relu"
  type: "ReLU"
  bottom: "res3c_branch2b"
  top: "res3c_branch2b"
}
layer {
  name: "res3c_branch2c"
  type: "Convolution"
  bottom: "res3c_branch2b"
  top: "res3c_branch2c"
  param {
    name: "res3c_branch2c_w"
    lr_mult: 1
  }
  convolution_param {
    num_output: 512
    bias_term: false
    pad: 0
    kernel_size: 1
    stride: 1
  }
}
layer {
  name: "bn3c_branch2c"
  type: "BatchNorm"
  bottom: "res3c_branch2c"
  top: "res3c_branch2c"
  batch_norm_param {
    use_global_stats: false
  }
}
layer {
  name: "scale3c_branch2c"
  type: "Scale"
  bottom: "res3c_branch2c"
  top: "res3c_branch2c"
  param {
    name: "scale3c_branch2c_alpha"
  }
  param {
    name: "scale3c_branch2c_beta"
  }
  scale_param {
    bias_term: true
  }
}
layer {
  name: "res3c"
  type: "Eltwise"
  bottom: "res3b"
  bottom: "res3c_branch2c"
  top: "res3c"
}
layer {
  name: "res3c_relu"
  type: "ReLU"
  bottom: "res3c"
  top: "res3c"
}
layer {
  name: "res3d_branch2a"
  type: "Convolution"
  bottom: "res3c"
  top: "res3d_branch2a"
  param {
    name: "res3d_branch2a_w"
    lr_mult: 1
  }
  convolution_param {
    num_output: 128
    bias_term: false
    pad: 0
    kernel_size: 1
    stride: 1
  }
}
layer {
  name: "bn3d_branch2a"
  type: "BatchNorm"
  bottom: "res3d_branch2a"
  top: "res3d_branch2a"
  batch_norm_param {
    use_global_stats: false
  }
}
layer {
  name: "scale3d_branch2a"
  type: "Scale"
  bottom: "res3d_branch2a"
  top: "res3d_branch2a"
  param {
    name: "scale3d_branch2a_alpha"
  }
  param {
    name: "scale3d_branch2a_beta"
  }
  scale_param {
    bias_term: true
  }
}
layer {
  name: "res3d_branch2a_relu"
  type: "ReLU"
  bottom: "res3d_branch2a"
  top: "res3d_branch2a"
}
layer {
  name: "res3d_branch2b"
  type: "Convolution"
  bottom: "res3d_branch2a"
  top: "res3d_branch2b"
  param {
    name: "res3d_branch2b_w"
    lr_mult: 1
  }
  convolution_param {
    num_output: 128
    bias_term: false
    pad: 1
    kernel_size: 3
    stride: 1
  }
}
layer {
  name: "bn3d_branch2b"
  type: "BatchNorm"
  bottom: "res3d_branch2b"
  top: "res3d_branch2b"
  batch_norm_param {
    use_global_stats: false
  }
}
layer {
  name: "scale3d_branch2b"
  type: "Scale"
  bottom: "res3d_branch2b"
  top: "res3d_branch2b"
  param {
    name: "scale3d_branch2b_alpha"
  }
  param {
    name: "scale3d_branch2b_beta"
  }
  scale_param {
    bias_term: true
  }
}
layer {
  name: "res3d_branch2b_relu"
  type: "ReLU"
  bottom: "res3d_branch2b"
  top: "res3d_branch2b"
}
layer {
  name: "res3d_branch2c"
  type: "Convolution"
  bottom: "res3d_branch2b"
  top: "res3d_branch2c"
  param {
    name: "res3d_branch2c_w"
    lr_mult: 1
  }
  convolution_param {
    num_output: 512
    bias_term: false
    pad: 0
    kernel_size: 1
    stride: 1
  }
}
layer {
  name: "bn3d_branch2c"
  type: "BatchNorm"
  bottom: "res3d_branch2c"
  top: "res3d_branch2c"
  batch_norm_param {
    use_global_stats: false
  }
}
layer {
  name: "scale3d_branch2c"
  type: "Scale"
  bottom: "res3d_branch2c"
  top: "res3d_branch2c"
  param {
    name: "scale3d_branch2c_alpha"
  }
  param {
    name: "scale3d_branch2c_beta"
  }
  scale_param {
    bias_term: true
  }
}
layer {
  name: "res3d"
  type: "Eltwise"
  bottom: "res3c"
  bottom: "res3d_branch2c"
  top: "res3d"
}
layer {
  name: "res3d_relu"
  type: "ReLU"
  bottom: "res3d"
  top: "res3d"
}
layer {
  name: "res4a_branch1"
  type: "Convolution"
  bottom: "res3d"
  top: "res4a_branch1"
  param {
    name: "res4a_branch1_w"
    lr_mult: 1
  }
  convolution_param {
    num_output: 1024
    bias_term: false
    pad: 0
    kernel_size: 1
    stride: 2
  }
}
layer {
  name: "bn4a_branch1"
  type: "BatchNorm"
  bottom: "res4a_branch1"
  top: "res4a_branch1"
  batch_norm_param {
    use_global_stats: false
  }
}
layer {
  name: "scale4a_branch1"
  type: "Scale"
  bottom: "res4a_branch1"
  top: "res4a_branch1"
  param {
    name: "scale4a_branch1_alpha"
  }
  param {
    name: "scale4a_branch1_beta"
  }
  scale_param {
    bias_term: true
  }
}
layer {
  name: "res4a_branch2a"
  type: "Convolution"
  bottom: "res3d"
  top: "res4a_branch2a"
  param {
    name: "res4a_branch2a_w"
    lr_mult: 1
  }
  convolution_param {
    num_output: 256
    bias_term: false
    pad: 0
    kernel_size: 1
    stride: 2
  }
}
layer {
  name: "bn4a_branch2a"
  type: "BatchNorm"
  bottom: "res4a_branch2a"
  top: "res4a_branch2a"
  batch_norm_param {
    use_global_stats: false
  }
}
layer {
  name: "scale4a_branch2a"
  type: "Scale"
  bottom: "res4a_branch2a"
  top: "res4a_branch2a"
  param {
    name: "scale4a_branch2a_alpha"
  }
  param {
    name: "scale4a_branch2a_beta"
  }
  scale_param {
    bias_term: true
  }
}
layer {
  name: "res4a_branch2a_relu"
  type: "ReLU"
  bottom: "res4a_branch2a"
  top: "res4a_branch2a"
}
layer {
  name: "res4a_branch2b"
  type: "Convolution"
  bottom: "res4a_branch2a"
  top: "res4a_branch2b"
  param {
    name: "res4a_branch2b_w"
    lr_mult: 1
  }
  convolution_param {
    num_output: 256
    bias_term: false
    pad: 1
    kernel_size: 3
    stride: 1
  }
}
layer {
  name: "bn4a_branch2b"
  type: "BatchNorm"
  bottom: "res4a_branch2b"
  top: "res4a_branch2b"
  batch_norm_param {
    use_global_stats: false
  }
}
layer {
  name: "scale4a_branch2b"
  type: "Scale"
  bottom: "res4a_branch2b"
  top: "res4a_branch2b"
  param {
    name: "scale4a_branch2b_alpha"
  }
  param {
    name: "scale4a_branch2b_beta"
  }
  scale_param {
    bias_term: true
  }
}
layer {
  name: "res4a_branch2b_relu"
  type: "ReLU"
  bottom: "res4a_branch2b"
  top: "res4a_branch2b"
}
layer {
  name: "res4a_branch2c"
  type: "Convolution"
  bottom: "res4a_branch2b"
  top: "res4a_branch2c"
  param {
    name: "res4a_branch2c_w"
    lr_mult: 1
  }
  convolution_param {
    num_output: 1024
    bias_term: false
    pad: 0
    kernel_size: 1
    stride: 1
  }
}
layer {
  name: "bn4a_branch2c"
  type: "BatchNorm"
  bottom: "res4a_branch2c"
  top: "res4a_branch2c"
  batch_norm_param {
    use_global_stats: false
  }
}
layer {
  name: "scale4a_branch2c"
  type: "Scale"
  bottom: "res4a_branch2c"
  top: "res4a_branch2c"
  param {
    name: "scale4a_branch2c_alpha"
  }
  param {
    name: "scale4a_branch2c_beta"
  }
  scale_param {
    bias_term: true
  }
}
layer {
  name: "res4a"
  type: "Eltwise"
  bottom: "res4a_branch1"
  bottom: "res4a_branch2c"
  top: "res4a"
}
layer {
  name: "res4a_relu"
  type: "ReLU"
  bottom: "res4a"
  top: "res4a"
}
layer {
  name: "res4b_branch2a"
  type: "Convolution"
  bottom: "res4a"
  top: "res4b_branch2a"
  param {
    name: "res4b_branch2a_w"
    lr_mult: 1
  }
  convolution_param {
    num_output: 256
    bias_term: false
    pad: 0
    kernel_size: 1
    stride: 1
  }
}
layer {
  name: "bn4b_branch2a"
  type: "BatchNorm"
  bottom: "res4b_branch2a"
  top: "res4b_branch2a"
  batch_norm_param {
    use_global_stats: false
  }
}
layer {
  name: "scale4b_branch2a"
  type: "Scale"
  bottom: "res4b_branch2a"
  top: "res4b_branch2a"
  param {
    name: "scale4b_branch2a_alpha"
  }
  param {
    name: "scale4b_branch2a_beta"
  }
  scale_param {
    bias_term: true
  }
}
layer {
  name: "res4b_branch2a_relu"
  type: "ReLU"
  bottom: "res4b_branch2a"
  top: "res4b_branch2a"
}
layer {
  name: "res4b_branch2b"
  type: "Convolution"
  bottom: "res4b_branch2a"
  top: "res4b_branch2b"
  param {
    name: "res4b_branch2b_w"
    lr_mult: 1
  }
  convolution_param {
    num_output: 256
    bias_term: false
    pad: 1
    kernel_size: 3
    stride: 1
  }
}
layer {
  name: "bn4b_branch2b"
  type: "BatchNorm"
  bottom: "res4b_branch2b"
  top: "res4b_branch2b"
  batch_norm_param {
    use_global_stats: false
  }
}
layer {
  name: "scale4b_branch2b"
  type: "Scale"
  bottom: "res4b_branch2b"
  top: "res4b_branch2b"
  param {
    name: "scale4b_branch2b_alpha"
  }
  param {
    name: "scale4b_branch2b_beta"
  }
  scale_param {
    bias_term: true
  }
}
layer {
  name: "res4b_branch2b_relu"
  type: "ReLU"
  bottom: "res4b_branch2b"
  top: "res4b_branch2b"
}
layer {
  name: "res4b_branch2c"
  type: "Convolution"
  bottom: "res4b_branch2b"
  top: "res4b_branch2c"
  param {
    name: "res4b_branch2c_w"
    lr_mult: 1
  }
  convolution_param {
    num_output: 1024
    bias_term: false
    pad: 0
    kernel_size: 1
    stride: 1
  }
}
layer {
  name: "bn4b_branch2c"
  type: "BatchNorm"
  bottom: "res4b_branch2c"
  top: "res4b_branch2c"
  batch_norm_param {
    use_global_stats: false
  }
}
layer {
  name: "scale4b_branch2c"
  type: "Scale"
  bottom: "res4b_branch2c"
  top: "res4b_branch2c"
  param {
    name: "scale4b_branch2c_alpha"
  }
  param {
    name: "scale4b_branch2c_beta"
  }
  scale_param {
    bias_term: true
  }
}
layer {
  name: "res4b"
  type: "Eltwise"
  bottom: "res4a"
  bottom: "res4b_branch2c"
  top: "res4b"
}
layer {
  name: "res4b_relu"
  type: "ReLU"
  bottom: "res4b"
  top: "res4b"
}
layer {
  name: "res4c_branch2a"
  type: "Convolution"
  bottom: "res4b"
  top: "res4c_branch2a"
  param {
    name: "res4c_branch2a_w"
    lr_mult: 1
  }
  convolution_param {
    num_output: 256
    bias_term: false
    pad: 0
    kernel_size: 1
    stride: 1
  }
}
layer {
  name: "bn4c_branch2a"
  type: "BatchNorm"
  bottom: "res4c_branch2a"
  top: "res4c_branch2a"
  batch_norm_param {
    use_global_stats: false
  }
}
layer {
  name: "scale4c_branch2a"
  type: "Scale"
  bottom: "res4c_branch2a"
  top: "res4c_branch2a"
  param {
    name: "scale4c_branch2a_alpha"
  }
  param {
    name: "scale4c_branch2a_beta"
  }
  scale_param {
    bias_term: true
  }
}
layer {
  name: "res4c_branch2a_relu"
  type: "ReLU"
  bottom: "res4c_branch2a"
  top: "res4c_branch2a"
}
layer {
  name: "res4c_branch2b"
  type: "Convolution"
  bottom: "res4c_branch2a"
  top: "res4c_branch2b"
  param {
    name: "res4c_branch2b_w"
    lr_mult: 1
  }
  convolution_param {
    num_output: 256
    bias_term: false
    pad: 1
    kernel_size: 3
    stride: 1
  }
}
layer {
  name: "bn4c_branch2b"
  type: "BatchNorm"
  bottom: "res4c_branch2b"
  top: "res4c_branch2b"
  batch_norm_param {
    use_global_stats: false
  }
}
layer {
  name: "scale4c_branch2b"
  type: "Scale"
  bottom: "res4c_branch2b"
  top: "res4c_branch2b"
  param {
    name: "scale4c_branch2b_alpha"
  }
  param {
    name: "scale4c_branch2b_beta"
  }
  scale_param {
    bias_term: true
  }
}
layer {
  name: "res4c_branch2b_relu"
  type: "ReLU"
  bottom: "res4c_branch2b"
  top: "res4c_branch2b"
}
layer {
  name: "res4c_branch2c"
  type: "Convolution"
  bottom: "res4c_branch2b"
  top: "res4c_branch2c"
  param {
    name: "res4c_branch2c_w"
    lr_mult: 1
  }
  convolution_param {
    num_output: 1024
    bias_term: false
    pad: 0
    kernel_size: 1
    stride: 1
  }
}
layer {
  name: "bn4c_branch2c"
  type: "BatchNorm"
  bottom: "res4c_branch2c"
  top: "res4c_branch2c"
  batch_norm_param {
    use_global_stats: false
  }
}
layer {
  name: "scale4c_branch2c"
  type: "Scale"
  bottom: "res4c_branch2c"
  top: "res4c_branch2c"
  param {
    name: "scale4c_branch2c_alpha"
  }
  param {
    name: "scale4c_branch2c_beta"
  }
  scale_param {
    bias_term: true
  }
}
layer {
  name: "res4c"
  type: "Eltwise"
  bottom: "res4b"
  bottom: "res4c_branch2c"
  top: "res4c"
}
layer {
  name: "res4c_relu"
  type: "ReLU"
  bottom: "res4c"
  top: "res4c"
}
layer {
  name: "res4d_branch2a"
  type: "Convolution"
  bottom: "res4c"
  top: "res4d_branch2a"
  param {
    name: "res4d_branch2a_w"
    lr_mult: 1
  }
  convolution_param {
    num_output: 256
    bias_term: false
    pad: 0
    kernel_size: 1
    stride: 1
  }
}
layer {
  name: "bn4d_branch2a"
  type: "BatchNorm"
  bottom: "res4d_branch2a"
  top: "res4d_branch2a"
  batch_norm_param {
    use_global_stats: false
  }
}
layer {
  name: "scale4d_branch2a"
  type: "Scale"
  bottom: "res4d_branch2a"
  top: "res4d_branch2a"
  param {
    name: "scale4d_branch2a_alpha"
  }
  param {
    name: "scale4d_branch2a_beta"
  }
  scale_param {
    bias_term: true
  }
}
layer {
  name: "res4d_branch2a_relu"
  type: "ReLU"
  bottom: "res4d_branch2a"
  top: "res4d_branch2a"
}
layer {
  name: "res4d_branch2b"
  type: "Convolution"
  bottom: "res4d_branch2a"
  top: "res4d_branch2b"
  param {
    name: "res4d_branch2b_w"
    lr_mult: 1
  }
  convolution_param {
    num_output: 256
    bias_term: false
    pad: 1
    kernel_size: 3
    stride: 1
  }
}
layer {
  name: "bn4d_branch2b"
  type: "BatchNorm"
  bottom: "res4d_branch2b"
  top: "res4d_branch2b"
  batch_norm_param {
    use_global_stats: false
  }
}
layer {
  name: "scale4d_branch2b"
  type: "Scale"
  bottom: "res4d_branch2b"
  top: "res4d_branch2b"
  param {
    name: "scale4d_branch2b_alpha"
  }
  param {
    name: "scale4d_branch2b_beta"
  }
  scale_param {
    bias_term: true
  }
}
layer {
  name: "res4d_branch2b_relu"
  type: "ReLU"
  bottom: "res4d_branch2b"
  top: "res4d_branch2b"
}
layer {
  name: "res4d_branch2c"
  type: "Convolution"
  bottom: "res4d_branch2b"
  top: "res4d_branch2c"
  param {
    name: "res4d_branch2c_w"
    lr_mult: 1
  }
  convolution_param {
    num_output: 1024
    bias_term: false
    pad: 0
    kernel_size: 1
    stride: 1
  }
}
layer {
  name: "bn4d_branch2c"
  type: "BatchNorm"
  bottom: "res4d_branch2c"
  top: "res4d_branch2c"
  batch_norm_param {
    use_global_stats: false
  }
}
layer {
  name: "scale4d_branch2c"
  type: "Scale"
  bottom: "res4d_branch2c"
  top: "res4d_branch2c"
  param {
    name: "scale4d_branch2c_alpha"
  }
  param {
    name: "scale4d_branch2c_beta"
  }
  scale_param {
    bias_term: true
  }
}
layer {
  name: "res4d"
  type: "Eltwise"
  bottom: "res4c"
  bottom: "res4d_branch2c"
  top: "res4d"
}
layer {
  name: "res4d_relu"
  type: "ReLU"
  bottom: "res4d"
  top: "res4d"
}
layer {
  name: "res4e_branch2a"
  type: "Convolution"
  bottom: "res4d"
  top: "res4e_branch2a"
  param {
    name: "res4e_branch2a_w"
    lr_mult: 1
  }
  convolution_param {
    num_output:
I0306 19:36:15.256301  8714 layer_factory.hpp:77] Creating layer data
I0306 19:36:15.256326  8714 net.cpp:100] Creating Layer data
I0306 19:36:15.256335  8714 net.cpp:408] data -> pairs
I0306 19:36:15.256345  8714 net.cpp:408] data -> label
I0306 19:36:15.275377  8714 net.cpp:150] Setting up data
I0306 19:36:15.275408  8714 net.cpp:157] Top shape: 8 6 224 224 (2408448)
I0306 19:36:15.275413  8714 net.cpp:157] Top shape: 8 (8)
I0306 19:36:15.275415  8714 net.cpp:165] Memory required for data: 9633824
I0306 19:36:15.275421  8714 layer_factory.hpp:77] Creating layer slice
I0306 19:36:15.275439  8714 net.cpp:100] Creating Layer slice
I0306 19:36:15.275444  8714 net.cpp:434] slice <- pairs
I0306 19:36:15.275451  8714 net.cpp:408] slice -> data
I0306 19:36:15.275461  8714 net.cpp:408] slice -> data_p
I0306 19:36:15.275509  8714 net.cpp:150] Setting up slice
I0306 19:36:15.275516  8714 net.cpp:157] Top shape: 8 3 224 224 (1204224)
I0306 19:36:15.275521  8714 net.cpp:157] Top shape: 8 3 224 224 (1204224)
I0306 19:36:15.275523  8714 net.cpp:165] Memory required for data: 19267616
I0306 19:36:15.275527  8714 layer_factory.hpp:77] Creating layer conv1
I0306 19:36:15.275537  8714 net.cpp:100] Creating Layer conv1
I0306 19:36:15.275539  8714 net.cpp:434] conv1 <- data
I0306 19:36:15.275544  8714 net.cpp:408] conv1 -> conv1
I0306 19:36:15.666788  8714 net.cpp:150] Setting up conv1
I0306 19:36:15.666818  8714 net.cpp:157] Top shape: 8 64 112 112 (6422528)
I0306 19:36:15.666822  8714 net.cpp:165] Memory required for data: 44957728
I0306 19:36:15.666836  8714 layer_factory.hpp:77] Creating layer bn_conv1
I0306 19:36:15.666851  8714 net.cpp:100] Creating Layer bn_conv1
I0306 19:36:15.666855  8714 net.cpp:434] bn_conv1 <- conv1
I0306 19:36:15.666869  8714 net.cpp:395] bn_conv1 -> conv1 (in-place)
I0306 19:36:15.667131  8714 net.cpp:150] Setting up bn_conv1
I0306 19:36:15.667138  8714 net.cpp:157] Top shape: 8 64 112 112 (6422528)
I0306 19:36:15.667142  8714 net.cpp:165] Memory required for data: 70647840
I0306 19:36:15.667153  8714 layer_factory.hpp:77] Creating layer scale_conv1
I0306 19:36:15.667162  8714 net.cpp:100] Creating Layer scale_conv1
I0306 19:36:15.667165  8714 net.cpp:434] scale_conv1 <- conv1
I0306 19:36:15.667171  8714 net.cpp:395] scale_conv1 -> conv1 (in-place)
I0306 19:36:15.667218  8714 layer_factory.hpp:77] Creating layer scale_conv1
I0306 19:36:15.667371  8714 net.cpp:150] Setting up scale_conv1
I0306 19:36:15.667378  8714 net.cpp:157] Top shape: 8 64 112 112 (6422528)
I0306 19:36:15.667382  8714 net.cpp:165] Memory required for data: 96337952
I0306 19:36:15.667387  8714 layer_factory.hpp:77] Creating layer conv1_relu
I0306 19:36:15.667393  8714 net.cpp:100] Creating Layer conv1_relu
I0306 19:36:15.667397  8714 net.cpp:434] conv1_relu <- conv1
I0306 19:36:15.667402  8714 net.cpp:395] conv1_relu -> conv1 (in-place)
I0306 19:36:15.667549  8714 net.cpp:150] Setting up conv1_relu
I0306 19:36:15.667557  8714 net.cpp:157] Top shape: 8 64 112 112 (6422528)
I0306 19:36:15.667562  8714 net.cpp:165] Memory required for data: 122028064
I0306 19:36:15.667564  8714 layer_factory.hpp:77] Creating layer pool1
I0306 19:36:15.667570  8714 net.cpp:100] Creating Layer pool1
I0306 19:36:15.667574  8714 net.cpp:434] pool1 <- conv1
I0306 19:36:15.667579  8714 net.cpp:408] pool1 -> pool1
I0306 19:36:15.667635  8714 net.cpp:150] Setting up pool1
I0306 19:36:15.667642  8714 net.cpp:157] Top shape: 8 64 56 56 (1605632)
I0306 19:36:15.667645  8714 net.cpp:165] Memory required for data: 128450592
I0306 19:36:15.667649  8714 layer_factory.hpp:77] Creating layer pool1_pool1_0_split
I0306 19:36:15.667654  8714 net.cpp:100] Creating Layer pool1_pool1_0_split
I0306 19:36:15.667657  8714 net.cpp:434] pool1_pool1_0_split <- pool1
I0306 19:36:15.667662  8714 net.cpp:408] pool1_pool1_0_split -> pool1_pool1_0_split_0
I0306 19:36:15.667667  8714 net.cpp:408] pool1_pool1_0_split -> pool1_pool1_0_split_1
I0306 19:36:15.667711  8714 net.cpp:150] Setting up pool1_pool1_0_split
I0306 19:36:15.667716  8714 net.cpp:157] Top shape: 8 64 56 56 (1605632)
I0306 19:36:15.667721  8714 net.cpp:157] Top shape: 8 64 56 56 (1605632)
I0306 19:36:15.667723  8714 net.cpp:165] Memory required for data: 141295648
I0306 19:36:15.667726  8714 layer_factory.hpp:77] Creating layer res2a_branch1
I0306 19:36:15.667737  8714 net.cpp:100] Creating Layer res2a_branch1
I0306 19:36:15.667739  8714 net.cpp:434] res2a_branch1 <- pool1_pool1_0_split_0
I0306 19:36:15.667745  8714 net.cpp:408] res2a_branch1 -> res2a_branch1
I0306 19:36:15.668731  8714 net.cpp:150] Setting up res2a_branch1
I0306 19:36:15.668745  8714 net.cpp:157] Top shape: 8 256 56 56 (6422528)
I0306 19:36:15.668748  8714 net.cpp:165] Memory required for data: 166985760
I0306 19:36:15.668754  8714 layer_factory.hpp:77] Creating layer bn2a_branch1
I0306 19:36:15.668761  8714 net.cpp:100] Creating Layer bn2a_branch1
I0306 19:36:15.668764  8714 net.cpp:434] bn2a_branch1 <- res2a_branch1
I0306 19:36:15.668769  8714 net.cpp:395] bn2a_branch1 -> res2a_branch1 (in-place)
I0306 19:36:15.670014  8714 net.cpp:150] Setting up bn2a_branch1
I0306 19:36:15.670028  8714 net.cpp:157] Top shape: 8 256 56 56 (6422528)
I0306 19:36:15.670032  8714 net.cpp:165] Memory required for data: 192675872
I0306 19:36:15.670043  8714 layer_factory.hpp:77] Creating layer scale2a_branch1
I0306 19:36:15.670050  8714 net.cpp:100] Creating Layer scale2a_branch1
I0306 19:36:15.670054  8714 net.cpp:434] scale2a_branch1 <- res2a_branch1
I0306 19:36:15.670059  8714 net.cpp:395] scale2a_branch1 -> res2a_branch1 (in-place)
I0306 19:36:15.670109  8714 layer_factory.hpp:77] Creating layer scale2a_branch1
I0306 19:36:15.670241  8714 net.cpp:150] Setting up scale2a_branch1
I0306 19:36:15.670248  8714 net.cpp:157] Top shape: 8 256 56 56 (6422528)
I0306 19:36:15.670251  8714 net.cpp:165] Memory required for data: 218365984
I0306 19:36:15.670262  8714 layer_factory.hpp:77] Creating layer res2a_branch2a
I0306 19:36:15.670270  8714 net.cpp:100] Creating Layer res2a_branch2a
I0306 19:36:15.670274  8714 net.cpp:434] res2a_branch2a <- pool1_pool1_0_split_1
I0306 19:36:15.670279  8714 net.cpp:408] res2a_branch2a -> res2a_branch2a
I0306 19:36:15.671324  8714 net.cpp:150] Setting up res2a_branch2a
I0306 19:36:15.671336  8714 net.cpp:157] Top shape: 8 64 56 56 (1605632)
I0306 19:36:15.671340  8714 net.cpp:165] Memory required for data: 224788512
I0306 19:36:15.671346  8714 layer_factory.hpp:77] Creating layer bn2a_branch2a
I0306 19:36:15.671353  8714 net.cpp:100] Creating Layer bn2a_branch2a
I0306 19:36:15.671357  8714 net.cpp:434] bn2a_branch2a <- res2a_branch2a
I0306 19:36:15.671362  8714 net.cpp:395] bn2a_branch2a -> res2a_branch2a (in-place)
I0306 19:36:15.671602  8714 net.cpp:150] Setting up bn2a_branch2a
I0306 19:36:15.671609  8714 net.cpp:157] Top shape: 8 64 56 56 (1605632)
I0306 19:36:15.671612  8714 net.cpp:165] Memory required for data: 231211040
I0306 19:36:15.671622  8714 layer_factory.hpp:77] Creating layer scale2a_branch2a
I0306 19:36:15.671629  8714 net.cpp:100] Creating Layer scale2a_branch2a
I0306 19:36:15.671633  8714 net.cpp:434] scale2a_branch2a <- res2a_branch2a
I0306 19:36:15.671638  8714 net.cpp:395] scale2a_branch2a -> res2a_branch2a (in-place)
I0306 19:36:15.671684  8714 layer_factory.hpp:77] Creating layer scale2a_branch2a
I0306 19:36:15.671828  8714 net.cpp:150] Setting up scale2a_branch2a
I0306 19:36:15.671835  8714 net.cpp:157] Top shape: 8 64 56 56 (1605632)
I0306 19:36:15.671838  8714 net.cpp:165] Memory required for data: 237633568
I0306 19:36:15.671844  8714 layer_factory.hpp:77] Creating layer res2a_branch2a_relu
I0306 19:36:15.671849  8714 net.cpp:100] Creating Layer res2a_branch2a_relu
I0306 19:36:15.671852  8714 net.cpp:434] res2a_branch2a_relu <- res2a_branch2a
I0306 19:36:15.671857  8714 net.cpp:395] res2a_branch2a_relu -> res2a_branch2a (in-place)
I0306 19:36:15.672004  8714 net.cpp:150] Setting up res2a_branch2a_relu
I0306 19:36:15.672013  8714 net.cpp:157] Top shape: 8 64 56 56 (1605632)
I0306 19:36:15.672015  8714 net.cpp:165] Memory required for data: 244056096
I0306 19:36:15.672019  8714 layer_factory.hpp:77] Creating layer res2a_branch2b
I0306 19:36:15.672026  8714 net.cpp:100] Creating Layer res2a_branch2b
I0306 19:36:15.672029  8714 net.cpp:434] res2a_branch2b <- res2a_branch2a
I0306 19:36:15.672035  8714 net.cpp:408] res2a_branch2b -> res2a_branch2b
I0306 19:36:15.674366  8714 net.cpp:150] Setting up res2a_branch2b
I0306 19:36:15.674381  8714 net.cpp:157] Top shape: 8 64 56 56 (1605632)
I0306 19:36:15.674384  8714 net.cpp:165] Memory required for data: 250478624
I0306 19:36:15.674391  8714 layer_factory.hpp:77] Creating layer bn2a_branch2b
I0306 19:36:15.674399  8714 net.cpp:100] Creating Layer bn2a_branch2b
I0306 19:36:15.674403  8714 net.cpp:434] bn2a_branch2b <- res2a_branch2b
I0306 19:36:15.674408  8714 net.cpp:395] bn2a_branch2b -> res2a_branch2b (in-place)
I0306 19:36:15.674664  8714 net.cpp:150] Setting up bn2a_branch2b
I0306 19:36:15.674670  8714 net.cpp:157] Top shape: 8 64 56 56 (1605632)
I0306 19:36:15.674674  8714 net.cpp:165] Memory required for data: 256901152
I0306 19:36:15.674680  8714 layer_factory.hpp:77] Creating layer scale2a_branch2b
I0306 19:36:15.674687  8714 net.cpp:100] Creating Layer scale2a_branch2b
I0306 19:36:15.674690  8714 net.cpp:434] scale2a_branch2b <- res2a_branch2b
I0306 19:36:15.674695  8714 net.cpp:395] scale2a_branch2b -> res2a_branch2b (in-place)
I0306 19:36:15.674741  8714 layer_factory.hpp:77] Creating layer scale2a_branch2b
I0306 19:36:15.674888  8714 net.cpp:150] Setting up scale2a_branch2b
I0306 19:36:15.674896  8714 net.cpp:157] Top shape: 8 64 56 56 (1605632)
I0306 19:36:15.674898  8714 net.cpp:165] Memory required for data: 263323680
I0306 19:36:15.674904  8714 layer_factory.hpp:77] Creating layer res2a_branch2b_relu
I0306 19:36:15.674911  8714 net.cpp:100] Creating Layer res2a_branch2b_relu
I0306 19:36:15.674913  8714 net.cpp:434] res2a_branch2b_relu <- res2a_branch2b
I0306 19:36:15.674922  8714 net.cpp:395] res2a_branch2b_relu -> res2a_branch2b (in-place)
I0306 19:36:15.675076  8714 net.cpp:150] Setting up res2a_branch2b_relu
I0306 19:36:15.675083  8714 net.cpp:157] Top shape: 8 64 56 56 (1605632)
I0306 19:36:15.675086  8714 net.cpp:165] Memory required for data: 269746208
I0306 19:36:15.675091  8714 layer_factory.hpp:77] Creating layer res2a_branch2c
I0306 19:36:15.675097  8714 net.cpp:100] Creating Layer res2a_branch2c
I0306 19:36:15.675101  8714 net.cpp:434] res2a_branch2c <- res2a_branch2b
I0306 19:36:15.675107  8714 net.cpp:408] res2a_branch2c -> res2a_branch2c
I0306 19:36:15.676264  8714 net.cpp:150] Setting up res2a_branch2c
I0306 19:36:15.676277  8714 net.cpp:157] Top shape: 8 256 56 56 (6422528)
I0306 19:36:15.676282  8714 net.cpp:165] Memory required for data: 295436320
I0306 19:36:15.676288  8714 layer_factory.hpp:77] Creating layer bn2a_branch2c
I0306 19:36:15.676295  8714 net.cpp:100] Creating Layer bn2a_branch2c
I0306 19:36:15.676300  8714 net.cpp:434] bn2a_branch2c <- res2a_branch2c
I0306 19:36:15.676306  8714 net.cpp:395] bn2a_branch2c -> res2a_branch2c (in-place)
I0306 19:36:15.676558  8714 net.cpp:150] Setting up bn2a_branch2c
I0306 19:36:15.676565  8714 net.cpp:157] Top shape: 8 256 56 56 (6422528)
I0306 19:36:15.676569  8714 net.cpp:165] Memory required for data: 321126432
I0306 19:36:15.676576  8714 layer_factory.hpp:77] Creating layer scale2a_branch2c
I0306 19:36:15.676582  8714 net.cpp:100] Creating Layer scale2a_branch2c
I0306 19:36:15.676586  8714 net.cpp:434] scale2a_branch2c <- res2a_branch2c
I0306 19:36:15.676591  8714 net.cpp:395] scale2a_branch2c -> res2a_branch2c (in-place)
I0306 19:36:15.676636  8714 layer_factory.hpp:77] Creating layer scale2a_branch2c
I0306 19:36:15.676772  8714 net.cpp:150] Setting up scale2a_branch2c
I0306 19:36:15.676779  8714 net.cpp:157] Top shape: 8 256 56 56 (6422528)
I0306 19:36:15.676782  8714 net.cpp:165] Memory required for data: 346816544
I0306 19:36:15.676789  8714 layer_factory.hpp:77] Creating layer res2a
I0306 19:36:15.676795  8714 net.cpp:100] Creating Layer res2a
I0306 19:36:15.676797  8714 net.cpp:434] res2a <- res2a_branch1
I0306 19:36:15.676801  8714 net.cpp:434] res2a <- res2a_branch2c
I0306 19:36:15.676806  8714 net.cpp:408] res2a -> res2a
I0306 19:36:15.676834  8714 net.cpp:150] Setting up res2a
I0306 19:36:15.676841  8714 net.cpp:157] Top shape: 8 256 56 56 (6422528)
I0306 19:36:15.676843  8714 net.cpp:165] Memory required for data: 372506656
I0306 19:36:15.676846  8714 layer_factory.hpp:77] Creating layer res2a_relu
I0306 19:36:15.676851  8714 net.cpp:100] Creating Layer res2a_relu
I0306 19:36:15.676854  8714 net.cpp:434] res2a_relu <- res2a
I0306 19:36:15.676859  8714 net.cpp:395] res2a_relu -> res2a (in-place)
I0306 19:36:15.677039  8714 net.cpp:150] Setting up res2a_relu
I0306 19:36:15.677049  8714 net.cpp:157] Top shape: 8 256 56 56 (6422528)
I0306 19:36:15.677052  8714 net.cpp:165] Memory required for data: 398196768
I0306 19:36:15.677057  8714 layer_factory.hpp:77] Creating layer res2a_res2a_relu_0_split
I0306 19:36:15.677063  8714 net.cpp:100] Creating Layer res2a_res2a_relu_0_split
I0306 19:36:15.677067  8714 net.cpp:434] res2a_res2a_relu_0_split <- res2a
I0306 19:36:15.677073  8714 net.cpp:408] res2a_res2a_relu_0_split -> res2a_res2a_relu_0_split_0
I0306 19:36:15.677079  8714 net.cpp:408] res2a_res2a_relu_0_split -> res2a_res2a_relu_0_split_1
I0306 19:36:15.677131  8714 net.cpp:150] Setting up res2a_res2a_relu_0_split
I0306 19:36:15.677137  8714 net.cpp:157] Top shape: 8 256 56 56 (6422528)
I0306 19:36:15.677141  8714 net.cpp:157] Top shape: 8 256 56 56 (6422528)
I0306 19:36:15.677145  8714 net.cpp:165] Memory required for data: 449576992
I0306 19:36:15.677148  8714 layer_factory.hpp:77] Creating layer res2b_branch2a
I0306 19:36:15.677156  8714 net.cpp:100] Creating Layer res2b_branch2a
I0306 19:36:15.677160  8714 net.cpp:434] res2b_branch2a <- res2a_res2a_relu_0_split_0
I0306 19:36:15.677165  8714 net.cpp:408] res2b_branch2a -> res2b_branch2a
I0306 19:36:15.678215  8714 net.cpp:150] Setting up res2b_branch2a
I0306 19:36:15.678228  8714 net.cpp:157] Top shape: 8 64 56 56 (1605632)
I0306 19:36:15.678232  8714 net.cpp:165] Memory required for data: 455999520
I0306 19:36:15.678238  8714 layer_factory.hpp:77] Creating layer bn2b_branch2a
I0306 19:36:15.678244  8714 net.cpp:100] Creating Layer bn2b_branch2a
I0306 19:36:15.678248  8714 net.cpp:434] bn2b_branch2a <- res2b_branch2a
I0306 19:36:15.678253  8714 net.cpp:395] bn2b_branch2a -> res2b_branch2a (in-place)
I0306 19:36:15.678501  8714 net.cpp:150] Setting up bn2b_branch2a
I0306 19:36:15.678509  8714 net.cpp:157] Top shape: 8 64 56 56 (1605632)
I0306 19:36:15.678513  8714 net.cpp:165] Memory required for data: 462422048
I0306 19:36:15.678524  8714 layer_factory.hpp:77] Creating layer scale2b_branch2a
I0306 19:36:15.678530  8714 net.cpp:100] Creating Layer scale2b_branch2a
I0306 19:36:15.678534  8714 net.cpp:434] scale2b_branch2a <- res2b_branch2a
I0306 19:36:15.678539  8714 net.cpp:395] scale2b_branch2a -> res2b_branch2a (in-place)
I0306 19:36:15.678586  8714 layer_factory.hpp:77] Creating layer scale2b_branch2a
I0306 19:36:15.678733  8714 net.cpp:150] Setting up scale2b_branch2a
I0306 19:36:15.678740  8714 net.cpp:157] Top shape: 8 64 56 56 (1605632)
I0306 19:36:15.678743  8714 net.cpp:165] Memory required for data: 468844576
I0306 19:36:15.678750  8714 layer_factory.hpp:77] Creating layer res2b_branch2a_relu
I0306 19:36:15.678755  8714 net.cpp:100] Creating Layer res2b_branch2a_relu
I0306 19:36:15.678758  8714 net.cpp:434] res2b_branch2a_relu <- res2b_branch2a
I0306 19:36:15.678762  8714 net.cpp:395] res2b_branch2a_relu -> res2b_branch2a (in-place)
I0306 19:36:15.678907  8714 net.cpp:150] Setting up res2b_branch2a_relu
I0306 19:36:15.678915  8714 net.cpp:157] Top shape: 8 64 56 56 (1605632)
I0306 19:36:15.678920  8714 net.cpp:165] Memory required for data: 475267104
I0306 19:36:15.678922  8714 layer_factory.hpp:77] Creating layer res2b_branch2b
I0306 19:36:15.678930  8714 net.cpp:100] Creating Layer res2b_branch2b
I0306 19:36:15.678932  8714 net.cpp:434] res2b_branch2b <- res2b_branch2a
I0306 19:36:15.678938  8714 net.cpp:408] res2b_branch2b -> res2b_branch2b
I0306 19:36:15.679934  8714 net.cpp:150] Setting up res2b_branch2b
I0306 19:36:15.679947  8714 net.cpp:157] Top shape: 8 64 56 56 (1605632)
I0306 19:36:15.679951  8714 net.cpp:165] Memory required for data: 481689632
I0306 19:36:15.679957  8714 layer_factory.hpp:77] Creating layer bn2b_branch2b
I0306 19:36:15.679963  8714 net.cpp:100] Creating Layer bn2b_branch2b
I0306 19:36:15.679967  8714 net.cpp:434] bn2b_branch2b <- res2b_branch2b
I0306 19:36:15.679972  8714 net.cpp:395] bn2b_branch2b -> res2b_branch2b (in-place)
I0306 19:36:15.680224  8714 net.cpp:150] Setting up bn2b_branch2b
I0306 19:36:15.680232  8714 net.cpp:157] Top shape: 8 64 56 56 (1605632)
I0306 19:36:15.680234  8714 net.cpp:165] Memory required for data: 488112160
I0306 19:36:15.680241  8714 layer_factory.hpp:77] Creating layer scale2b_branch2b
I0306 19:36:15.680248  8714 net.cpp:100] Creating Layer scale2b_branch2b
I0306 19:36:15.680250  8714 net.cpp:434] scale2b_branch2b <- res2b_branch2b
I0306 19:36:15.680255  8714 net.cpp:395] scale2b_branch2b -> res2b_branch2b (in-place)
I0306 19:36:15.680302  8714 layer_factory.hpp:77] Creating layer scale2b_branch2b
I0306 19:36:15.680449  8714 net.cpp:150] Setting up scale2b_branch2b
I0306 19:36:15.680455  8714 net.cpp:157] Top shape: 8 64 56 56 (1605632)
I0306 19:36:15.680459  8714 net.cpp:165] Memory required for data: 494534688
I0306 19:36:15.680464  8714 layer_factory.hpp:77] Creating layer res2b_branch2b_relu
I0306 19:36:15.680472  8714 net.cpp:100] Creating Layer res2b_branch2b_relu
I0306 19:36:15.680476  8714 net.cpp:434] res2b_branch2b_relu <- res2b_branch2b
I0306 19:36:15.680480  8714 net.cpp:395] res2b_branch2b_relu -> res2b_branch2b (in-place)
I0306 19:36:15.680968  8714 net.cpp:150] Setting up res2b_branch2b_relu
I0306 19:36:15.680984  8714 net.cpp:157] Top shape: 8 64 56 56 (1605632)
I0306 19:36:15.680987  8714 net.cpp:165] Memory required for data: 500957216
I0306 19:36:15.680996  8714 layer_factory.hpp:77] Creating layer res2b_branch2c
I0306 19:36:15.681005  8714 net.cpp:100] Creating Layer res2b_branch2c
I0306 19:36:15.681010  8714 net.cpp:434] res2b_branch2c <- res2b_branch2b
I0306 19:36:15.681016  8714 net.cpp:408] res2b_branch2c -> res2b_branch2c
I0306 19:36:15.682087  8714 net.cpp:150] Setting up res2b_branch2c
I0306 19:36:15.682101  8714 net.cpp:157] Top shape: 8 256 56 56 (6422528)
I0306 19:36:15.682104  8714 net.cpp:165] Memory required for data: 526647328
I0306 19:36:15.682109  8714 layer_factory.hpp:77] Creating layer bn2b_branch2c
I0306 19:36:15.682116  8714 net.cpp:100] Creating Layer bn2b_branch2c
I0306 19:36:15.682119  8714 net.cpp:434] bn2b_branch2c <- res2b_branch2c
I0306 19:36:15.682124  8714 net.cpp:395] bn2b_branch2c -> res2b_branch2c (in-place)
I0306 19:36:15.682368  8714 net.cpp:150] Setting up bn2b_branch2c
I0306 19:36:15.682374  8714 net.cpp:157] Top shape: 8 256 56 56 (6422528)
I0306 19:36:15.682377  8714 net.cpp:165] Memory required for data: 552337440
I0306 19:36:15.682384  8714 layer_factory.hpp:77] Creating layer scale2b_branch2c
I0306 19:36:15.682390  8714 net.cpp:100] Creating Layer scale2b_branch2c
I0306 19:36:15.682394  8714 net.cpp:434] scale2b_branch2c <- res2b_branch2c
I0306 19:36:15.682399  8714 net.cpp:395] scale2b_branch2c -> res2b_branch2c (in-place)
I0306 19:36:15.682446  8714 layer_factory.hpp:77] Creating layer scale2b_branch2c
I0306 19:36:15.682582  8714 net.cpp:150] Setting up scale2b_branch2c
I0306 19:36:15.682590  8714 net.cpp:157] Top shape: 8 256 56 56 (6422528)
I0306 19:36:15.682592  8714 net.cpp:165] Memory required for data: 578027552
I0306 19:36:15.682598  8714 layer_factory.hpp:77] Creating layer res2b
I0306 19:36:15.682603  8714 net.cpp:100] Creating Layer res2b
I0306 19:36:15.682607  8714 net.cpp:434] res2b <- res2a_res2a_relu_0_split_1
I0306 19:36:15.682611  8714 net.cpp:434] res2b <- res2b_branch2c
I0306 19:36:15.682616  8714 net.cpp:408] res2b -> res2b
I0306 19:36:15.682643  8714 net.cpp:150] Setting up res2b
I0306 19:36:15.682648  8714 net.cpp:157] Top shape: 8 256 56 56 (6422528)
I0306 19:36:15.682651  8714 net.cpp:165] Memory required for data: 603717664
I0306 19:36:15.682656  8714 layer_factory.hpp:77] Creating layer res2b_relu
I0306 19:36:15.682660  8714 net.cpp:100] Creating Layer res2b_relu
I0306 19:36:15.682663  8714 net.cpp:434] res2b_relu <- res2b
I0306 19:36:15.682667  8714 net.cpp:395] res2b_relu -> res2b (in-place)
I0306 19:36:15.682816  8714 net.cpp:150] Setting up res2b_relu
I0306 19:36:15.682824  8714 net.cpp:157] Top shape: 8 256 56 56 (6422528)
I0306 19:36:15.682827  8714 net.cpp:165] Memory required for data: 629407776
I0306 19:36:15.682831  8714 layer_factory.hpp:77] Creating layer res2b_res2b_relu_0_split
I0306 19:36:15.682837  8714 net.cpp:100] Creating Layer res2b_res2b_relu_0_split
I0306 19:36:15.682839  8714 net.cpp:434] res2b_res2b_relu_0_split <- res2b
I0306 19:36:15.682844  8714 net.cpp:408] res2b_res2b_relu_0_split -> res2b_res2b_relu_0_split_0
I0306 19:36:15.682850  8714 net.cpp:408] res2b_res2b_relu_0_split -> res2b_res2b_relu_0_split_1
I0306 19:36:15.682898  8714 net.cpp:150] Setting up res2b_res2b_relu_0_split
I0306 19:36:15.682904  8714 net.cpp:157] Top shape: 8 256 56 56 (6422528)
I0306 19:36:15.682907  8714 net.cpp:157] Top shape: 8 256 56 56 (6422528)
I0306 19:36:15.682910  8714 net.cpp:165] Memory required for data: 680788000
I0306 19:36:15.682914  8714 layer_factory.hpp:77] Creating layer res2c_branch2a
I0306 19:36:15.682921  8714 net.cpp:100] Creating Layer res2c_branch2a
I0306 19:36:15.682924  8714 net.cpp:434] res2c_branch2a <- res2b_res2b_relu_0_split_0
I0306 19:36:15.682929  8714 net.cpp:408] res2c_branch2a -> res2c_branch2a
I0306 19:36:15.683938  8714 net.cpp:150] Setting up res2c_branch2a
I0306 19:36:15.683951  8714 net.cpp:157] Top shape: 8 64 56 56 (1605632)
I0306 19:36:15.683954  8714 net.cpp:165] Memory required for data: 687210528
I0306 19:36:15.683960  8714 layer_factory.hpp:77] Creating layer bn2c_branch2a
I0306 19:36:15.683966  8714 net.cpp:100] Creating Layer bn2c_branch2a
I0306 19:36:15.683974  8714 net.cpp:434] bn2c_branch2a <- res2c_branch2a
I0306 19:36:15.683980  8714 net.cpp:395] bn2c_branch2a -> res2c_branch2a (in-place)
I0306 19:36:15.684234  8714 net.cpp:150] Setting up bn2c_branch2a
I0306 19:36:15.684242  8714 net.cpp:157] Top shape: 8 64 56 56 (1605632)
I0306 19:36:15.684245  8714 net.cpp:165] Memory required for data: 693633056
I0306 19:36:15.684252  8714 layer_factory.hpp:77] Creating layer scale2c_branch2a
I0306 19:36:15.684258  8714 net.cpp:100] Creating Layer scale2c_branch2a
I0306 19:36:15.684262  8714 net.cpp:434] scale2c_branch2a <- res2c_branch2a
I0306 19:36:15.684267  8714 net.cpp:395] scale2c_branch2a -> res2c_branch2a (in-place)
I0306 19:36:15.684314  8714 layer_factory.hpp:77] Creating layer scale2c_branch2a
I0306 19:36:15.684461  8714 net.cpp:150] Setting up scale2c_branch2a
I0306 19:36:15.684468  8714 net.cpp:157] Top shape: 8 64 56 56 (1605632)
I0306 19:36:15.684471  8714 net.cpp:165] Memory required for data: 700055584
I0306 19:36:15.684478  8714 layer_factory.hpp:77] Creating layer res2c_branch2a_relu
I0306 19:36:15.684484  8714 net.cpp:100] Creating Layer res2c_branch2a_relu
I0306 19:36:15.684486  8714 net.cpp:434] res2c_branch2a_relu <- res2c_branch2a
I0306 19:36:15.684491  8714 net.cpp:395] res2c_branch2a_relu -> res2c_branch2a (in-place)
I0306 19:36:15.684638  8714 net.cpp:150] Setting up res2c_branch2a_relu
I0306 19:36:15.684646  8714 net.cpp:157] Top shape: 8 64 56 56 (1605632)
I0306 19:36:15.684649  8714 net.cpp:165] Memory required for data: 706478112
I0306 19:36:15.684653  8714 layer_factory.hpp:77] Creating layer res2c_branch2b
I0306 19:36:15.684659  8714 net.cpp:100] Creating Layer res2c_branch2b
I0306 19:36:15.684664  8714 net.cpp:434] res2c_branch2b <- res2c_branch2a
I0306 19:36:15.684669  8714 net.cpp:408] res2c_branch2b -> res2c_branch2b
I0306 19:36:15.686187  8714 net.cpp:150] Setting up res2c_branch2b
I0306 19:36:15.686203  8714 net.cpp:157] Top shape: 8 64 56 56 (1605632)
I0306 19:36:15.686208  8714 net.cpp:165] Memory required for data: 712900640
I0306 19:36:15.686213  8714 layer_factory.hpp:77] Creating layer bn2c_branch2b
I0306 19:36:15.686219  8714 net.cpp:100] Creating Layer bn2c_branch2b
I0306 19:36:15.686223  8714 net.cpp:434] bn2c_branch2b <- res2c_branch2b
I0306 19:36:15.686228  8714 net.cpp:395] bn2c_branch2b -> res2c_branch2b (in-place)
I0306 19:36:15.686506  8714 net.cpp:150] Setting up bn2c_branch2b
I0306 19:36:15.686514  8714 net.cpp:157] Top shape: 8 64 56 56 (1605632)
I0306 19:36:15.686518  8714 net.cpp:165] Memory required for data: 719323168
I0306 19:36:15.686525  8714 layer_factory.hpp:77] Creating layer scale2c_branch2b
I0306 19:36:15.686532  8714 net.cpp:100] Creating Layer scale2c_branch2b
I0306 19:36:15.686535  8714 net.cpp:434] scale2c_branch2b <- res2c_branch2b
I0306 19:36:15.686542  8714 net.cpp:395] scale2c_branch2b -> res2c_branch2b (in-place)
I0306 19:36:15.686596  8714 layer_factory.hpp:77] Creating layer scale2c_branch2b
I0306 19:36:15.686756  8714 net.cpp:150] Setting up scale2c_branch2b
I0306 19:36:15.686764  8714 net.cpp:157] Top shape: 8 64 56 56 (1605632)
I0306 19:36:15.686766  8714 net.cpp:165] Memory required for data: 725745696
I0306 19:36:15.686774  8714 layer_factory.hpp:77] Creating layer res2c_branch2b_relu
I0306 19:36:15.686779  8714 net.cpp:100] Creating Layer res2c_branch2b_relu
I0306 19:36:15.686782  8714 net.cpp:434] res2c_branch2b_relu <- res2c_branch2b
I0306 19:36:15.686787  8714 net.cpp:395] res2c_branch2b_relu -> res2c_branch2b (in-place)
I0306 19:36:15.686952  8714 net.cpp:150] Setting up res2c_branch2b_relu
I0306 19:36:15.686961  8714 net.cpp:157] Top shape: 8 64 56 56 (1605632)
I0306 19:36:15.686964  8714 net.cpp:165] Memory required for data: 732168224
I0306 19:36:15.686969  8714 layer_factory.hpp:77] Creating layer res2c_branch2c
I0306 19:36:15.686976  8714 net.cpp:100] Creating Layer res2c_branch2c
I0306 19:36:15.686980  8714 net.cpp:434] res2c_branch2c <- res2c_branch2b
I0306 19:36:15.686985  8714 net.cpp:408] res2c_branch2c -> res2c_branch2c
I0306 19:36:15.688074  8714 net.cpp:150] Setting up res2c_branch2c
I0306 19:36:15.688088  8714 net.cpp:157] Top shape: 8 256 56 56 (6422528)
I0306 19:36:15.688091  8714 net.cpp:165] Memory required for data: 757858336
I0306 19:36:15.688098  8714 layer_factory.hpp:77] Creating layer bn2c_branch2c
I0306 19:36:15.688104  8714 net.cpp:100] Creating Layer bn2c_branch2c
I0306 19:36:15.688107  8714 net.cpp:434] bn2c_branch2c <- res2c_branch2c
I0306 19:36:15.688114  8714 net.cpp:395] bn2c_branch2c -> res2c_branch2c (in-place)
I0306 19:36:15.688376  8714 net.cpp:150] Setting up bn2c_branch2c
I0306 19:36:15.688385  8714 net.cpp:157] Top shape: 8 256 56 56 (6422528)
I0306 19:36:15.688388  8714 net.cpp:165] Memory required for data: 783548448
I0306 19:36:15.688405  8714 layer_factory.hpp:77] Creating layer scale2c_branch2c
I0306 19:36:15.688412  8714 net.cpp:100] Creating Layer scale2c_branch2c
I0306 19:36:15.688416  8714 net.cpp:434] scale2c_branch2c <- res2c_branch2c
I0306 19:36:15.688422  8714 net.cpp:395] scale2c_branch2c -> res2c_branch2c (in-place)
I0306 19:36:15.688477  8714 layer_factory.hpp:77] Creating layer scale2c_branch2c
I0306 19:36:15.688623  8714 net.cpp:150] Setting up scale2c_branch2c
I0306 19:36:15.688630  8714 net.cpp:157] Top shape: 8 256 56 56 (6422528)
I0306 19:36:15.688633  8714 net.cpp:165] Memory required for data: 809238560
I0306 19:36:15.688640  8714 layer_factory.hpp:77] Creating layer res2c
I0306 19:36:15.688645  8714 net.cpp:100] Creating Layer res2c
I0306 19:36:15.688649  8714 net.cpp:434] res2c <- res2b_res2b_relu_0_split_1
I0306 19:36:15.688653  8714 net.cpp:434] res2c <- res2c_branch2c
I0306 19:36:15.688658  8714 net.cpp:408] res2c -> res2c
I0306 19:36:15.688688  8714 net.cpp:150] Setting up res2c
I0306 19:36:15.688694  8714 net.cpp:157] Top shape: 8 256 56 56 (6422528)
I0306 19:36:15.688697  8714 net.cpp:165] Memory required for data: 834928672
I0306 19:36:15.688701  8714 layer_factory.hpp:77] Creating layer res2c_relu
I0306 19:36:15.688706  8714 net.cpp:100] Creating Layer res2c_relu
I0306 19:36:15.688710  8714 net.cpp:434] res2c_relu <- res2c
I0306 19:36:15.688716  8714 net.cpp:395] res2c_relu -> res2c (in-place)
I0306 19:36:15.688877  8714 net.cpp:150] Setting up res2c_relu
I0306 19:36:15.688885  8714 net.cpp:157] Top shape: 8 256 56 56 (6422528)
I0306 19:36:15.688889  8714 net.cpp:165] Memory required for data: 860618784
I0306 19:36:15.688891  8714 layer_factory.hpp:77] Creating layer res2c_res2c_relu_0_split
I0306 19:36:15.688899  8714 net.cpp:100] Creating Layer res2c_res2c_relu_0_split
I0306 19:36:15.688902  8714 net.cpp:434] res2c_res2c_relu_0_split <- res2c
I0306 19:36:15.688907  8714 net.cpp:408] res2c_res2c_relu_0_split -> res2c_res2c_relu_0_split_0
I0306 19:36:15.688913  8714 net.cpp:408] res2c_res2c_relu_0_split -> res2c_res2c_relu_0_split_1
I0306 19:36:15.688995  8714 net.cpp:150] Setting up res2c_res2c_relu_0_split
I0306 19:36:15.689003  8714 net.cpp:157] Top shape: 8 256 56 56 (6422528)
I0306 19:36:15.689007  8714 net.cpp:157] Top shape: 8 256 56 56 (6422528)
I0306 19:36:15.689010  8714 net.cpp:165] Memory required for data: 911999008
I0306 19:36:15.689014  8714 layer_factory.hpp:77] Creating layer res3a_branch1
I0306 19:36:15.689023  8714 net.cpp:100] Creating Layer res3a_branch1
I0306 19:36:15.689028  8714 net.cpp:434] res3a_branch1 <- res2c_res2c_relu_0_split_0
I0306 19:36:15.689034  8714 net.cpp:408] res3a_branch1 -> res3a_branch1
I0306 19:36:15.691165  8714 net.cpp:150] Setting up res3a_branch1
I0306 19:36:15.691180  8714 net.cpp:157] Top shape: 8 512 28 28 (3211264)
I0306 19:36:15.691184  8714 net.cpp:165] Memory required for data: 924844064
I0306 19:36:15.691190  8714 layer_factory.hpp:77] Creating layer bn3a_branch1
I0306 19:36:15.691196  8714 net.cpp:100] Creating Layer bn3a_branch1
I0306 19:36:15.691200  8714 net.cpp:434] bn3a_branch1 <- res3a_branch1
I0306 19:36:15.691206  8714 net.cpp:395] bn3a_branch1 -> res3a_branch1 (in-place)
I0306 19:36:15.692397  8714 net.cpp:150] Setting up bn3a_branch1
I0306 19:36:15.692411  8714 net.cpp:157] Top shape: 8 512 28 28 (3211264)
I0306 19:36:15.692418  8714 net.cpp:165] Memory required for data: 937689120
I0306 19:36:15.692426  8714 layer_factory.hpp:77] Creating layer scale3a_branch1
I0306 19:36:15.692435  8714 net.cpp:100] Creating Layer scale3a_branch1
I0306 19:36:15.692438  8714 net.cpp:434] scale3a_branch1 <- res3a_branch1
I0306 19:36:15.692445  8714 net.cpp:395] scale3a_branch1 -> res3a_branch1 (in-place)
I0306 19:36:15.692504  8714 layer_factory.hpp:77] Creating layer scale3a_branch1
I0306 19:36:15.692649  8714 net.cpp:150] Setting up scale3a_branch1
I0306 19:36:15.692656  8714 net.cpp:157] Top shape: 8 512 28 28 (3211264)
I0306 19:36:15.692661  8714 net.cpp:165] Memory required for data: 950534176
I0306 19:36:15.692667  8714 layer_factory.hpp:77] Creating layer res3a_branch2a
I0306 19:36:15.692674  8714 net.cpp:100] Creating Layer res3a_branch2a
I0306 19:36:15.692678  8714 net.cpp:434] res3a_branch2a <- res2c_res2c_relu_0_split_1
I0306 19:36:15.692683  8714 net.cpp:408] res3a_branch2a -> res3a_branch2a
I0306 19:36:15.693873  8714 net.cpp:150] Setting up res3a_branch2a
I0306 19:36:15.693888  8714 net.cpp:157] Top shape: 8 128 28 28 (802816)
I0306 19:36:15.693892  8714 net.cpp:165] Memory required for data: 953745440
I0306 19:36:15.693898  8714 layer_factory.hpp:77] Creating layer bn3a_branch2a
I0306 19:36:15.693904  8714 net.cpp:100] Creating Layer bn3a_branch2a
I0306 19:36:15.693908  8714 net.cpp:434] bn3a_branch2a <- res3a_branch2a
I0306 19:36:15.693915  8714 net.cpp:395] bn3a_branch2a -> res3a_branch2a (in-place)
I0306 19:36:15.694175  8714 net.cpp:150] Setting up bn3a_branch2a
I0306 19:36:15.694182  8714 net.cpp:157] Top shape: 8 128 28 28 (802816)
I0306 19:36:15.694185  8714 net.cpp:165] Memory required for data: 956956704
I0306 19:36:15.694192  8714 layer_factory.hpp:77] Creating layer scale3a_branch2a
I0306 19:36:15.694200  8714 net.cpp:100] Creating Layer scale3a_branch2a
I0306 19:36:15.694202  8714 net.cpp:434] scale3a_branch2a <- res3a_branch2a
I0306 19:36:15.694208  8714 net.cpp:395] scale3a_branch2a -> res3a_branch2a (in-place)
I0306 19:36:15.694262  8714 layer_factory.hpp:77] Creating layer scale3a_branch2a
I0306 19:36:15.694411  8714 net.cpp:150] Setting up scale3a_branch2a
I0306 19:36:15.694418  8714 net.cpp:157] Top shape: 8 128 28 28 (802816)
I0306 19:36:15.694422  8714 net.cpp:165] Memory required for data: 960167968
I0306 19:36:15.694428  8714 layer_factory.hpp:77] Creating layer res3a_branch2a_relu
I0306 19:36:15.694434  8714 net.cpp:100] Creating Layer res3a_branch2a_relu
I0306 19:36:15.694437  8714 net.cpp:434] res3a_branch2a_relu <- res3a_branch2a
I0306 19:36:15.694443  8714 net.cpp:395] res3a_branch2a_relu -> res3a_branch2a (in-place)
I0306 19:36:15.694604  8714 net.cpp:150] Setting up res3a_branch2a_relu
I0306 19:36:15.694612  8714 net.cpp:157] Top shape: 8 128 28 28 (802816)
I0306 19:36:15.694615  8714 net.cpp:165] Memory required for data: 963379232
I0306 19:36:15.694619  8714 layer_factory.hpp:77] Creating layer res3a_branch2b
I0306 19:36:15.694628  8714 net.cpp:100] Creating Layer res3a_branch2b
I0306 19:36:15.694631  8714 net.cpp:434] res3a_branch2b <- res3a_branch2a
I0306 19:36:15.694638  8714 net.cpp:408] res3a_branch2b -> res3a_branch2b
I0306 19:36:15.696110  8714 net.cpp:150] Setting up res3a_branch2b
I0306 19:36:15.696123  8714 net.cpp:157] Top shape: 8 128 28 28 (802816)
I0306 19:36:15.696126  8714 net.cpp:165] Memory required for data: 966590496
I0306 19:36:15.696132  8714 layer_factory.hpp:77] Creating layer bn3a_branch2b
I0306 19:36:15.696141  8714 net.cpp:100] Creating Layer bn3a_branch2b
I0306 19:36:15.696144  8714 net.cpp:434] bn3a_branch2b <- res3a_branch2b
I0306 19:36:15.696149  8714 net.cpp:395] bn3a_branch2b -> res3a_branch2b (in-place)
I0306 19:36:15.696421  8714 net.cpp:150] Setting up bn3a_branch2b
I0306 19:36:15.696429  8714 net.cpp:157] Top shape: 8 128 28 28 (802816)
I0306 19:36:15.696431  8714 net.cpp:165] Memory required for data: 969801760
I0306 19:36:15.696439  8714 layer_factory.hpp:77] Creating layer scale3a_branch2b
I0306 19:36:15.696445  8714 net.cpp:100] Creating Layer scale3a_branch2b
I0306 19:36:15.696454  8714 net.cpp:434] scale3a_branch2b <- res3a_branch2b
I0306 19:36:15.696458  8714 net.cpp:395] scale3a_branch2b -> res3a_branch2b (in-place)
I0306 19:36:15.696511  8714 layer_factory.hpp:77] Creating layer scale3a_branch2b
I0306 19:36:15.696660  8714 net.cpp:150] Setting up scale3a_branch2b
I0306 19:36:15.696667  8714 net.cpp:157] Top shape: 8 128 28 28 (802816)
I0306 19:36:15.696671  8714 net.cpp:165] Memory required for data: 973013024
I0306 19:36:15.696677  8714 layer_factory.hpp:77] Creating layer res3a_branch2b_relu
I0306 19:36:15.696683  8714 net.cpp:100] Creating Layer res3a_branch2b_relu
I0306 19:36:15.696686  8714 net.cpp:434] res3a_branch2b_relu <- res3a_branch2b
I0306 19:36:15.696691  8714 net.cpp:395] res3a_branch2b_relu -> res3a_branch2b (in-place)
I0306 19:36:15.697216  8714 net.cpp:150] Setting up res3a_branch2b_relu
I0306 19:36:15.697230  8714 net.cpp:157] Top shape: 8 128 28 28 (802816)
I0306 19:36:15.697233  8714 net.cpp:165] Memory required for data: 976224288
I0306 19:36:15.697238  8714 layer_factory.hpp:77] Creating layer res3a_branch2c
I0306 19:36:15.697257  8714 net.cpp:100] Creating Layer res3a_branch2c
I0306 19:36:15.697276  8714 net.cpp:434] res3a_branch2c <- res3a_branch2b
I0306 19:36:15.697283  8714 net.cpp:408] res3a_branch2c -> res3a_branch2c
I0306 19:36:15.698109  8714 net.cpp:150] Setting up res3a_branch2c
I0306 19:36:15.698120  8714 net.cpp:157] Top shape: 8 512 28 28 (3211264)
I0306 19:36:15.698124  8714 net.cpp:165] Memory required for data: 989069344
I0306 19:36:15.698130  8714 layer_factory.hpp:77] Creating layer bn3a_branch2c
I0306 19:36:15.698137  8714 net.cpp:100] Creating Layer bn3a_branch2c
I0306 19:36:15.698140  8714 net.cpp:434] bn3a_branch2c <- res3a_branch2c
I0306 19:36:15.698146  8714 net.cpp:395] bn3a_branch2c -> res3a_branch2c (in-place)
I0306 19:36:15.698417  8714 net.cpp:150] Setting up bn3a_branch2c
I0306 19:36:15.698426  8714 net.cpp:157] Top shape: 8 512 28 28 (3211264)
I0306 19:36:15.698428  8714 net.cpp:165] Memory required for data: 1001914400
I0306 19:36:15.698434  8714 layer_factory.hpp:77] Creating layer scale3a_branch2c
I0306 19:36:15.698442  8714 net.cpp:100] Creating Layer scale3a_branch2c
I0306 19:36:15.698446  8714 net.cpp:434] scale3a_branch2c <- res3a_branch2c
I0306 19:36:15.698451  8714 net.cpp:395] scale3a_branch2c -> res3a_branch2c (in-place)
I0306 19:36:15.698505  8714 layer_factory.hpp:77] Creating layer scale3a_branch2c
I0306 19:36:15.698653  8714 net.cpp:150] Setting up scale3a_branch2c
I0306 19:36:15.698662  8714 net.cpp:157] Top shape: 8 512 28 28 (3211264)
I0306 19:36:15.698664  8714 net.cpp:165] Memory required for data: 1014759456
I0306 19:36:15.698670  8714 layer_factory.hpp:77] Creating layer res3a
I0306 19:36:15.698678  8714 net.cpp:100] Creating Layer res3a
I0306 19:36:15.698681  8714 net.cpp:434] res3a <- res3a_branch1
I0306 19:36:15.698685  8714 net.cpp:434] res3a <- res3a_branch2c
I0306 19:36:15.698689  8714 net.cpp:408] res3a -> res3a
I0306 19:36:15.698719  8714 net.cpp:150] Setting up res3a
I0306 19:36:15.698726  8714 net.cpp:157] Top shape: 8 512 28 28 (3211264)
I0306 19:36:15.698729  8714 net.cpp:165] Memory required for data: 1027604512
I0306 19:36:15.698732  8714 layer_factory.hpp:77] Creating layer res3a_relu
I0306 19:36:15.698737  8714 net.cpp:100] Creating Layer res3a_relu
I0306 19:36:15.698741  8714 net.cpp:434] res3a_relu <- res3a
I0306 19:36:15.698745  8714 net.cpp:395] res3a_relu -> res3a (in-place)
I0306 19:36:15.699235  8714 net.cpp:150] Setting up res3a_relu
I0306 19:36:15.699249  8714 net.cpp:157] Top shape: 8 512 28 28 (3211264)
I0306 19:36:15.699254  8714 net.cpp:165] Memory required for data: 1040449568
I0306 19:36:15.699257  8714 layer_factory.hpp:77] Creating layer res3a_res3a_relu_0_split
I0306 19:36:15.699264  8714 net.cpp:100] Creating Layer res3a_res3a_relu_0_split
I0306 19:36:15.699266  8714 net.cpp:434] res3a_res3a_relu_0_split <- res3a
I0306 19:36:15.699272  8714 net.cpp:408] res3a_res3a_relu_0_split -> res3a_res3a_relu_0_split_0
I0306 19:36:15.699285  8714 net.cpp:408] res3a_res3a_relu_0_split -> res3a_res3a_relu_0_split_1
I0306 19:36:15.699347  8714 net.cpp:150] Setting up res3a_res3a_relu_0_split
I0306 19:36:15.699354  8714 net.cpp:157] Top shape: 8 512 28 28 (3211264)
I0306 19:36:15.699358  8714 net.cpp:157] Top shape: 8 512 28 28 (3211264)
I0306 19:36:15.699362  8714 net.cpp:165] Memory required for data: 1066139680
I0306 19:36:15.699365  8714 layer_factory.hpp:77] Creating layer res3b_branch2a
I0306 19:36:15.699374  8714 net.cpp:100] Creating Layer res3b_branch2a
I0306 19:36:15.699378  8714 net.cpp:434] res3b_branch2a <- res3a_res3a_relu_0_split_0
I0306 19:36:15.699384  8714 net.cpp:408] res3b_branch2a -> res3b_branch2a
I0306 19:36:15.700816  8714 net.cpp:150] Setting up res3b_branch2a
I0306 19:36:15.700831  8714 net.cpp:157] Top shape: 8 128 28 28 (802816)
I0306 19:36:15.700835  8714 net.cpp:165] Memory required for data: 1069350944
I0306 19:36:15.700841  8714 layer_factory.hpp:77] Creating layer bn3b_branch2a
I0306 19:36:15.700847  8714 net.cpp:100] Creating Layer bn3b_branch2a
I0306 19:36:15.700851  8714 net.cpp:434] bn3b_branch2a <- res3b_branch2a
I0306 19:36:15.700857  8714 net.cpp:395] bn3b_branch2a -> res3b_branch2a (in-place)
I0306 19:36:15.701181  8714 net.cpp:150] Setting up bn3b_branch2a
I0306 19:36:15.701191  8714 net.cpp:157] Top shape: 8 128 28 28 (802816)
I0306 19:36:15.701195  8714 net.cpp:165] Memory required for data: 1072562208
I0306 19:36:15.701202  8714 layer_factory.hpp:77] Creating layer scale3b_branch2a
I0306 19:36:15.701210  8714 net.cpp:100] Creating Layer scale3b_branch2a
I0306 19:36:15.701213  8714 net.cpp:434] scale3b_branch2a <- res3b_branch2a
I0306 19:36:15.701220  8714 net.cpp:395] scale3b_branch2a -> res3b_branch2a (in-place)
I0306 19:36:15.701306  8714 layer_factory.hpp:77] Creating layer scale3b_branch2a
I0306 19:36:15.701458  8714 net.cpp:150] Setting up scale3b_branch2a
I0306 19:36:15.701465  8714 net.cpp:157] Top shape: 8 128 28 28 (802816)
I0306 19:36:15.701468  8714 net.cpp:165] Memory required for data: 1075773472
I0306 19:36:15.701475  8714 layer_factory.hpp:77] Creating layer res3b_branch2a_relu
I0306 19:36:15.701481  8714 net.cpp:100] Creating Layer res3b_branch2a_relu
I0306 19:36:15.701484  8714 net.cpp:434] res3b_branch2a_relu <- res3b_branch2a
I0306 19:36:15.701490  8714 net.cpp:395] res3b_branch2a_relu -> res3b_branch2a (in-place)
I0306 19:36:15.701658  8714 net.cpp:150] Setting up res3b_branch2a_relu
I0306 19:36:15.701666  8714 net.cpp:157] Top shape: 8 128 28 28 (802816)
I0306 19:36:15.701670  8714 net.cpp:165] Memory required for data: 1078984736
I0306 19:36:15.701673  8714 layer_factory.hpp:77] Creating layer res3b_branch2b
I0306 19:36:15.701681  8714 net.cpp:100] Creating Layer res3b_branch2b
I0306 19:36:15.701685  8714 net.cpp:434] res3b_branch2b <- res3b_branch2a
I0306 19:36:15.701691  8714 net.cpp:408] res3b_branch2b -> res3b_branch2b
I0306 19:36:15.703529  8714 net.cpp:150] Setting up res3b_branch2b
I0306 19:36:15.703542  8714 net.cpp:157] Top shape: 8 128 28 28 (802816)
I0306 19:36:15.703547  8714 net.cpp:165] Memory required for data: 1082196000
I0306 19:36:15.703552  8714 layer_factory.hpp:77] Creating layer bn3b_branch2b
I0306 19:36:15.703560  8714 net.cpp:100] Creating Layer bn3b_branch2b
I0306 19:36:15.703564  8714 net.cpp:434] bn3b_branch2b <- res3b_branch2b
I0306 19:36:15.703569  8714 net.cpp:395] bn3b_branch2b -> res3b_branch2b (in-place)
I0306 19:36:15.703855  8714 net.cpp:150] Setting up bn3b_branch2b
I0306 19:36:15.703862  8714 net.cpp:157] Top shape: 8 128 28 28 (802816)
I0306 19:36:15.703866  8714 net.cpp:165] Memory required for data: 1085407264
I0306 19:36:15.703873  8714 layer_factory.hpp:77] Creating layer scale3b_branch2b
I0306 19:36:15.703881  8714 net.cpp:100] Creating Layer scale3b_branch2b
I0306 19:36:15.703883  8714 net.cpp:434] scale3b_branch2b <- res3b_branch2b
I0306 19:36:15.703888  8714 net.cpp:395] scale3b_branch2b -> res3b_branch2b (in-place)
I0306 19:36:15.703944  8714 layer_factory.hpp:77] Creating layer scale3b_branch2b
I0306 19:36:15.704097  8714 net.cpp:150] Setting up scale3b_branch2b
I0306 19:36:15.704105  8714 net.cpp:157] Top shape: 8 128 28 28 (802816)
I0306 19:36:15.704113  8714 net.cpp:165] Memory required for data: 1088618528
I0306 19:36:15.704120  8714 layer_factory.hpp:77] Creating layer res3b_branch2b_relu
I0306 19:36:15.704125  8714 net.cpp:100] Creating Layer res3b_branch2b_relu
I0306 19:36:15.704129  8714 net.cpp:434] res3b_branch2b_relu <- res3b_branch2b
I0306 19:36:15.704133  8714 net.cpp:395] res3b_branch2b_relu -> res3b_branch2b (in-place)
I0306 19:36:15.704301  8714 net.cpp:150] Setting up res3b_branch2b_relu
I0306 19:36:15.704310  8714 net.cpp:157] Top shape: 8 128 28 28 (802816)
I0306 19:36:15.704313  8714 net.cpp:165] Memory required for data: 1091829792
I0306 19:36:15.704316  8714 layer_factory.hpp:77] Creating layer res3b_branch2c
I0306 19:36:15.704327  8714 net.cpp:100] Creating Layer res3b_branch2c
I0306 19:36:15.704331  8714 net.cpp:434] res3b_branch2c <- res3b_branch2b
I0306 19:36:15.704337  8714 net.cpp:408] res3b_branch2c -> res3b_branch2c
I0306 19:36:15.705545  8714 net.cpp:150] Setting up res3b_branch2c
I0306 19:36:15.705559  8714 net.cpp:157] Top shape: 8 512 28 28 (3211264)
I0306 19:36:15.705562  8714 net.cpp:165] Memory required for data: 1104674848
I0306 19:36:15.705569  8714 layer_factory.hpp:77] Creating layer bn3b_branch2c
I0306 19:36:15.705576  8714 net.cpp:100] Creating Layer bn3b_branch2c
I0306 19:36:15.705580  8714 net.cpp:434] bn3b_branch2c <- res3b_branch2c
I0306 19:36:15.705585  8714 net.cpp:395] bn3b_branch2c -> res3b_branch2c (in-place)
I0306 19:36:15.705862  8714 net.cpp:150] Setting up bn3b_branch2c
I0306 19:36:15.705868  8714 net.cpp:157] Top shape: 8 512 28 28 (3211264)
I0306 19:36:15.705871  8714 net.cpp:165] Memory required for data: 1117519904
I0306 19:36:15.705878  8714 layer_factory.hpp:77] Creating layer scale3b_branch2c
I0306 19:36:15.705885  8714 net.cpp:100] Creating Layer scale3b_branch2c
I0306 19:36:15.705889  8714 net.cpp:434] scale3b_branch2c <- res3b_branch2c
I0306 19:36:15.705895  8714 net.cpp:395] scale3b_branch2c -> res3b_branch2c (in-place)
I0306 19:36:15.705953  8714 layer_factory.hpp:77] Creating layer scale3b_branch2c
I0306 19:36:15.706106  8714 net.cpp:150] Setting up scale3b_branch2c
I0306 19:36:15.706113  8714 net.cpp:157] Top shape: 8 512 28 28 (3211264)
I0306 19:36:15.706116  8714 net.cpp:165] Memory required for data: 1130364960
I0306 19:36:15.706123  8714 layer_factory.hpp:77] Creating layer res3b
I0306 19:36:15.706128  8714 net.cpp:100] Creating Layer res3b
I0306 19:36:15.706131  8714 net.cpp:434] res3b <- res3a_res3a_relu_0_split_1
I0306 19:36:15.706136  8714 net.cpp:434] res3b <- res3b_branch2c
I0306 19:36:15.706140  8714 net.cpp:408] res3b -> res3b
I0306 19:36:15.706172  8714 net.cpp:150] Setting up res3b
I0306 19:36:15.706178  8714 net.cpp:157] Top shape: 8 512 28 28 (3211264)
I0306 19:36:15.706182  8714 net.cpp:165] Memory required for data: 1143210016
I0306 19:36:15.706185  8714 layer_factory.hpp:77] Creating layer res3b_relu
I0306 19:36:15.706190  8714 net.cpp:100] Creating Layer res3b_relu
I0306 19:36:15.706193  8714 net.cpp:434] res3b_relu <- res3b
I0306 19:36:15.706199  8714 net.cpp:395] res3b_relu -> res3b (in-place)
I0306 19:36:15.706358  8714 net.cpp:150] Setting up res3b_relu
I0306 19:36:15.706367  8714 net.cpp:157] Top shape: 8 512 28 28 (3211264)
I0306 19:36:15.706369  8714 net.cpp:165] Memory required for data: 1156055072
I0306 19:36:15.706373  8714 layer_factory.hpp:77] Creating layer res3b_res3b_relu_0_split
I0306 19:36:15.706378  8714 net.cpp:100] Creating Layer res3b_res3b_relu_0_split
I0306 19:36:15.706382  8714 net.cpp:434] res3b_res3b_relu_0_split <- res3b
I0306 19:36:15.706388  8714 net.cpp:408] res3b_res3b_relu_0_split -> res3b_res3b_relu_0_split_0
I0306 19:36:15.706395  8714 net.cpp:408] res3b_res3b_relu_0_split -> res3b_res3b_relu_0_split_1
I0306 19:36:15.706449  8714 net.cpp:150] Setting up res3b_res3b_relu_0_split
I0306 19:36:15.706454  8714 net.cpp:157] Top shape: 8 512 28 28 (3211264)
I0306 19:36:15.706459  8714 net.cpp:157] Top shape: 8 512 28 28 (3211264)
I0306 19:36:15.706461  8714 net.cpp:165] Memory required for data: 1181745184
I0306 19:36:15.706468  8714 layer_factory.hpp:77] Creating layer res3c_branch2a
I0306 19:36:15.706477  8714 net.cpp:100] Creating Layer res3c_branch2a
I0306 19:36:15.706481  8714 net.cpp:434] res3c_branch2a <- res3b_res3b_relu_0_split_0
I0306 19:36:15.706487  8714 net.cpp:408] res3c_branch2a -> res3c_branch2a
I0306 19:36:15.707608  8714 net.cpp:150] Setting up res3c_branch2a
I0306 19:36:15.707620  8714 net.cpp:157] Top shape: 8 128 28 28 (802816)
I0306 19:36:15.707624  8714 net.cpp:165] Memory required for data: 1184956448
I0306 19:36:15.707630  8714 layer_factory.hpp:77] Creating layer bn3c_branch2a
I0306 19:36:15.707638  8714 net.cpp:100] Creating Layer bn3c_branch2a
I0306 19:36:15.707641  8714 net.cpp:434] bn3c_branch2a <- res3c_branch2a
I0306 19:36:15.707646  8714 net.cpp:395] bn3c_branch2a -> res3c_branch2a (in-place)
I0306 19:36:15.707921  8714 net.cpp:150] Setting up bn3c_branch2a
I0306 19:36:15.707928  8714 net.cpp:157] Top shape: 8 128 28 28 (802816)
I0306 19:36:15.707931  8714 net.cpp:165] Memory required for data: 1188167712
I0306 19:36:15.707938  8714 layer_factory.hpp:77] Creating layer scale3c_branch2a
I0306 19:36:15.707947  8714 net.cpp:100] Creating Layer scale3c_branch2a
I0306 19:36:15.707949  8714 net.cpp:434] scale3c_branch2a <- res3c_branch2a
I0306 19:36:15.707955  8714 net.cpp:395] scale3c_branch2a -> res3c_branch2a (in-place)
I0306 19:36:15.708009  8714 layer_factory.hpp:77] Creating layer scale3c_branch2a
I0306 19:36:15.708159  8714 net.cpp:150] Setting up scale3c_branch2a
I0306 19:36:15.708166  8714 net.cpp:157] Top shape: 8 128 28 28 (802816)
I0306 19:36:15.708169  8714 net.cpp:165] Memory required for data: 1191378976
I0306 19:36:15.708176  8714 layer_factory.hpp:77] Creating layer res3c_branch2a_relu
I0306 19:36:15.708183  8714 net.cpp:100] Creating Layer res3c_branch2a_relu
I0306 19:36:15.708186  8714 net.cpp:434] res3c_branch2a_relu <- res3c_branch2a
I0306 19:36:15.708190  8714 net.cpp:395] res3c_branch2a_relu -> res3c_branch2a (in-place)
I0306 19:36:15.708349  8714 net.cpp:150] Setting up res3c_branch2a_relu
I0306 19:36:15.708359  8714 net.cpp:157] Top shape: 8 128 28 28 (802816)
I0306 19:36:15.708362  8714 net.cpp:165] Memory required for data: 1194590240
I0306 19:36:15.708365  8714 layer_factory.hpp:77] Creating layer res3c_branch2b
I0306 19:36:15.708372  8714 net.cpp:100] Creating Layer res3c_branch2b
I0306 19:36:15.708376  8714 net.cpp:434] res3c_branch2b <- res3c_branch2a
I0306 19:36:15.708382  8714 net.cpp:408] res3c_branch2b -> res3c_branch2b
I0306 19:36:15.710855  8714 net.cpp:150] Setting up res3c_branch2b
I0306 19:36:15.710871  8714 net.cpp:157] Top shape: 8 128 28 28 (802816)
I0306 19:36:15.710875  8714 net.cpp:165] Memory required for data: 1197801504
I0306 19:36:15.710881  8714 layer_factory.hpp:77] Creating layer bn3c_branch2b
I0306 19:36:15.710889  8714 net.cpp:100] Creating Layer bn3c_branch2b
I0306 19:36:15.710893  8714 net.cpp:434] bn3c_branch2b <- res3c_branch2b
I0306 19:36:15.710898  8714 net.cpp:395] bn3c_branch2b -> res3c_branch2b (in-place)
I0306 19:36:15.711175  8714 net.cpp:150] Setting up bn3c_branch2b
I0306 19:36:15.711182  8714 net.cpp:157] Top shape: 8 128 28 28 (802816)
I0306 19:36:15.711185  8714 net.cpp:165] Memory required for data: 1201012768
I0306 19:36:15.711192  8714 layer_factory.hpp:77] Creating layer scale3c_branch2b
I0306 19:36:15.711199  8714 net.cpp:100] Creating Layer scale3c_branch2b
I0306 19:36:15.711202  8714 net.cpp:434] scale3c_branch2b <- res3c_branch2b
I0306 19:36:15.711210  8714 net.cpp:395] scale3c_branch2b -> res3c_branch2b (in-place)
I0306 19:36:15.711266  8714 layer_factory.hpp:77] Creating layer scale3c_branch2b
I0306 19:36:15.711422  8714 net.cpp:150] Setting up scale3c_branch2b
I0306 19:36:15.711429  8714 net.cpp:157] Top shape: 8 128 28 28 (802816)
I0306 19:36:15.711432  8714 net.cpp:165] Memory required for data: 1204224032
I0306 19:36:15.711439  8714 layer_factory.hpp:77] Creating layer res3c_branch2b_relu
I0306 19:36:15.711447  8714 net.cpp:100] Creating Layer res3c_branch2b_relu
I0306 19:36:15.711449  8714 net.cpp:434] res3c_branch2b_relu <- res3c_branch2b
I0306 19:36:15.711458  8714 net.cpp:395] res3c_branch2b_relu -> res3c_branch2b (in-place)
I0306 19:36:15.711942  8714 net.cpp:150] Setting up res3c_branch2b_relu
I0306 19:36:15.711956  8714 net.cpp:157] Top shape: 8 128 28 28 (802816)
I0306 19:36:15.711958  8714 net.cpp:165] Memory required for data: 1207435296
I0306 19:36:15.711962  8714 layer_factory.hpp:77] Creating layer res3c_branch2c
I0306 19:36:15.711971  8714 net.cpp:100] Creating Layer res3c_branch2c
I0306 19:36:15.711975  8714 net.cpp:434] res3c_branch2c <- res3c_branch2b
I0306 19:36:15.711982  8714 net.cpp:408] res3c_branch2c -> res3c_branch2c
I0306 19:36:15.712793  8714 net.cpp:150] Setting up res3c_branch2c
I0306 19:36:15.712805  8714 net.cpp:157] Top shape: 8 512 28 28 (3211264)
I0306 19:36:15.712808  8714 net.cpp:165] Memory required for data: 1220280352
I0306 19:36:15.712813  8714 layer_factory.hpp:77] Creating layer bn3c_branch2c
I0306 19:36:15.712821  8714 net.cpp:100] Creating Layer bn3c_branch2c
I0306 19:36:15.712826  8714 net.cpp:434] bn3c_branch2c <- res3c_branch2c
I0306 19:36:15.712831  8714 net.cpp:395] bn3c_branch2c -> res3c_branch2c (in-place)
I0306 19:36:15.713145  8714 net.cpp:150] Setting up bn3c_branch2c
I0306 19:36:15.713153  8714 net.cpp:157] Top shape: 8 512 28 28 (3211264)
I0306 19:36:15.713157  8714 net.cpp:165] Memory required for data: 1233125408
I0306 19:36:15.713165  8714 layer_factory.hpp:77] Creating layer scale3c_branch2c
I0306 19:36:15.713172  8714 net.cpp:100] Creating Layer scale3c_branch2c
I0306 19:36:15.713176  8714 net.cpp:434] scale3c_branch2c <- res3c_branch2c
I0306 19:36:15.713182  8714 net.cpp:395] scale3c_branch2c -> res3c_branch2c (in-place)
I0306 19:36:15.713243  8714 layer_factory.hpp:77] Creating layer scale3c_branch2c
I0306 19:36:15.713413  8714 net.cpp:150] Setting up scale3c_branch2c
I0306 19:36:15.713420  8714 net.cpp:157] Top shape: 8 512 28 28 (3211264)
I0306 19:36:15.713423  8714 net.cpp:165] Memory required for data: 1245970464
I0306 19:36:15.713430  8714 layer_factory.hpp:77] Creating layer res3c
I0306 19:36:15.713436  8714 net.cpp:100] Creating Layer res3c
I0306 19:36:15.713440  8714 net.cpp:434] res3c <- res3b_res3b_relu_0_split_1
I0306 19:36:15.713444  8714 net.cpp:434] res3c <- res3c_branch2c
I0306 19:36:15.713449  8714 net.cpp:408] res3c -> res3c
I0306 19:36:15.713481  8714 net.cpp:150] Setting up res3c
I0306 19:36:15.713487  8714 net.cpp:157] Top shape: 8 512 28 28 (3211264)
I0306 19:36:15.713490  8714 net.cpp:165] Memory required for data: 1258815520
I0306 19:36:15.713493  8714 layer_factory.hpp:77] Creating layer res3c_relu
I0306 19:36:15.713498  8714 net.cpp:100] Creating Layer res3c_relu
I0306 19:36:15.713501  8714 net.cpp:434] res3c_relu <- res3c
I0306 19:36:15.713507  8714 net.cpp:395] res3c_relu -> res3c (in-place)
I0306 19:36:15.713999  8714 net.cpp:150] Setting up res3c_relu
I0306 19:36:15.714012  8714 net.cpp:157] Top shape: 8 512 28 28 (3211264)
I0306 19:36:15.714015  8714 net.cpp:165] Memory required for data: 1271660576
I0306 19:36:15.714020  8714 layer_factory.hpp:77] Creating layer res3c_res3c_relu_0_split
I0306 19:36:15.714025  8714 net.cpp:100] Creating Layer res3c_res3c_relu_0_split
I0306 19:36:15.714028  8714 net.cpp:434] res3c_res3c_relu_0_split <- res3c
I0306 19:36:15.714035  8714 net.cpp:408] res3c_res3c_relu_0_split -> res3c_res3c_relu_0_split_0
I0306 19:36:15.714043  8714 net.cpp:408] res3c_res3c_relu_0_split -> res3c_res3c_relu_0_split_1
I0306 19:36:15.714100  8714 net.cpp:150] Setting up res3c_res3c_relu_0_split
I0306 19:36:15.714107  8714 net.cpp:157] Top shape: 8 512 28 28 (3211264)
I0306 19:36:15.714110  8714 net.cpp:157] Top shape: 8 512 28 28 (3211264)
I0306 19:36:15.714113  8714 net.cpp:165] Memory required for data: 1297350688
I0306 19:36:15.714118  8714 layer_factory.hpp:77] Creating layer res3d_branch2a
I0306 19:36:15.714126  8714 net.cpp:100] Creating Layer res3d_branch2a
I0306 19:36:15.714130  8714 net.cpp:434] res3d_branch2a <- res3c_res3c_relu_0_split_0
I0306 19:36:15.714138  8714 net.cpp:408] res3d_branch2a -> res3d_branch2a
I0306 19:36:15.716217  8714 net.cpp:150] Setting up res3d_branch2a
I0306 19:36:15.716229  8714 net.cpp:157] Top shape: 8 128 28 28 (802816)
I0306 19:36:15.716233  8714 net.cpp:165] Memory required for data: 1300561952
I0306 19:36:15.716240  8714 layer_factory.hpp:77] Creating layer bn3d_branch2a
I0306 19:36:15.716248  8714 net.cpp:100] Creating Layer bn3d_branch2a
I0306 19:36:15.716251  8714 net.cpp:434] bn3d_branch2a <- res3d_branch2a
I0306 19:36:15.716256  8714 net.cpp:395] bn3d_branch2a -> res3d_branch2a (in-place)
I0306 19:36:15.716537  8714 net.cpp:150] Setting up bn3d_branch2a
I0306 19:36:15.716544  8714 net.cpp:157] Top shape: 8 128 28 28 (802816)
I0306 19:36:15.716547  8714 net.cpp:165] Memory required for data: 1303773216
I0306 19:36:15.716573  8714 layer_factory.hpp:77] Creating layer scale3d_branch2a
I0306 19:36:15.716583  8714 net.cpp:100] Creating Layer scale3d_branch2a
I0306 19:36:15.716586  8714 net.cpp:434] scale3d_branch2a <- res3d_branch2a
I0306 19:36:15.716591  8714 net.cpp:395] scale3d_branch2a -> res3d_branch2a (in-place)
I0306 19:36:15.716646  8714 layer_factory.hpp:77] Creating layer scale3d_branch2a
I0306 19:36:15.716804  8714 net.cpp:150] Setting up scale3d_branch2a
I0306 19:36:15.716811  8714 net.cpp:157] Top shape: 8 128 28 28 (802816)
I0306 19:36:15.716814  8714 net.cpp:165] Memory required for data: 1306984480
I0306 19:36:15.716820  8714 layer_factory.hpp:77] Creating layer res3d_branch2a_relu
I0306 19:36:15.716826  8714 net.cpp:100] Creating Layer res3d_branch2a_relu
I0306 19:36:15.716830  8714 net.cpp:434] res3d_branch2a_relu <- res3d_branch2a
I0306 19:36:15.716835  8714 net.cpp:395] res3d_branch2a_relu -> res3d_branch2a (in-place)
I0306 19:36:15.717025  8714 net.cpp:150] Setting up res3d_branch2a_relu
I0306 19:36:15.717036  8714 net.cpp:157] Top shape: 8 128 28 28 (802816)
I0306 19:36:15.717039  8714 net.cpp:165] Memory required for data: 1310195744
I0306 19:36:15.717044  8714 layer_factory.hpp:77] Creating layer res3d_branch2b
I0306 19:36:15.717053  8714 net.cpp:100] Creating Layer res3d_branch2b
I0306 19:36:15.717058  8714 net.cpp:434] res3d_branch2b <- res3d_branch2a
I0306 19:36:15.717064  8714 net.cpp:408] res3d_branch2b -> res3d_branch2b
I0306 19:36:15.718585  8714 net.cpp:150] Setting up res3d_branch2b
I0306 19:36:15.718600  8714 net.cpp:157] Top shape: 8 128 28 28 (802816)
I0306 19:36:15.718603  8714 net.cpp:165] Memory required for data: 1313407008
I0306 19:36:15.718611  8714 layer_factory.hpp:77] Creating layer bn3d_branch2b
I0306 19:36:15.718616  8714 net.cpp:100] Creating Layer bn3d_branch2b
I0306 19:36:15.718619  8714 net.cpp:434] bn3d_branch2b <- res3d_branch2b
I0306 19:36:15.718626  8714 net.cpp:395] bn3d_branch2b -> res3d_branch2b (in-place)
I0306 19:36:15.718909  8714 net.cpp:150] Setting up bn3d_branch2b
I0306 19:36:15.718919  8714 net.cpp:157] Top shape: 8 128 28 28 (802816)
I0306 19:36:15.718921  8714 net.cpp:165] Memory required for data: 1316618272
I0306 19:36:15.718928  8714 layer_factory.hpp:77] Creating layer scale3d_branch2b
I0306 19:36:15.718935  8714 net.cpp:100] Creating Layer scale3d_branch2b
I0306 19:36:15.718938  8714 net.cpp:434] scale3d_branch2b <- res3d_branch2b
I0306 19:36:15.718945  8714 net.cpp:395] scale3d_branch2b -> res3d_branch2b (in-place)
I0306 19:36:15.718999  8714 layer_factory.hpp:77] Creating layer scale3d_branch2b
I0306 19:36:15.719156  8714 net.cpp:150] Setting up scale3d_branch2b
I0306 19:36:15.719162  8714 net.cpp:157] Top shape: 8 128 28 28 (802816)
I0306 19:36:15.719166  8714 net.cpp:165] Memory required for data: 1319829536
I0306 19:36:15.719172  8714 layer_factory.hpp:77] Creating layer res3d_branch2b_relu
I0306 19:36:15.719178  8714 net.cpp:100] Creating Layer res3d_branch2b_relu
I0306 19:36:15.719183  8714 net.cpp:434] res3d_branch2b_relu <- res3d_branch2b
I0306 19:36:15.719187  8714 net.cpp:395] res3d_branch2b_relu -> res3d_branch2b (in-place)
I0306 19:36:15.719362  8714 net.cpp:150] Setting up res3d_branch2b_relu
I0306 19:36:15.719369  8714 net.cpp:157] Top shape: 8 128 28 28 (802816)
I0306 19:36:15.719373  8714 net.cpp:165] Memory required for data: 1323040800
I0306 19:36:15.719380  8714 layer_factory.hpp:77] Creating layer res3d_branch2c
I0306 19:36:15.719389  8714 net.cpp:100] Creating Layer res3d_branch2c
I0306 19:36:15.719393  8714 net.cpp:434] res3d_branch2c <- res3d_branch2b
I0306 19:36:15.719399  8714 net.cpp:408] res3d_branch2c -> res3d_branch2c
I0306 19:36:15.720557  8714 net.cpp:150] Setting up res3d_branch2c
I0306 19:36:15.720571  8714 net.cpp:157] Top shape: 8 512 28 28 (3211264)
I0306 19:36:15.720574  8714 net.cpp:165] Memory required for data: 1335885856
I0306 19:36:15.720580  8714 layer_factory.hpp:77] Creating layer bn3d_branch2c
I0306 19:36:15.720588  8714 net.cpp:100] Creating Layer bn3d_branch2c
I0306 19:36:15.720592  8714 net.cpp:434] bn3d_branch2c <- res3d_branch2c
I0306 19:36:15.720597  8714 net.cpp:395] bn3d_branch2c -> res3d_branch2c (in-place)
I0306 19:36:15.720918  8714 net.cpp:150] Setting up bn3d_branch2c
I0306 19:36:15.720927  8714 net.cpp:157] Top shape: 8 512 28 28 (3211264)
I0306 19:36:15.720930  8714 net.cpp:165] Memory required for data: 1348730912
I0306 19:36:15.720963  8714 layer_factory.hpp:77] Creating layer scale3d_branch2c
I0306 19:36:15.720973  8714 net.cpp:100] Creating Layer scale3d_branch2c
I0306 19:36:15.720978  8714 net.cpp:434] scale3d_branch2c <- res3d_branch2c
I0306 19:36:15.720983  8714 net.cpp:395] scale3d_branch2c -> res3d_branch2c (in-place)
I0306 19:36:15.721067  8714 layer_factory.hpp:77] Creating layer scale3d_branch2c
I0306 19:36:15.721237  8714 net.cpp:150] Setting up scale3d_branch2c
I0306 19:36:15.721246  8714 net.cpp:157] Top shape: 8 512 28 28 (3211264)
I0306 19:36:15.721249  8714 net.cpp:165] Memory required for data: 1361575968
I0306 19:36:15.721256  8714 layer_factory.hpp:77] Creating layer res3d
I0306 19:36:15.721262  8714 net.cpp:100] Creating Layer res3d
I0306 19:36:15.721282  8714 net.cpp:434] res3d <- res3c_res3c_relu_0_split_1
I0306 19:36:15.721285  8714 net.cpp:434] res3d <- res3d_branch2c
I0306 19:36:15.721290  8714 net.cpp:408] res3d -> res3d
I0306 19:36:15.721324  8714 net.cpp:150] Setting up res3d
I0306 19:36:15.721331  8714 net.cpp:157] Top shape: 8 512 28 28 (3211264)
I0306 19:36:15.721334  8714 net.cpp:165] Memory required for data: 1374421024
I0306 19:36:15.721338  8714 layer_factory.hpp:77] Creating layer res3d_relu
I0306 19:36:15.721343  8714 net.cpp:100] Creating Layer res3d_relu
I0306 19:36:15.721346  8714 net.cpp:434] res3d_relu <- res3d
I0306 19:36:15.721351  8714 net.cpp:395] res3d_relu -> res3d (in-place)
I0306 19:36:15.721516  8714 net.cpp:150] Setting up res3d_relu
I0306 19:36:15.721525  8714 net.cpp:157] Top shape: 8 512 28 28 (3211264)
I0306 19:36:15.721529  8714 net.cpp:165] Memory required for data: 1387266080
I0306 19:36:15.721531  8714 layer_factory.hpp:77] Creating layer res3d_res3d_relu_0_split
I0306 19:36:15.721539  8714 net.cpp:100] Creating Layer res3d_res3d_relu_0_split
I0306 19:36:15.721542  8714 net.cpp:434] res3d_res3d_relu_0_split <- res3d
I0306 19:36:15.721549  8714 net.cpp:408] res3d_res3d_relu_0_split -> res3d_res3d_relu_0_split_0
I0306 19:36:15.721555  8714 net.cpp:408] res3d_res3d_relu_0_split -> res3d_res3d_relu_0_split_1
I0306 19:36:15.721611  8714 net.cpp:150] Setting up res3d_res3d_relu_0_split
I0306 19:36:15.721617  8714 net.cpp:157] Top shape: 8 512 28 28 (3211264)
I0306 19:36:15.721621  8714 net.cpp:157] Top shape: 8 512 28 28 (3211264)
I0306 19:36:15.721624  8714 net.cpp:165] Memory required for data: 1412956192
I0306 19:36:15.721627  8714 layer_factory.hpp:77] Creating layer res4a_branch1
I0306 19:36:15.721635  8714 net.cpp:100] Creating Layer res4a_branch1
I0306 19:36:15.721639  8714 net.cpp:434] res4a_branch1 <- res3d_res3d_relu_0_split_0
I0306 19:36:15.721644  8714 net.cpp:408] res4a_branch1 -> res4a_branch1
I0306 19:36:15.723984  8714 net.cpp:150] Setting up res4a_branch1
I0306 19:36:15.723999  8714 net.cpp:157] Top shape: 8 1024 14 14 (1605632)
I0306 19:36:15.724002  8714 net.cpp:165] Memory required for data: 1419378720
I0306 19:36:15.724009  8714 layer_factory.hpp:77] Creating layer bn4a_branch1
I0306 19:36:15.724014  8714 net.cpp:100] Creating Layer bn4a_branch1
I0306 19:36:15.724021  8714 net.cpp:434] bn4a_branch1 <- res4a_branch1
I0306 19:36:15.724028  8714 net.cpp:395] bn4a_branch1 -> res4a_branch1 (in-place)
I0306 19:36:15.724331  8714 net.cpp:150] Setting up bn4a_branch1
I0306 19:36:15.724339  8714 net.cpp:157] Top shape: 8 1024 14 14 (1605632)
I0306 19:36:15.724342  8714 net.cpp:165] Memory required for data: 1425801248
I0306 19:36:15.724349  8714 layer_factory.hpp:77] Creating layer scale4a_branch1
I0306 19:36:15.724356  8714 net.cpp:100] Creating Layer scale4a_branch1
I0306 19:36:15.724360  8714 net.cpp:434] scale4a_branch1 <- res4a_branch1
I0306 19:36:15.724366  8714 net.cpp:395] scale4a_branch1 -> res4a_branch1 (in-place)
I0306 19:36:15.724421  8714 layer_factory.hpp:77] Creating layer scale4a_branch1
I0306 19:36:15.724587  8714 net.cpp:150] Setting up scale4a_branch1
I0306 19:36:15.724594  8714 net.cpp:157] Top shape: 8 1024 14 14 (1605632)
I0306 19:36:15.724597  8714 net.cpp:165] Memory required for data: 1432223776
I0306 19:36:15.724603  8714 layer_factory.hpp:77] Creating layer res4a_branch2a
I0306 19:36:15.724611  8714 net.cpp:100] Creating Layer res4a_branch2a
I0306 19:36:15.724615  8714 net.cpp:434] res4a_branch2a <- res3d_res3d_relu_0_split_1
I0306 19:36:15.724620  8714 net.cpp:408] res4a_branch2a -> res4a_branch2a
I0306 19:36:15.725914  8714 net.cpp:150] Setting up res4a_branch2a
I0306 19:36:15.725929  8714 net.cpp:157] Top shape: 8 256 14 14 (401408)
I0306 19:36:15.725931  8714 net.cpp:165] Memory required for data: 1433829408
I0306 19:36:15.725939  8714 layer_factory.hpp:77] Creating layer bn4a_branch2a
I0306 19:36:15.725945  8714 net.cpp:100] Creating Layer bn4a_branch2a
I0306 19:36:15.725950  8714 net.cpp:434] bn4a_branch2a <- res4a_branch2a
I0306 19:36:15.725955  8714 net.cpp:395] bn4a_branch2a -> res4a_branch2a (in-place)
I0306 19:36:15.726238  8714 net.cpp:150] Setting up bn4a_branch2a
I0306 19:36:15.726248  8714 net.cpp:157] Top shape: 8 256 14 14 (401408)
I0306 19:36:15.726250  8714 net.cpp:165] Memory required for data: 1435435040
I0306 19:36:15.726258  8714 layer_factory.hpp:77] Creating layer scale4a_branch2a
I0306 19:36:15.726263  8714 net.cpp:100] Creating Layer scale4a_branch2a
I0306 19:36:15.726267  8714 net.cpp:434] scale4a_branch2a <- res4a_branch2a
I0306 19:36:15.726274  8714 net.cpp:395] scale4a_branch2a -> res4a_branch2a (in-place)
I0306 19:36:15.726330  8714 layer_factory.hpp:77] Creating layer scale4a_branch2a
I0306 19:36:15.726488  8714 net.cpp:150] Setting up scale4a_branch2a
I0306 19:36:15.726495  8714 net.cpp:157] Top shape: 8 256 14 14 (401408)
I0306 19:36:15.726500  8714 net.cpp:165] Memory required for data: 1437040672
I0306 19:36:15.726505  8714 layer_factory.hpp:77] Creating layer res4a_branch2a_relu
I0306 19:36:15.726511  8714 net.cpp:100] Creating Layer res4a_branch2a_relu
I0306 19:36:15.726514  8714 net.cpp:434] res4a_branch2a_relu <- res4a_branch2a
I0306 19:36:15.726521  8714 net.cpp:395] res4a_branch2a_relu -> res4a_branch2a (in-place)
I0306 19:36:15.726685  8714 net.cpp:150] Setting up res4a_branch2a_relu
I0306 19:36:15.726692  8714 net.cpp:157] Top shape: 8 256 14 14 (401408)
I0306 19:36:15.726696  8714 net.cpp:165] Memory required for data: 1438646304
I0306 19:36:15.726699  8714 layer_factory.hpp:77] Creating layer res4a_branch2b
I0306 19:36:15.726707  8714 net.cpp:100] Creating Layer res4a_branch2b
I0306 19:36:15.726711  8714 net.cpp:434] res4a_branch2b <- res4a_branch2a
I0306 19:36:15.726716  8714 net.cpp:408] res4a_branch2b -> res4a_branch2b
I0306 19:36:15.729533  8714 net.cpp:150] Setting up res4a_branch2b
I0306 19:36:15.729547  8714 net.cpp:157] Top shape: 8 256 14 14 (401408)
I0306 19:36:15.729552  8714 net.cpp:165] Memory required for data: 1440251936
I0306 19:36:15.729557  8714 layer_factory.hpp:77] Creating layer bn4a_branch2b
I0306 19:36:15.729565  8714 net.cpp:100] Creating Layer bn4a_branch2b
I0306 19:36:15.729570  8714 net.cpp:434] bn4a_branch2b <- res4a_branch2b
I0306 19:36:15.729575  8714 net.cpp:395] bn4a_branch2b -> res4a_branch2b (in-place)
I0306 19:36:15.729871  8714 net.cpp:150] Setting up bn4a_branch2b
I0306 19:36:15.729878  8714 net.cpp:157] Top shape: 8 256 14 14 (401408)
I0306 19:36:15.729882  8714 net.cpp:165] Memory required for data: 1441857568
I0306 19:36:15.729888  8714 layer_factory.hpp:77] Creating layer scale4a_branch2b
I0306 19:36:15.729895  8714 net.cpp:100] Creating Layer scale4a_branch2b
I0306 19:36:15.729899  8714 net.cpp:434] scale4a_branch2b <- res4a_branch2b
I0306 19:36:15.729904  8714 net.cpp:395] scale4a_branch2b -> res4a_branch2b (in-place)
I0306 19:36:15.729961  8714 layer_factory.hpp:77] Creating layer scale4a_branch2b
I0306 19:36:15.730119  8714 net.cpp:150] Setting up scale4a_branch2b
I0306 19:36:15.730128  8714 net.cpp:157] Top shape: 8 256 14 14 (401408)
I0306 19:36:15.730130  8714 net.cpp:165] Memory required for data: 1443463200
I0306 19:36:15.730137  8714 layer_factory.hpp:77] Creating layer res4a_branch2b_relu
I0306 19:36:15.730144  8714 net.cpp:100] Creating Layer res4a_branch2b_relu
I0306 19:36:15.730146  8714 net.cpp:434] res4a_branch2b_relu <- res4a_branch2b
I0306 19:36:15.730151  8714 net.cpp:395] res4a_branch2b_relu -> res4a_branch2b (in-place)
I0306 19:36:15.730324  8714 net.cpp:150] Setting up res4a_branch2b_relu
I0306 19:36:15.730331  8714 net.cpp:157] Top shape: 8 256 14 14 (401408)
I0306 19:36:15.730335  8714 net.cpp:165] Memory required for data: 1445068832
I0306 19:36:15.730339  8714 layer_factory.hpp:77] Creating layer res4a_branch2c
I0306 19:36:15.730347  8714 net.cpp:100] Creating Layer res4a_branch2c
I0306 19:36:15.730351  8714 net.cpp:434] res4a_branch2c <- res4a_branch2b
I0306 19:36:15.730358  8714 net.cpp:408] res4a_branch2c -> res4a_branch2c
I0306 19:36:15.732564  8714 net.cpp:150] Setting up res4a_branch2c
I0306 19:36:15.732578  8714 net.cpp:157] Top shape: 8 1024 14 14 (1605632)
I0306 19:36:15.732581  8714 net.cpp:165] Memory required for data: 1451491360
I0306 19:36:15.732589  8714 layer_factory.hpp:77] Creating layer bn4a_branch2c
I0306 19:36:15.732595  8714 net.cpp:100] Creating Layer bn4a_branch2c
I0306 19:36:15.732600  8714 net.cpp:434] bn4a_branch2c <- res4a_branch2c
I0306 19:36:15.732606  8714 net.cpp:395] bn4a_branch2c -> res4a_branch2c (in-place)
I0306 19:36:15.732903  8714 net.cpp:150] Setting up bn4a_branch2c
I0306 19:36:15.732910  8714 net.cpp:157] Top shape: 8 1024 14 14 (1605632)
I0306 19:36:15.732914  8714 net.cpp:165] Memory required for data: 1457913888
I0306 19:36:15.732921  8714 layer_factory.hpp:77] Creating layer scale4a_branch2c
I0306 19:36:15.732928  8714 net.cpp:100] Creating Layer scale4a_branch2c
I0306 19:36:15.732931  8714 net.cpp:434] scale4a_branch2c <- res4a_branch2c
I0306 19:36:15.732944  8714 net.cpp:395] scale4a_branch2c -> res4a_branch2c (in-place)
I0306 19:36:15.733021  8714 layer_factory.hpp:77] Creating layer scale4a_branch2c
I0306 19:36:15.733201  8714 net.cpp:150] Setting up scale4a_branch2c
I0306 19:36:15.733209  8714 net.cpp:157] Top shape: 8 1024 14 14 (1605632)
I0306 19:36:15.733212  8714 net.cpp:165] Memory required for data: 1464336416
I0306 19:36:15.733219  8714 layer_factory.hpp:77] Creating layer res4a
I0306 19:36:15.733225  8714 net.cpp:100] Creating Layer res4a
I0306 19:36:15.733229  8714 net.cpp:434] res4a <- res4a_branch1
I0306 19:36:15.733233  8714 net.cpp:434] res4a <- res4a_branch2c
I0306 19:36:15.733239  8714 net.cpp:408] res4a -> res4a
I0306 19:36:15.733289  8714 net.cpp:150] Setting up res4a
I0306 19:36:15.733294  8714 net.cpp:157] Top shape: 8 1024 14 14 (1605632)
I0306 19:36:15.733297  8714 net.cpp:165] Memory required for data: 1470758944
I0306 19:36:15.733301  8714 layer_factory.hpp:77] Creating layer res4a_relu
I0306 19:36:15.733306  8714 net.cpp:100] Creating Layer res4a_relu
I0306 19:36:15.733309  8714 net.cpp:434] res4a_relu <- res4a
I0306 19:36:15.733315  8714 net.cpp:395] res4a_relu -> res4a (in-place)
I0306 19:36:15.733830  8714 net.cpp:150] Setting up res4a_relu
I0306 19:36:15.733844  8714 net.cpp:157] Top shape: 8 1024 14 14 (1605632)
I0306 19:36:15.733846  8714 net.cpp:165] Memory required for data: 1477181472
I0306 19:36:15.733850  8714 layer_factory.hpp:77] Creating layer res4a_res4a_relu_0_split
I0306 19:36:15.733875  8714 net.cpp:100] Creating Layer res4a_res4a_relu_0_split
I0306 19:36:15.733880  8714 net.cpp:434] res4a_res4a_relu_0_split <- res4a
I0306 19:36:15.733886  8714 net.cpp:408] res4a_res4a_relu_0_split -> res4a_res4a_relu_0_split_0
I0306 19:36:15.733893  8714 net.cpp:408] res4a_res4a_relu_0_split -> res4a_res4a_relu_0_split_1
I0306 19:36:15.733954  8714 net.cpp:150] Setting up res4a_res4a_relu_0_split
I0306 19:36:15.733963  8714 net.cpp:157] Top shape: 8 1024 14 14 (1605632)
I0306 19:36:15.733966  8714 net.cpp:157] Top shape: 8 1024 14 14 (1605632)
I0306 19:36:15.733969  8714 net.cpp:165] Memory required for data: 1490026528
I0306 19:36:15.733973  8714 layer_factory.hpp:77] Creating layer res4b_branch2a
I0306 19:36:15.733980  8714 net.cpp:100] Creating Layer res4b_branch2a
I0306 19:36:15.733984  8714 net.cpp:434] res4b_branch2a <- res4a_res4a_relu_0_split_0
I0306 19:36:15.733990  8714 net.cpp:408] res4b_branch2a -> res4b_branch2a
I0306 19:36:15.734913  8714 net.cpp:150] Setting up res4b_branch2a
I0306 19:36:15.734925  8714 net.cpp:157] Top shape: 8 256 14 14 (401408)
I0306 19:36:15.734927  8714 net.cpp:165] Memory required for data: 1491632160
I0306 19:36:15.734933  8714 layer_factory.hpp:77] Creating layer bn4b_branch2a
I0306 19:36:15.734939  8714 net.cpp:100] Creating Layer bn4b_branch2a
I0306 19:36:15.734943  8714 net.cpp:434] bn4b_branch2a <- res4b_branch2a
I0306 19:36:15.734949  8714 net.cpp:395] bn4b_branch2a -> res4b_branch2a (in-place)
I0306 19:36:15.735235  8714 net.cpp:150] Setting up bn4b_branch2a
I0306 19:36:15.735242  8714 net.cpp:157] Top shape: 8 256 14 14 (401408)
I0306 19:36:15.735246  8714 net.cpp:165] Memory required for data: 1493237792
I0306 19:36:15.735254  8714 layer_factory.hpp:77] Creating layer scale4b_branch2a
I0306 19:36:15.735260  8714 net.cpp:100] Creating Layer scale4b_branch2a
I0306 19:36:15.735265  8714 net.cpp:434] scale4b_branch2a <- res4b_branch2a
I0306 19:36:15.735270  8714 net.cpp:395] scale4b_branch2a -> res4b_branch2a (in-place)
I0306 19:36:15.735325  8714 layer_factory.hpp:77] Creating layer scale4b_branch2a
I0306 19:36:15.735481  8714 net.cpp:150] Setting up scale4b_branch2a
I0306 19:36:15.735487  8714 net.cpp:157] Top shape: 8 256 14 14 (401408)
I0306 19:36:15.735491  8714 net.cpp:165] Memory required for data: 1494843424
I0306 19:36:15.735497  8714 layer_factory.hpp:77] Creating layer res4b_branch2a_relu
I0306 19:36:15.735504  8714 net.cpp:100] Creating Layer res4b_branch2a_relu
I0306 19:36:15.735508  8714 net.cpp:434] res4b_branch2a_relu <- res4b_branch2a
I0306 19:36:15.735513  8714 net.cpp:395] res4b_branch2a_relu -> res4b_branch2a (in-place)
I0306 19:36:15.736012  8714 net.cpp:150] Setting up res4b_branch2a_relu
I0306 19:36:15.736026  8714 net.cpp:157] Top shape: 8 256 14 14 (401408)
I0306 19:36:15.736028  8714 net.cpp:165] Memory required for data: 1496449056
I0306 19:36:15.736032  8714 layer_factory.hpp:77] Creating layer res4b_branch2b
I0306 19:36:15.736042  8714 net.cpp:100] Creating Layer res4b_branch2b
I0306 19:36:15.736045  8714 net.cpp:434] res4b_branch2b <- res4b_branch2a
I0306 19:36:15.736052  8714 net.cpp:408] res4b_branch2b -> res4b_branch2b
I0306 19:36:15.738993  8714 net.cpp:150] Setting up res4b_branch2b
I0306 19:36:15.739008  8714 net.cpp:157] Top shape: 8 256 14 14 (401408)
I0306 19:36:15.739012  8714 net.cpp:165] Memory required for data: 1498054688
I0306 19:36:15.739018  8714 layer_factory.hpp:77] Creating layer bn4b_branch2b
I0306 19:36:15.739027  8714 net.cpp:100] Creating Layer bn4b_branch2b
I0306 19:36:15.739030  8714 net.cpp:434] bn4b_branch2b <- res4b_branch2b
I0306 19:36:15.739037  8714 net.cpp:395] bn4b_branch2b -> res4b_branch2b (in-place)
I0306 19:36:15.739361  8714 net.cpp:150] Setting up bn4b_branch2b
I0306 19:36:15.739370  8714 net.cpp:157] Top shape: 8 256 14 14 (401408)
I0306 19:36:15.739374  8714 net.cpp:165] Memory required for data: 1499660320
I0306 19:36:15.739382  8714 layer_factory.hpp:77] Creating layer scale4b_branch2b
I0306 19:36:15.739387  8714 net.cpp:100] Creating Layer scale4b_branch2b
I0306 19:36:15.739397  8714 net.cpp:434] scale4b_branch2b <- res4b_branch2b
I0306 19:36:15.739403  8714 net.cpp:395] scale4b_branch2b -> res4b_branch2b (in-place)
I0306 19:36:15.739465  8714 layer_factory.hpp:77] Creating layer scale4b_branch2b
I0306 19:36:15.739641  8714 net.cpp:150] Setting up scale4b_branch2b
I0306 19:36:15.739648  8714 net.cpp:157] Top shape: 8 256 14 14 (401408)
I0306 19:36:15.739651  8714 net.cpp:165] Memory required for data: 1501265952
I0306 19:36:15.739658  8714 layer_factory.hpp:77] Creating layer res4b_branch2b_relu
I0306 19:36:15.739663  8714 net.cpp:100] Creating Layer res4b_branch2b_relu
I0306 19:36:15.739667  8714 net.cpp:434] res4b_branch2b_relu <- res4b_branch2b
I0306 19:36:15.739673  8714 net.cpp:395] res4b_branch2b_relu -> res4b_branch2b (in-place)
I0306 19:36:15.739847  8714 net.cpp:150] Setting up res4b_branch2b_relu
I0306 19:36:15.739856  8714 net.cpp:157] Top shape: 8 256 14 14 (401408)
I0306 19:36:15.739859  8714 net.cpp:165] Memory required for data: 1502871584
I0306 19:36:15.739863  8714 layer_factory.hpp:77] Creating layer res4b_branch2c
I0306 19:36:15.739871  8714 net.cpp:100] Creating Layer res4b_branch2c
I0306 19:36:15.739876  8714 net.cpp:434] res4b_branch2c <- res4b_branch2b
I0306 19:36:15.739881  8714 net.cpp:408] res4b_branch2c -> res4b_branch2c
I0306 19:36:15.742184  8714 net.cpp:150] Setting up res4b_branch2c
I0306 19:36:15.742200  8714 net.cpp:157] Top shape: 8 1024 14 14 (1605632)
I0306 19:36:15.742204  8714 net.cpp:165] Memory required for data: 1509294112
I0306 19:36:15.742211  8714 layer_factory.hpp:77] Creating layer bn4b_branch2c
I0306 19:36:15.742218  8714 net.cpp:100] Creating Layer bn4b_branch2c
I0306 19:36:15.742223  8714 net.cpp:434] bn4b_branch2c <- res4b_branch2c
I0306 19:36:15.742228  8714 net.cpp:395] bn4b_branch2c -> res4b_branch2c (in-place)
I0306 19:36:15.742535  8714 net.cpp:150] Setting up bn4b_branch2c
I0306 19:36:15.742543  8714 net.cpp:157] Top shape: 8 1024 14 14 (1605632)
I0306 19:36:15.742547  8714 net.cpp:165] Memory required for data: 1515716640
I0306 19:36:15.742553  8714 layer_factory.hpp:77] Creating layer scale4b_branch2c
I0306 19:36:15.742559  8714 net.cpp:100] Creating Layer scale4b_branch2c
I0306 19:36:15.742563  8714 net.cpp:434] scale4b_branch2c <- res4b_branch2c
I0306 19:36:15.742569  8714 net.cpp:395] scale4b_branch2c -> res4b_branch2c (in-place)
I0306 19:36:15.742626  8714 layer_factory.hpp:77] Creating layer scale4b_branch2c
I0306 19:36:15.742805  8714 net.cpp:150] Setting up scale4b_branch2c
I0306 19:36:15.742813  8714 net.cpp:157] Top shape: 8 1024 14 14 (1605632)
I0306 19:36:15.742816  8714 net.cpp:165] Memory required for data: 1522139168
I0306 19:36:15.742823  8714 layer_factory.hpp:77] Creating layer res4b
I0306 19:36:15.742828  8714 net.cpp:100] Creating Layer res4b
I0306 19:36:15.742832  8714 net.cpp:434] res4b <- res4a_res4a_relu_0_split_1
I0306 19:36:15.742836  8714 net.cpp:434] res4b <- res4b_branch2c
I0306 19:36:15.742841  8714 net.cpp:408] res4b -> res4b
I0306 19:36:15.742875  8714 net.cpp:150] Setting up res4b
I0306 19:36:15.742882  8714 net.cpp:157] Top shape: 8 1024 14 14 (1605632)
I0306 19:36:15.742885  8714 net.cpp:165] Memory required for data: 1528561696
I0306 19:36:15.742888  8714 layer_factory.hpp:77] Creating layer res4b_relu
I0306 19:36:15.742893  8714 net.cpp:100] Creating Layer res4b_relu
I0306 19:36:15.742897  8714 net.cpp:434] res4b_relu <- res4b
I0306 19:36:15.742902  8714 net.cpp:395] res4b_relu -> res4b (in-place)
I0306 19:36:15.743068  8714 net.cpp:150] Setting up res4b_relu
I0306 19:36:15.743078  8714 net.cpp:157] Top shape: 8 1024 14 14 (1605632)
I0306 19:36:15.743082  8714 net.cpp:165] Memory required for data: 1534984224
I0306 19:36:15.743084  8714 layer_factory.hpp:77] Creating layer res4b_res4b_relu_0_split
I0306 19:36:15.743090  8714 net.cpp:100] Creating Layer res4b_res4b_relu_0_split
I0306 19:36:15.743094  8714 net.cpp:434] res4b_res4b_relu_0_split <- res4b
I0306 19:36:15.743099  8714 net.cpp:408] res4b_res4b_relu_0_split -> res4b_res4b_relu_0_split_0
I0306 19:36:15.743111  8714 net.cpp:408] res4b_res4b_relu_0_split -> res4b_res4b_relu_0_split_1
I0306 19:36:15.743177  8714 net.cpp:150] Setting up res4b_res4b_relu_0_split
I0306 19:36:15.743185  8714 net.cpp:157] Top shape: 8 1024 14 14 (1605632)
I0306 19:36:15.743191  8714 net.cpp:157] Top shape: 8 1024 14 14 (1605632)
I0306 19:36:15.743192  8714 net.cpp:165] Memory required for data: 1547829280
I0306 19:36:15.743196  8714 layer_factory.hpp:77] Creating layer res4c_branch2a
I0306 19:36:15.743203  8714 net.cpp:100] Creating Layer res4c_branch2a
I0306 19:36:15.743206  8714 net.cpp:434] res4c_branch2a <- res4b_res4b_relu_0_split_0
I0306 19:36:15.743213  8714 net.cpp:408] res4c_branch2a -> res4c_branch2a
I0306 19:36:15.744536  8714 net.cpp:150] Setting up res4c_branch2a
I0306 19:36:15.744550  8714 net.cpp:157] Top shape: 8 256 14 14 (401408)
I0306 19:36:15.744554  8714 net.cpp:165] Memory required for data: 1549434912
I0306 19:36:15.744560  8714 layer_factory.hpp:77] Creating layer bn4c_branch2a
I0306 19:36:15.744568  8714 net.cpp:100] Creating Layer bn4c_branch2a
I0306 19:36:15.744573  8714 net.cpp:434] bn4c_branch2a <- res4c_branch2a
I0306 19:36:15.744578  8714 net.cpp:395] bn4c_branch2a -> res4c_branch2a (in-place)
I0306 19:36:15.744889  8714 net.cpp:150] Setting up bn4c_branch2a
I0306 19:36:15.744896  8714 net.cpp:157] Top shape: 8 256 14 14 (401408)
I0306 19:36:15.744900  8714 net.cpp:165] Memory required for data: 1551040544
I0306 19:36:15.744906  8714 layer_factory.hpp:77] Creating layer scale4c_branch2a
I0306 19:36:15.744915  8714 net.cpp:100] Creating Layer scale4c_branch2a
I0306 19:36:15.744917  8714 net.cpp:434] scale4c_branch2a <- res4c_branch2a
I0306 19:36:15.744922  8714 net.cpp:395] scale4c_branch2a -> res4c_branch2a (in-place)
I0306 19:36:15.745010  8714 layer_factory.hpp:77] Creating layer scale4c_branch2a
I0306 19:36:15.745182  8714 net.cpp:150] Setting up scale4c_branch2a
I0306 19:36:15.745189  8714 net.cpp:157] Top shape: 8 256 14 14 (401408)
I0306 19:36:15.745193  8714 net.cpp:165] Memory required for data: 1552646176
I0306 19:36:15.745200  8714 layer_factory.hpp:77] Creating layer res4c_branch2a_relu
I0306 19:36:15.745208  8714 net.cpp:100] Creating Layer res4c_branch2a_relu
I0306 19:36:15.745211  8714 net.cpp:434] res4c_branch2a_relu <- res4c_branch2a
I0306 19:36:15.745216  8714 net.cpp:395] res4c_branch2a_relu -> res4c_branch2a (in-place)
I0306 19:36:15.745402  8714 net.cpp:150] Setting up res4c_branch2a_relu
I0306 19:36:15.745410  8714 net.cpp:157] Top shape: 8 256 14 14 (401408)
I0306 19:36:15.745414  8714 net.cpp:165] Memory required for data: 1554251808
I0306 19:36:15.745417  8714 layer_factory.hpp:77] Creating layer res4c_branch2b
I0306 19:36:15.745425  8714 net.cpp:100] Creating Layer res4c_branch2b
I0306 19:36:15.745429  8714 net.cpp:434] res4c_branch2b <- res4c_branch2a
I0306 19:36:15.745435  8714 net.cpp:408] res4c_branch2b -> res4c_branch2b
I0306 19:36:15.748539  8714 net.cpp:150] Setting up res4c_branch2b
I0306 19:36:15.748553  8714 net.cpp:157] Top shape: 8 256 14 14 (401408)
I0306 19:36:15.748558  8714 net.cpp:165] Memory required for data: 1555857440
I0306 19:36:15.748565  8714 layer_factory.hpp:77] Creating layer bn4c_branch2b
I0306 19:36:15.748571  8714 net.cpp:100] Creating Layer bn4c_branch2b
I0306 19:36:15.748575  8714 net.cpp:434] bn4c_branch2b <- res4c_branch2b
I0306 19:36:15.748581  8714 net.cpp:395] bn4c_branch2b -> res4c_branch2b (in-place)
I0306 19:36:15.748888  8714 net.cpp:150] Setting up bn4c_branch2b
I0306 19:36:15.748894  8714 net.cpp:157] Top shape: 8 256 14 14 (401408)
I0306 19:36:15.748898  8714 net.cpp:165] Memory required for data: 1557463072
I0306 19:36:15.748904  8714 layer_factory.hpp:77] Creating layer scale4c_branch2b
I0306 19:36:15.748913  8714 net.cpp:100] Creating Layer scale4c_branch2b
I0306 19:36:15.748916  8714 net.cpp:434] scale4c_branch2b <- res4c_branch2b
I0306 19:36:15.748922  8714 net.cpp:395] scale4c_branch2b -> res4c_branch2b (in-place)
I0306 19:36:15.749009  8714 layer_factory.hpp:77] Creating layer scale4c_branch2b
I0306 19:36:15.749186  8714 net.cpp:150] Setting up scale4c_branch2b
I0306 19:36:15.749197  8714 net.cpp:157] Top shape: 8 256 14 14 (401408)
I0306 19:36:15.749202  8714 net.cpp:165] Memory required for data: 1559068704
I0306 19:36:15.749208  8714 layer_factory.hpp:77] Creating layer res4c_branch2b_relu
I0306 19:36:15.749214  8714 net.cpp:100] Creating Layer res4c_branch2b_relu
I0306 19:36:15.749218  8714 net.cpp:434] res4c_branch2b_relu <- res4c_branch2b
I0306 19:36:15.749223  8714 net.cpp:395] res4c_branch2b_relu -> res4c_branch2b (in-place)
I0306 19:36:15.749414  8714 net.cpp:150] Setting up res4c_branch2b_relu
I0306 19:36:15.749423  8714 net.cpp:157] Top shape: 8 256 14 14 (401408)
I0306 19:36:15.749426  8714 net.cpp:165] Memory required for data: 1560674336
I0306 19:36:15.749429  8714 layer_factory.hpp:77] Creating layer res4c_branch2c
I0306 19:36:15.749438  8714 net.cpp:100] Creating Layer res4c_branch2c
I0306 19:36:15.749441  8714 net.cpp:434] res4c_branch2c <- res4c_branch2b
I0306 19:36:15.749447  8714 net.cpp:408] res4c_branch2c -> res4c_branch2c
I0306 19:36:15.751672  8714 net.cpp:150] Setting up res4c_branch2c
I0306 19:36:15.751687  8714 net.cpp:157] Top shape: 8 1024 14 14 (1605632)
I0306 19:36:15.751690  8714 net.cpp:165] Memory required for data: 1567096864
I0306 19:36:15.751698  8714 layer_factory.hpp:77] Creating layer bn4c_branch2c
I0306 19:36:15.751703  8714 net.cpp:100] Creating Layer bn4c_branch2c
I0306 19:36:15.751708  8714 net.cpp:434] bn4c_branch2c <- res4c_branch2c
I0306 19:36:15.751713  8714 net.cpp:395] bn4c_branch2c -> res4c_branch2c (in-place)
I0306 19:36:15.752023  8714 net.cpp:150] Setting up bn4c_branch2c
I0306 19:36:15.752032  8714 net.cpp:157] Top shape: 8 1024 14 14 (1605632)
I0306 19:36:15.752034  8714 net.cpp:165] Memory required for data: 1573519392
I0306 19:36:15.752041  8714 layer_factory.hpp:77] Creating layer scale4c_branch2c
I0306 19:36:15.752048  8714 net.cpp:100] Creating Layer scale4c_branch2c
I0306 19:36:15.752053  8714 net.cpp:434] scale4c_branch2c <- res4c_branch2c
I0306 19:36:15.752058  8714 net.cpp:395] scale4c_branch2c -> res4c_branch2c (in-place)
I0306 19:36:15.752116  8714 layer_factory.hpp:77] Creating layer scale4c_branch2c
I0306 19:36:15.752288  8714 net.cpp:150] Setting up scale4c_branch2c
I0306 19:36:15.752295  8714 net.cpp:157] Top shape: 8 1024 14 14 (1605632)
I0306 19:36:15.752300  8714 net.cpp:165] Memory required for data: 1579941920
I0306 19:36:15.752305  8714 layer_factory.hpp:77] Creating layer res4c
I0306 19:36:15.752311  8714 net.cpp:100] Creating Layer res4c
I0306 19:36:15.752315  8714 net.cpp:434] res4c <- res4b_res4b_relu_0_split_1
I0306 19:36:15.752319  8714 net.cpp:434] res4c <- res4c_branch2c
I0306 19:36:15.752323  8714 net.cpp:408] res4c -> res4c
I0306 19:36:15.752359  8714 net.cpp:150] Setting up res4c
I0306 19:36:15.752365  8714 net.cpp:157] Top shape: 8 1024 14 14 (1605632)
I0306 19:36:15.752368  8714 net.cpp:165] Memory required for data: 1586364448
I0306 19:36:15.752372  8714 layer_factory.hpp:77] Creating layer res4c_relu
I0306 19:36:15.752377  8714 net.cpp:100] Creating Layer res4c_relu
I0306 19:36:15.752380  8714 net.cpp:434] res4c_relu <- res4c
I0306 19:36:15.752385  8714 net.cpp:395] res4c_relu -> res4c (in-place)
I0306 19:36:15.752898  8714 net.cpp:150] Setting up res4c_relu
I0306 19:36:15.752912  8714 net.cpp:157] Top shape: 8 1024 14 14 (1605632)
I0306 19:36:15.752915  8714 net.cpp:165] Memory required for data: 1592786976
I0306 19:36:15.752919  8714 layer_factory.hpp:77] Creating layer res4c_res4c_relu_0_split
I0306 19:36:15.752925  8714 net.cpp:100] Creating Layer res4c_res4c_relu_0_split
I0306 19:36:15.752929  8714 net.cpp:434] res4c_res4c_relu_0_split <- res4c
I0306 19:36:15.752934  8714 net.cpp:408] res4c_res4c_relu_0_split -> res4c_res4c_relu_0_split_0
I0306 19:36:15.752970  8714 net.cpp:408] res4c_res4c_relu_0_split -> res4c_res4c_relu_0_split_1
I0306 19:36:15.753041  8714 net.cpp:150] Setting up res4c_res4c_relu_0_split
I0306 19:36:15.753049  8714 net.cpp:157] Top shape: 8 1024 14 14 (1605632)
I0306 19:36:15.753053  8714 net.cpp:157] Top shape: 8 1024 14 14 (1605632)
I0306 19:36:15.753060  8714 net.cpp:165] Memory required for data: 1605632032
I0306 19:36:15.753064  8714 layer_factory.hpp:77] Creating layer res4d_branch2a
I0306 19:36:15.753073  8714 net.cpp:100] Creating Layer res4d_branch2a
I0306 19:36:15.753077  8714 net.cpp:434] res4d_branch2a <- res4c_res4c_relu_0_split_0
I0306 19:36:15.753083  8714 net.cpp:408] res4d_branch2a -> res4d_branch2a
I0306 19:36:15.754060  8714 net.cpp:150] Setting up res4d_branch2a
I0306 19:36:15.754070  8714 net.cpp:157] Top shape: 8 256 14 14 (401408)
I0306 19:36:15.754075  8714 net.cpp:165] Memory required for data: 1607237664
I0306 19:36:15.754081  8714 layer_factory.hpp:77] Creating layer bn4d_branch2a
I0306 19:36:15.754087  8714 net.cpp:100] Creating Layer bn4d_branch2a
I0306 19:36:15.754091  8714 net.cpp:434] bn4d_branch2a <- res4d_branch2a
I0306 19:36:15.754097  8714 net.cpp:395] bn4d_branch2a -> res4d_branch2a (in-place)
I0306 19:36:15.754387  8714 net.cpp:150] Setting up bn4d_branch2a
I0306 19:36:15.754395  8714 net.cpp:157] Top shape: 8 256 14 14 (401408)
I0306 19:36:15.754397  8714 net.cpp:165] Memory required for data: 1608843296
I0306 19:36:15.754405  8714 layer_factory.hpp:77] Creating layer scale4d_branch2a
I0306 19:36:15.754411  8714 net.cpp:100] Creating Layer scale4d_branch2a
I0306 19:36:15.754415  8714 net.cpp:434] scale4d_branch2a <- res4d_branch2a
I0306 19:36:15.754421  8714 net.cpp:395] scale4d_branch2a -> res4d_branch2a (in-place)
I0306 19:36:15.754480  8714 layer_factory.hpp:77] Creating layer scale4d_branch2a
I0306 19:36:15.754645  8714 net.cpp:150] Setting up scale4d_branch2a
I0306 19:36:15.754652  8714 net.cpp:157] Top shape: 8 256 14 14 (401408)
I0306 19:36:15.754655  8714 net.cpp:165] Memory required for data: 1610448928
I0306 19:36:15.754662  8714 layer_factory.hpp:77] Creating layer res4d_branch2a_relu
I0306 19:36:15.754667  8714 net.cpp:100] Creating Layer res4d_branch2a_relu
I0306 19:36:15.754670  8714 net.cpp:434] res4d_branch2a_relu <- res4d_branch2a
I0306 19:36:15.754676  8714 net.cpp:395] res4d_branch2a_relu -> res4d_branch2a (in-place)
I0306 19:36:15.755188  8714 net.cpp:150] Setting up res4d_branch2a_relu
I0306 19:36:15.755203  8714 net.cpp:157] Top shape: 8 256 14 14 (401408)
I0306 19:36:15.755206  8714 net.cpp:165] Memory required for data: 1612054560
I0306 19:36:15.755225  8714 layer_factory.hpp:77] Creating layer res4d_branch2b
I0306 19:36:15.755235  8714 net.cpp:100] Creating Layer res4d_branch2b
I0306 19:36:15.755239  8714 net.cpp:434] res4d_branch2b <- res4d_branch2a
I0306 19:36:15.755245  8714 net.cpp:408] res4d_branch2b -> res4d_branch2b
I0306 19:36:15.758172  8714 net.cpp:150] Setting up res4d_branch2b
I0306 19:36:15.758188  8714 net.cpp:157] Top shape: 8 256 14 14 (401408)
I0306 19:36:15.758191  8714 net.cpp:165] Memory required for data: 1613660192
I0306 19:36:15.758198  8714 layer_factory.hpp:77] Creating layer bn4d_branch2b
I0306 19:36:15.758206  8714 net.cpp:100] Creating Layer bn4d_branch2b
I0306 19:36:15.758210  8714 net.cpp:434] bn4d_branch2b <- res4d_branch2b
I0306 19:36:15.758215  8714 net.cpp:395] bn4d_branch2b -> res4d_branch2b (in-place)
I0306 19:36:15.758529  8714 net.cpp:150] Setting up bn4d_branch2b
I0306 19:36:15.758538  8714 net.cpp:157] Top shape: 8 256 14 14 (401408)
I0306 19:36:15.758540  8714 net.cpp:165] Memory required for data: 1615265824
I0306 19:36:15.758546  8714 layer_factory.hpp:77] Creating layer scale4d_branch2b
I0306 19:36:15.758553  8714 net.cpp:100] Creating Layer scale4d_branch2b
I0306 19:36:15.758556  8714 net.cpp:434] scale4d_branch2b <- res4d_branch2b
I0306 19:36:15.758563  8714 net.cpp:395] scale4d_branch2b -> res4d_branch2b (in-place)
I0306 19:36:15.758625  8714 layer_factory.hpp:77] Creating layer scale4d_branch2b
I0306 19:36:15.758790  8714 net.cpp:150] Setting up scale4d_branch2b
I0306 19:36:15.758797  8714 net.cpp:157] Top shape: 8 256 14 14 (401408)
I0306 19:36:15.758800  8714 net.cpp:165] Memory required for data: 1616871456
I0306 19:36:15.758807  8714 layer_factory.hpp:77] Creating layer res4d_branch2b_relu
I0306 19:36:15.758815  8714 net.cpp:100] Creating Layer res4d_branch2b_relu
I0306 19:36:15.758823  8714 net.cpp:434] res4d_branch2b_relu <- res4d_branch2b
I0306 19:36:15.758828  8714 net.cpp:395] res4d_branch2b_relu -> res4d_branch2b (in-place)
I0306 19:36:15.759006  8714 net.cpp:150] Setting up res4d_branch2b_relu
I0306 19:36:15.759014  8714 net.cpp:157] Top shape: 8 256 14 14 (401408)
I0306 19:36:15.759018  8714 net.cpp:165] Memory required for data: 1618477088
I0306 19:36:15.759021  8714 layer_factory.hpp:77] Creating layer res4d_branch2c
I0306 19:36:15.759029  8714 net.cpp:100] Creating Layer res4d_branch2c
I0306 19:36:15.759033  8714 net.cpp:434] res4d_branch2c <- res4d_branch2b
I0306 19:36:15.759040  8714 net.cpp:408] res4d_branch2c -> res4d_branch2c
I0306 19:36:15.761400  8714 net.cpp:150] Setting up res4d_branch2c
I0306 19:36:15.761415  8714 net.cpp:157] Top shape: 8 1024 14 14 (1605632)
I0306 19:36:15.761418  8714 net.cpp:165] Memory required for data: 1624899616
I0306 19:36:15.761425  8714 layer_factory.hpp:77] Creating layer bn4d_branch2c
I0306 19:36:15.761435  8714 net.cpp:100] Creating Layer bn4d_branch2c
I0306 19:36:15.761438  8714 net.cpp:434] bn4d_branch2c <- res4d_branch2c
I0306 19:36:15.761443  8714 net.cpp:395] bn4d_branch2c -> res4d_branch2c (in-place)
I0306 19:36:15.761759  8714 net.cpp:150] Setting up bn4d_branch2c
I0306 19:36:15.761767  8714 net.cpp:157] Top shape: 8 1024 14 14 (1605632)
I0306 19:36:15.761770  8714 net.cpp:165] Memory required for data: 1631322144
I0306 19:36:15.761777  8714 layer_factory.hpp:77] Creating layer scale4d_branch2c
I0306 19:36:15.761785  8714 net.cpp:100] Creating Layer scale4d_branch2c
I0306 19:36:15.761788  8714 net.cpp:434] scale4d_branch2c <- res4d_branch2c
I0306 19:36:15.761795  8714 net.cpp:395] scale4d_branch2c -> res4d_branch2c (in-place)
I0306 19:36:15.761852  8714 layer_factory.hpp:77] Creating layer scale4d_branch2c
I0306 19:36:15.762032  8714 net.cpp:150] Setting up scale4d_branch2c
I0306 19:36:15.762038  8714 net.cpp:157] Top shape: 8 1024 14 14 (1605632)
I0306 19:36:15.762042  8714 net.cpp:165] Memory required for data: 1637744672
I0306 19:36:15.762048  8714 layer_factory.hpp:77] Creating layer res4d
I0306 19:36:15.762055  8714 net.cpp:100] Creating Layer res4d
I0306 19:36:15.762059  8714 net.cpp:434] res4d <- res4c_res4c_relu_0_split_1
I0306 19:36:15.762064  8714 net.cpp:434] res4d <- res4d_branch2c
I0306 19:36:15.762068  8714 net.cpp:408] res4d -> res4d
I0306 19:36:15.762104  8714 net.cpp:150] Setting up res4d
I0306 19:36:15.762110  8714 net.cpp:157] Top shape: 8 1024 14 14 (1605632)
I0306 19:36:15.762114  8714 net.cpp:165] Memory required for data: 1644167200
I0306 19:36:15.762116  8714 layer_factory.hpp:77] Creating layer res4d_relu
I0306 19:36:15.762121  8714 net.cpp:100] Creating Layer res4d_relu
I0306 19:36:15.762125  8714 net.cpp:434] res4d_relu <- res4d
I0306 19:36:15.762131  8714 net.cpp:395] res4d_relu -> res4d (in-place)
I0306 19:36:15.762301  8714 net.cpp:150] Setting up res4d_relu
I0306 19:36:15.762310  8714 net.cpp:157] Top shape: 8 1024 14 14 (1605632)
I0306 19:36:15.762312  8714 net.cpp:165] Memory required for data: 1650589728
I0306 19:36:15.762316  8714 layer_factory.hpp:77] Creating layer res4d_res4d_relu_0_split
I0306 19:36:15.762321  8714 net.cpp:100] Creating Layer res4d_res4d_relu_0_split
I0306 19:36:15.762326  8714 net.cpp:434] res4d_res4d_relu_0_split <- res4d
I0306 19:36:15.762332  8714 net.cpp:408] res4d_res4d_relu_0_split -> res4d_res4d_relu_0_split_0
I0306 19:36:15.762338  8714 net.cpp:408] res4d_res4d_relu_0_split -> res4d_res4d_relu_0_split_1
I0306 19:36:15.762400  8714 net.cpp:150] Setting up res4d_res4d_relu_0_split
I0306 19:36:15.762406  8714 net.cpp:157] Top shape: 8 1024 14 14 (1605632)
I0306 19:36:15.762410  8714 net.cpp:157] Top shape: 8 1024 14 14 (1605632)
I0306 19:36:15.762413  8714 net.cpp:165] Memory required for data: 1663434784
I0306 19:36:15.762416  8714 layer_factory.hpp:77] Creating layer res4e_branch2a
I0306 19:36:15.762424  8714 net.cpp:100] Creating Layer res4e_branch2a
I0306 19:36:15.762428  8714 net.cpp:434] res4e_branch2a <- res4d_res4d_relu_0_split_0
I0306 19:36:15.762439  8714 net.cpp:408] res4e_branch2a -> res4e_branch2a
I0306 19:36:15.763744  8714 net.cpp:150] Setting up res4e_branch2a
I0306 19:36:15.763759  8714 net.cpp:157] Top shape: 8 256 14 14 (401408)
I0306 19:36:15.763763  8714 net.cpp:165] Memory required for data: 1665040416
I0306 19:36:15.763769  8714 layer_factory.hpp:77] Creating layer bn4e_branch2a
I0306 19:36:15.763775  8714 net.cpp:100] Creating Layer bn4e_branch2a
I0306 19:36:15.763779  8714 net.cpp:434] bn4e_branch2a <- res4e_branch2a
I0306 19:36:15.763787  8714 net.cpp:395] bn4e_branch2a -> res4e_branch2a (in-place)
I0306 19:36:15.764094  8714 net.cpp:150] Setting up bn4e_branch2a
I0306 19:36:15.764103  8714 net.cpp:157] Top shape: 8 256 14 14 (401408)
I0306 19:36:15.764106  8714 net.cpp:165] Memory required for data: 1666646048
I0306 19:36:15.764113  8714 layer_factory.hpp:77] Creating layer scale4e_branch2a
I0306 19:36:15.764119  8714 net.cpp:100] Creating Layer scale4e_branch2a
I0306 19:36:15.764123  8714 net.cpp:434] scale4e_branch2a <- res4e_branch2a
I0306 19:36:15.764129  8714 net.cpp:395] scale4e_branch2a -> res4e_branch2a (in-place)
I0306 19:36:15.764192  8714 layer_factory.hpp:77] Creating layer scale4e_branch2a
I0306 19:36:15.764367  8714 net.cpp:150] Setting up scale4e_branch2a
I0306 19:36:15.764375  8714 net.cpp:157] Top shape: 8 256 14 14 (401408)
I0306 19:36:15.764379  8714 net.cpp:165] Memory required for data: 1668251680
I0306 19:36:15.764385  8714 layer_factory.hpp:77] Creating layer res4e_branch2a_relu
I0306 19:36:15.764392  8714 net.cpp:100] Creating Layer res4e_branch2a_relu
I0306 19:36:15.764396  8714 net.cpp:434] res4e_branch2a_relu <- res4e_branch2a
I0306 19:36:15.764401  8714 net.cpp:395] res4e_branch2a_relu -> res4e_branch2a (in-place)
I0306 19:36:15.764571  8714 net.cpp:150] Setting up res4e_branch2a_relu
I0306 19:36:15.764580  8714 net.cpp:157] Top shape: 8 256 14 14 (401408)
I0306 19:36:15.764582  8714 net.cpp:165] Memory required for data: 1669857312
I0306 19:36:15.764586  8714 layer_factory.hpp:77] Creating layer res4e_branch2b
I0306 19:36:15.764595  8714 net.cpp:100] Creating Layer res4e_branch2b
I0306 19:36:15.764598  8714 net.cpp:434] res4e_branch2b <- res4e_branch2a
I0306 19:36:15.764605  8714 net.cpp:408] res4e_branch2b -> res4e_branch2b
I0306 19:36:15.767560  8714 net.cpp:150] Setting up res4e_branch2b
I0306 19:36:15.767575  8714 net.cpp:157] Top shape: 8 256 14 14 (401408)
I0306 19:36:15.767578  8714 net.cpp:165] Memory required for data: 1671462944
I0306 19:36:15.767585  8714 layer_factory.hpp:77] Creating layer bn4e_branch2b
I0306 19:36:15.767592  8714 net.cpp:100] Creating Layer bn4e_branch2b
I0306 19:36:15.767596  8714 net.cpp:434] bn4e_branch2b <- res4e_branch2b
I0306 19:36:15.767601  8714 net.cpp:395] bn4e_branch2b -> res4e_branch2b (in-place)
I0306 19:36:15.767920  8714 net.cpp:150] Setting up bn4e_branch2b
I0306 19:36:15.767927  8714 net.cpp:157] Top shape: 8 256 14 14 (401408)
I0306 19:36:15.767930  8714 net.cpp:165] Memory required for data: 1673068576
I0306 19:36:15.767937  8714 layer_factory.hpp:77] Creating layer scale4e_branch2b
I0306 19:36:15.767944  8714 net.cpp:100] Creating Layer scale4e_branch2b
I0306 19:36:15.767948  8714 net.cpp:434] scale4e_branch2b <- res4e_branch2b
I0306 19:36:15.767956  8714 net.cpp:395] scale4e_branch2b -> res4e_branch2b (in-place)
I0306 19:36:15.768018  8714 layer_factory.hpp:77] Creating layer scale4e_branch2b
I0306 19:36:15.768184  8714 net.cpp:150] Setting up scale4e_branch2b
I0306 19:36:15.768191  8714 net.cpp:157] Top shape: 8 256 14 14 (401408)
I0306 19:36:15.768194  8714 net.cpp:165] Memory required for data: 1674674208
I0306 19:36:15.768201  8714 layer_factory.hpp:77] Creating layer res4e_branch2b_relu
I0306 19:36:15.768208  8714 net.cpp:100] Creating Layer res4e_branch2b_relu
I0306 19:36:15.768213  8714 net.cpp:434] res4e_branch2b_relu <- res4e_branch2b
I0306 19:36:15.768216  8714 net.cpp:395] res4e_branch2b_relu -> res4e_branch2b (in-place)
I0306 19:36:15.768393  8714 net.cpp:150] Setting up res4e_branch2b_relu
I0306 19:36:15.768401  8714 net.cpp:157] Top shape: 8 256 14 14 (401408)
I0306 19:36:15.768410  8714 net.cpp:165] Memory required for data: 1676279840
I0306 19:36:15.768414  8714 layer_factory.hpp:77] Creating layer res4e_branch2c
I0306 19:36:15.768421  8714 net.cpp:100] Creating Layer res4e_branch2c
I0306 19:36:15.768425  8714 net.cpp:434] res4e_branch2c <- res4e_branch2b
I0306 19:36:15.768432  8714 net.cpp:408] res4e_branch2c -> res4e_branch2c
I0306 19:36:15.770759  8714 net.cpp:150] Setting up res4e_branch2c
I0306 19:36:15.770776  8714 net.cpp:157] Top shape: 8 1024 14 14 (1605632)
I0306 19:36:15.770779  8714 net.cpp:165] Memory required for data: 1682702368
I0306 19:36:15.770787  8714 layer_factory.hpp:77] Creating layer bn4e_branch2c
I0306 19:36:15.770792  8714 net.cpp:100] Creating Layer bn4e_branch2c
I0306 19:36:15.770797  8714 net.cpp:434] bn4e_branch2c <- res4e_branch2c
I0306 19:36:15.770802  8714 net.cpp:395] bn4e_branch2c -> res4e_branch2c (in-place)
I0306 19:36:15.771123  8714 net.cpp:150] Setting up bn4e_branch2c
I0306 19:36:15.771132  8714 net.cpp:157] Top shape: 8 1024 14 14 (1605632)
I0306 19:36:15.771136  8714 net.cpp:165] Memory required for data: 1689124896
I0306 19:36:15.771142  8714 layer_factory.hpp:77] Creating layer scale4e_branch2c
I0306 19:36:15.771149  8714 net.cpp:100] Creating Layer scale4e_branch2c
I0306 19:36:15.771152  8714 net.cpp:434] scale4e_branch2c <- res4e_branch2c
I0306 19:36:15.771158  8714 net.cpp:395] scale4e_branch2c -> res4e_branch2c (in-place)
I0306 19:36:15.771217  8714 layer_factory.hpp:77] Creating layer scale4e_branch2c
I0306 19:36:15.771397  8714 net.cpp:150] Setting up scale4e_branch2c
I0306 19:36:15.771404  8714 net.cpp:157] Top shape: 8 1024 14 14 (1605632)
I0306 19:36:15.771409  8714 net.cpp:165] Memory required for data: 1695547424
I0306 19:36:15.771414  8714 layer_factory.hpp:77] Creating layer res4e
I0306 19:36:15.771420  8714 net.cpp:100] Creating Layer res4e
I0306 19:36:15.771425  8714 net.cpp:434] res4e <- res4d_res4d_relu_0_split_1
I0306 19:36:15.771428  8714 net.cpp:434] res4e <- res4e_branch2c
I0306 19:36:15.771433  8714 net.cpp:408] res4e -> res4e
I0306 19:36:15.771471  8714 net.cpp:150] Setting up res4e
I0306 19:36:15.771477  8714 net.cpp:157] Top shape: 8 1024 14 14 (1605632)
I0306 19:36:15.771481  8714 net.cpp:165] Memory required for data: 1701969952
I0306 19:36:15.771484  8714 layer_factory.hpp:77] Creating layer res4e_relu
I0306 19:36:15.771489  8714 net.cpp:100] Creating Layer res4e_relu
I0306 19:36:15.771492  8714 net.cpp:434] res4e_relu <- res4e
I0306 19:36:15.771497  8714 net.cpp:395] res4e_relu -> res4e (in-place)
I0306 19:36:15.772025  8714 net.cpp:150] Setting up res4e_relu
I0306 19:36:15.772038  8714 net.cpp:157] Top shape: 8 1024 14 14 (1605632)
I0306 19:36:15.772042  8714 net.cpp:165] Memory required for data: 1708392480
I0306 19:36:15.772045  8714 layer_factory.hpp:77] Creating layer res4e_res4e_relu_0_split
I0306 19:36:15.772053  8714 net.cpp:100] Creating Layer res4e_res4e_relu_0_split
I0306 19:36:15.772058  8714 net.cpp:434] res4e_res4e_relu_0_split <- res4e
I0306 19:36:15.772063  8714 net.cpp:408] res4e_res4e_relu_0_split -> res4e_res4e_relu_0_split_0
I0306 19:36:15.772069  8714 net.cpp:408] res4e_res4e_relu_0_split -> res4e_res4e_relu_0_split_1
I0306 19:36:15.772135  8714 net.cpp:150] Setting up res4e_res4e_relu_0_split
I0306 19:36:15.772143  8714 net.cpp:157] Top shape: 8 1024 14 14 (1605632)
I0306 19:36:15.772147  8714 net.cpp:157] Top shape: 8 1024 14 14 (1605632)
I0306 19:36:15.772150  8714 net.cpp:165] Memory required for data: 1721237536
I0306 19:36:15.772153  8714 layer_factory.hpp:77] Creating layer res4f_branch2a
I0306 19:36:15.772161  8714 net.cpp:100] Creating Layer res4f_branch2a
I0306 19:36:15.772164  8714 net.cpp:434] res4f_branch2a <- res4e_res4e_relu_0_split_0
I0306 19:36:15.772171  8714 net.cpp:408] res4f_branch2a -> res4f_branch2a
I0306 19:36:15.773178  8714 net.cpp:150] Setting up res4f_branch2a
I0306 19:36:15.773191  8714 net.cpp:157] Top shape: 8 256 14 14 (401408)
I0306 19:36:15.773195  8714 net.cpp:165] Memory required for data: 1722843168
I0306 19:36:15.773205  8714 layer_factory.hpp:77] Creating layer bn4f_branch2a
I0306 19:36:15.773213  8714 net.cpp:100] Creating Layer bn4f_branch2a
I0306 19:36:15.773218  8714 net.cpp:434] bn4f_branch2a <- res4f_branch2a
I0306 19:36:15.773223  8714 net.cpp:395] bn4f_branch2a -> res4f_branch2a (in-place)
I0306 19:36:15.773546  8714 net.cpp:150] Setting up bn4f_branch2a
I0306 19:36:15.773553  8714 net.cpp:157] Top shape: 8 256 14 14 (401408)
I0306 19:36:15.773557  8714 net.cpp:165] Memory required for data: 1724448800
I0306 19:36:15.773563  8714 layer_factory.hpp:77] Creating layer scale4f_branch2a
I0306 19:36:15.773571  8714 net.cpp:100] Creating Layer scale4f_branch2a
I0306 19:36:15.773576  8714 net.cpp:434] scale4f_branch2a <- res4f_branch2a
I0306 19:36:15.773581  8714 net.cpp:395] scale4f_branch2a -> res4f_branch2a (in-place)
I0306 19:36:15.773641  8714 layer_factory.hpp:77] Creating layer scale4f_branch2a
I0306 19:36:15.773805  8714 net.cpp:150] Setting up scale4f_branch2a
I0306 19:36:15.773813  8714 net.cpp:157] Top shape: 8 256 14 14 (401408)
I0306 19:36:15.773818  8714 net.cpp:165] Memory required for data: 1726054432
I0306 19:36:15.773823  8714 layer_factory.hpp:77] Creating layer res4f_branch2a_relu
I0306 19:36:15.773829  8714 net.cpp:100] Creating Layer res4f_branch2a_relu
I0306 19:36:15.773833  8714 net.cpp:434] res4f_branch2a_relu <- res4f_branch2a
I0306 19:36:15.773838  8714 net.cpp:395] res4f_branch2a_relu -> res4f_branch2a (in-place)
I0306 19:36:15.774364  8714 net.cpp:150] Setting up res4f_branch2a_relu
I0306 19:36:15.774377  8714 net.cpp:157] Top shape: 8 256 14 14 (401408)
I0306 19:36:15.774380  8714 net.cpp:165] Memory required for data: 1727660064
I0306 19:36:15.774384  8714 layer_factory.hpp:77] Creating layer res4f_branch2b
I0306 19:36:15.774394  8714 net.cpp:100] Creating Layer res4f_branch2b
I0306 19:36:15.774397  8714 net.cpp:434] res4f_branch2b <- res4f_branch2a
I0306 19:36:15.774405  8714 net.cpp:408] res4f_branch2b -> res4f_branch2b
I0306 19:36:15.777360  8714 net.cpp:150] Setting up res4f_branch2b
I0306 19:36:15.777376  8714 net.cpp:157] Top shape: 8 256 14 14 (401408)
I0306 19:36:15.777380  8714 net.cpp:165] Memory required for data: 1729265696
I0306 19:36:15.777387  8714 layer_factory.hpp:77] Creating layer bn4f_branch2b
I0306 19:36:15.777393  8714 net.cpp:100] Creating Layer bn4f_branch2b
I0306 19:36:15.777397  8714 net.cpp:434] bn4f_branch2b <- res4f_branch2b
I0306 19:36:15.777403  8714 net.cpp:395] bn4f_branch2b -> res4f_branch2b (in-place)
I0306 19:36:15.777722  8714 net.cpp:150] Setting up bn4f_branch2b
I0306 19:36:15.777730  8714 net.cpp:157] Top shape: 8 256 14 14 (401408)
I0306 19:36:15.777734  8714 net.cpp:165] Memory required for data: 1730871328
I0306 19:36:15.777741  8714 layer_factory.hpp:77] Creating layer scale4f_branch2b
I0306 19:36:15.777747  8714 net.cpp:100] Creating Layer scale4f_branch2b
I0306 19:36:15.777751  8714 net.cpp:434] scale4f_branch2b <- res4f_branch2b
I0306 19:36:15.777757  8714 net.cpp:395] scale4f_branch2b -> res4f_branch2b (in-place)
I0306 19:36:15.777822  8714 layer_factory.hpp:77] Creating layer scale4f_branch2b
I0306 19:36:15.777993  8714 net.cpp:150] Setting up scale4f_branch2b
I0306 19:36:15.778002  8714 net.cpp:157] Top shape: 8 256 14 14 (401408)
I0306 19:36:15.778004  8714 net.cpp:165] Memory required for data: 1732476960
I0306 19:36:15.778012  8714 layer_factory.hpp:77] Creating layer res4f_branch2b_relu
I0306 19:36:15.778017  8714 net.cpp:100] Creating Layer res4f_branch2b_relu
I0306 19:36:15.778020  8714 net.cpp:434] res4f_branch2b_relu <- res4f_branch2b
I0306 19:36:15.778026  8714 net.cpp:395] res4f_branch2b_relu -> res4f_branch2b (in-place)
I0306 19:36:15.778209  8714 net.cpp:150] Setting up res4f_branch2b_relu
I0306 19:36:15.778218  8714 net.cpp:157] Top shape: 8 256 14 14 (401408)
I0306 19:36:15.778221  8714 net.cpp:165] Memory required for data: 1734082592
I0306 19:36:15.778224  8714 layer_factory.hpp:77] Creating layer res4f_branch2c
I0306 19:36:15.778234  8714 net.cpp:100] Creating Layer res4f_branch2c
I0306 19:36:15.778236  8714 net.cpp:434] res4f_branch2c <- res4f_branch2b
I0306 19:36:15.778247  8714 net.cpp:408] res4f_branch2c -> res4f_branch2c
I0306 19:36:15.780546  8714 net.cpp:150] Setting up res4f_branch2c
I0306 19:36:15.780560  8714 net.cpp:157] Top shape: 8 1024 14 14 (1605632)
I0306 19:36:15.780565  8714 net.cpp:165] Memory required for data: 1740505120
I0306 19:36:15.780571  8714 layer_factory.hpp:77] Creating layer bn4f_branch2c
I0306 19:36:15.780578  8714 net.cpp:100] Creating Layer bn4f_branch2c
I0306 19:36:15.780582  8714 net.cpp:434] bn4f_branch2c <- res4f_branch2c
I0306 19:36:15.780587  8714 net.cpp:395] bn4f_branch2c -> res4f_branch2c (in-place)
I0306 19:36:15.780918  8714 net.cpp:150] Setting up bn4f_branch2c
I0306 19:36:15.780926  8714 net.cpp:157] Top shape: 8 1024 14 14 (1605632)
I0306 19:36:15.780930  8714 net.cpp:165] Memory required for data: 1746927648
I0306 19:36:15.780994  8714 layer_factory.hpp:77] Creating layer scale4f_branch2c
I0306 19:36:15.781004  8714 net.cpp:100] Creating Layer scale4f_branch2c
I0306 19:36:15.781008  8714 net.cpp:434] scale4f_branch2c <- res4f_branch2c
I0306 19:36:15.781013  8714 net.cpp:395] scale4f_branch2c -> res4f_branch2c (in-place)
I0306 19:36:15.781077  8714 layer_factory.hpp:77] Creating layer scale4f_branch2c
I0306 19:36:15.781293  8714 net.cpp:150] Setting up scale4f_branch2c
I0306 19:36:15.781301  8714 net.cpp:157] Top shape: 8 1024 14 14 (1605632)
I0306 19:36:15.781304  8714 net.cpp:165] Memory required for data: 1753350176
I0306 19:36:15.781311  8714 layer_factory.hpp:77] Creating layer res4f
I0306 19:36:15.781317  8714 net.cpp:100] Creating Layer res4f
I0306 19:36:15.781322  8714 net.cpp:434] res4f <- res4e_res4e_relu_0_split_1
I0306 19:36:15.781325  8714 net.cpp:434] res4f <- res4f_branch2c
I0306 19:36:15.781330  8714 net.cpp:408] res4f -> res4f
I0306 19:36:15.781368  8714 net.cpp:150] Setting up res4f
I0306 19:36:15.781374  8714 net.cpp:157] Top shape: 8 1024 14 14 (1605632)
I0306 19:36:15.781378  8714 net.cpp:165] Memory required for data: 1759772704
I0306 19:36:15.781380  8714 layer_factory.hpp:77] Creating layer res4f_relu
I0306 19:36:15.781385  8714 net.cpp:100] Creating Layer res4f_relu
I0306 19:36:15.781389  8714 net.cpp:434] res4f_relu <- res4f
I0306 19:36:15.781394  8714 net.cpp:395] res4f_relu -> res4f (in-place)
I0306 19:36:15.781565  8714 net.cpp:150] Setting up res4f_relu
I0306 19:36:15.781574  8714 net.cpp:157] Top shape: 8 1024 14 14 (1605632)
I0306 19:36:15.781577  8714 net.cpp:165] Memory required for data: 1766195232
I0306 19:36:15.781580  8714 layer_factory.hpp:77] Creating layer res4f_res4f_relu_0_split
I0306 19:36:15.781585  8714 net.cpp:100] Creating Layer res4f_res4f_relu_0_split
I0306 19:36:15.781589  8714 net.cpp:434] res4f_res4f_relu_0_split <- res4f
I0306 19:36:15.781596  8714 net.cpp:408] res4f_res4f_relu_0_split -> res4f_res4f_relu_0_split_0
I0306 19:36:15.781602  8714 net.cpp:408] res4f_res4f_relu_0_split -> res4f_res4f_relu_0_split_1
I0306 19:36:15.781666  8714 net.cpp:150] Setting up res4f_res4f_relu_0_split
I0306 19:36:15.781672  8714 net.cpp:157] Top shape: 8 1024 14 14 (1605632)
I0306 19:36:15.781677  8714 net.cpp:157] Top shape: 8 1024 14 14 (1605632)
I0306 19:36:15.781679  8714 net.cpp:165] Memory required for data: 1779040288
I0306 19:36:15.781682  8714 layer_factory.hpp:77] Creating layer res5a_branch1
I0306 19:36:15.781692  8714 net.cpp:100] Creating Layer res5a_branch1
I0306 19:36:15.781694  8714 net.cpp:434] res5a_branch1 <- res4f_res4f_relu_0_split_0
I0306 19:36:15.781702  8714 net.cpp:408] res5a_branch1 -> res5a_branch1
I0306 19:36:15.786525  8714 net.cpp:150] Setting up res5a_branch1
I0306 19:36:15.786545  8714 net.cpp:157] Top shape: 8 2048 7 7 (802816)
I0306 19:36:15.786548  8714 net.cpp:165] Memory required for data: 1782251552
I0306 19:36:15.786556  8714 layer_factory.hpp:77] Creating layer bn5a_branch1
I0306 19:36:15.786562  8714 net.cpp:100] Creating Layer bn5a_branch1
I0306 19:36:15.786566  8714 net.cpp:434] bn5a_branch1 <- res5a_branch1
I0306 19:36:15.786573  8714 net.cpp:395] bn5a_branch1 -> res5a_branch1 (in-place)
I0306 19:36:15.787317  8714 net.cpp:150] Setting up bn5a_branch1
I0306 19:36:15.787350  8714 net.cpp:157] Top shape: 8 2048 7 7 (802816)
I0306 19:36:15.787362  8714 net.cpp:165] Memory required for data: 1785462816
I0306 19:36:15.787384  8714 layer_factory.hpp:77] Creating layer scale5a_branch1
I0306 19:36:15.787406  8714 net.cpp:100] Creating Layer scale5a_branch1
I0306 19:36:15.787417  8714 net.cpp:434] scale5a_branch1 <- res5a_branch1
I0306 19:36:15.787437  8714 net.cpp:395] scale5a_branch1 -> res5a_branch1 (in-place)
I0306 19:36:15.787605  8714 layer_factory.hpp:77] Creating layer scale5a_branch1
I0306 19:36:15.788296  8714 net.cpp:150] Setting up scale5a_branch1
I0306 19:36:15.788317  8714 net.cpp:157] Top shape: 8 2048 7 7 (802816)
I0306 19:36:15.788327  8714 net.cpp:165] Memory required for data: 1788674080
I0306 19:36:15.788348  8714 layer_factory.hpp:77] Creating layer res5a_branch2a
I0306 19:36:15.788373  8714 net.cpp:100] Creating Layer res5a_branch2a
I0306 19:36:15.788385  8714 net.cpp:434] res5a_branch2a <- res4f_res4f_relu_0_split_1
I0306 19:36:15.788403  8714 net.cpp:408] res5a_branch2a -> res5a_branch2a
I0306 19:36:15.793400  8714 net.cpp:150] Setting up res5a_branch2a
I0306 19:36:15.793447  8714 net.cpp:157] Top shape: 8 512 7 7 (200704)
I0306 19:36:15.793460  8714 net.cpp:165] Memory required for data: 1789476896
I0306 19:36:15.793485  8714 layer_factory.hpp:77] Creating layer bn5a_branch2a
I0306 19:36:15.793504  8714 net.cpp:100] Creating Layer bn5a_branch2a
I0306 19:36:15.793517  8714 net.cpp:434] bn5a_branch2a <- res5a_branch2a
I0306 19:36:15.793537  8714 net.cpp:395] bn5a_branch2a -> res5a_branch2a (in-place)
I0306 19:36:15.794705  8714 net.cpp:150] Setting up bn5a_branch2a
I0306 19:36:15.794729  8714 net.cpp:157] Top shape: 8 512 7 7 (200704)
I0306 19:36:15.794739  8714 net.cpp:165] Memory required for data: 1790279712
I0306 19:36:15.794762  8714 layer_factory.hpp:77] Creating layer scale5a_branch2a
I0306 19:36:15.794787  8714 net.cpp:100] Creating Layer scale5a_branch2a
I0306 19:36:15.794798  8714 net.cpp:434] scale5a_branch2a <- res5a_branch2a
I0306 19:36:15.794816  8714 net.cpp:395] scale5a_branch2a -> res5a_branch2a (in-place)
I0306 19:36:15.795007  8714 layer_factory.hpp:77] Creating layer scale5a_branch2a
I0306 19:36:15.795680  8714 net.cpp:150] Setting up scale5a_branch2a
I0306 19:36:15.795703  8714 net.cpp:157] Top shape: 8 512 7 7 (200704)
I0306 19:36:15.795713  8714 net.cpp:165] Memory required for data: 1791082528
I0306 19:36:15.795737  8714 layer_factory.hpp:77] Creating layer res5a_branch2a_relu
I0306 19:36:15.795754  8714 net.cpp:100] Creating Layer res5a_branch2a_relu
I0306 19:36:15.795764  8714 net.cpp:434] res5a_branch2a_relu <- res5a_branch2a
I0306 19:36:15.795778  8714 net.cpp:395] res5a_branch2a_relu -> res5a_branch2a (in-place)
I0306 19:36:15.796368  8714 net.cpp:150] Setting up res5a_branch2a_relu
I0306 19:36:15.796396  8714 net.cpp:157] Top shape: 8 512 7 7 (200704)
I0306 19:36:15.796408  8714 net.cpp:165] Memory required for data: 1791885344
I0306 19:36:15.796419  8714 layer_factory.hpp:77] Creating layer res5a_branch2b
I0306 19:36:15.796445  8714 net.cpp:100] Creating Layer res5a_branch2b
I0306 19:36:15.796458  8714 net.cpp:434] res5a_branch2b <- res5a_branch2a
I0306 19:36:15.796479  8714 net.cpp:408] res5a_branch2b -> res5a_branch2b
I0306 19:36:15.803185  8714 net.cpp:150] Setting up res5a_branch2b
I0306 19:36:15.803202  8714 net.cpp:157] Top shape: 8 512 7 7 (200704)
I0306 19:36:15.803206  8714 net.cpp:165] Memory required for data: 1792688160
I0306 19:36:15.803213  8714 layer_factory.hpp:77] Creating layer bn5a_branch2b
I0306 19:36:15.803220  8714 net.cpp:100] Creating Layer bn5a_branch2b
I0306 19:36:15.803223  8714 net.cpp:434] bn5a_branch2b <- res5a_branch2b
I0306 19:36:15.803231  8714 net.cpp:395] bn5a_branch2b -> res5a_branch2b (in-place)
I0306 19:36:15.803563  8714 net.cpp:150] Setting up bn5a_branch2b
I0306 19:36:15.803571  8714 net.cpp:157] Top shape: 8 512 7 7 (200704)
I0306 19:36:15.803575  8714 net.cpp:165] Memory required for data: 1793490976
I0306 19:36:15.803581  8714 layer_factory.hpp:77] Creating layer scale5a_branch2b
I0306 19:36:15.803596  8714 net.cpp:100] Creating Layer scale5a_branch2b
I0306 19:36:15.803599  8714 net.cpp:434] scale5a_branch2b <- res5a_branch2b
I0306 19:36:15.803604  8714 net.cpp:395] scale5a_branch2b -> res5a_branch2b (in-place)
I0306 19:36:15.803668  8714 layer_factory.hpp:77] Creating layer scale5a_branch2b
I0306 19:36:15.803853  8714 net.cpp:150] Setting up scale5a_branch2b
I0306 19:36:15.803860  8714 net.cpp:157] Top shape: 8 512 7 7 (200704)
I0306 19:36:15.803864  8714 net.cpp:165] Memory required for data: 1794293792
I0306 19:36:15.803870  8714 layer_factory.hpp:77] Creating layer res5a_branch2b_relu
I0306 19:36:15.803875  8714 net.cpp:100] Creating Layer res5a_branch2b_relu
I0306 19:36:15.803879  8714 net.cpp:434] res5a_branch2b_relu <- res5a_branch2b
I0306 19:36:15.803884  8714 net.cpp:395] res5a_branch2b_relu -> res5a_branch2b (in-place)
I0306 19:36:15.804060  8714 net.cpp:150] Setting up res5a_branch2b_relu
I0306 19:36:15.804069  8714 net.cpp:157] Top shape: 8 512 7 7 (200704)
I0306 19:36:15.804072  8714 net.cpp:165] Memory required for data: 1795096608
I0306 19:36:15.804075  8714 layer_factory.hpp:77] Creating layer res5a_branch2c
I0306 19:36:15.804085  8714 net.cpp:100] Creating Layer res5a_branch2c
I0306 19:36:15.804087  8714 net.cpp:434] res5a_branch2c <- res5a_branch2b
I0306 19:36:15.804095  8714 net.cpp:408] res5a_branch2c -> res5a_branch2c
I0306 19:36:15.807339  8714 net.cpp:150] Setting up res5a_branch2c
I0306 19:36:15.807354  8714 net.cpp:157] Top shape: 8 2048 7 7 (802816)
I0306 19:36:15.807358  8714 net.cpp:165] Memory required for data: 1798307872
I0306 19:36:15.807365  8714 layer_factory.hpp:77] Creating layer bn5a_branch2c
I0306 19:36:15.807374  8714 net.cpp:100] Creating Layer bn5a_branch2c
I0306 19:36:15.807377  8714 net.cpp:434] bn5a_branch2c <- res5a_branch2c
I0306 19:36:15.807382  8714 net.cpp:395] bn5a_branch2c -> res5a_branch2c (in-place)
I0306 19:36:15.807723  8714 net.cpp:150] Setting up bn5a_branch2c
I0306 19:36:15.807730  8714 net.cpp:157] Top shape: 8 2048 7 7 (802816)
I0306 19:36:15.807734  8714 net.cpp:165] Memory required for data: 1801519136
I0306 19:36:15.807740  8714 layer_factory.hpp:77] Creating layer scale5a_branch2c
I0306 19:36:15.807749  8714 net.cpp:100] Creating Layer scale5a_branch2c
I0306 19:36:15.807751  8714 net.cpp:434] scale5a_branch2c <- res5a_branch2c
I0306 19:36:15.807760  8714 net.cpp:395] scale5a_branch2c -> res5a_branch2c (in-place)
I0306 19:36:15.807821  8714 layer_factory.hpp:77] Creating layer scale5a_branch2c
I0306 19:36:15.808013  8714 net.cpp:150] Setting up scale5a_branch2c
I0306 19:36:15.808020  8714 net.cpp:157] Top shape: 8 2048 7 7 (802816)
I0306 19:36:15.808024  8714 net.cpp:165] Memory required for data: 1804730400
I0306 19:36:15.808032  8714 layer_factory.hpp:77] Creating layer res5a
I0306 19:36:15.808037  8714 net.cpp:100] Creating Layer res5a
I0306 19:36:15.808040  8714 net.cpp:434] res5a <- res5a_branch1
I0306 19:36:15.808044  8714 net.cpp:434] res5a <- res5a_branch2c
I0306 19:36:15.808049  8714 net.cpp:408] res5a -> res5a
I0306 19:36:15.808086  8714 net.cpp:150] Setting up res5a
I0306 19:36:15.808092  8714 net.cpp:157] Top shape: 8 2048 7 7 (802816)
…
I0306 19:36:15.968711  8714 net.cpp:493] Sharing parameters 'res4e_branch2a_w' owned by layer 'res4e_branch2a', param index 0
I0306 19:36:15.968716  8714 layer_factory.hpp:77] Creating layer bn4e_branch2a_p
I0306 19:36:15.968724  8714 net.cpp:100] Creating Layer bn4e_branch2a_p
I0306 19:36:15.968729  8714 net.cpp:434] bn4e_branch2a_p <- res4e_branch2a_p
I0306 19:36:15.968734  8714 net.cpp:395] bn4e_branch2a_p -> res4e_branch2a_p (in-place)
I0306 19:36:15.969159  8714 net.cpp:150] Setting up bn4e_branch2a_p
I0306 19:36:15.969168  8714 net.cpp:157] Top shape: 8 256 14 14 (401408)
I0306 19:36:15.969172  8714 net.cpp:165] Memory required for data: 3516465184
I0306 19:36:15.969180  8714 layer_factory.hpp:77] Creating layer scale4e_branch2a_p
I0306 19:36:15.969187  8714 net.cpp:100] Creating Layer scale4e_branch2a_p
I0306 19:36:15.969192  8714 net.cpp:434] scale4e_branch2a_p <- res4e_branch2a_p
I0306 19:36:15.969202  8714 net.cpp:395] scale4e_branch2a_p -> res4e_branch2a_p (in-place)
I0306 19:36:15.969295  8714 layer_factory.hpp:77] Creating layer scale4e_branch2a_p
I0306 19:36:15.969504  8714 net.cpp:150] Setting up scale4e_branch2a_p
I0306 19:36:15.969513  8714 net.cpp:157] Top shape: 8 256 14 14 (401408)
I0306 19:36:15.969516  8714 net.cpp:165] Memory required for data: 3518070816
I0306 19:36:15.969521  8714 net.cpp:493] Sharing parameters 'scale4e_branch2a_alpha' owned by layer 'scale4e_branch2a', param index 0
I0306 19:36:15.969527  8714 net.cpp:493] Sharing parameters 'scale4e_branch2a_beta' owned by layer 'scale4e_branch2a', param index 1
I0306 19:36:15.969530  8714 layer_factory.hpp:77] Creating layer res4e_branch2a_relu_p
I0306 19:36:15.969535  8714 net.cpp:100] Creating Layer res4e_branch2a_relu_p
I0306 19:36:15.969539  8714 net.cpp:434] res4e_branch2a_relu_p <- res4e_branch2a_p
I0306 19:36:15.969544  8714 net.cpp:395] res4e_branch2a_relu_p -> res4e_branch2a_p (in-place)
I0306 19:36:15.970139  8714 net.cpp:150] Setting up res4e_branch2a_relu_p
I0306 19:36:15.970152  8714 net.cpp:157] Top shape: 8 256 14 14 (401408)
I0306 19:36:15.970155  8714 net.cpp:165] Memory required for data: 3519676448
I0306 19:36:15.970160  8714 layer_factory.hpp:77] Creating layer res4e_branch2b_p
I0306 19:36:15.970168  8714 net.cpp:100] Creating Layer res4e_branch2b_p
I0306 19:36:15.970172  8714 net.cpp:434] res4e_branch2b_p <- res4e_branch2a_p
I0306 19:36:15.970180  8714 net.cpp:408] res4e_branch2b_p -> res4e_branch2b_p
I0306 19:36:15.972975  8714 net.cpp:150] Setting up res4e_branch2b_p
I0306 19:36:15.972992  8714 net.cpp:157] Top shape: 8 256 14 14 (401408)
I0306 19:36:15.972996  8714 net.cpp:165] Memory required for data: 3521282080
I0306 19:36:15.973002  8714 net.cpp:493] Sharing parameters 'res4e_branch2b_w' owned by layer 'res4e_branch2b', param index 0
I0306 19:36:15.973007  8714 layer_factory.hpp:77] Creating layer bn4e_branch2b_p
I0306 19:36:15.973013  8714 net.cpp:100] Creating Layer bn4e_branch2b_p
I0306 19:36:15.973018  8714 net.cpp:434] bn4e_branch2b_p <- res4e_branch2b_p
I0306 19:36:15.973026  8714 net.cpp:395] bn4e_branch2b_p -> res4e_branch2b_p (in-place)
I0306 19:36:15.973450  8714 net.cpp:150] Setting up bn4e_branch2b_p
I0306 19:36:15.973459  8714 net.cpp:157] Top shape: 8 256 14 14 (401408)
I0306 19:36:15.973462  8714 net.cpp:165] Memory required for data: 3522887712
I0306 19:36:15.973469  8714 layer_factory.hpp:77] Creating layer scale4e_branch2b_p
I0306 19:36:15.973476  8714 net.cpp:100] Creating Layer scale4e_branch2b_p
I0306 19:36:15.973479  8714 net.cpp:434] scale4e_branch2b_p <- res4e_branch2b_p
I0306 19:36:15.973486  8714 net.cpp:395] scale4e_branch2b_p -> res4e_branch2b_p (in-place)
I0306 19:36:15.973562  8714 layer_factory.hpp:77] Creating layer scale4e_branch2b_p
I0306 19:36:15.973775  8714 net.cpp:150] Setting up scale4e_branch2b_p
I0306 19:36:15.973783  8714 net.cpp:157] Top shape: 8 256 14 14 (401408)
I0306 19:36:15.973786  8714 net.cpp:165] Memory required for data: 3524493344
I0306 19:36:15.973790  8714 net.cpp:493] Sharing parameters 'scale4e_branch2b_alpha' owned by layer 'scale4e_branch2b', param index 0
I0306 19:36:15.973795  8714 net.cpp:493] Sharing parameters 'scale4e_branch2b_beta' owned by layer 'scale4e_branch2b', param index 1
I0306 19:36:15.973799  8714 layer_factory.hpp:77] Creating layer res4e_branch2b_relu_p
I0306 19:36:15.973804  8714 net.cpp:100] Creating Layer res4e_branch2b_relu_p
I0306 19:36:15.973809  8714 net.cpp:434] res4e_branch2b_relu_p <- res4e_branch2b_p
I0306 19:36:15.973814  8714 net.cpp:395] res4e_branch2b_relu_p -> res4e_branch2b_p (in-place)
I0306 19:36:15.974407  8714 net.cpp:150] Setting up res4e_branch2b_relu_p
I0306 19:36:15.974421  8714 net.cpp:157] Top shape: 8 256 14 14 (401408)
I0306 19:36:15.974426  8714 net.cpp:165] Memory required for data: 3526098976
I0306 19:36:15.974428  8714 layer_factory.hpp:77] Creating layer res4e_branch2c_p
I0306 19:36:15.974439  8714 net.cpp:100] Creating Layer res4e_branch2c_p
I0306 19:36:15.974447  8714 net.cpp:434] res4e_branch2c_p <- res4e_branch2b_p
I0306 19:36:15.974453  8714 net.cpp:408] res4e_branch2c_p -> res4e_branch2c_p
I0306 19:36:15.977030  8714 net.cpp:150] Setting up res4e_branch2c_p
I0306 19:36:15.977046  8714 net.cpp:157] Top shape: 8 1024 14 14 (1605632)
I0306 19:36:15.977051  8714 net.cpp:165] Memory required for data: 3532521504
I0306 19:36:15.977056  8714 net.cpp:493] Sharing parameters 'res4e_branch2c_w' owned by layer 'res4e_branch2c', param index 0
I0306 19:36:15.977061  8714 layer_factory.hpp:77] Creating layer bn4e_branch2c_p
I0306 19:36:15.977068  8714 net.cpp:100] Creating Layer bn4e_branch2c_p
I0306 19:36:15.977073  8714 net.cpp:434] bn4e_branch2c_p <- res4e_branch2c_p
I0306 19:36:15.977079  8714 net.cpp:395] bn4e_branch2c_p -> res4e_branch2c_p (in-place)
I0306 19:36:15.977509  8714 net.cpp:150] Setting up bn4e_branch2c_p
I0306 19:36:15.977517  8714 net.cpp:157] Top shape: 8 1024 14 14 (1605632)
I0306 19:36:15.977520  8714 net.cpp:165] Memory required for data: 3538944032
I0306 19:36:15.977527  8714 layer_factory.hpp:77] Creating layer scale4e_branch2c_p
I0306 19:36:15.977535  8714 net.cpp:100] Creating Layer scale4e_branch2c_p
I0306 19:36:15.977538  8714 net.cpp:434] scale4e_branch2c_p <- res4e_branch2c_p
I0306 19:36:15.977545  8714 net.cpp:395] scale4e_branch2c_p -> res4e_branch2c_p (in-place)
I0306 19:36:15.977617  8714 layer_factory.hpp:77] Creating layer scale4e_branch2c_p
I0306 19:36:15.977844  8714 net.cpp:150] Setting up scale4e_branch2c_p
I0306 19:36:15.977851  8714 net.cpp:157] Top shape: 8 1024 14 14 (1605632)
I0306 19:36:15.977855  8714 net.cpp:165] Memory required for data: 3545366560
I0306 19:36:15.977859  8714 net.cpp:493] Sharing parameters 'scale4e_branch2c_alpha' owned by layer 'scale4e_branch2c', param index 0
I0306 19:36:15.977865  8714 net.cpp:493] Sharing parameters 'scale4e_branch2c_beta' owned by layer 'scale4e_branch2c', param index 1
I0306 19:36:15.977869  8714 layer_factory.hpp:77] Creating layer res4e_p
I0306 19:36:15.977875  8714 net.cpp:100] Creating Layer res4e_p
I0306 19:36:15.977880  8714 net.cpp:434] res4e_p <- res4d_p_res4d_relu_p_0_split_1
I0306 19:36:15.977885  8714 net.cpp:434] res4e_p <- res4e_branch2c_p
I0306 19:36:15.977890  8714 net.cpp:408] res4e_p -> res4e_p
I0306 19:36:15.977934  8714 net.cpp:150] Setting up res4e_p
I0306 19:36:15.977941  8714 net.cpp:157] Top shape: 8 1024 14 14 (1605632)
I0306 19:36:15.977943  8714 net.cpp:165] Memory required for data: 3551789088
I0306 19:36:15.977947  8714 layer_factory.hpp:77] Creating layer res4e_relu_p
I0306 19:36:15.977952  8714 net.cpp:100] Creating Layer res4e_relu_p
I0306 19:36:15.977955  8714 net.cpp:434] res4e_relu_p <- res4e_p
I0306 19:36:15.977962  8714 net.cpp:395] res4e_relu_p -> res4e_p (in-place)
I0306 19:36:15.978149  8714 net.cpp:150] Setting up res4e_relu_p
I0306 19:36:15.978158  8714 net.cpp:157] Top shape: 8 1024 14 14 (1605632)
I0306 19:36:15.978162  8714 net.cpp:165] Memory required for data: 3558211616
I0306 19:36:15.978164  8714 layer_factory.hpp:77] Creating layer res4e_p_res4e_relu_p_0_split
I0306 19:36:15.978170  8714 net.cpp:100] Creating Layer res4e_p_res4e_relu_p_0_split
I0306 19:36:15.978174  8714 net.cpp:434] res4e_p_res4e_relu_p_0_split <- res4e_p
I0306 19:36:15.978181  8714 net.cpp:408] res4e_p_res4e_relu_p_0_split -> res4e_p_res4e_relu_p_0_split_0
I0306 19:36:15.978188  8714 net.cpp:408] res4e_p_res4e_relu_p_0_split -> res4e_p_res4e_relu_p_0_split_1
I0306 19:36:15.978266  8714 net.cpp:150] Setting up res4e_p_res4e_relu_p_0_split
I0306 19:36:15.978273  8714 net.cpp:157] Top shape: 8 1024 14 14 (1605632)
I0306 19:36:15.978277  8714 net.cpp:157] Top shape: 8 1024 14 14 (1605632)
I0306 19:36:15.978281  8714 net.cpp:165] Memory required for data: 3571056672
I0306 19:36:15.978283  8714 layer_factory.hpp:77] Creating layer res4f_branch2a_p
I0306 19:36:15.978293  8714 net.cpp:100] Creating Layer res4f_branch2a_p
I0306 19:36:15.978297  8714 net.cpp:434] res4f_branch2a_p <- res4e_p_res4e_relu_p_0_split_0
I0306 19:36:15.978304  8714 net.cpp:408] res4f_branch2a_p -> res4f_branch2a_p
I0306 19:36:15.979907  8714 net.cpp:150] Setting up res4f_branch2a_p
I0306 19:36:15.979921  8714 net.cpp:157] Top shape: 8 256 14 14 (401408)
I0306 19:36:15.979925  8714 net.cpp:165] Memory required for data: 3572662304
I0306 19:36:15.979930  8714 net.cpp:493] Sharing parameters 'res4f_branch2a_w' owned by layer 'res4f_branch2a', param index 0
I0306 19:36:15.979934  8714 layer_factory.hpp:77] Creating layer bn4f_branch2a_p
I0306 19:36:15.979940  8714 net.cpp:100] Creating Layer bn4f_branch2a_p
I0306 19:36:15.979944  8714 net.cpp:434] bn4f_branch2a_p <- res4f_branch2a_p
I0306 19:36:15.979951  8714 net.cpp:395] bn4f_branch2a_p -> res4f_branch2a_p (in-place)
I0306 19:36:15.980342  8714 net.cpp:150] Setting up bn4f_branch2a_p
I0306 19:36:15.980351  8714 net.cpp:157] Top shape: 8 256 14 14 (401408)
I0306 19:36:15.980355  8714 net.cpp:165] Memory required for data: 3574267936
I0306 19:36:15.980361  8714 layer_factory.hpp:77] Creating layer scale4f_branch2a_p
I0306 19:36:15.980368  8714 net.cpp:100] Creating Layer scale4f_branch2a_p
I0306 19:36:15.980372  8714 net.cpp:434] scale4f_branch2a_p <- res4f_branch2a_p
I0306 19:36:15.980378  8714 net.cpp:395] scale4f_branch2a_p -> res4f_branch2a_p (in-place)
I0306 19:36:15.980454  8714 layer_factory.hpp:77] Creating layer scale4f_branch2a_p
I0306 19:36:15.980679  8714 net.cpp:150] Setting up scale4f_branch2a_p
I0306 19:36:15.980687  8714 net.cpp:157] Top shape: 8 256 14 14 (401408)
I0306 19:36:15.980690  8714 net.cpp:165] Memory required for data: 3575873568
I0306 19:36:15.980695  8714 net.cpp:493] Sharing parameters 'scale4f_branch2a_alpha' owned by layer 'scale4f_branch2a', param index 0
I0306 19:36:15.980700  8714 net.cpp:493] Sharing parameters 'scale4f_branch2a_beta' owned by layer 'scale4f_branch2a', param index 1
I0306 19:36:15.980705  8714 layer_factory.hpp:77] Creating layer res4f_branch2a_relu_p
I0306 19:36:15.980711  8714 net.cpp:100] Creating Layer res4f_branch2a_relu_p
I0306 19:36:15.980715  8714 net.cpp:434] res4f_branch2a_relu_p <- res4f_branch2a_p
I0306 19:36:15.980720  8714 net.cpp:395] res4f_branch2a_relu_p -> res4f_branch2a_p (in-place)
I0306 19:36:15.980908  8714 net.cpp:150] Setting up res4f_branch2a_relu_p
I0306 19:36:15.980916  8714 net.cpp:157] Top shape: 8 256 14 14 (401408)
I0306 19:36:15.980921  8714 net.cpp:165] Memory required for data: 3577479200
I0306 19:36:15.980924  8714 layer_factory.hpp:77] Creating layer res4f_branch2b_p
I0306 19:36:15.980932  8714 net.cpp:100] Creating Layer res4f_branch2b_p
I0306 19:36:15.980960  8714 net.cpp:434] res4f_branch2b_p <- res4f_branch2a_p
I0306 19:36:15.980969  8714 net.cpp:408] res4f_branch2b_p -> res4f_branch2b_p
I0306 19:36:15.984654  8714 net.cpp:150] Setting up res4f_branch2b_p
I0306 19:36:15.984668  8714 net.cpp:157] Top shape: 8 256 14 14 (401408)
I0306 19:36:15.984673  8714 net.cpp:165] Memory required for data: 3579084832
I0306 19:36:15.984678  8714 net.cpp:493] Sharing parameters 'res4f_branch2b_w' owned by layer 'res4f_branch2b', param index 0
I0306 19:36:15.984683  8714 layer_factory.hpp:77] Creating layer bn4f_branch2b_p
I0306 19:36:15.984689  8714 net.cpp:100] Creating Layer bn4f_branch2b_p
I0306 19:36:15.984694  8714 net.cpp:434] bn4f_branch2b_p <- res4f_branch2b_p
I0306 19:36:15.984700  8714 net.cpp:395] bn4f_branch2b_p -> res4f_branch2b_p (in-place)
I0306 19:36:15.985141  8714 net.cpp:150] Setting up bn4f_branch2b_p
I0306 19:36:15.985150  8714 net.cpp:157] Top shape: 8 256 14 14 (401408)
I0306 19:36:15.985154  8714 net.cpp:165] Memory required for data: 3580690464
I0306 19:36:15.985162  8714 layer_factory.hpp:77] Creating layer scale4f_branch2b_p
I0306 19:36:15.985170  8714 net.cpp:100] Creating Layer scale4f_branch2b_p
I0306 19:36:15.985174  8714 net.cpp:434] scale4f_branch2b_p <- res4f_branch2b_p
I0306 19:36:15.985180  8714 net.cpp:395] scale4f_branch2b_p -> res4f_branch2b_p (in-place)
I0306 19:36:15.985278  8714 layer_factory.hpp:77] Creating layer scale4f_branch2b_p
I0306 19:36:15.985498  8714 net.cpp:150] Setting up scale4f_branch2b_p
I0306 19:36:15.985507  8714 net.cpp:157] Top shape: 8 256 14 14 (401408)
I0306 19:36:15.985513  8714 net.cpp:165] Memory required for data: 3582296096
I0306 19:36:15.985518  8714 net.cpp:493] Sharing parameters 'scale4f_branch2b_alpha' owned by layer 'scale4f_branch2b', param index 0
I0306 19:36:15.985523  8714 net.cpp:493] Sharing parameters 'scale4f_branch2b_beta' owned by layer 'scale4f_branch2b', param index 1
I0306 19:36:15.985527  8714 layer_factory.hpp:77] Creating layer res4f_branch2b_relu_p
I0306 19:36:15.985532  8714 net.cpp:100] Creating Layer res4f_branch2b_relu_p
I0306 19:36:15.985535  8714 net.cpp:434] res4f_branch2b_relu_p <- res4f_branch2b_p
I0306 19:36:15.985543  8714 net.cpp:395] res4f_branch2b_relu_p -> res4f_branch2b_p (in-place)
I0306 19:36:15.985739  8714 net.cpp:150] Setting up res4f_branch2b_relu_p
I0306 19:36:15.985749  8714 net.cpp:157] Top shape: 8 256 14 14 (401408)
I0306 19:36:15.985751  8714 net.cpp:165] Memory required for data: 3583901728
I0306 19:36:15.985755  8714 layer_factory.hpp:77] Creating layer res4f_branch2c_p
I0306 19:36:15.985764  8714 net.cpp:100] Creating Layer res4f_branch2c_p
I0306 19:36:15.985769  8714 net.cpp:434] res4f_branch2c_p <- res4f_branch2b_p
I0306 19:36:15.985774  8714 net.cpp:408] res4f_branch2c_p -> res4f_branch2c_p
I0306 19:36:15.988317  8714 net.cpp:150] Setting up res4f_branch2c_p
I0306 19:36:15.988332  8714 net.cpp:157] Top shape: 8 1024 14 14 (1605632)
I0306 19:36:15.988337  8714 net.cpp:165] Memory required for data: 3590324256
I0306 19:36:15.988342  8714 net.cpp:493] Sharing parameters 'res4f_branch2c_w' owned by layer 'res4f_branch2c', param index 0
I0306 19:36:15.988345  8714 layer_factory.hpp:77] Creating layer bn4f_branch2c_p
I0306 19:36:15.988353  8714 net.cpp:100] Creating Layer bn4f_branch2c_p
I0306 19:36:15.988358  8714 net.cpp:434] bn4f_branch2c_p <- res4f_branch2c_p
I0306 19:36:15.988363  8714 net.cpp:395] bn4f_branch2c_p -> res4f_branch2c_p (in-place)
I0306 19:36:15.988767  8714 net.cpp:150] Setting up bn4f_branch2c_p
I0306 19:36:15.988775  8714 net.cpp:157] Top shape: 8 1024 14 14 (1605632)
I0306 19:36:15.988778  8714 net.cpp:165] Memory required for data: 3596746784
I0306 19:36:15.988785  8714 layer_factory.hpp:77] Creating layer scale4f_branch2c_p
I0306 19:36:15.988793  8714 net.cpp:100] Creating Layer scale4f_branch2c_p
I0306 19:36:15.988797  8714 net.cpp:434] scale4f_branch2c_p <- res4f_branch2c_p
I0306 19:36:15.988802  8714 net.cpp:395] scale4f_branch2c_p -> res4f_branch2c_p (in-place)
I0306 19:36:15.988878  8714 layer_factory.hpp:77] Creating layer scale4f_branch2c_p
I0306 19:36:15.989146  8714 net.cpp:150] Setting up scale4f_branch2c_p
I0306 19:36:15.989156  8714 net.cpp:157] Top shape: 8 1024 14 14 (1605632)
I0306 19:36:15.989159  8714 net.cpp:165] Memory required for data: 3603169312
I0306 19:36:15.989164  8714 net.cpp:493] Sharing parameters 'scale4f_branch2c_alpha' owned by layer 'scale4f_branch2c', param index 0
I0306 19:36:15.989169  8714 net.cpp:493] Sharing parameters 'scale4f_branch2c_beta' owned by layer 'scale4f_branch2c', param index 1
I0306 19:36:15.989173  8714 layer_factory.hpp:77] Creating layer res4f_p
I0306 19:36:15.989181  8714 net.cpp:100] Creating Layer res4f_p
I0306 19:36:15.989186  8714 net.cpp:434] res4f_p <- res4e_p_res4e_relu_p_0_split_1
I0306 19:36:15.989189  8714 net.cpp:434] res4f_p <- res4f_branch2c_p
I0306 19:36:15.989195  8714 net.cpp:408] res4f_p -> res4f_p
I0306 19:36:15.989240  8714 net.cpp:150] Setting up res4f_p
I0306 19:36:15.989248  8714 net.cpp:157] Top shape: 8 1024 14 14 (1605632)
I0306 19:36:15.989250  8714 net.cpp:165] Memory required for data: 3609591840
I0306 19:36:15.989254  8714 layer_factory.hpp:77] Creating layer res4f_relu_p
I0306 19:36:15.989276  8714 net.cpp:100] Creating Layer res4f_relu_p
I0306 19:36:15.989280  8714 net.cpp:434] res4f_relu_p <- res4f_p
I0306 19:36:15.989285  8714 net.cpp:395] res4f_relu_p -> res4f_p (in-place)
I0306 19:36:15.989542  8714 net.cpp:150] Setting up res4f_relu_p
I0306 19:36:15.989552  8714 net.cpp:157] Top shape: 8 1024 14 14 (1605632)
I0306 19:36:15.989557  8714 net.cpp:165] Memory required for data: 3616014368
I0306 19:36:15.989564  8714 layer_factory.hpp:77] Creating layer res4f_p_res4f_relu_p_0_split
I0306 19:36:15.989572  8714 net.cpp:100] Creating Layer res4f_p_res4f_relu_p_0_split
I0306 19:36:15.989575  8714 net.cpp:434] res4f_p_res4f_relu_p_0_split <- res4f_p
I0306 19:36:15.989581  8714 net.cpp:408] res4f_p_res4f_relu_p_0_split -> res4f_p_res4f_relu_p_0_split_0
I0306 19:36:15.989590  8714 net.cpp:408] res4f_p_res4f_relu_p_0_split -> res4f_p_res4f_relu_p_0_split_1
I0306 19:36:15.989681  8714 net.cpp:150] Setting up res4f_p_res4f_relu_p_0_split
I0306 19:36:15.989688  8714 net.cpp:157] Top shape: 8 1024 14 14 (1605632)
I0306 19:36:15.989692  8714 net.cpp:157] Top shape: 8 1024 14 14 (1605632)
I0306 19:36:15.989696  8714 net.cpp:165] Memory required for data: 3628859424
I0306 19:36:15.989701  8714 layer_factory.hpp:77] Creating layer res5a_branch1_p
I0306 19:36:15.989709  8714 net.cpp:100] Creating Layer res5a_branch1_p
I0306 19:36:15.989713  8714 net.cpp:434] res5a_branch1_p <- res4f_p_res4f_relu_p_0_split_0
I0306 19:36:15.989719  8714 net.cpp:408] res5a_branch1_p -> res5a_branch1_p
I0306 19:36:15.994801  8714 net.cpp:150] Setting up res5a_branch1_p
I0306 19:36:15.994822  8714 net.cpp:157] Top shape: 8 2048 7 7 (802816)
I0306 19:36:15.994827  8714 net.cpp:165] Memory required for data: 3632070688
I0306 19:36:15.994833  8714 net.cpp:493] Sharing parameters 'res5a_branch1_w' owned by layer 'res5a_branch1', param index 0
I0306 19:36:15.994837  8714 layer_factory.hpp:77] Creating layer bn5a_branch1_p
I0306 19:36:15.994844  8714 net.cpp:100] Creating Layer bn5a_branch1_p
I0306 19:36:15.994848  8714 net.cpp:434] bn5a_branch1_p <- res5a_branch1_p
I0306 19:36:15.994855  8714 net.cpp:395] bn5a_branch1_p -> res5a_branch1_p (in-place)
I0306 19:36:15.995309  8714 net.cpp:150] Setting up bn5a_branch1_p
I0306 19:36:15.995317  8714 net.cpp:157] Top shape: 8 2048 7 7 (802816)
I0306 19:36:15.995321  8714 net.cpp:165] Memory required for data: 3635281952
I0306 19:36:15.995327  8714 layer_factory.hpp:77] Creating layer scale5a_branch1_p
I0306 19:36:15.995338  8714 net.cpp:100] Creating Layer scale5a_branch1_p
I0306 19:36:15.995342  8714 net.cpp:434] scale5a_branch1_p <- res5a_branch1_p
I0306 19:36:15.995347  8714 net.cpp:395] scale5a_branch1_p -> res5a_branch1_p (in-place)
I0306 19:36:15.995426  8714 layer_factory.hpp:77] Creating layer scale5a_branch1_p
I0306 19:36:15.995662  8714 net.cpp:150] Setting up scale5a_branch1_p
I0306 19:36:15.995671  8714 net.cpp:157] Top shape: 8 2048 7 7 (802816)
I0306 19:36:15.995673  8714 net.cpp:165] Memory required for data: 3638493216
I0306 19:36:15.995678  8714 net.cpp:493] Sharing parameters 'scale5a_branch1_alpha' owned by layer 'scale5a_branch1', param index 0
I0306 19:36:15.995683  8714 net.cpp:493] Sharing parameters 'scale5a_branch1_beta' owned by layer 'scale5a_branch1', param index 1
I0306 19:36:15.995687  8714 layer_factory.hpp:77] Creating layer res5a_branch2a_p
I0306 19:36:15.995695  8714 net.cpp:100] Creating Layer res5a_branch2a_p
I0306 19:36:15.995699  8714 net.cpp:434] res5a_branch2a_p <- res4f_p_res4f_relu_p_0_split_1
I0306 19:36:15.995707  8714 net.cpp:408] res5a_branch2a_p -> res5a_branch2a_p
I0306 19:36:15.998505  8714 net.cpp:150] Setting up res5a_branch2a_p
I0306 19:36:15.998520  8714 net.cpp:157] Top shape: 8 512 7 7 (200704)
I0306 19:36:15.998524  8714 net.cpp:165] Memory required for data: 3639296032
I0306 19:36:15.998530  8714 net.cpp:493] Sharing parameters 'res5a_branch2a_w' owned by layer 'res5a_branch2a', param index 0
I0306 19:36:15.998534  8714 layer_factory.hpp:77] Creating layer bn5a_branch2a_p
I0306 19:36:15.998543  8714 net.cpp:100] Creating Layer bn5a_branch2a_p
I0306 19:36:15.998546  8714 net.cpp:434] bn5a_branch2a_p <- res5a_branch2a_p
I0306 19:36:15.998553  8714 net.cpp:395] bn5a_branch2a_p -> res5a_branch2a_p (in-place)
I0306 19:36:15.998970  8714 net.cpp:150] Setting up bn5a_branch2a_p
I0306 19:36:15.998978  8714 net.cpp:157] Top shape: 8 512 7 7 (200704)
I0306 19:36:15.998981  8714 net.cpp:165] Memory required for data: 3640098848
I0306 19:36:15.998994  8714 layer_factory.hpp:77] Creating layer scale5a_branch2a_p
I0306 19:36:15.999002  8714 net.cpp:100] Creating Layer scale5a_branch2a_p
I0306 19:36:15.999006  8714 net.cpp:434] scale5a_branch2a_p <- res5a_branch2a_p
I0306 19:36:15.999013  8714 net.cpp:395] scale5a_branch2a_p -> res5a_branch2a_p (in-place)
I0306 19:36:15.999089  8714 layer_factory.hpp:77] Creating layer scale5a_branch2a_p
I0306 19:36:15.999330  8714 net.cpp:150] Setting up scale5a_branch2a_p
I0306 19:36:15.999336  8714 net.cpp:157] Top shape: 8 512 7 7 (200704)
I0306 19:36:15.999339  8714 net.cpp:165] Memory required for data: 3640901664
I0306 19:36:15.999346  8714 net.cpp:493] Sharing parameters 'scale5a_branch2a_alpha' owned by layer 'scale5a_branch2a', param index 0
I0306 19:36:15.999351  8714 net.cpp:493] Sharing parameters 'scale5a_branch2a_beta' owned by layer 'scale5a_branch2a', param index 1
I0306 19:36:15.999353  8714 layer_factory.hpp:77] Creating layer res5a_branch2a_relu_p
I0306 19:36:15.999359  8714 net.cpp:100] Creating Layer res5a_branch2a_relu_p
I0306 19:36:15.999363  8714 net.cpp:434] res5a_branch2a_relu_p <- res5a_branch2a_p
I0306 19:36:15.999367  8714 net.cpp:395] res5a_branch2a_relu_p -> res5a_branch2a_p (in-place)
I0306 19:36:15.999562  8714 net.cpp:150] Setting up res5a_branch2a_relu_p
I0306 19:36:15.999569  8714 net.cpp:157] Top shape: 8 512 7 7 (200704)
I0306 19:36:15.999572  8714 net.cpp:165] Memory required for data: 3641704480
I0306 19:36:15.999577  8714 layer_factory.hpp:77] Creating layer res5a_branch2b_p
I0306 19:36:15.999585  8714 net.cpp:100] Creating Layer res5a_branch2b_p
I0306 19:36:15.999589  8714 net.cpp:434] res5a_branch2b_p <- res5a_branch2a_p
I0306 19:36:15.999594  8714 net.cpp:408] res5a_branch2b_p -> res5a_branch2b_p
I0306 19:36:16.005646  8714 net.cpp:150] Setting up res5a_branch2b_p
I0306 19:36:16.005676  8714 net.cpp:157] Top shape: 8 512 7 7 (200704)
I0306 19:36:16.005681  8714 net.cpp:165] Memory required for data: 3642507296
I0306 19:36:16.005689  8714 net.cpp:493] Sharing parameters 'res5a_branch2b_w' owned by layer 'res5a_branch2b', param index 0
I0306 19:36:16.005694  8714 layer_factory.hpp:77] Creating layer bn5a_branch2b_p
I0306 19:36:16.005703  8714 net.cpp:100] Creating Layer bn5a_branch2b_p
I0306 19:36:16.005708  8714 net.cpp:434] bn5a_branch2b_p <- res5a_branch2b_p
I0306 19:36:16.005717  8714 net.cpp:395] bn5a_branch2b_p -> res5a_branch2b_p (in-place)
I0306 19:36:16.006166  8714 net.cpp:150] Setting up bn5a_branch2b_p
I0306 19:36:16.006175  8714 net.cpp:157] Top shape: 8 512 7 7 (200704)
I0306 19:36:16.006177  8714 net.cpp:165] Memory required for data: 3643310112
I0306 19:36:16.006186  8714 layer_factory.hpp:77] Creating layer scale5a_branch2b_p
I0306 19:36:16.006194  8714 net.cpp:100] Creating Layer scale5a_branch2b_p
I0306 19:36:16.006198  8714 net.cpp:434] scale5a_branch2b_p <- res5a_branch2b_p
I0306 19:36:16.006203  8714 net.cpp:395] scale5a_branch2b_p -> res5a_branch2b_p (in-place)
I0306 19:36:16.006289  8714 layer_factory.hpp:77] Creating layer scale5a_branch2b_p
I0306 19:36:16.006530  8714 net.cpp:150] Setting up scale5a_branch2b_p
I0306 19:36:16.006538  8714 net.cpp:157] Top shape: 8 512 7 7 (200704)
I0306 19:36:16.006541  8714 net.cpp:165] Memory required for data: 3644112928
I0306 19:36:16.006547  8714 net.cpp:493] Sharing parameters 'scale5a_branch2b_alpha' owned by layer 'scale5a_branch2b', param index 0
I0306 19:36:16.006553  8714 net.cpp:493] Sharing parameters 'scale5a_branch2b_beta' owned by layer 'scale5a_branch2b', param index 1
I0306 19:36:16.006556  8714 layer_factory.hpp:77] Creating layer res5a_branch2b_relu_p
I0306 19:36:16.006563  8714 net.cpp:100] Creating Layer res5a_branch2b_relu_p
I0306 19:36:16.006567  8714 net.cpp:434] res5a_branch2b_relu_p <- res5a_branch2b_p
I0306 19:36:16.006572  8714 net.cpp:395] res5a_branch2b_relu_p -> res5a_branch2b_p (in-place)
I0306 19:36:16.007231  8714 net.cpp:150] Setting up res5a_branch2b_relu_p
I0306 19:36:16.007244  8714 net.cpp:157] Top shape: 8 512 7 7 (200704)
I0306 19:36:16.007248  8714 net.cpp:165] Memory required for data: 3644915744
I0306 19:36:16.007258  8714 layer_factory.hpp:77] Creating layer res5a_branch2c_p
I0306 19:36:16.007269  8714 net.cpp:100] Creating Layer res5a_branch2c_p
I0306 19:36:16.007273  8714 net.cpp:434] res5a_branch2c_p <- res5a_branch2b_p
I0306 19:36:16.007282  8714 net.cpp:408] res5a_branch2c_p -> res5a_branch2c_p
I0306 19:36:16.010929  8714 net.cpp:150] Setting up res5a_branch2c_p
I0306 19:36:16.010946  8714 net.cpp:157] Top shape: 8 2048 7 7 (802816)
I0306 19:36:16.010948  8714 net.cpp:165] Memory required for data: 3648127008
I0306 19:36:16.010956  8714 net.cpp:493] Sharing parameters 'res5a_branch2c_w' owned by layer 'res5a_branch2c', param index 0
I0306 19:36:16.010959  8714 layer_factory.hpp:77] Creating layer bn5a_branch2c_p
I0306 19:36:16.010967  8714 net.cpp:100] Creating Layer bn5a_branch2c_p
I0306 19:36:16.010972  8714 net.cpp:434] bn5a_branch2c_p <- res5a_branch2c_p
I0306 19:36:16.010977  8714 net.cpp:395] bn5a_branch2c_p -> res5a_branch2c_p (in-place)
I0306 19:36:16.011415  8714 net.cpp:150] Setting up bn5a_branch2c_p
I0306 19:36:16.011422  8714 net.cpp:157] Top shape: 8 2048 7 7 (802816)
I0306 19:36:16.011425  8714 net.cpp:165] Memory required for data: 3651338272
I0306 19:36:16.011433  8714 layer_factory.hpp:77] Creating layer scale5a_branch2c_p
I0306 19:36:16.011441  8714 net.cpp:100] Creating Layer scale5a_branch2c_p
I0306 19:36:16.011445  8714 net.cpp:434] scale5a_branch2c_p <- res5a_branch2c_p
I0306 19:36:16.011451  8714 net.cpp:395] scale5a_branch2c_p -> res5a_branch2c_p (in-place)
I0306 19:36:16.011531  8714 layer_factory.hpp:77] Creating layer scale5a_branch2c_p
I0306 19:36:16.011773  8714 net.cpp:150] Setting up scale5a_branch2c_p
I0306 19:36:16.011781  8714 net.cpp:157] Top shape: 8 2048 7 7 (802816)
I0306 19:36:16.011785  8714 net.cpp:165] Memory required for data: 3654549536
I0306 19:36:16.011790  8714 net.cpp:493] Sharing parameters 'scale5a_branch2c_alpha' owned by layer 'scale5a_branch2c', param index 0
I0306 19:36:16.011795  8714 net.cpp:493] Sharing parameters 'scale5a_branch2c_beta' owned by layer 'scale5a_branch2c', param index 1
I0306 19:36:16.011798  8714 layer_factory.hpp:77] Creating layer res5a_p
I0306 19:36:16.011806  8714 net.cpp:100] Creating Layer res5a_p
I0306 19:36:16.011811  8714 net.cpp:434] res5a_p <- res5a_branch1_p
I0306 19:36:16.011814  8714 net.cpp:434] res5a_p <- res5a_branch2c_p
I0306 19:36:16.011819  8714 net.cpp:408] res5a_p -> res5a_p
I0306 19:36:16.011867  8714 net.cpp:150] Setting up res5a_p
I0306 19:36:16.011873  8714 net.cpp:157] Top shape: 8 2048 7 7 (802816)
I0306 19:36:16.011876  8714 net.cpp:165] Memory required for data: 3657760800
I0306 19:36:16.011880  8714 layer_factory.hpp:77] Creating layer res5a_relu_p
I0306 19:36:16.011885  8714 net.cpp:100] Creating Layer res5a_relu_p
I0306 19:36:16.011889  8714 net.cpp:434] res5a_relu_p <- res5a_p
I0306 19:36:16.011894  8714 net.cpp:395] res5a_relu_p -> res5a_p (in-place)
I0306 19:36:16.012084  8714 net.cpp:150] Setting up res5a_relu_p
I0306 19:36:16.012092  8714 net.cpp:157] Top shape: 8 2048 7 7 (802816)
I0306 19:36:16.012096  8714 net.cpp:165] Memory required for data: 3660972064
I0306 19:36:16.012099  8714 layer_factory.hpp:77] Creating layer res5a_p_res5a_relu_p_0_split
I0306 19:36:16.012105  8714 net.cpp:100] Creating Layer res5a_p_res5a_relu_p_0_split
I0306 19:36:16.012109  8714 net.cpp:434] res5a_p_res5a_relu_p_0_split <- res5a_p
I0306 19:36:16.012115  8714 net.cpp:408] res5a_p_res5a_relu_p_0_split -> res5a_p_res5a_relu_p_0_split_0
I0306 19:36:16.012122  8714 net.cpp:408] res5a_p_res5a_relu_p_0_split -> res5a_p_res5a_relu_p_0_split_1
I0306 19:36:16.012204  8714 net.cpp:150] Setting up res5a_p_res5a_relu_p_0_split
I0306 19:36:16.012210  8714 net.cpp:157] Top shape: 8 2048 7 7 (802816)
I0306 19:36:16.012215  8714 net.cpp:157] Top shape: 8 2048 7 7 (802816)
I0306 19:36:16.012218  8714 net.cpp:165] Memory required for data: 3667394592
I0306 19:36:16.012221  8714 layer_factory.hpp:77] Creating layer res5b_branch2a_p
I0306 19:36:16.012230  8714 net.cpp:100] Creating Layer res5b_branch2a_p
I0306 19:36:16.012234  8714 net.cpp:434] res5b_branch2a_p <- res5a_p_res5a_relu_p_0_split_0
I0306 19:36:16.012246  8714 net.cpp:408] res5b_branch2a_p -> res5b_branch2a_p
I0306 19:36:16.015964  8714 net.cpp:150] Setting up res5b_branch2a_p
I0306 19:36:16.015986  8714 net.cpp:157] Top shape: 8 512 7 7 (200704)
I0306 19:36:16.015991  8714 net.cpp:165] Memory required for data: 3668197408
I0306 19:36:16.015997  8714 net.cpp:493] Sharing parameters 'res5b_branch2a_w' owned by layer 'res5b_branch2a', param index 0
I0306 19:36:16.016002  8714 layer_factory.hpp:77] Creating layer bn5b_branch2a_p
I0306 19:36:16.016013  8714 net.cpp:100] Creating Layer bn5b_branch2a_p
I0306 19:36:16.016018  8714 net.cpp:434] bn5b_branch2a_p <- res5b_branch2a_p
I0306 19:36:16.016024  8714 net.cpp:395] bn5b_branch2a_p -> res5b_branch2a_p (in-place)
I0306 19:36:16.016464  8714 net.cpp:150] Setting up bn5b_branch2a_p
I0306 19:36:16.016474  8714 net.cpp:157] Top shape: 8 512 7 7 (200704)
I0306 19:36:16.016476  8714 net.cpp:165] Memory required for data: 3669000224
I0306 19:36:16.016484  8714 layer_factory.hpp:77] Creating layer scale5b_branch2a_p
I0306 19:36:16.016494  8714 net.cpp:100] Creating Layer scale5b_branch2a_p
I0306 19:36:16.016496  8714 net.cpp:434] scale5b_branch2a_p <- res5b_branch2a_p
I0306 19:36:16.016504  8714 net.cpp:395] scale5b_branch2a_p -> res5b_branch2a_p (in-place)
I0306 19:36:16.016587  8714 layer_factory.hpp:77] Creating layer scale5b_branch2a_p
I0306 19:36:16.016831  8714 net.cpp:150] Setting up scale5b_branch2a_p
I0306 19:36:16.016839  8714 net.cpp:157] Top shape: 8 512 7 7 (200704)
I0306 19:36:16.016842  8714 net.cpp:165] Memory required for data: 3669803040
I0306 19:36:16.016849  8714 net.cpp:493] Sharing parameters 'scale5b_branch2a_alpha' owned by layer 'scale5b_branch2a', param index 0
I0306 19:36:16.016854  8714 net.cpp:493] Sharing parameters 'scale5b_branch2a_beta' owned by layer 'scale5b_branch2a', param index 1
I0306 19:36:16.016857  8714 layer_factory.hpp:77] Creating layer res5b_branch2a_relu_p
I0306 19:36:16.016863  8714 net.cpp:100] Creating Layer res5b_branch2a_relu_p
I0306 19:36:16.016867  8714 net.cpp:434] res5b_branch2a_relu_p <- res5b_branch2a_p
I0306 19:36:16.016871  8714 net.cpp:395] res5b_branch2a_relu_p -> res5b_branch2a_p (in-place)
I0306 19:36:16.017097  8714 net.cpp:150] Setting up res5b_branch2a_relu_p
I0306 19:36:16.017108  8714 net.cpp:157] Top shape: 8 512 7 7 (200704)
I0306 19:36:16.017112  8714 net.cpp:165] Memory required for data: 3670605856
I0306 19:36:16.017117  8714 layer_factory.hpp:77] Creating layer res5b_branch2b_p
I0306 19:36:16.017127  8714 net.cpp:100] Creating Layer res5b_branch2b_p
I0306 19:36:16.017132  8714 net.cpp:434] res5b_branch2b_p <- res5b_branch2a_p
I0306 19:36:16.017138  8714 net.cpp:408] res5b_branch2b_p -> res5b_branch2b_p
I0306 19:36:16.023176  8714 net.cpp:150] Setting up res5b_branch2b_p
I0306 19:36:16.023205  8714 net.cpp:157] Top shape: 8 512 7 7 (200704)
I0306 19:36:16.023211  8714 net.cpp:165] Memory required for data: 3671408672
I0306 19:36:16.023217  8714 net.cpp:493] Sharing parameters 'res5b_branch2b_w' owned by layer 'res5b_branch2b', param index 0
I0306 19:36:16.023222  8714 layer_factory.hpp:77] Creating layer bn5b_branch2b_p
I0306 19:36:16.023231  8714 net.cpp:100] Creating Layer bn5b_branch2b_p
I0306 19:36:16.023236  8714 net.cpp:434] bn5b_branch2b_p <- res5b_branch2b_p
I0306 19:36:16.023244  8714 net.cpp:395] bn5b_branch2b_p -> res5b_branch2b_p (in-place)
I0306 19:36:16.023694  8714 net.cpp:150] Setting up bn5b_branch2b_p
I0306 19:36:16.023703  8714 net.cpp:157] Top shape: 8 512 7 7 (200704)
I0306 19:36:16.023707  8714 net.cpp:165] Memory required for data: 3672211488
I0306 19:36:16.023715  8714 layer_factory.hpp:77] Creating layer scale5b_branch2b_p
I0306 19:36:16.023722  8714 net.cpp:100] Creating Layer scale5b_branch2b_p
I0306 19:36:16.023726  8714 net.cpp:434] scale5b_branch2b_p <- res5b_branch2b_p
I0306 19:36:16.023733  8714 net.cpp:395] scale5b_branch2b_p -> res5b_branch2b_p (in-place)
I0306 19:36:16.023819  8714 layer_factory.hpp:77] Creating layer scale5b_branch2b_p
I0306 19:36:16.024072  8714 net.cpp:150] Setting up scale5b_branch2b_p
I0306 19:36:16.024081  8714 net.cpp:157] Top shape: 8 512 7 7 (200704)
I0306 19:36:16.024085  8714 net.cpp:165] Memory required for data: 3673014304
I0306 19:36:16.024089  8714 net.cpp:493] Sharing parameters 'scale5b_branch2b_alpha' owned by layer 'scale5b_branch2b', param index 0
I0306 19:36:16.024094  8714 net.cpp:493] Sharing parameters 'scale5b_branch2b_beta' owned by layer 'scale5b_branch2b', param index 1
I0306 19:36:16.024098  8714 layer_factory.hpp:77] Creating layer res5b_branch2b_relu_p
I0306 19:36:16.024104  8714 net.cpp:100] Creating Layer res5b_branch2b_relu_p
I0306 19:36:16.024108  8714 net.cpp:434] res5b_branch2b_relu_p <- res5b_branch2b_p
I0306 19:36:16.024114  8714 net.cpp:395] res5b_branch2b_relu_p -> res5b_branch2b_p (in-place)
I0306 19:36:16.024308  8714 net.cpp:150] Setting up res5b_branch2b_relu_p
I0306 19:36:16.024317  8714 net.cpp:157] Top shape: 8 512 7 7 (200704)
I0306 19:36:16.024320  8714 net.cpp:165] Memory required for data: 3673817120
I0306 19:36:16.024324  8714 layer_factory.hpp:77] Creating layer res5b_branch2c_p
I0306 19:36:16.024335  8714 net.cpp:100] Creating Layer res5b_branch2c_p
I0306 19:36:16.024339  8714 net.cpp:434] res5b_branch2c_p <- res5b_branch2b_p
I0306 19:36:16.024346  8714 net.cpp:408] res5b_branch2c_p -> res5b_branch2c_p
I0306 19:36:16.028511  8714 net.cpp:150] Setting up res5b_branch2c_p
I0306 19:36:16.028525  8714 net.cpp:157] Top shape: 8 2048 7 7 (802816)
I0306 19:36:16.028529  8714 net.cpp:165] Memory required for data: 3677028384
I0306 19:36:16.028535  8714 net.cpp:493] Sharing parameters 'res5b_branch2c_w' owned by layer 'res5b_branch2c', param index 0
I0306 19:36:16.028539  8714 layer_factory.hpp:77] Creating layer bn5b_branch2c_p
I0306 19:36:16.028548  8714 net.cpp:100] Creating Layer bn5b_branch2c_p
I0306 19:36:16.028553  8714 net.cpp:434] bn5b_branch2c_p <- res5b_branch2c_p
I0306 19:36:16.028558  8714 net.cpp:395] bn5b_branch2c_p -> res5b_branch2c_p (in-place)
I0306 19:36:16.029021  8714 net.cpp:150] Setting up bn5b_branch2c_p
I0306 19:36:16.029029  8714 net.cpp:157] Top shape: 8 2048 7 7 (802816)
I0306 19:36:16.029032  8714 net.cpp:165] Memory required for data: 3680239648
I0306 19:36:16.029040  8714 layer_factory.hpp:77] Creating layer scale5b_branch2c_p
I0306 19:36:16.029049  8714 net.cpp:100] Creating Layer scale5b_branch2c_p
I0306 19:36:16.029053  8714 net.cpp:434] scale5b_branch2c_p <- res5b_branch2c_p
I0306 19:36:16.029060  8714 net.cpp:395] scale5b_branch2c_p -> res5b_branch2c_p (in-place)
I0306 19:36:16.029144  8714 layer_factory.hpp:77] Creating layer scale5b_branch2c_p
I0306 19:36:16.029418  8714 net.cpp:150] Setting up scale5b_branch2c_p
I0306 19:36:16.029425  8714 net.cpp:157] Top shape: 8 2048 7 7 (802816)
I0306 19:36:16.029429  8714 net.cpp:165] Memory required for data: 3683450912
I0306 19:36:16.029434  8714 net.cpp:493] Sharing parameters 'scale5b_branch2c_alpha' owned by layer 'scale5b_branch2c', param index 0
I0306 19:36:16.029439  8714 net.cpp:493] Sharing parameters 'scale5b_branch2c_beta' owned by layer 'scale5b_branch2c', param index 1
I0306 19:36:16.029443  8714 layer_factory.hpp:77] Creating layer res5b_p
I0306 19:36:16.029450  8714 net.cpp:100] Creating Layer res5b_p
I0306 19:36:16.029454  8714 net.cpp:434] res5b_p <- res5a_p_res5a_relu_p_0_split_1
I0306 19:36:16.029459  8714 net.cpp:434] res5b_p <- res5b_branch2c_p
I0306 19:36:16.029464  8714 net.cpp:408] res5b_p -> res5b_p
I0306 19:36:16.029512  8714 net.cpp:150] Setting up res5b_p
I0306 19:36:16.029518  8714 net.cpp:157] Top shape: 8 2048 7 7 (802816)
I0306 19:36:16.029521  8714 net.cpp:165] Memory required for data: 3686662176
I0306 19:36:16.029525  8714 layer_factory.hpp:77] Creating layer res5b_relu_p
I0306 19:36:16.029531  8714 net.cpp:100] Creating Layer res5b_relu_p
I0306 19:36:16.029534  8714 net.cpp:434] res5b_relu_p <- res5b_p
I0306 19:36:16.029539  8714 net.cpp:395] res5b_relu_p -> res5b_p (in-place)
I0306 19:36:16.029731  8714 net.cpp:150] Setting up res5b_relu_p
I0306 19:36:16.029741  8714 net.cpp:157] Top shape: 8 2048 7 7 (802816)
I0306 19:36:16.029748  8714 net.cpp:165] Memory required for data: 3689873440
I0306 19:36:16.029752  8714 layer_factory.hpp:77] Creating layer res5b_p_res5b_relu_p_0_split
I0306 19:36:16.029758  8714 net.cpp:100] Creating Layer res5b_p_res5b_relu_p_0_split
I0306 19:36:16.029762  8714 net.cpp:434] res5b_p_res5b_relu_p_0_split <- res5b_p
I0306 19:36:16.029769  8714 net.cpp:408] res5b_p_res5b_relu_p_0_split -> res5b_p_res5b_relu_p_0_split_0
I0306 19:36:16.029775  8714 net.cpp:408] res5b_p_res5b_relu_p_0_split -> res5b_p_res5b_relu_p_0_split_1
I0306 19:36:16.029860  8714 net.cpp:150] Setting up res5b_p_res5b_relu_p_0_split
I0306 19:36:16.029867  8714 net.cpp:157] Top shape: 8 2048 7 7 (802816)
I0306 19:36:16.029871  8714 net.cpp:157] Top shape: 8 2048 7 7 (802816)
I0306 19:36:16.029875  8714 net.cpp:165] Memory required for data: 3696295968
I0306 19:36:16.029877  8714 layer_factory.hpp:77] Creating layer res5c_branch2a_p
I0306 19:36:16.029886  8714 net.cpp:100] Creating Layer res5c_branch2a_p
I0306 19:36:16.029891  8714 net.cpp:434] res5c_branch2a_p <- res5b_p_res5b_relu_p_0_split_0
I0306 19:36:16.029897  8714 net.cpp:408] res5c_branch2a_p -> res5c_branch2a_p
I0306 19:36:16.036478  8714 net.cpp:150] Setting up res5c_branch2a_p
I0306 19:36:16.036494  8714 net.cpp:157] Top shape: 8 512 7 7 (200704)
I0306 19:36:16.036497  8714 net.cpp:165] Memory required for data: 3697098784
I0306 19:36:16.036502  8714 net.cpp:493] Sharing parameters 'res5c_branch2a_w' owned by layer 'res5c_branch2a', param index 0
I0306 19:36:16.036507  8714 layer_factory.hpp:77] Creating layer bn5c_branch2a_p
I0306 19:36:16.036514  8714 net.cpp:100] Creating Layer bn5c_branch2a_p
I0306 19:36:16.036517  8714 net.cpp:434] bn5c_branch2a_p <- res5c_branch2a_p
I0306 19:36:16.036525  8714 net.cpp:395] bn5c_branch2a_p -> res5c_branch2a_p (in-place)
I0306 19:36:16.036978  8714 net.cpp:150] Setting up bn5c_branch2a_p
I0306 19:36:16.036988  8714 net.cpp:157] Top shape: 8 512 7 7 (200704)
I0306 19:36:16.036990  8714 net.cpp:165] Memory required for data: 3697901600
I0306 19:36:16.036998  8714 layer_factory.hpp:77] Creating layer scale5c_branch2a_p
I0306 19:36:16.037006  8714 net.cpp:100] Creating Layer scale5c_branch2a_p
I0306 19:36:16.037010  8714 net.cpp:434] scale5c_branch2a_p <- res5c_branch2a_p
I0306 19:36:16.037015  8714 net.cpp:395] scale5c_branch2a_p -> res5c_branch2a_p (in-place)
I0306 19:36:16.037102  8714 layer_factory.hpp:77] Creating layer scale5c_branch2a_p
I0306 19:36:16.037370  8714 net.cpp:150] Setting up scale5c_branch2a_p
I0306 19:36:16.037380  8714 net.cpp:157] Top shape: 8 512 7 7 (200704)
I0306 19:36:16.037384  8714 net.cpp:165] Memory required for data: 3698704416
I0306 19:36:16.037389  8714 net.cpp:493] Sharing parameters 'scale5c_branch2a_alpha' owned by layer 'scale5c_branch2a', param index 0
I0306 19:36:16.037394  8714 net.cpp:493] Sharing parameters 'scale5c_branch2a_beta' owned by layer 'scale5c_branch2a', param index 1
I0306 19:36:16.037396  8714 layer_factory.hpp:77] Creating layer res5c_branch2a_relu_p
I0306 19:36:16.037402  8714 net.cpp:100] Creating Layer res5c_branch2a_relu_p
I0306 19:36:16.037405  8714 net.cpp:434] res5c_branch2a_relu_p <- res5c_branch2a_p
I0306 19:36:16.037410  8714 net.cpp:395] res5c_branch2a_relu_p -> res5c_branch2a_p (in-place)
I0306 19:36:16.037602  8714 net.cpp:150] Setting up res5c_branch2a_relu_p
I0306 19:36:16.037611  8714 net.cpp:157] Top shape: 8 512 7 7 (200704)
I0306 19:36:16.037614  8714 net.cpp:165] Memory required for data: 3699507232
I0306 19:36:16.037617  8714 layer_factory.hpp:77] Creating layer res5c_branch2b_p
I0306 19:36:16.037626  8714 net.cpp:100] Creating Layer res5c_branch2b_p
I0306 19:36:16.037631  8714 net.cpp:434] res5c_branch2b_p <- res5c_branch2a_p
I0306 19:36:16.037637  8714 net.cpp:408] res5c_branch2b_p -> res5c_branch2b_p
I0306 19:36:16.050982  8714 net.cpp:150] Setting up res5c_branch2b_p
I0306 19:36:16.051033  8714 net.cpp:157] Top shape: 8 512 7 7 (200704)
I0306 19:36:16.051046  8714 net.cpp:165] Memory required for data: 3700310048
I0306 19:36:16.051077  8714 net.cpp:493] Sharing parameters 'res5c_branch2b_w' owned by layer 'res5c_branch2b', param index 0
I0306 19:36:16.051091  8714 layer_factory.hpp:77] Creating layer bn5c_branch2b_p
I0306 19:36:16.051115  8714 net.cpp:100] Creating Layer bn5c_branch2b_p
I0306 19:36:16.051129  8714 net.cpp:434] bn5c_branch2b_p <- res5c_branch2b_p
I0306 19:36:16.051151  8714 net.cpp:395] bn5c_branch2b_p -> res5c_branch2b_p (in-place)
I0306 19:36:16.051848  8714 net.cpp:150] Setting up bn5c_branch2b_p
I0306 19:36:16.051859  8714 net.cpp:157] Top shape: 8 512 7 7 (200704)
I0306 19:36:16.051863  8714 net.cpp:165] Memory required for data: 3701112864
I0306 19:36:16.051870  8714 layer_factory.hpp:77] Creating layer scale5c_branch2b_p
I0306 19:36:16.051877  8714 net.cpp:100] Creating Layer scale5c_branch2b_p
I0306 19:36:16.051880  8714 net.cpp:434] scale5c_branch2b_p <- res5c_branch2b_p
I0306 19:36:16.051887  8714 net.cpp:395] scale5c_branch2b_p -> res5c_branch2b_p (in-place)
I0306 19:36:16.051964  8714 layer_factory.hpp:77] Creating layer scale5c_branch2b_p
I0306 19:36:16.052212  8714 net.cpp:150] Setting up scale5c_branch2b_p
I0306 19:36:16.052220  8714 net.cpp:157] Top shape: 8 512 7 7 (200704)
I0306 19:36:16.052223  8714 net.cpp:165] Memory required for data: 3701915680
I0306 19:36:16.052228  8714 net.cpp:493] Sharing parameters 'scale5c_branch2b_alpha' owned by layer 'scale5c_branch2b', param index 0
I0306 19:36:16.052234  8714 net.cpp:493] Sharing parameters 'scale5c_branch2b_beta' owned by layer 'scale5c_branch2b', param index 1
I0306 19:36:16.052238  8714 layer_factory.hpp:77] Creating layer res5c_branch2b_relu_p
I0306 19:36:16.052243  8714 net.cpp:100] Creating Layer res5c_branch2b_relu_p
I0306 19:36:16.052248  8714 net.cpp:434] res5c_branch2b_relu_p <- res5c_branch2b_p
I0306 19:36:16.052253  8714 net.cpp:395] res5c_branch2b_relu_p -> res5c_branch2b_p (in-place)
I0306 19:36:16.052886  8714 net.cpp:150] Setting up res5c_branch2b_relu_p
I0306 19:36:16.052899  8714 net.cpp:157] Top shape: 8 512 7 7 (200704)
I0306 19:36:16.052903  8714 net.cpp:165] Memory required for data: 3702718496
I0306 19:36:16.052906  8714 layer_factory.hpp:77] Creating layer res5c_branch2c_p
I0306 19:36:16.052917  8714 net.cpp:100] Creating Layer res5c_branch2c_p
I0306 19:36:16.052922  8714 net.cpp:434] res5c_branch2c_p <- res5c_branch2b_p
I0306 19:36:16.052928  8714 net.cpp:408] res5c_branch2c_p -> res5c_branch2c_p
I0306 19:36:16.056607  8714 net.cpp:150] Setting up res5c_branch2c_p
I0306 19:36:16.056627  8714 net.cpp:157] Top shape: 8 2048 7 7 (802816)
I0306 19:36:16.056630  8714 net.cpp:165] Memory required for data: 3705929760
I0306 19:36:16.056638  8714 net.cpp:493] Sharing parameters 'res5c_branch2c_w' owned by layer 'res5c_branch2c', param index 0
I0306 19:36:16.056643  8714 layer_factory.hpp:77] Creating layer bn5c_branch2c_p
I0306 19:36:16.056649  8714 net.cpp:100] Creating Layer bn5c_branch2c_p
I0306 19:36:16.056654  8714 net.cpp:434] bn5c_branch2c_p <- res5c_branch2c_p
I0306 19:36:16.056660  8714 net.cpp:395] bn5c_branch2c_p -> res5c_branch2c_p (in-place)
I0306 19:36:16.057152  8714 net.cpp:150] Setting up bn5c_branch2c_p
I0306 19:36:16.057163  8714 net.cpp:157] Top shape: 8 2048 7 7 (802816)
I0306 19:36:16.057166  8714 net.cpp:165] Memory required for data: 3709141024
I0306 19:36:16.057173  8714 layer_factory.hpp:77] Creating layer scale5c_branch2c_p
I0306 19:36:16.057183  8714 net.cpp:100] Creating Layer scale5c_branch2c_p
I0306 19:36:16.057186  8714 net.cpp:434] scale5c_branch2c_p <- res5c_branch2c_p
I0306 19:36:16.057193  8714 net.cpp:395] scale5c_branch2c_p -> res5c_branch2c_p (in-place)
I0306 19:36:16.057298  8714 layer_factory.hpp:77] Creating layer scale5c_branch2c_p
I0306 19:36:16.057549  8714 net.cpp:150] Setting up scale5c_branch2c_p
I0306 19:36:16.057557  8714 net.cpp:157] Top shape: 8 2048 7 7 (802816)
I0306 19:36:16.057560  8714 net.cpp:165] Memory required for data: 3712352288
I0306 19:36:16.057566  8714 net.cpp:493] Sharing parameters 'scale5c_branch2c_alpha' owned by layer 'scale5c_branch2c', param index 0
I0306 19:36:16.057579  8714 net.cpp:493] Sharing parameters 'scale5c_branch2c_beta' owned by layer 'scale5c_branch2c', param index 1
I0306 19:36:16.057582  8714 layer_factory.hpp:77] Creating layer res5c_p
I0306 19:36:16.057587  8714 net.cpp:100] Creating Layer res5c_p
I0306 19:36:16.057592  8714 net.cpp:434] res5c_p <- res5b_p_res5b_relu_p_0_split_1
I0306 19:36:16.057596  8714 net.cpp:434] res5c_p <- res5c_branch2c_p
I0306 19:36:16.057602  8714 net.cpp:408] res5c_p -> res5c_p
I0306 19:36:16.057651  8714 net.cpp:150] Setting up res5c_p
I0306 19:36:16.057657  8714 net.cpp:157] Top shape: 8 2048 7 7 (802816)
I0306 19:36:16.057660  8714 net.cpp:165] Memory required for data: 3715563552
I0306 19:36:16.057663  8714 layer_factory.hpp:77] Creating layer res5c_relu_p
I0306 19:36:16.057669  8714 net.cpp:100] Creating Layer res5c_relu_p
I0306 19:36:16.057672  8714 net.cpp:434] res5c_relu_p <- res5c_p
I0306 19:36:16.057677  8714 net.cpp:395] res5c_relu_p -> res5c_p (in-place)
I0306 19:36:16.057869  8714 net.cpp:150] Setting up res5c_relu_p
I0306 19:36:16.057878  8714 net.cpp:157] Top shape: 8 2048 7 7 (802816)
I0306 19:36:16.057881  8714 net.cpp:165] Memory required for data: 3718774816
I0306 19:36:16.057885  8714 layer_factory.hpp:77] Creating layer pool_p
I0306 19:36:16.057893  8714 net.cpp:100] Creating Layer pool_p
I0306 19:36:16.057896  8714 net.cpp:434] pool_p <- res5c_p
I0306 19:36:16.057902  8714 net.cpp:408] pool_p -> pool_p
I0306 19:36:16.058125  8714 net.cpp:150] Setting up pool_p
I0306 19:36:16.058135  8714 net.cpp:157] Top shape: 8 2048 1 1 (16384)
I0306 19:36:16.058137  8714 net.cpp:165] Memory required for data: 3718840352
I0306 19:36:16.058141  8714 layer_factory.hpp:77] Creating layer ip1_p
I0306 19:36:16.058149  8714 net.cpp:100] Creating Layer ip1_p
I0306 19:36:16.058153  8714 net.cpp:434] ip1_p <- pool_p
I0306 19:36:16.058159  8714 net.cpp:408] ip1_p -> ip1_p
I0306 19:36:16.065315  8714 net.cpp:150] Setting up ip1_p
I0306 19:36:16.065343  8714 net.cpp:157] Top shape: 8 512 (4096)
I0306 19:36:16.065347  8714 net.cpp:165] Memory required for data: 3718856736
I0306 19:36:16.065354  8714 net.cpp:493] Sharing parameters 'ip1_w' owned by layer 'ip1', param index 0
I0306 19:36:16.065359  8714 net.cpp:493] Sharing parameters 'ip1_b' owned by layer 'ip1', param index 1
I0306 19:36:16.065363  8714 layer_factory.hpp:77] Creating layer relu1_p
I0306 19:36:16.065371  8714 net.cpp:100] Creating Layer relu1_p
I0306 19:36:16.065376  8714 net.cpp:434] relu1_p <- ip1_p
I0306 19:36:16.065384  8714 net.cpp:395] relu1_p -> ip1_p (in-place)
I0306 19:36:16.065635  8714 net.cpp:150] Setting up relu1_p
I0306 19:36:16.065645  8714 net.cpp:157] Top shape: 8 512 (4096)
I0306 19:36:16.065649  8714 net.cpp:165] Memory required for data: 3718873120
I0306 19:36:16.065651  8714 layer_factory.hpp:77] Creating layer ip2_p
I0306 19:36:16.065660  8714 net.cpp:100] Creating Layer ip2_p
I0306 19:36:16.065665  8714 net.cpp:434] ip2_p <- ip1_p
I0306 19:36:16.065670  8714 net.cpp:408] ip2_p -> ip2_p
I0306 19:36:16.067281  8714 net.cpp:150] Setting up ip2_p
I0306 19:36:16.067291  8714 net.cpp:157] Top shape: 8 512 (4096)
I0306 19:36:16.067294  8714 net.cpp:165] Memory required for data: 3718889504
I0306 19:36:16.067298  8714 net.cpp:493] Sharing parameters 'ip2_w' owned by layer 'ip2', param index 0
I0306 19:36:16.067303  8714 net.cpp:493] Sharing parameters 'ip2_b' owned by layer 'ip2', param index 1
I0306 19:36:16.067307  8714 layer_factory.hpp:77] Creating layer feat_p
I0306 19:36:16.067313  8714 net.cpp:100] Creating Layer feat_p
I0306 19:36:16.067317  8714 net.cpp:434] feat_p <- ip2_p
I0306 19:36:16.067324  8714 net.cpp:408] feat_p -> feat_p
I0306 19:36:16.070104  8714 net.cpp:150] Setting up feat_p
I0306 19:36:16.070121  8714 net.cpp:157] Top shape: 8 512 (4096)
I0306 19:36:16.070123  8714 net.cpp:165] Memory required for data: 3718905888
I0306 19:36:16.070128  8714 net.cpp:493] Sharing parameters 'feat_w' owned by layer 'feat', param index 0
I0306 19:36:16.070133  8714 net.cpp:493] Sharing parameters 'feat_b' owned by layer 'feat', param index 1
I0306 19:36:16.070137  8714 layer_factory.hpp:77] Creating layer loss
I0306 19:36:16.070156  8714 net.cpp:100] Creating Layer loss
…
