…
I0312 14:13:12.206987 27288 upgrade_proto.cpp:77] Attempting to upgrade batch norm layers using deprecated params: ../merge_models/res50_train_multiprocess.prototxt
I0312 14:13:12.207012 27288 upgrade_proto.cpp:80] Successfully upgraded batch norm layers using deprecated params.
I0312 14:13:12.209487 27288 net.cpp:58] Initializing net from parameters: 
name: "ResNet-50"
state {
  phase: TRAIN
}
layer {
  name: "data"
  type: "MemoryData"
  top: "pairs"
  top: "label"
  memory_data_param {
    batch_size: 8
    channels: 6
    height: 224
    width: 224
  }
}
layer {
  name: "slice"
  type: "Slice"
  bottom: "pairs"
  top: "data"
  top: "data_p"
  slice_param {
    slice_point: 3
    axis: 1
  }
}
layer {
  name: "conv1"
  type: "Convolution"
  bottom: "data"
  top: "conv1"
  param {
    name: "conv1_w"
    lr_mult: 1
  }
  param {
    name: "conv1_b"
    lr_mult: 2
  }
  convolution_param {
    num_output: 64
    pad: 3
    kernel_size: 7
    stride: 2
  }
}
layer {
  name: "bn_conv1"
  type: "BatchNorm"
  bottom: "conv1"
  top: "conv1"
  batch_norm_param {
    use_global_stats: false
  }
}
layer {
  name: "scale_conv1"
  type: "Scale"
  bottom: "conv1"
  top: "conv1"
  param {
    name: "scale_conv1_alpha"
  }
  param {
    name: "scale_conv1_beta"
  }
  scale_param {
    bias_term: true
  }
}
layer {
  name: "conv1_relu"
  type: "ReLU"
  bottom: "conv1"
  top: "conv1"
}
layer {
  name: "pool1"
  type: "Pooling"
  bottom: "conv1"
  top: "pool1"
  pooling_param {
    pool: MAX
    kernel_size: 3
    stride: 2
  }
}
layer {
  name: "res2a_branch1"
  type: "Convolution"
  bottom: "pool1"
  top: "res2a_branch1"
  param {
    name: "res2a_branch1_w"
    lr_mult: 1
  }
  convolution_param {
    num_output: 256
    bias_term: false
    pad: 0
    kernel_size: 1
    stride: 1
  }
}
layer {
  name: "bn2a_branch1"
  type: "BatchNorm"
  bottom: "res2a_branch1"
  top: "res2a_branch1"
  batch_norm_param {
    use_global_stats: false
  }
}
layer {
  name: "scale2a_branch1"
  type: "Scale"
  bottom: "res2a_branch1"
  top: "res2a_branch1"
  param {
    name: "scale2a_branch1_alpha"
  }
  param {
    name: "scale2a_branch1_beta"
  }
  scale_param {
    bias_term: true
  }
}
layer {
  name: "res2a_branch2a"
  type: "Convolution"
  bottom: "pool1"
  top: "res2a_branch2a"
  param {
    name: "res2a_branch2a_w"
    lr_mult: 1
  }
  convolution_param {
    num_output: 64
    bias_term: false
    pad: 0
    kernel_size: 1
    stride: 1
  }
}
layer {
  name: "bn2a_branch2a"
  type: "BatchNorm"
  bottom: "res2a_branch2a"
  top: "res2a_branch2a"
  batch_norm_param {
    use_global_stats: false
  }
}
layer {
  name: "scale2a_branch2a"
  type: "Scale"
  bottom: "res2a_branch2a"
  top: "res2a_branch2a"
  param {
    name: "scale2a_branch2a_alpha"
  }
  param {
    name: "scale2a_branch2a_beta"
  }
  scale_param {
    bias_term: true
  }
}
layer {
  name: "res2a_branch2a_relu"
  type: "ReLU"
  bottom: "res2a_branch2a"
  top: "res2a_branch2a"
}
layer {
  name: "res2a_branch2b"
  type: "Convolution"
  bottom: "res2a_branch2a"
  top: "res2a_branch2b"
  param {
    name: "res2a_branch2b_w"
    lr_mult: 1
  }
  convolution_param {
    num_output: 64
    bias_term: false
    pad: 1
    kernel_size: 3
    stride: 1
  }
}
layer {
  name: "bn2a_branch2b"
  type: "BatchNorm"
  bottom: "res2a_branch2b"
  top: "res2a_branch2b"
  batch_norm_param {
    use_global_stats: false
  }
}
layer {
  name: "scale2a_branch2b"
  type: "Scale"
  bottom: "res2a_branch2b"
  top: "res2a_branch2b"
  param {
    name: "scale2a_branch2b_alpha"
  }
  param {
    name: "scale2a_branch2b_beta"
  }
  scale_param {
    bias_term: true
  }
}
layer {
  name: "res2a_branch2b_relu"
  type: "ReLU"
  bottom: "res2a_branch2b"
  top: "res2a_branch2b"
}
layer {
  name: "res2a_branch2c"
  type: "Convolution"
  bottom: "res2a_branch2b"
  top: "res2a_branch2c"
  param {
    name: "res2a_branch2c_w"
    lr_mult: 1
  }
  convolution_param {
    num_output: 256
    bias_term: false
    pad: 0
    kernel_size: 1
    stride: 1
  }
}
layer {
  name: "bn2a_branch2c"
  type: "BatchNorm"
  bottom: "res2a_branch2c"
  top: "res2a_branch2c"
  batch_norm_param {
    use_global_stats: false
  }
}
layer {
  name: "scale2a_branch2c"
  type: "Scale"
  bottom: "res2a_branch2c"
  top: "res2a_branch2c"
  param {
    name: "scale2a_branch2c_alpha"
  }
  param {
    name: "scale2a_branch2c_beta"
  }
  scale_param {
    bias_term: true
  }
}
layer {
  name: "res2a"
  type: "Eltwise"
  bottom: "res2a_branch1"
  bottom: "res2a_branch2c"
  top: "res2a"
}
layer {
  name: "res2a_relu"
  type: "ReLU"
  bottom: "res2a"
  top: "res2a"
}
layer {
  name: "res2b_branch2a"
  type: "Convolution"
  bottom: "res2a"
  top: "res2b_branch2a"
  param {
    name: "res2b_branch2a_w"
    lr_mult: 1
  }
  convolution_param {
    num_output: 64
    bias_term: false
    pad: 0
    kernel_size: 1
    stride: 1
  }
}
layer {
  name: "bn2b_branch2a"
  type: "BatchNorm"
  bottom: "res2b_branch2a"
  top: "res2b_branch2a"
  batch_norm_param {
    use_global_stats: false
  }
}
layer {
  name: "scale2b_branch2a"
  type: "Scale"
  bottom: "res2b_branch2a"
  top: "res2b_branch2a"
  param {
    name: "scale2b_branch2a_alpha"
  }
  param {
    name: "scale2b_branch2a_beta"
  }
  scale_param {
    bias_term: true
  }
}
layer {
  name: "res2b_branch2a_relu"
  type: "ReLU"
  bottom: "res2b_branch2a"
  top: "res2b_branch2a"
}
layer {
  name: "res2b_branch2b"
  type: "Convolution"
  bottom: "res2b_branch2a"
  top: "res2b_branch2b"
  param {
    name: "res2b_branch2b_w"
    lr_mult: 1
  }
  convolution_param {
    num_output: 64
    bias_term: false
    pad: 1
    kernel_size: 3
    stride: 1
  }
}
layer {
  name: "bn2b_branch2b"
  type: "BatchNorm"
  bottom: "res2b_branch2b"
  top: "res2b_branch2b"
  batch_norm_param {
    use_global_stats: false
  }
}
layer {
  name: "scale2b_branch2b"
  type: "Scale"
  bottom: "res2b_branch2b"
  top: "res2b_branch2b"
  param {
    name: "scale2b_branch2b_alpha"
  }
  param {
    name: "scale2b_branch2b_beta"
  }
  scale_param {
    bias_term: true
  }
}
layer {
  name: "res2b_branch2b_relu"
  type: "ReLU"
  bottom: "res2b_branch2b"
  top: "res2b_branch2b"
}
layer {
  name: "res2b_branch2c"
  type: "Convolution"
  bottom: "res2b_branch2b"
  top: "res2b_branch2c"
  param {
    name: "res2b_branch2c_w"
    lr_mult: 1
  }
  convolution_param {
    num_output: 256
    bias_term: false
    pad: 0
    kernel_size: 1
    stride: 1
  }
}
layer {
  name: "bn2b_branch2c"
  type: "BatchNorm"
  bottom: "res2b_branch2c"
  top: "res2b_branch2c"
  batch_norm_param {
    use_global_stats: false
  }
}
layer {
  name: "scale2b_branch2c"
  type: "Scale"
  bottom: "res2b_branch2c"
  top: "res2b_branch2c"
  param {
    name: "scale2b_branch2c_alpha"
  }
  param {
    name: "scale2b_branch2c_beta"
  }
  scale_param {
    bias_term: true
  }
}
layer {
  name: "res2b"
  type: "Eltwise"
  bottom: "res2a"
  bottom: "res2b_branch2c"
  top: "res2b"
}
layer {
  name: "res2b_relu"
  type: "ReLU"
  bottom: "res2b"
  top: "res2b"
}
layer {
  name: "res2c_branch2a"
  type: "Convolution"
  bottom: "res2b"
  top: "res2c_branch2a"
  param {
    name: "res2c_branch2a_w"
    lr_mult: 1
  }
  convolution_param {
    num_output: 64
    bias_term: false
    pad: 0
    kernel_size: 1
    stride: 1
  }
}
layer {
  name: "bn2c_branch2a"
  type: "BatchNorm"
  bottom: "res2c_branch2a"
  top: "res2c_branch2a"
  batch_norm_param {
    use_global_stats: false
  }
}
layer {
  name: "scale2c_branch2a"
  type: "Scale"
  bottom: "res2c_branch2a"
  top: "res2c_branch2a"
  param {
    name: "scale2c_branch2a_alpha"
  }
  param {
    name: "scale2c_branch2a_beta"
  }
  scale_param {
    bias_term: true
  }
}
layer {
  name: "res2c_branch2a_relu"
  type: "ReLU"
  bottom: "res2c_branch2a"
  top: "res2c_branch2a"
}
layer {
  name: "res2c_branch2b"
  type: "Convolution"
  bottom: "res2c_branch2a"
  top: "res2c_branch2b"
  param {
    name: "res2c_branch2b_w"
    lr_mult: 1
  }
  convolution_param {
    num_output: 64
    bias_term: false
    pad: 1
    kernel_size: 3
    stride: 1
  }
}
layer {
  name: "bn2c_branch2b"
  type: "BatchNorm"
  bottom: "res2c_branch2b"
  top: "res2c_branch2b"
  batch_norm_param {
    use_global_stats: false
  }
}
layer {
  name: "scale2c_branch2b"
  type: "Scale"
  bottom: "res2c_branch2b"
  top: "res2c_branch2b"
  param {
    name: "scale2c_branch2b_alpha"
  }
  param {
    name: "scale2c_branch2b_beta"
  }
  scale_param {
    bias_term: true
  }
}
layer {
  name: "res2c_branch2b_relu"
  type: "ReLU"
  bottom: "res2c_branch2b"
  top: "res2c_branch2b"
}
layer {
  name: "res2c_branch2c"
  type: "Convolution"
  bottom: "res2c_branch2b"
  top: "res2c_branch2c"
  param {
    name: "res2c_branch2c_w"
    lr_mult: 1
  }
  convolution_param {
    num_output: 256
    bias_term: false
    pad: 0
    kernel_size: 1
    stride: 1
  }
}
layer {
  name: "bn2c_branch2c"
  type: "BatchNorm"
  bottom: "res2c_branch2c"
  top: "res2c_branch2c"
  batch_norm_param {
    use_global_stats: false
  }
}
layer {
  name: "scale2c_branch2c"
  type: "Scale"
  bottom: "res2c_branch2c"
  top: "res2c_branch2c"
  param {
    name: "scale2c_branch2c_alpha"
  }
  param {
    name: "scale2c_branch2c_beta"
  }
  scale_param {
    bias_term: true
  }
}
layer {
  name: "res2c"
  type: "Eltwise"
  bottom: "res2b"
  bottom: "res2c_branch2c"
  top: "res2c"
}
layer {
  name: "res2c_relu"
  type: "ReLU"
  bottom: "res2c"
  top: "res2c"
}
layer {
  name: "res3a_branch1"
  type: "Convolution"
  bottom: "res2c"
  top: "res3a_branch1"
  param {
    name: "res3a_branch1_w"
    lr_mult: 1
  }
  convolution_param {
    num_output: 512
    bias_term: false
    pad: 0
    kernel_size: 1
    stride: 2
  }
}
layer {
  name: "bn3a_branch1"
  type: "BatchNorm"
  bottom: "res3a_branch1"
  top: "res3a_branch1"
  batch_norm_param {
    use_global_stats: false
  }
}
layer {
  name: "scale3a_branch1"
  type: "Scale"
  bottom: "res3a_branch1"
  top: "res3a_branch1"
  param {
    name: "scale3a_branch1_alpha"
  }
  param {
    name: "scale3a_branch1_beta"
  }
  scale_param {
    bias_term: true
  }
}
layer {
  name: "res3a_branch2a"
  type: "Convolution"
  bottom: "res2c"
  top: "res3a_branch2a"
  param {
    name: "res3a_branch2a_w"
    lr_mult: 1
  }
  convolution_param {
    num_output: 128
    bias_term: false
    pad: 0
    kernel_size: 1
    stride: 2
  }
}
layer {
  name: "bn3a_branch2a"
  type: "BatchNorm"
  bottom: "res3a_branch2a"
  top: "res3a_branch2a"
  batch_norm_param {
    use_global_stats: false
  }
}
layer {
  name: "scale3a_branch2a"
  type: "Scale"
  bottom: "res3a_branch2a"
  top: "res3a_branch2a"
  param {
    name: "scale3a_branch2a_alpha"
  }
  param {
    name: "scale3a_branch2a_beta"
  }
  scale_param {
    bias_term: true
  }
}
layer {
  name: "res3a_branch2a_relu"
  type: "ReLU"
  bottom: "res3a_branch2a"
  top: "res3a_branch2a"
}
layer {
  name: "res3a_branch2b"
  type: "Convolution"
  bottom: "res3a_branch2a"
  top: "res3a_branch2b"
  param {
    name: "res3a_branch2b_w"
    lr_mult: 1
  }
  convolution_param {
    num_output: 128
    bias_term: false
    pad: 1
    kernel_size: 3
    stride: 1
  }
}
layer {
  name: "bn3a_branch2b"
  type: "BatchNorm"
  bottom: "res3a_branch2b"
  top: "res3a_branch2b"
  batch_norm_param {
    use_global_stats: false
  }
}
layer {
  name: "scale3a_branch2b"
  type: "Scale"
  bottom: "res3a_branch2b"
  top: "res3a_branch2b"
  param {
    name: "scale3a_branch2b_alpha"
  }
  param {
    name: "scale3a_branch2b_beta"
  }
  scale_param {
    bias_term: true
  }
}
layer {
  name: "res3a_branch2b_relu"
  type: "ReLU"
  bottom: "res3a_branch2b"
  top: "res3a_branch2b"
}
layer {
  name: "res3a_branch2c"
  type: "Convolution"
  bottom: "res3a_branch2b"
  top: "res3a_branch2c"
  param {
    name: "res3a_branch2c_w"
    lr_mult: 1
  }
  convolution_param {
    num_output: 512
    bias_term: false
    pad: 0
    kernel_size: 1
    stride: 1
  }
}
layer {
  name: "bn3a_branch2c"
  type: "BatchNorm"
  bottom: "res3a_branch2c"
  top: "res3a_branch2c"
  batch_norm_param {
    use_global_stats: false
  }
}
layer {
  name: "scale3a_branch2c"
  type: "Scale"
  bottom: "res3a_branch2c"
  top: "res3a_branch2c"
  param {
    name: "scale3a_branch2c_alpha"
  }
  param {
    name: "scale3a_branch2c_beta"
  }
  scale_param {
    bias_term: true
  }
}
layer {
  name: "res3a"
  type: "Eltwise"
  bottom: "res3a_branch1"
  bottom: "res3a_branch2c"
  top: "res3a"
}
layer {
  name: "res3a_relu"
  type: "ReLU"
  bottom: "res3a"
  top: "res3a"
}
layer {
  name: "res3b_branch2a"
  type: "Convolution"
  bottom: "res3a"
  top: "res3b_branch2a"
  param {
    name: "res3b_branch2a_w"
    lr_mult: 1
  }
  convolution_param {
    num_output: 128
    bias_term: false
    pad: 0
    kernel_size: 1
    stride: 1
  }
}
layer {
  name: "bn3b_branch2a"
  type: "BatchNorm"
  bottom: "res3b_branch2a"
  top: "res3b_branch2a"
  batch_norm_param {
    use_global_stats: false
  }
}
layer {
  name: "scale3b_branch2a"
  type: "Scale"
  bottom: "res3b_branch2a"
  top: "res3b_branch2a"
  param {
    name: "scale3b_branch2a_alpha"
  }
  param {
    name: "scale3b_branch2a_beta"
  }
  scale_param {
    bias_term: true
  }
}
layer {
  name: "res3b_branch2a_relu"
  type: "ReLU"
  bottom: "res3b_branch2a"
  top: "res3b_branch2a"
}
layer {
  name: "res3b_branch2b"
  type: "Convolution"
  bottom: "res3b_branch2a"
  top: "res3b_branch2b"
  param {
    name: "res3b_branch2b_w"
    lr_mult: 1
  }
  convolution_param {
    num_output: 128
    bias_term: false
    pad: 1
    kernel_size: 3
    stride: 1
  }
}
layer {
  name: "bn3b_branch2b"
  type: "BatchNorm"
  bottom: "res3b_branch2b"
  top: "res3b_branch2b"
  batch_norm_param {
    use_global_stats: false
  }
}
layer {
  name: "scale3b_branch2b"
  type: "Scale"
  bottom: "res3b_branch2b"
  top: "res3b_branch2b"
  param {
    name: "scale3b_branch2b_alpha"
  }
  param {
    name: "scale3b_branch2b_beta"
  }
  scale_param {
    bias_term: true
  }
}
layer {
  name: "res3b_branch2b_relu"
  type: "ReLU"
  bottom: "res3b_branch2b"
  top: "res3b_branch2b"
}
layer {
  name: "res3b_branch2c"
  type: "Convolution"
  bottom: "res3b_branch2b"
  top: "res3b_branch2c"
  param {
    name: "res3b_branch2c_w"
    lr_mult: 1
  }
  convolution_param {
    num_output: 512
    bias_term: false
    pad: 0
    kernel_size: 1
    stride: 1
  }
}
layer {
  name: "bn3b_branch2c"
  type: "BatchNorm"
  bottom: "res3b_branch2c"
  top: "res3b_branch2c"
  batch_norm_param {
    use_global_stats: false
  }
}
layer {
  name: "scale3b_branch2c"
  type: "Scale"
  bottom: "res3b_branch2c"
  top: "res3b_branch2c"
  param {
    name: "scale3b_branch2c_alpha"
  }
  param {
    name: "scale3b_branch2c_beta"
  }
  scale_param {
    bias_term: true
  }
}
layer {
  name: "res3b"
  type: "Eltwise"
  bottom: "res3a"
  bottom: "res3b_branch2c"
  top: "res3b"
}
layer {
  name: "res3b_relu"
  type: "ReLU"
  bottom: "res3b"
  top: "res3b"
}
layer {
  name: "res3c_branch2a"
  type: "Convolution"
  bottom: "res3b"
  top: "res3c_branch2a"
  param {
    name: "res3c_branch2a_w"
    lr_mult: 1
  }
  convolution_param {
    num_output: 128
    bias_term: false
    pad: 0
    kernel_size: 1
    stride: 1
  }
}
layer {
  name: "bn3c_branch2a"
  type: "BatchNorm"
  bottom: "res3c_branch2a"
  top: "res3c_branch2a"
  batch_norm_param {
    use_global_stats: false
  }
}
layer {
  name: "scale3c_branch2a"
  type: "Scale"
  bottom: "res3c_branch2a"
  top: "res3c_branch2a"
  param {
    name: "scale3c_branch2a_alpha"
  }
  param {
    name: "scale3c_branch2a_beta"
  }
  scale_param {
    bias_term: true
  }
}
layer {
  name: "res3c_branch2a_relu"
  type: "ReLU"
  bottom: "res3c_branch2a"
  top: "res3c_branch2a"
}
layer {
  name: "res3c_branch2b"
  type: "Convolution"
  bottom: "res3c_branch2a"
  top: "res3c_branch2b"
  param {
    name: "res3c_branch2b_w"
    lr_mult: 1
  }
  convolution_param {
    num_output: 128
    bias_term: false
    pad: 1
    kernel_size: 3
    stride: 1
  }
}
layer {
  name: "bn3c_branch2b"
  type: "BatchNorm"
  bottom: "res3c_branch2b"
  top: "res3c_branch2b"
  batch_norm_param {
    use_global_stats: false
  }
}
layer {
  name: "scale3c_branch2b"
  type: "Scale"
  bottom: "res3c_branch2b"
  top: "res3c_branch2b"
  param {
    name: "scale3c_branch2b_alpha"
  }
  param {
    name: "scale3c_branch2b_beta"
  }
  scale_param {
    bias_term: true
  }
}
layer {
  name: "res3c_branch2b_relu"
  type: "ReLU"
  bottom: "res3c_branch2b"
  top: "res3c_branch2b"
}
layer {
  name: "res3c_branch2c"
  type: "Convolution"
  bottom: "res3c_branch2b"
  top: "res3c_branch2c"
  param {
    name: "res3c_branch2c_w"
    lr_mult: 1
  }
  convolution_param {
    num_output: 512
    bias_term: false
    pad: 0
    kernel_size: 1
    stride: 1
  }
}
layer {
  name: "bn3c_branch2c"
  type: "BatchNorm"
  bottom: "res3c_branch2c"
  top: "res3c_branch2c"
  batch_norm_param {
    use_global_stats: false
  }
}
layer {
  name: "scale3c_branch2c"
  type: "Scale"
  bottom: "res3c_branch2c"
  top: "res3c_branch2c"
  param {
    name: "scale3c_branch2c_alpha"
  }
  param {
    name: "scale3c_branch2c_beta"
  }
  scale_param {
    bias_term: true
  }
}
layer {
  name: "res3c"
  type: "Eltwise"
  bottom: "res3b"
  bottom: "res3c_branch2c"
  top: "res3c"
}
layer {
  name: "res3c_relu"
  type: "ReLU"
  bottom: "res3c"
  top: "res3c"
}
layer {
  name: "res3d_branch2a"
  type: "Convolution"
  bottom: "res3c"
  top: "res3d_branch2a"
  param {
    name: "res3d_branch2a_w"
    lr_mult: 1
  }
  convolution_param {
    num_output: 128
    bias_term: false
    pad: 0
    kernel_size: 1
    stride: 1
  }
}
layer {
  name: "bn3d_branch2a"
  type: "BatchNorm"
  bottom: "res3d_branch2a"
  top: "res3d_branch2a"
  batch_norm_param {
    use_global_stats: false
  }
}
layer {
  name: "scale3d_branch2a"
  type: "Scale"
  bottom: "res3d_branch2a"
  top: "res3d_branch2a"
  param {
    name: "scale3d_branch2a_alpha"
  }
  param {
    name: "scale3d_branch2a_beta"
  }
  scale_param {
    bias_term: true
  }
}
layer {
  name: "res3d_branch2a_relu"
  type: "ReLU"
  bottom: "res3d_branch2a"
  top: "res3d_branch2a"
}
layer {
  name: "res3d_branch2b"
  type: "Convolution"
  bottom: "res3d_branch2a"
  top: "res3d_branch2b"
  param {
    name: "res3d_branch2b_w"
    lr_mult: 1
  }
  convolution_param {
    num_output: 128
    bias_term: false
    pad: 1
    kernel_size: 3
    stride: 1
  }
}
layer {
  name: "bn3d_branch2b"
  type: "BatchNorm"
  bottom: "res3d_branch2b"
  top: "res3d_branch2b"
  batch_norm_param {
    use_global_stats: false
  }
}
layer {
  name: "scale3d_branch2b"
  type: "Scale"
  bottom: "res3d_branch2b"
  top: "res3d_branch2b"
  param {
    name: "scale3d_branch2b_alpha"
  }
  param {
    name: "scale3d_branch2b_beta"
  }
  scale_param {
    bias_term: true
  }
}
layer {
  name: "res3d_branch2b_relu"
  type: "ReLU"
  bottom: "res3d_branch2b"
  top: "res3d_branch2b"
}
layer {
  name: "res3d_branch2c"
  type: "Convolution"
  bottom: "res3d_branch2b"
  top: "res3d_branch2c"
  param {
    name: "res3d_branch2c_w"
    lr_mult: 1
  }
  convolution_param {
    num_output: 512
    bias_term: false
    pad: 0
    kernel_size: 1
    stride: 1
  }
}
layer {
  name: "bn3d_branch2c"
  type: "BatchNorm"
  bottom: "res3d_branch2c"
  top: "res3d_branch2c"
  batch_norm_param {
    use_global_stats: false
  }
}
layer {
  name: "scale3d_branch2c"
  type: "Scale"
  bottom: "res3d_branch2c"
  top: "res3d_branch2c"
  param {
    name: "scale3d_branch2c_alpha"
  }
  param {
    name: "scale3d_branch2c_beta"
  }
  scale_param {
    bias_term: true
  }
}
layer {
  name: "res3d"
  type: "Eltwise"
  bottom: "res3c"
  bottom: "res3d_branch2c"
  top: "res3d"
}
layer {
  name: "res3d_relu"
  type: "ReLU"
  bottom: "res3d"
  top: "res3d"
}
layer {
  name: "res4a_branch1"
  type: "Convolution"
  bottom: "res3d"
  top: "res4a_branch1"
  param {
    name: "res4a_branch1_w"
    lr_mult: 1
  }
  convolution_param {
    num_output: 1024
    bias_term: false
    pad: 0
    kernel_size: 1
    stride: 2
  }
}
layer {
  name: "bn4a_branch1"
  type: "BatchNorm"
  bottom: "res4a_branch1"
  top: "res4a_branch1"
  batch_norm_param {
    use_global_stats: false
  }
}
layer {
  name: "scale4a_branch1"
  type: "Scale"
  bottom: "res4a_branch1"
  top: "res4a_branch1"
  param {
    name: "scale4a_branch1_alpha"
  }
  param {
    name: "scale4a_branch1_beta"
  }
  scale_param {
    bias_term: true
  }
}
layer {
  name: "res4a_branch2a"
  type: "Convolution"
  bottom: "res3d"
  top: "res4a_branch2a"
  param {
    name: "res4a_branch2a_w"
    lr_mult: 1
  }
  convolution_param {
    num_output: 256
    bias_term: false
    pad: 0
    kernel_size: 1
    stride: 2
  }
}
layer {
  name: "bn4a_branch2a"
  type: "BatchNorm"
  bottom: "res4a_branch2a"
  top: "res4a_branch2a"
  batch_norm_param {
    use_global_stats: false
  }
}
layer {
  name: "scale4a_branch2a"
  type: "Scale"
  bottom: "res4a_branch2a"
  top: "res4a_branch2a"
  param {
    name: "scale4a_branch2a_alpha"
  }
  param {
    name: "scale4a_branch2a_beta"
  }
  scale_param {
    bias_term: true
  }
}
layer {
  name: "res4a_branch2a_relu"
  type: "ReLU"
  bottom: "res4a_branch2a"
  top: "res4a_branch2a"
}
layer {
  name: "res4a_branch2b"
  type: "Convolution"
  bottom: "res4a_branch2a"
  top: "res4a_branch2b"
  param {
    name: "res4a_branch2b_w"
    lr_mult: 1
  }
  convolution_param {
    num_output: 256
    bias_term: false
    pad: 1
    kernel_size: 3
    stride: 1
  }
}
layer {
  name: "bn4a_branch2b"
  type: "BatchNorm"
  bottom: "res4a_branch2b"
  top: "res4a_branch2b"
  batch_norm_param {
    use_global_stats: false
  }
}
layer {
  name: "scale4a_branch2b"
  type: "Scale"
  bottom: "res4a_branch2b"
  top: "res4a_branch2b"
  param {
    name: "scale4a_branch2b_alpha"
  }
  param {
    name: "scale4a_branch2b_beta"
  }
  scale_param {
    bias_term: true
  }
}
layer {
  name: "res4a_branch2b_relu"
  type: "ReLU"
  bottom: "res4a_branch2b"
  top: "res4a_branch2b"
}
layer {
  name: "res4a_branch2c"
  type: "Convolution"
  bottom: "res4a_branch2b"
  top: "res4a_branch2c"
  param {
    name: "res4a_branch2c_w"
    lr_mult: 1
  }
  convolution_param {
    num_output: 1024
    bias_term: false
    pad: 0
    kernel_size: 1
    stride: 1
  }
}
layer {
  name: "bn4a_branch2c"
  type: "BatchNorm"
  bottom: "res4a_branch2c"
  top: "res4a_branch2c"
  batch_norm_param {
    use_global_stats: false
  }
}
layer {
  name: "scale4a_branch2c"
  type: "Scale"
  bottom: "res4a_branch2c"
  top: "res4a_branch2c"
  param {
    name: "scale4a_branch2c_alpha"
  }
  param {
    name: "scale4a_branch2c_beta"
  }
  scale_param {
    bias_term: true
  }
}
layer {
  name: "res4a"
  type: "Eltwise"
  bottom: "res4a_branch1"
  bottom: "res4a_branch2c"
  top: "res4a"
}
layer {
  name: "res4a_relu"
  type: "ReLU"
  bottom: "res4a"
  top: "res4a"
}
layer {
  name: "res4b_branch2a"
  type: "Convolution"
  bottom: "res4a"
  top: "res4b_branch2a"
  param {
    name: "res4b_branch2a_w"
    lr_mult: 1
  }
  convolution_param {
    num_output: 256
    bias_term: false
    pad: 0
    kernel_size: 1
    stride: 1
  }
}
layer {
  name: "bn4b_branch2a"
  type: "BatchNorm"
  bottom: "res4b_branch2a"
  top: "res4b_branch2a"
  batch_norm_param {
    use_global_stats: false
  }
}
layer {
  name: "scale4b_branch2a"
  type: "Scale"
  bottom: "res4b_branch2a"
  top: "res4b_branch2a"
  param {
    name: "scale4b_branch2a_alpha"
  }
  param {
    name: "scale4b_branch2a_beta"
  }
  scale_param {
    bias_term: true
  }
}
layer {
  name: "res4b_branch2a_relu"
  type: "ReLU"
  bottom: "res4b_branch2a"
  top: "res4b_branch2a"
}
layer {
  name: "res4b_branch2b"
  type: "Convolution"
  bottom: "res4b_branch2a"
  top: "res4b_branch2b"
  param {
    name: "res4b_branch2b_w"
    lr_mult: 1
  }
  convolution_param {
    num_output: 256
    bias_term: false
    pad: 1
    kernel_size: 3
    stride: 1
  }
}
layer {
  name: "bn4b_branch2b"
  type: "BatchNorm"
  bottom: "res4b_branch2b"
  top: "res4b_branch2b"
  batch_norm_param {
    use_global_stats: false
  }
}
layer {
  name: "scale4b_branch2b"
  type: "Scale"
  bottom: "res4b_branch2b"
  top: "res4b_branch2b"
  param {
    name: "scale4b_branch2b_alpha"
  }
  param {
    name: "scale4b_branch2b_beta"
  }
  scale_param {
    bias_term: true
  }
}
layer {
  name: "res4b_branch2b_relu"
  type: "ReLU"
  bottom: "res4b_branch2b"
  top: "res4b_branch2b"
}
layer {
  name: "res4b_branch2c"
  type: "Convolution"
  bottom: "res4b_branch2b"
  top: "res4b_branch2c"
  param {
    name: "res4b_branch2c_w"
    lr_mult: 1
  }
  convolution_param {
    num_output: 1024
    bias_term: false
    pad: 0
    kernel_size: 1
    stride: 1
  }
}
layer {
  name: "bn4b_branch2c"
  type: "BatchNorm"
  bottom: "res4b_branch2c"
  top: "res4b_branch2c"
  batch_norm_param {
    use_global_stats: false
  }
}
layer {
  name: "scale4b_branch2c"
  type: "Scale"
  bottom: "res4b_branch2c"
  top: "res4b_branch2c"
  param {
    name: "scale4b_branch2c_alpha"
  }
  param {
    name: "scale4b_branch2c_beta"
  }
  scale_param {
    bias_term: true
  }
}
layer {
  name: "res4b"
  type: "Eltwise"
  bottom: "res4a"
  bottom: "res4b_branch2c"
  top: "res4b"
}
layer {
  name: "res4b_relu"
  type: "ReLU"
  bottom: "res4b"
  top: "res4b"
}
layer {
  name: "res4c_branch2a"
  type: "Convolution"
  bottom: "res4b"
  top: "res4c_branch2a"
  param {
    name: "res4c_branch2a_w"
    lr_mult: 1
  }
  convolution_param {
    num_output: 256
    bias_term: false
    pad: 0
    kernel_size: 1
    stride: 1
  }
}
layer {
  name: "bn4c_branch2a"
  type: "BatchNorm"
  bottom: "res4c_branch2a"
  top: "res4c_branch2a"
  batch_norm_param {
    use_global_stats: false
  }
}
layer {
  name: "scale4c_branch2a"
  type: "Scale"
  bottom: "res4c_branch2a"
  top: "res4c_branch2a"
  param {
    name: "scale4c_branch2a_alpha"
  }
  param {
    name: "scale4c_branch2a_beta"
  }
  scale_param {
    bias_term: true
  }
}
layer {
  name: "res4c_branch2a_relu"
  type: "ReLU"
  bottom: "res4c_branch2a"
  top: "res4c_branch2a"
}
layer {
  name: "res4c_branch2b"
  type: "Convolution"
  bottom: "res4c_branch2a"
  top: "res4c_branch2b"
  param {
    name: "res4c_branch2b_w"
    lr_mult: 1
  }
  convolution_param {
    num_output: 256
    bias_term: false
    pad: 1
    kernel_size: 3
    stride: 1
  }
}
layer {
  name: "bn4c_branch2b"
  type: "BatchNorm"
  bottom: "res4c_branch2b"
  top: "res4c_branch2b"
  batch_norm_param {
    use_global_stats: false
  }
}
layer {
  name: "scale4c_branch2b"
  type: "Scale"
  bottom: "res4c_branch2b"
  top: "res4c_branch2b"
  param {
    name: "scale4c_branch2b_alpha"
  }
  param {
    name: "scale4c_branch2b_beta"
  }
  scale_param {
    bias_term: true
  }
}
layer {
  name: "res4c_branch2b_relu"
  type: "ReLU"
  bottom: "res4c_branch2b"
  top: "res4c_branch2b"
}
layer {
  name: "res4c_branch2c"
  type: "Convolution"
  bottom: "res4c_branch2b"
  top: "res4c_branch2c"
  param {
    name: "res4c_branch2c_w"
    lr_mult: 1
  }
  convolution_param {
    num_output: 1024
    bias_term: false
    pad: 0
    kernel_size: 1
    stride: 1
  }
}
layer {
  name: "bn4c_branch2c"
  type: "BatchNorm"
  bottom: "res4c_branch2c"
  top: "res4c_branch2c"
  batch_norm_param {
    use_global_stats: false
  }
}
layer {
  name: "scale4c_branch2c"
  type: "Scale"
  bottom: "res4c_branch2c"
  top: "res4c_branch2c"
  param {
    name: "scale4c_branch2c_alpha"
  }
  param {
    name: "scale4c_branch2c_beta"
  }
  scale_param {
    bias_term: true
  }
}
layer {
  name: "res4c"
  type: "Eltwise"
  bottom: "res4b"
  bottom: "res4c_branch2c"
  top: "res4c"
}
layer {
  name: "res4c_relu"
  type: "ReLU"
  bottom: "res4c"
  top: "res4c"
}
layer {
  name: "res4d_branch2a"
  type: "Convolution"
  bottom: "res4c"
  top: "res4d_branch2a"
  param {
    name: "res4d_branch2a_w"
    lr_mult: 1
  }
  convolution_param {
    num_output: 256
    bias_term: false
    pad: 0
    kernel_size: 1
    stride: 1
  }
}
layer {
  name: "bn4d_branch2a"
  type: "BatchNorm"
  bottom: "res4d_branch2a"
  top: "res4d_branch2a"
  batch_norm_param {
    use_global_stats: false
  }
}
layer {
  name: "scale4d_branch2a"
  type: "Scale"
  bottom: "res4d_branch2a"
  top: "res4d_branch2a"
  param {
    name: "scale4d_branch2a_alpha"
  }
  param {
    name: "scale4d_branch2a_beta"
  }
  scale_param {
    bias_term: true
  }
}
layer {
  name: "res4d_branch2a_relu"
  type: "ReLU"
  bottom: "res4d_branch2a"
  top: "res4d_branch2a"
}
layer {
  name: "res4d_branch2b"
  type: "Convolution"
  bottom: "res4d_branch2a"
  top: "res4d_branch2b"
  param {
    name: "res4d_branch2b_w"
    lr_mult: 1
  }
  convolution_param {
    num_output: 256
    bias_term: false
    pad: 1
    kernel_size: 3
    stride: 1
  }
}
layer {
  name: "bn4d_branch2b"
  type: "BatchNorm"
  bottom: "res4d_branch2b"
  top: "res4d_branch2b"
  batch_norm_param {
    use_global_stats: false
  }
}
layer {
  name: "scale4d_branch2b"
  type: "Scale"
  bottom: "res4d_branch2b"
  top: "res4d_branch2b"
  param {
    name: "scale4d_branch2b_alpha"
  }
  param {
    name: "scale4d_branch2b_beta"
  }
  scale_param {
    bias_term: true
  }
}
layer {
  name: "res4d_branch2b_relu"
  type: "ReLU"
  bottom: "res4d_branch2b"
  top: "res4d_branch2b"
}
layer {
  name: "res4d_branch2c"
  type: "Convolution"
  bottom: "res4d_branch2b"
  top: "res4d_branch2c"
  param {
    name: "res4d_branch2c_w"
    lr_mult: 1
  }
  convolution_param {
    num_output: 1024
    bias_term: false
    pad: 0
    kernel_size: 1
    stride: 1
  }
}
layer {
  name: "bn4d_branch2c"
  type: "BatchNorm"
  bottom: "res4d_branch2c"
  top: "res4d_branch2c"
  batch_norm_param {
    use_global_stats: false
  }
}
layer {
  name: "scale4d_branch2c"
  type: "Scale"
  bottom: "res4d_branch2c"
  top: "res4d_branch2c"
  param {
    name: "scale4d_branch2c_alpha"
  }
  param {
    name: "scale4d_branch2c_beta"
  }
  scale_param {
    bias_term: true
  }
}
layer {
  name: "res4d"
  type: "Eltwise"
  bottom: "res4c"
  bottom: "res4d_branch2c"
  top: "res4d"
}
layer {
  name: "res4d_relu"
  type: "ReLU"
  bottom: "res4d"
  top: "res4d"
}
layer {
  name: "res4e_branch2a"
  type: "Convolution"
  bottom: "res4d"
  top: "res4e_branch2a"
  param {
    name: "res4e_branch2a_w"
    lr_mult: 1
  }
  convolution_param {
    num_output:
I0312 14:13:12.211359 27288 layer_factory.hpp:77] Creating layer data
I0312 14:13:12.211392 27288 net.cpp:100] Creating Layer data
I0312 14:13:12.211401 27288 net.cpp:408] data -> pairs
I0312 14:13:12.211411 27288 net.cpp:408] data -> label
I0312 14:13:12.248086 27288 net.cpp:150] Setting up data
I0312 14:13:12.248126 27288 net.cpp:157] Top shape: 8 6 224 224 (2408448)
I0312 14:13:12.248132 27288 net.cpp:157] Top shape: 8 (8)
I0312 14:13:12.248136 27288 net.cpp:165] Memory required for data: 9633824
I0312 14:13:12.248142 27288 layer_factory.hpp:77] Creating layer slice
I0312 14:13:12.248165 27288 net.cpp:100] Creating Layer slice
I0312 14:13:12.248170 27288 net.cpp:434] slice <- pairs
I0312 14:13:12.248178 27288 net.cpp:408] slice -> data
I0312 14:13:12.248189 27288 net.cpp:408] slice -> data_p
I0312 14:13:12.248241 27288 net.cpp:150] Setting up slice
I0312 14:13:12.248247 27288 net.cpp:157] Top shape: 8 3 224 224 (1204224)
I0312 14:13:12.248251 27288 net.cpp:157] Top shape: 8 3 224 224 (1204224)
I0312 14:13:12.248255 27288 net.cpp:165] Memory required for data: 19267616
I0312 14:13:12.248258 27288 layer_factory.hpp:77] Creating layer conv1
I0312 14:13:12.248268 27288 net.cpp:100] Creating Layer conv1
I0312 14:13:12.248272 27288 net.cpp:434] conv1 <- data
I0312 14:13:12.248278 27288 net.cpp:408] conv1 -> conv1
I0312 14:13:12.622479 27288 net.cpp:150] Setting up conv1
I0312 14:13:12.622509 27288 net.cpp:157] Top shape: 8 64 112 112 (6422528)
I0312 14:13:12.622514 27288 net.cpp:165] Memory required for data: 44957728
I0312 14:13:12.622527 27288 layer_factory.hpp:77] Creating layer bn_conv1
I0312 14:13:12.622541 27288 net.cpp:100] Creating Layer bn_conv1
I0312 14:13:12.622545 27288 net.cpp:434] bn_conv1 <- conv1
I0312 14:13:12.622560 27288 net.cpp:395] bn_conv1 -> conv1 (in-place)
I0312 14:13:12.622817 27288 net.cpp:150] Setting up bn_conv1
I0312 14:13:12.622824 27288 net.cpp:157] Top shape: 8 64 112 112 (6422528)
I0312 14:13:12.622828 27288 net.cpp:165] Memory required for data: 70647840
I0312 14:13:12.622838 27288 layer_factory.hpp:77] Creating layer scale_conv1
I0312 14:13:12.622848 27288 net.cpp:100] Creating Layer scale_conv1
I0312 14:13:12.622851 27288 net.cpp:434] scale_conv1 <- conv1
I0312 14:13:12.622856 27288 net.cpp:395] scale_conv1 -> conv1 (in-place)
I0312 14:13:12.622905 27288 layer_factory.hpp:77] Creating layer scale_conv1
I0312 14:13:12.623055 27288 net.cpp:150] Setting up scale_conv1
I0312 14:13:12.623062 27288 net.cpp:157] Top shape: 8 64 112 112 (6422528)
I0312 14:13:12.623065 27288 net.cpp:165] Memory required for data: 96337952
I0312 14:13:12.623070 27288 layer_factory.hpp:77] Creating layer conv1_relu
I0312 14:13:12.623080 27288 net.cpp:100] Creating Layer conv1_relu
I0312 14:13:12.623083 27288 net.cpp:434] conv1_relu <- conv1
I0312 14:13:12.623088 27288 net.cpp:395] conv1_relu -> conv1 (in-place)
I0312 14:13:12.623237 27288 net.cpp:150] Setting up conv1_relu
I0312 14:13:12.623246 27288 net.cpp:157] Top shape: 8 64 112 112 (6422528)
I0312 14:13:12.623250 27288 net.cpp:165] Memory required for data: 122028064
I0312 14:13:12.623252 27288 layer_factory.hpp:77] Creating layer pool1
I0312 14:13:12.623258 27288 net.cpp:100] Creating Layer pool1
I0312 14:13:12.623262 27288 net.cpp:434] pool1 <- conv1
I0312 14:13:12.623267 27288 net.cpp:408] pool1 -> pool1
I0312 14:13:12.623319 27288 net.cpp:150] Setting up pool1
I0312 14:13:12.623325 27288 net.cpp:157] Top shape: 8 64 56 56 (1605632)
I0312 14:13:12.623328 27288 net.cpp:165] Memory required for data: 128450592
I0312 14:13:12.623332 27288 layer_factory.hpp:77] Creating layer pool1_pool1_0_split
I0312 14:13:12.623337 27288 net.cpp:100] Creating Layer pool1_pool1_0_split
I0312 14:13:12.623340 27288 net.cpp:434] pool1_pool1_0_split <- pool1
I0312 14:13:12.623345 27288 net.cpp:408] pool1_pool1_0_split -> pool1_pool1_0_split_0
I0312 14:13:12.623351 27288 net.cpp:408] pool1_pool1_0_split -> pool1_pool1_0_split_1
I0312 14:13:12.623389 27288 net.cpp:150] Setting up pool1_pool1_0_split
I0312 14:13:12.623394 27288 net.cpp:157] Top shape: 8 64 56 56 (1605632)
I0312 14:13:12.623399 27288 net.cpp:157] Top shape: 8 64 56 56 (1605632)
I0312 14:13:12.623401 27288 net.cpp:165] Memory required for data: 141295648
I0312 14:13:12.623404 27288 layer_factory.hpp:77] Creating layer res2a_branch1
I0312 14:13:12.623414 27288 net.cpp:100] Creating Layer res2a_branch1
I0312 14:13:12.623417 27288 net.cpp:434] res2a_branch1 <- pool1_pool1_0_split_0
I0312 14:13:12.623423 27288 net.cpp:408] res2a_branch1 -> res2a_branch1
I0312 14:13:12.624410 27288 net.cpp:150] Setting up res2a_branch1
I0312 14:13:12.624424 27288 net.cpp:157] Top shape: 8 256 56 56 (6422528)
I0312 14:13:12.624428 27288 net.cpp:165] Memory required for data: 166985760
I0312 14:13:12.624433 27288 layer_factory.hpp:77] Creating layer bn2a_branch1
I0312 14:13:12.624440 27288 net.cpp:100] Creating Layer bn2a_branch1
I0312 14:13:12.624444 27288 net.cpp:434] bn2a_branch1 <- res2a_branch1
I0312 14:13:12.624449 27288 net.cpp:395] bn2a_branch1 -> res2a_branch1 (in-place)
I0312 14:13:12.625732 27288 net.cpp:150] Setting up bn2a_branch1
I0312 14:13:12.625746 27288 net.cpp:157] Top shape: 8 256 56 56 (6422528)
I0312 14:13:12.625751 27288 net.cpp:165] Memory required for data: 192675872
I0312 14:13:12.625761 27288 layer_factory.hpp:77] Creating layer scale2a_branch1
I0312 14:13:12.625768 27288 net.cpp:100] Creating Layer scale2a_branch1
I0312 14:13:12.625772 27288 net.cpp:434] scale2a_branch1 <- res2a_branch1
I0312 14:13:12.625777 27288 net.cpp:395] scale2a_branch1 -> res2a_branch1 (in-place)
I0312 14:13:12.625826 27288 layer_factory.hpp:77] Creating layer scale2a_branch1
I0312 14:13:12.625957 27288 net.cpp:150] Setting up scale2a_branch1
I0312 14:13:12.625964 27288 net.cpp:157] Top shape: 8 256 56 56 (6422528)
I0312 14:13:12.625967 27288 net.cpp:165] Memory required for data: 218365984
I0312 14:13:12.625979 27288 layer_factory.hpp:77] Creating layer res2a_branch2a
I0312 14:13:12.625988 27288 net.cpp:100] Creating Layer res2a_branch2a
I0312 14:13:12.625990 27288 net.cpp:434] res2a_branch2a <- pool1_pool1_0_split_1
I0312 14:13:12.625995 27288 net.cpp:408] res2a_branch2a -> res2a_branch2a
I0312 14:13:12.627007 27288 net.cpp:150] Setting up res2a_branch2a
I0312 14:13:12.627020 27288 net.cpp:157] Top shape: 8 64 56 56 (1605632)
I0312 14:13:12.627024 27288 net.cpp:165] Memory required for data: 224788512
I0312 14:13:12.627030 27288 layer_factory.hpp:77] Creating layer bn2a_branch2a
I0312 14:13:12.627037 27288 net.cpp:100] Creating Layer bn2a_branch2a
I0312 14:13:12.627040 27288 net.cpp:434] bn2a_branch2a <- res2a_branch2a
I0312 14:13:12.627045 27288 net.cpp:395] bn2a_branch2a -> res2a_branch2a (in-place)
I0312 14:13:12.627285 27288 net.cpp:150] Setting up bn2a_branch2a
I0312 14:13:12.627292 27288 net.cpp:157] Top shape: 8 64 56 56 (1605632)
I0312 14:13:12.627296 27288 net.cpp:165] Memory required for data: 231211040
I0312 14:13:12.627306 27288 layer_factory.hpp:77] Creating layer scale2a_branch2a
I0312 14:13:12.627313 27288 net.cpp:100] Creating Layer scale2a_branch2a
I0312 14:13:12.627316 27288 net.cpp:434] scale2a_branch2a <- res2a_branch2a
I0312 14:13:12.627321 27288 net.cpp:395] scale2a_branch2a -> res2a_branch2a (in-place)
I0312 14:13:12.627368 27288 layer_factory.hpp:77] Creating layer scale2a_branch2a
I0312 14:13:12.627512 27288 net.cpp:150] Setting up scale2a_branch2a
I0312 14:13:12.627519 27288 net.cpp:157] Top shape: 8 64 56 56 (1605632)
I0312 14:13:12.627522 27288 net.cpp:165] Memory required for data: 237633568
I0312 14:13:12.627528 27288 layer_factory.hpp:77] Creating layer res2a_branch2a_relu
I0312 14:13:12.627533 27288 net.cpp:100] Creating Layer res2a_branch2a_relu
I0312 14:13:12.627537 27288 net.cpp:434] res2a_branch2a_relu <- res2a_branch2a
I0312 14:13:12.627542 27288 net.cpp:395] res2a_branch2a_relu -> res2a_branch2a (in-place)
I0312 14:13:12.627687 27288 net.cpp:150] Setting up res2a_branch2a_relu
I0312 14:13:12.627696 27288 net.cpp:157] Top shape: 8 64 56 56 (1605632)
I0312 14:13:12.627698 27288 net.cpp:165] Memory required for data: 244056096
I0312 14:13:12.627701 27288 layer_factory.hpp:77] Creating layer res2a_branch2b
I0312 14:13:12.627708 27288 net.cpp:100] Creating Layer res2a_branch2b
I0312 14:13:12.627712 27288 net.cpp:434] res2a_branch2b <- res2a_branch2a
I0312 14:13:12.627717 27288 net.cpp:408] res2a_branch2b -> res2a_branch2b
I0312 14:13:12.630051 27288 net.cpp:150] Setting up res2a_branch2b
I0312 14:13:12.630065 27288 net.cpp:157] Top shape: 8 64 56 56 (1605632)
I0312 14:13:12.630069 27288 net.cpp:165] Memory required for data: 250478624
I0312 14:13:12.630076 27288 layer_factory.hpp:77] Creating layer bn2a_branch2b
I0312 14:13:12.630084 27288 net.cpp:100] Creating Layer bn2a_branch2b
I0312 14:13:12.630089 27288 net.cpp:434] bn2a_branch2b <- res2a_branch2b
I0312 14:13:12.630093 27288 net.cpp:395] bn2a_branch2b -> res2a_branch2b (in-place)
I0312 14:13:12.630345 27288 net.cpp:150] Setting up bn2a_branch2b
I0312 14:13:12.630352 27288 net.cpp:157] Top shape: 8 64 56 56 (1605632)
I0312 14:13:12.630355 27288 net.cpp:165] Memory required for data: 256901152
I0312 14:13:12.630363 27288 layer_factory.hpp:77] Creating layer scale2a_branch2b
I0312 14:13:12.630369 27288 net.cpp:100] Creating Layer scale2a_branch2b
I0312 14:13:12.630373 27288 net.cpp:434] scale2a_branch2b <- res2a_branch2b
I0312 14:13:12.630378 27288 net.cpp:395] scale2a_branch2b -> res2a_branch2b (in-place)
I0312 14:13:12.630422 27288 layer_factory.hpp:77] Creating layer scale2a_branch2b
I0312 14:13:12.630568 27288 net.cpp:150] Setting up scale2a_branch2b
I0312 14:13:12.630574 27288 net.cpp:157] Top shape: 8 64 56 56 (1605632)
I0312 14:13:12.630578 27288 net.cpp:165] Memory required for data: 263323680
I0312 14:13:12.630584 27288 layer_factory.hpp:77] Creating layer res2a_branch2b_relu
I0312 14:13:12.630589 27288 net.cpp:100] Creating Layer res2a_branch2b_relu
I0312 14:13:12.630591 27288 net.cpp:434] res2a_branch2b_relu <- res2a_branch2b
I0312 14:13:12.630601 27288 net.cpp:395] res2a_branch2b_relu -> res2a_branch2b (in-place)
I0312 14:13:12.630753 27288 net.cpp:150] Setting up res2a_branch2b_relu
I0312 14:13:12.630761 27288 net.cpp:157] Top shape: 8 64 56 56 (1605632)
I0312 14:13:12.630764 27288 net.cpp:165] Memory required for data: 269746208
I0312 14:13:12.630767 27288 layer_factory.hpp:77] Creating layer res2a_branch2c
I0312 14:13:12.630774 27288 net.cpp:100] Creating Layer res2a_branch2c
I0312 14:13:12.630779 27288 net.cpp:434] res2a_branch2c <- res2a_branch2b
I0312 14:13:12.630784 27288 net.cpp:408] res2a_branch2c -> res2a_branch2c
I0312 14:13:12.631786 27288 net.cpp:150] Setting up res2a_branch2c
I0312 14:13:12.631800 27288 net.cpp:157] Top shape: 8 256 56 56 (6422528)
I0312 14:13:12.631804 27288 net.cpp:165] Memory required for data: 295436320
I0312 14:13:12.631810 27288 layer_factory.hpp:77] Creating layer bn2a_branch2c
I0312 14:13:12.631815 27288 net.cpp:100] Creating Layer bn2a_branch2c
I0312 14:13:12.631819 27288 net.cpp:434] bn2a_branch2c <- res2a_branch2c
I0312 14:13:12.631824 27288 net.cpp:395] bn2a_branch2c -> res2a_branch2c (in-place)
I0312 14:13:12.632057 27288 net.cpp:150] Setting up bn2a_branch2c
I0312 14:13:12.632063 27288 net.cpp:157] Top shape: 8 256 56 56 (6422528)
I0312 14:13:12.632066 27288 net.cpp:165] Memory required for data: 321126432
I0312 14:13:12.632074 27288 layer_factory.hpp:77] Creating layer scale2a_branch2c
I0312 14:13:12.632081 27288 net.cpp:100] Creating Layer scale2a_branch2c
I0312 14:13:12.632084 27288 net.cpp:434] scale2a_branch2c <- res2a_branch2c
I0312 14:13:12.632088 27288 net.cpp:395] scale2a_branch2c -> res2a_branch2c (in-place)
I0312 14:13:12.632133 27288 layer_factory.hpp:77] Creating layer scale2a_branch2c
I0312 14:13:12.632266 27288 net.cpp:150] Setting up scale2a_branch2c
I0312 14:13:12.632272 27288 net.cpp:157] Top shape: 8 256 56 56 (6422528)
I0312 14:13:12.632275 27288 net.cpp:165] Memory required for data: 346816544
I0312 14:13:12.632282 27288 layer_factory.hpp:77] Creating layer res2a
I0312 14:13:12.632287 27288 net.cpp:100] Creating Layer res2a
I0312 14:13:12.632290 27288 net.cpp:434] res2a <- res2a_branch1
I0312 14:13:12.632294 27288 net.cpp:434] res2a <- res2a_branch2c
I0312 14:13:12.632299 27288 net.cpp:408] res2a -> res2a
I0312 14:13:12.632331 27288 net.cpp:150] Setting up res2a
I0312 14:13:12.632336 27288 net.cpp:157] Top shape: 8 256 56 56 (6422528)
I0312 14:13:12.632339 27288 net.cpp:165] Memory required for data: 372506656
I0312 14:13:12.632344 27288 layer_factory.hpp:77] Creating layer res2a_relu
I0312 14:13:12.632349 27288 net.cpp:100] Creating Layer res2a_relu
I0312 14:13:12.632351 27288 net.cpp:434] res2a_relu <- res2a
I0312 14:13:12.632355 27288 net.cpp:395] res2a_relu -> res2a (in-place)
I0312 14:13:12.632501 27288 net.cpp:150] Setting up res2a_relu
I0312 14:13:12.632509 27288 net.cpp:157] Top shape: 8 256 56 56 (6422528)
I0312 14:13:12.632513 27288 net.cpp:165] Memory required for data: 398196768
I0312 14:13:12.632515 27288 layer_factory.hpp:77] Creating layer res2a_res2a_relu_0_split
I0312 14:13:12.632521 27288 net.cpp:100] Creating Layer res2a_res2a_relu_0_split
I0312 14:13:12.632524 27288 net.cpp:434] res2a_res2a_relu_0_split <- res2a
I0312 14:13:12.632529 27288 net.cpp:408] res2a_res2a_relu_0_split -> res2a_res2a_relu_0_split_0
I0312 14:13:12.632535 27288 net.cpp:408] res2a_res2a_relu_0_split -> res2a_res2a_relu_0_split_1
I0312 14:13:12.632581 27288 net.cpp:150] Setting up res2a_res2a_relu_0_split
I0312 14:13:12.632586 27288 net.cpp:157] Top shape: 8 256 56 56 (6422528)
I0312 14:13:12.632591 27288 net.cpp:157] Top shape: 8 256 56 56 (6422528)
I0312 14:13:12.632593 27288 net.cpp:165] Memory required for data: 449576992
I0312 14:13:12.632597 27288 layer_factory.hpp:77] Creating layer res2b_branch2a
I0312 14:13:12.632604 27288 net.cpp:100] Creating Layer res2b_branch2a
I0312 14:13:12.632607 27288 net.cpp:434] res2b_branch2a <- res2a_res2a_relu_0_split_0
I0312 14:13:12.632612 27288 net.cpp:408] res2b_branch2a -> res2b_branch2a
I0312 14:13:12.633658 27288 net.cpp:150] Setting up res2b_branch2a
I0312 14:13:12.633672 27288 net.cpp:157] Top shape: 8 64 56 56 (1605632)
I0312 14:13:12.633677 27288 net.cpp:165] Memory required for data: 455999520
I0312 14:13:12.633682 27288 layer_factory.hpp:77] Creating layer bn2b_branch2a
I0312 14:13:12.633688 27288 net.cpp:100] Creating Layer bn2b_branch2a
I0312 14:13:12.633692 27288 net.cpp:434] bn2b_branch2a <- res2b_branch2a
I0312 14:13:12.633697 27288 net.cpp:395] bn2b_branch2a -> res2b_branch2a (in-place)
I0312 14:13:12.633940 27288 net.cpp:150] Setting up bn2b_branch2a
I0312 14:13:12.633947 27288 net.cpp:157] Top shape: 8 64 56 56 (1605632)
I0312 14:13:12.633950 27288 net.cpp:165] Memory required for data: 462422048
I0312 14:13:12.633961 27288 layer_factory.hpp:77] Creating layer scale2b_branch2a
I0312 14:13:12.633968 27288 net.cpp:100] Creating Layer scale2b_branch2a
I0312 14:13:12.633972 27288 net.cpp:434] scale2b_branch2a <- res2b_branch2a
I0312 14:13:12.633977 27288 net.cpp:395] scale2b_branch2a -> res2b_branch2a (in-place)
I0312 14:13:12.634023 27288 layer_factory.hpp:77] Creating layer scale2b_branch2a
I0312 14:13:12.634168 27288 net.cpp:150] Setting up scale2b_branch2a
I0312 14:13:12.634176 27288 net.cpp:157] Top shape: 8 64 56 56 (1605632)
I0312 14:13:12.634178 27288 net.cpp:165] Memory required for data: 468844576
I0312 14:13:12.634184 27288 layer_factory.hpp:77] Creating layer res2b_branch2a_relu
I0312 14:13:12.634189 27288 net.cpp:100] Creating Layer res2b_branch2a_relu
I0312 14:13:12.634192 27288 net.cpp:434] res2b_branch2a_relu <- res2b_branch2a
I0312 14:13:12.634197 27288 net.cpp:395] res2b_branch2a_relu -> res2b_branch2a (in-place)
I0312 14:13:12.634337 27288 net.cpp:150] Setting up res2b_branch2a_relu
I0312 14:13:12.634346 27288 net.cpp:157] Top shape: 8 64 56 56 (1605632)
I0312 14:13:12.634348 27288 net.cpp:165] Memory required for data: 475267104
I0312 14:13:12.634352 27288 layer_factory.hpp:77] Creating layer res2b_branch2b
I0312 14:13:12.634359 27288 net.cpp:100] Creating Layer res2b_branch2b
I0312 14:13:12.634362 27288 net.cpp:434] res2b_branch2b <- res2b_branch2a
I0312 14:13:12.634368 27288 net.cpp:408] res2b_branch2b -> res2b_branch2b
I0312 14:13:12.635356 27288 net.cpp:150] Setting up res2b_branch2b
I0312 14:13:12.635370 27288 net.cpp:157] Top shape: 8 64 56 56 (1605632)
I0312 14:13:12.635373 27288 net.cpp:165] Memory required for data: 481689632
I0312 14:13:12.635380 27288 layer_factory.hpp:77] Creating layer bn2b_branch2b
I0312 14:13:12.635386 27288 net.cpp:100] Creating Layer bn2b_branch2b
I0312 14:13:12.635390 27288 net.cpp:434] bn2b_branch2b <- res2b_branch2b
I0312 14:13:12.635395 27288 net.cpp:395] bn2b_branch2b -> res2b_branch2b (in-place)
I0312 14:13:12.635643 27288 net.cpp:150] Setting up bn2b_branch2b
I0312 14:13:12.635649 27288 net.cpp:157] Top shape: 8 64 56 56 (1605632)
I0312 14:13:12.635653 27288 net.cpp:165] Memory required for data: 488112160
I0312 14:13:12.635659 27288 layer_factory.hpp:77] Creating layer scale2b_branch2b
I0312 14:13:12.635665 27288 net.cpp:100] Creating Layer scale2b_branch2b
I0312 14:13:12.635668 27288 net.cpp:434] scale2b_branch2b <- res2b_branch2b
I0312 14:13:12.635673 27288 net.cpp:395] scale2b_branch2b -> res2b_branch2b (in-place)
I0312 14:13:12.635720 27288 layer_factory.hpp:77] Creating layer scale2b_branch2b
I0312 14:13:12.635864 27288 net.cpp:150] Setting up scale2b_branch2b
I0312 14:13:12.635871 27288 net.cpp:157] Top shape: 8 64 56 56 (1605632)
I0312 14:13:12.635874 27288 net.cpp:165] Memory required for data: 494534688
I0312 14:13:12.635880 27288 layer_factory.hpp:77] Creating layer res2b_branch2b_relu
I0312 14:13:12.635890 27288 net.cpp:100] Creating Layer res2b_branch2b_relu
I0312 14:13:12.635892 27288 net.cpp:434] res2b_branch2b_relu <- res2b_branch2b
I0312 14:13:12.635896 27288 net.cpp:395] res2b_branch2b_relu -> res2b_branch2b (in-place)
I0312 14:13:12.636359 27288 net.cpp:150] Setting up res2b_branch2b_relu
I0312 14:13:12.636373 27288 net.cpp:157] Top shape: 8 64 56 56 (1605632)
I0312 14:13:12.636375 27288 net.cpp:165] Memory required for data: 500957216
I0312 14:13:12.636384 27288 layer_factory.hpp:77] Creating layer res2b_branch2c
I0312 14:13:12.636392 27288 net.cpp:100] Creating Layer res2b_branch2c
I0312 14:13:12.636395 27288 net.cpp:434] res2b_branch2c <- res2b_branch2b
I0312 14:13:12.636401 27288 net.cpp:408] res2b_branch2c -> res2b_branch2c
I0312 14:13:12.637466 27288 net.cpp:150] Setting up res2b_branch2c
I0312 14:13:12.637480 27288 net.cpp:157] Top shape: 8 256 56 56 (6422528)
I0312 14:13:12.637485 27288 net.cpp:165] Memory required for data: 526647328
I0312 14:13:12.637490 27288 layer_factory.hpp:77] Creating layer bn2b_branch2c
I0312 14:13:12.637495 27288 net.cpp:100] Creating Layer bn2b_branch2c
I0312 14:13:12.637500 27288 net.cpp:434] bn2b_branch2c <- res2b_branch2c
I0312 14:13:12.637504 27288 net.cpp:395] bn2b_branch2c -> res2b_branch2c (in-place)
I0312 14:13:12.637744 27288 net.cpp:150] Setting up bn2b_branch2c
I0312 14:13:12.637751 27288 net.cpp:157] Top shape: 8 256 56 56 (6422528)
I0312 14:13:12.637754 27288 net.cpp:165] Memory required for data: 552337440
I0312 14:13:12.637761 27288 layer_factory.hpp:77] Creating layer scale2b_branch2c
I0312 14:13:12.637768 27288 net.cpp:100] Creating Layer scale2b_branch2c
I0312 14:13:12.637771 27288 net.cpp:434] scale2b_branch2c <- res2b_branch2c
I0312 14:13:12.637775 27288 net.cpp:395] scale2b_branch2c -> res2b_branch2c (in-place)
I0312 14:13:12.637822 27288 layer_factory.hpp:77] Creating layer scale2b_branch2c
I0312 14:13:12.637960 27288 net.cpp:150] Setting up scale2b_branch2c
I0312 14:13:12.637967 27288 net.cpp:157] Top shape: 8 256 56 56 (6422528)
I0312 14:13:12.637970 27288 net.cpp:165] Memory required for data: 578027552
I0312 14:13:12.637977 27288 layer_factory.hpp:77] Creating layer res2b
I0312 14:13:12.637982 27288 net.cpp:100] Creating Layer res2b
I0312 14:13:12.637985 27288 net.cpp:434] res2b <- res2a_res2a_relu_0_split_1
I0312 14:13:12.637989 27288 net.cpp:434] res2b <- res2b_branch2c
I0312 14:13:12.637995 27288 net.cpp:408] res2b -> res2b
I0312 14:13:12.638021 27288 net.cpp:150] Setting up res2b
I0312 14:13:12.638027 27288 net.cpp:157] Top shape: 8 256 56 56 (6422528)
I0312 14:13:12.638031 27288 net.cpp:165] Memory required for data: 603717664
I0312 14:13:12.638033 27288 layer_factory.hpp:77] Creating layer res2b_relu
I0312 14:13:12.638038 27288 net.cpp:100] Creating Layer res2b_relu
I0312 14:13:12.638041 27288 net.cpp:434] res2b_relu <- res2b
I0312 14:13:12.638046 27288 net.cpp:395] res2b_relu -> res2b (in-place)
I0312 14:13:12.638195 27288 net.cpp:150] Setting up res2b_relu
I0312 14:13:12.638203 27288 net.cpp:157] Top shape: 8 256 56 56 (6422528)
I0312 14:13:12.638206 27288 net.cpp:165] Memory required for data: 629407776
I0312 14:13:12.638209 27288 layer_factory.hpp:77] Creating layer res2b_res2b_relu_0_split
I0312 14:13:12.638216 27288 net.cpp:100] Creating Layer res2b_res2b_relu_0_split
I0312 14:13:12.638218 27288 net.cpp:434] res2b_res2b_relu_0_split <- res2b
I0312 14:13:12.638226 27288 net.cpp:408] res2b_res2b_relu_0_split -> res2b_res2b_relu_0_split_0
I0312 14:13:12.638231 27288 net.cpp:408] res2b_res2b_relu_0_split -> res2b_res2b_relu_0_split_1
I0312 14:13:12.638283 27288 net.cpp:150] Setting up res2b_res2b_relu_0_split
I0312 14:13:12.638289 27288 net.cpp:157] Top shape: 8 256 56 56 (6422528)
I0312 14:13:12.638293 27288 net.cpp:157] Top shape: 8 256 56 56 (6422528)
I0312 14:13:12.638296 27288 net.cpp:165] Memory required for data: 680788000
I0312 14:13:12.638299 27288 layer_factory.hpp:77] Creating layer res2c_branch2a
I0312 14:13:12.638308 27288 net.cpp:100] Creating Layer res2c_branch2a
I0312 14:13:12.638311 27288 net.cpp:434] res2c_branch2a <- res2b_res2b_relu_0_split_0
I0312 14:13:12.638317 27288 net.cpp:408] res2c_branch2a -> res2c_branch2a
I0312 14:13:12.639387 27288 net.cpp:150] Setting up res2c_branch2a
I0312 14:13:12.639401 27288 net.cpp:157] Top shape: 8 64 56 56 (1605632)
I0312 14:13:12.639405 27288 net.cpp:165] Memory required for data: 687210528
I0312 14:13:12.639410 27288 layer_factory.hpp:77] Creating layer bn2c_branch2a
I0312 14:13:12.639420 27288 net.cpp:100] Creating Layer bn2c_branch2a
I0312 14:13:12.639427 27288 net.cpp:434] bn2c_branch2a <- res2c_branch2a
I0312 14:13:12.639432 27288 net.cpp:395] bn2c_branch2a -> res2c_branch2a (in-place)
I0312 14:13:12.639706 27288 net.cpp:150] Setting up bn2c_branch2a
I0312 14:13:12.639714 27288 net.cpp:157] Top shape: 8 64 56 56 (1605632)
I0312 14:13:12.639717 27288 net.cpp:165] Memory required for data: 693633056
I0312 14:13:12.639724 27288 layer_factory.hpp:77] Creating layer scale2c_branch2a
I0312 14:13:12.639732 27288 net.cpp:100] Creating Layer scale2c_branch2a
I0312 14:13:12.639736 27288 net.cpp:434] scale2c_branch2a <- res2c_branch2a
I0312 14:13:12.639742 27288 net.cpp:395] scale2c_branch2a -> res2c_branch2a (in-place)
I0312 14:13:12.639794 27288 layer_factory.hpp:77] Creating layer scale2c_branch2a
I0312 14:13:12.639952 27288 net.cpp:150] Setting up scale2c_branch2a
I0312 14:13:12.639961 27288 net.cpp:157] Top shape: 8 64 56 56 (1605632)
I0312 14:13:12.639963 27288 net.cpp:165] Memory required for data: 700055584
I0312 14:13:12.639969 27288 layer_factory.hpp:77] Creating layer res2c_branch2a_relu
I0312 14:13:12.639976 27288 net.cpp:100] Creating Layer res2c_branch2a_relu
I0312 14:13:12.639979 27288 net.cpp:434] res2c_branch2a_relu <- res2c_branch2a
I0312 14:13:12.639984 27288 net.cpp:395] res2c_branch2a_relu -> res2c_branch2a (in-place)
I0312 14:13:12.640139 27288 net.cpp:150] Setting up res2c_branch2a_relu
I0312 14:13:12.640148 27288 net.cpp:157] Top shape: 8 64 56 56 (1605632)
I0312 14:13:12.640152 27288 net.cpp:165] Memory required for data: 706478112
I0312 14:13:12.640156 27288 layer_factory.hpp:77] Creating layer res2c_branch2b
I0312 14:13:12.640162 27288 net.cpp:100] Creating Layer res2c_branch2b
I0312 14:13:12.640166 27288 net.cpp:434] res2c_branch2b <- res2c_branch2a
I0312 14:13:12.640172 27288 net.cpp:408] res2c_branch2b -> res2c_branch2b
I0312 14:13:12.641566 27288 net.cpp:150] Setting up res2c_branch2b
I0312 14:13:12.641580 27288 net.cpp:157] Top shape: 8 64 56 56 (1605632)
I0312 14:13:12.641584 27288 net.cpp:165] Memory required for data: 712900640
I0312 14:13:12.641590 27288 layer_factory.hpp:77] Creating layer bn2c_branch2b
I0312 14:13:12.641597 27288 net.cpp:100] Creating Layer bn2c_branch2b
I0312 14:13:12.641600 27288 net.cpp:434] bn2c_branch2b <- res2c_branch2b
I0312 14:13:12.641607 27288 net.cpp:395] bn2c_branch2b -> res2c_branch2b (in-place)
I0312 14:13:12.641885 27288 net.cpp:150] Setting up bn2c_branch2b
I0312 14:13:12.641892 27288 net.cpp:157] Top shape: 8 64 56 56 (1605632)
I0312 14:13:12.641896 27288 net.cpp:165] Memory required for data: 719323168
I0312 14:13:12.641902 27288 layer_factory.hpp:77] Creating layer scale2c_branch2b
I0312 14:13:12.641909 27288 net.cpp:100] Creating Layer scale2c_branch2b
I0312 14:13:12.641912 27288 net.cpp:434] scale2c_branch2b <- res2c_branch2b
I0312 14:13:12.641918 27288 net.cpp:395] scale2c_branch2b -> res2c_branch2b (in-place)
I0312 14:13:12.641971 27288 layer_factory.hpp:77] Creating layer scale2c_branch2b
I0312 14:13:12.642133 27288 net.cpp:150] Setting up scale2c_branch2b
I0312 14:13:12.642140 27288 net.cpp:157] Top shape: 8 64 56 56 (1605632)
I0312 14:13:12.642143 27288 net.cpp:165] Memory required for data: 725745696
I0312 14:13:12.642149 27288 layer_factory.hpp:77] Creating layer res2c_branch2b_relu
I0312 14:13:12.642155 27288 net.cpp:100] Creating Layer res2c_branch2b_relu
I0312 14:13:12.642158 27288 net.cpp:434] res2c_branch2b_relu <- res2c_branch2b
I0312 14:13:12.642164 27288 net.cpp:395] res2c_branch2b_relu -> res2c_branch2b (in-place)
I0312 14:13:12.642329 27288 net.cpp:150] Setting up res2c_branch2b_relu
I0312 14:13:12.642338 27288 net.cpp:157] Top shape: 8 64 56 56 (1605632)
I0312 14:13:12.642341 27288 net.cpp:165] Memory required for data: 732168224
I0312 14:13:12.642344 27288 layer_factory.hpp:77] Creating layer res2c_branch2c
I0312 14:13:12.642354 27288 net.cpp:100] Creating Layer res2c_branch2c
I0312 14:13:12.642357 27288 net.cpp:434] res2c_branch2c <- res2c_branch2b
I0312 14:13:12.642364 27288 net.cpp:408] res2c_branch2c -> res2c_branch2c
I0312 14:13:12.643448 27288 net.cpp:150] Setting up res2c_branch2c
I0312 14:13:12.643461 27288 net.cpp:157] Top shape: 8 256 56 56 (6422528)
I0312 14:13:12.643465 27288 net.cpp:165] Memory required for data: 757858336
I0312 14:13:12.643471 27288 layer_factory.hpp:77] Creating layer bn2c_branch2c
I0312 14:13:12.643478 27288 net.cpp:100] Creating Layer bn2c_branch2c
I0312 14:13:12.643482 27288 net.cpp:434] bn2c_branch2c <- res2c_branch2c
I0312 14:13:12.643487 27288 net.cpp:395] bn2c_branch2c -> res2c_branch2c (in-place)
I0312 14:13:12.643748 27288 net.cpp:150] Setting up bn2c_branch2c
I0312 14:13:12.643755 27288 net.cpp:157] Top shape: 8 256 56 56 (6422528)
I0312 14:13:12.643759 27288 net.cpp:165] Memory required for data: 783548448
I0312 14:13:12.643775 27288 layer_factory.hpp:77] Creating layer scale2c_branch2c
I0312 14:13:12.643782 27288 net.cpp:100] Creating Layer scale2c_branch2c
I0312 14:13:12.643785 27288 net.cpp:434] scale2c_branch2c <- res2c_branch2c
I0312 14:13:12.643792 27288 net.cpp:395] scale2c_branch2c -> res2c_branch2c (in-place)
I0312 14:13:12.643847 27288 layer_factory.hpp:77] Creating layer scale2c_branch2c
I0312 14:13:12.643999 27288 net.cpp:150] Setting up scale2c_branch2c
I0312 14:13:12.644006 27288 net.cpp:157] Top shape: 8 256 56 56 (6422528)
I0312 14:13:12.644008 27288 net.cpp:165] Memory required for data: 809238560
I0312 14:13:12.644016 27288 layer_factory.hpp:77] Creating layer res2c
I0312 14:13:12.644021 27288 net.cpp:100] Creating Layer res2c
I0312 14:13:12.644024 27288 net.cpp:434] res2c <- res2b_res2b_relu_0_split_1
I0312 14:13:12.644028 27288 net.cpp:434] res2c <- res2c_branch2c
I0312 14:13:12.644033 27288 net.cpp:408] res2c -> res2c
I0312 14:13:12.644062 27288 net.cpp:150] Setting up res2c
I0312 14:13:12.644068 27288 net.cpp:157] Top shape: 8 256 56 56 (6422528)
I0312 14:13:12.644071 27288 net.cpp:165] Memory required for data: 834928672
I0312 14:13:12.644075 27288 layer_factory.hpp:77] Creating layer res2c_relu
I0312 14:13:12.644080 27288 net.cpp:100] Creating Layer res2c_relu
I0312 14:13:12.644083 27288 net.cpp:434] res2c_relu <- res2c
I0312 14:13:12.644088 27288 net.cpp:395] res2c_relu -> res2c (in-place)
I0312 14:13:12.644246 27288 net.cpp:150] Setting up res2c_relu
I0312 14:13:12.644254 27288 net.cpp:157] Top shape: 8 256 56 56 (6422528)
I0312 14:13:12.644258 27288 net.cpp:165] Memory required for data: 860618784
I0312 14:13:12.644260 27288 layer_factory.hpp:77] Creating layer res2c_res2c_relu_0_split
I0312 14:13:12.644268 27288 net.cpp:100] Creating Layer res2c_res2c_relu_0_split
I0312 14:13:12.644270 27288 net.cpp:434] res2c_res2c_relu_0_split <- res2c
I0312 14:13:12.644275 27288 net.cpp:408] res2c_res2c_relu_0_split -> res2c_res2c_relu_0_split_0
I0312 14:13:12.644281 27288 net.cpp:408] res2c_res2c_relu_0_split -> res2c_res2c_relu_0_split_1
I0312 14:13:12.644335 27288 net.cpp:150] Setting up res2c_res2c_relu_0_split
I0312 14:13:12.644340 27288 net.cpp:157] Top shape: 8 256 56 56 (6422528)
I0312 14:13:12.644345 27288 net.cpp:157] Top shape: 8 256 56 56 (6422528)
I0312 14:13:12.644347 27288 net.cpp:165] Memory required for data: 911999008
I0312 14:13:12.644351 27288 layer_factory.hpp:77] Creating layer res3a_branch1
I0312 14:13:12.644358 27288 net.cpp:100] Creating Layer res3a_branch1
I0312 14:13:12.644364 27288 net.cpp:434] res3a_branch1 <- res2c_res2c_relu_0_split_0
I0312 14:13:12.644369 27288 net.cpp:408] res3a_branch1 -> res3a_branch1
I0312 14:13:12.646455 27288 net.cpp:150] Setting up res3a_branch1
I0312 14:13:12.646471 27288 net.cpp:157] Top shape: 8 512 28 28 (3211264)
I0312 14:13:12.646474 27288 net.cpp:165] Memory required for data: 924844064
I0312 14:13:12.646479 27288 layer_factory.hpp:77] Creating layer bn3a_branch1
I0312 14:13:12.646486 27288 net.cpp:100] Creating Layer bn3a_branch1
I0312 14:13:12.646489 27288 net.cpp:434] bn3a_branch1 <- res3a_branch1
I0312 14:13:12.646497 27288 net.cpp:395] bn3a_branch1 -> res3a_branch1 (in-place)
I0312 14:13:12.647722 27288 net.cpp:150] Setting up bn3a_branch1
I0312 14:13:12.647737 27288 net.cpp:157] Top shape: 8 512 28 28 (3211264)
I0312 14:13:12.647744 27288 net.cpp:165] Memory required for data: 937689120
I0312 14:13:12.647753 27288 layer_factory.hpp:77] Creating layer scale3a_branch1
I0312 14:13:12.647759 27288 net.cpp:100] Creating Layer scale3a_branch1
I0312 14:13:12.647763 27288 net.cpp:434] scale3a_branch1 <- res3a_branch1
I0312 14:13:12.647770 27288 net.cpp:395] scale3a_branch1 -> res3a_branch1 (in-place)
I0312 14:13:12.647827 27288 layer_factory.hpp:77] Creating layer scale3a_branch1
I0312 14:13:12.647975 27288 net.cpp:150] Setting up scale3a_branch1
I0312 14:13:12.647982 27288 net.cpp:157] Top shape: 8 512 28 28 (3211264)
I0312 14:13:12.647985 27288 net.cpp:165] Memory required for data: 950534176
I0312 14:13:12.647992 27288 layer_factory.hpp:77] Creating layer res3a_branch2a
I0312 14:13:12.648000 27288 net.cpp:100] Creating Layer res3a_branch2a
I0312 14:13:12.648005 27288 net.cpp:434] res3a_branch2a <- res2c_res2c_relu_0_split_1
I0312 14:13:12.648010 27288 net.cpp:408] res3a_branch2a -> res3a_branch2a
I0312 14:13:12.649127 27288 net.cpp:150] Setting up res3a_branch2a
I0312 14:13:12.649140 27288 net.cpp:157] Top shape: 8 128 28 28 (802816)
I0312 14:13:12.649144 27288 net.cpp:165] Memory required for data: 953745440
I0312 14:13:12.649150 27288 layer_factory.hpp:77] Creating layer bn3a_branch2a
I0312 14:13:12.649157 27288 net.cpp:100] Creating Layer bn3a_branch2a
I0312 14:13:12.649160 27288 net.cpp:434] bn3a_branch2a <- res3a_branch2a
I0312 14:13:12.649168 27288 net.cpp:395] bn3a_branch2a -> res3a_branch2a (in-place)
I0312 14:13:12.649433 27288 net.cpp:150] Setting up bn3a_branch2a
I0312 14:13:12.649441 27288 net.cpp:157] Top shape: 8 128 28 28 (802816)
I0312 14:13:12.649444 27288 net.cpp:165] Memory required for data: 956956704
I0312 14:13:12.649451 27288 layer_factory.hpp:77] Creating layer scale3a_branch2a
I0312 14:13:12.649458 27288 net.cpp:100] Creating Layer scale3a_branch2a
I0312 14:13:12.649461 27288 net.cpp:434] scale3a_branch2a <- res3a_branch2a
I0312 14:13:12.649466 27288 net.cpp:395] scale3a_branch2a -> res3a_branch2a (in-place)
I0312 14:13:12.649518 27288 layer_factory.hpp:77] Creating layer scale3a_branch2a
I0312 14:13:12.649667 27288 net.cpp:150] Setting up scale3a_branch2a
I0312 14:13:12.649674 27288 net.cpp:157] Top shape: 8 128 28 28 (802816)
I0312 14:13:12.649677 27288 net.cpp:165] Memory required for data: 960167968
I0312 14:13:12.649684 27288 layer_factory.hpp:77] Creating layer res3a_branch2a_relu
I0312 14:13:12.649691 27288 net.cpp:100] Creating Layer res3a_branch2a_relu
I0312 14:13:12.649694 27288 net.cpp:434] res3a_branch2a_relu <- res3a_branch2a
I0312 14:13:12.649698 27288 net.cpp:395] res3a_branch2a_relu -> res3a_branch2a (in-place)
I0312 14:13:12.649857 27288 net.cpp:150] Setting up res3a_branch2a_relu
I0312 14:13:12.649864 27288 net.cpp:157] Top shape: 8 128 28 28 (802816)
I0312 14:13:12.649868 27288 net.cpp:165] Memory required for data: 963379232
I0312 14:13:12.649870 27288 layer_factory.hpp:77] Creating layer res3a_branch2b
I0312 14:13:12.649879 27288 net.cpp:100] Creating Layer res3a_branch2b
I0312 14:13:12.649883 27288 net.cpp:434] res3a_branch2b <- res3a_branch2a
I0312 14:13:12.649889 27288 net.cpp:408] res3a_branch2b -> res3a_branch2b
I0312 14:13:12.651360 27288 net.cpp:150] Setting up res3a_branch2b
I0312 14:13:12.651374 27288 net.cpp:157] Top shape: 8 128 28 28 (802816)
I0312 14:13:12.651377 27288 net.cpp:165] Memory required for data: 966590496
I0312 14:13:12.651384 27288 layer_factory.hpp:77] Creating layer bn3a_branch2b
I0312 14:13:12.651391 27288 net.cpp:100] Creating Layer bn3a_branch2b
I0312 14:13:12.651396 27288 net.cpp:434] bn3a_branch2b <- res3a_branch2b
I0312 14:13:12.651401 27288 net.cpp:395] bn3a_branch2b -> res3a_branch2b (in-place)
I0312 14:13:12.651675 27288 net.cpp:150] Setting up bn3a_branch2b
I0312 14:13:12.651682 27288 net.cpp:157] Top shape: 8 128 28 28 (802816)
I0312 14:13:12.651686 27288 net.cpp:165] Memory required for data: 969801760
I0312 14:13:12.651692 27288 layer_factory.hpp:77] Creating layer scale3a_branch2b
I0312 14:13:12.651700 27288 net.cpp:100] Creating Layer scale3a_branch2b
I0312 14:13:12.651708 27288 net.cpp:434] scale3a_branch2b <- res3a_branch2b
I0312 14:13:12.651715 27288 net.cpp:395] scale3a_branch2b -> res3a_branch2b (in-place)
I0312 14:13:12.651768 27288 layer_factory.hpp:77] Creating layer scale3a_branch2b
I0312 14:13:12.651917 27288 net.cpp:150] Setting up scale3a_branch2b
I0312 14:13:12.651924 27288 net.cpp:157] Top shape: 8 128 28 28 (802816)
I0312 14:13:12.651928 27288 net.cpp:165] Memory required for data: 973013024
I0312 14:13:12.651934 27288 layer_factory.hpp:77] Creating layer res3a_branch2b_relu
I0312 14:13:12.651942 27288 net.cpp:100] Creating Layer res3a_branch2b_relu
I0312 14:13:12.651947 27288 net.cpp:434] res3a_branch2b_relu <- res3a_branch2b
I0312 14:13:12.651950 27288 net.cpp:395] res3a_branch2b_relu -> res3a_branch2b (in-place)
I0312 14:13:12.652436 27288 net.cpp:150] Setting up res3a_branch2b_relu
I0312 14:13:12.652449 27288 net.cpp:157] Top shape: 8 128 28 28 (802816)
I0312 14:13:12.652453 27288 net.cpp:165] Memory required for data: 976224288
I0312 14:13:12.652456 27288 layer_factory.hpp:77] Creating layer res3a_branch2c
I0312 14:13:12.652473 27288 net.cpp:100] Creating Layer res3a_branch2c
I0312 14:13:12.652477 27288 net.cpp:434] res3a_branch2c <- res3a_branch2b
I0312 14:13:12.652483 27288 net.cpp:408] res3a_branch2c -> res3a_branch2c
I0312 14:13:12.653303 27288 net.cpp:150] Setting up res3a_branch2c
I0312 14:13:12.653316 27288 net.cpp:157] Top shape: 8 512 28 28 (3211264)
I0312 14:13:12.653318 27288 net.cpp:165] Memory required for data: 989069344
I0312 14:13:12.653324 27288 layer_factory.hpp:77] Creating layer bn3a_branch2c
I0312 14:13:12.653331 27288 net.cpp:100] Creating Layer bn3a_branch2c
I0312 14:13:12.653336 27288 net.cpp:434] bn3a_branch2c <- res3a_branch2c
I0312 14:13:12.653339 27288 net.cpp:395] bn3a_branch2c -> res3a_branch2c (in-place)
I0312 14:13:12.653614 27288 net.cpp:150] Setting up bn3a_branch2c
I0312 14:13:12.653620 27288 net.cpp:157] Top shape: 8 512 28 28 (3211264)
I0312 14:13:12.653625 27288 net.cpp:165] Memory required for data: 1001914400
I0312 14:13:12.653630 27288 layer_factory.hpp:77] Creating layer scale3a_branch2c
I0312 14:13:12.653638 27288 net.cpp:100] Creating Layer scale3a_branch2c
I0312 14:13:12.653642 27288 net.cpp:434] scale3a_branch2c <- res3a_branch2c
I0312 14:13:12.653646 27288 net.cpp:395] scale3a_branch2c -> res3a_branch2c (in-place)
I0312 14:13:12.653703 27288 layer_factory.hpp:77] Creating layer scale3a_branch2c
I0312 14:13:12.653853 27288 net.cpp:150] Setting up scale3a_branch2c
I0312 14:13:12.653861 27288 net.cpp:157] Top shape: 8 512 28 28 (3211264)
I0312 14:13:12.653863 27288 net.cpp:165] Memory required for data: 1014759456
I0312 14:13:12.653869 27288 layer_factory.hpp:77] Creating layer res3a
I0312 14:13:12.653877 27288 net.cpp:100] Creating Layer res3a
I0312 14:13:12.653880 27288 net.cpp:434] res3a <- res3a_branch1
I0312 14:13:12.653884 27288 net.cpp:434] res3a <- res3a_branch2c
I0312 14:13:12.653888 27288 net.cpp:408] res3a -> res3a
I0312 14:13:12.653918 27288 net.cpp:150] Setting up res3a
I0312 14:13:12.653923 27288 net.cpp:157] Top shape: 8 512 28 28 (3211264)
I0312 14:13:12.653925 27288 net.cpp:165] Memory required for data: 1027604512
I0312 14:13:12.653929 27288 layer_factory.hpp:77] Creating layer res3a_relu
I0312 14:13:12.653935 27288 net.cpp:100] Creating Layer res3a_relu
I0312 14:13:12.653939 27288 net.cpp:434] res3a_relu <- res3a
I0312 14:13:12.653944 27288 net.cpp:395] res3a_relu -> res3a (in-place)
I0312 14:13:12.654431 27288 net.cpp:150] Setting up res3a_relu
I0312 14:13:12.654445 27288 net.cpp:157] Top shape: 8 512 28 28 (3211264)
I0312 14:13:12.654449 27288 net.cpp:165] Memory required for data: 1040449568
I0312 14:13:12.654453 27288 layer_factory.hpp:77] Creating layer res3a_res3a_relu_0_split
I0312 14:13:12.654459 27288 net.cpp:100] Creating Layer res3a_res3a_relu_0_split
I0312 14:13:12.654462 27288 net.cpp:434] res3a_res3a_relu_0_split <- res3a
I0312 14:13:12.654469 27288 net.cpp:408] res3a_res3a_relu_0_split -> res3a_res3a_relu_0_split_0
I0312 14:13:12.654480 27288 net.cpp:408] res3a_res3a_relu_0_split -> res3a_res3a_relu_0_split_1
I0312 14:13:12.654542 27288 net.cpp:150] Setting up res3a_res3a_relu_0_split
I0312 14:13:12.654551 27288 net.cpp:157] Top shape: 8 512 28 28 (3211264)
I0312 14:13:12.654556 27288 net.cpp:157] Top shape: 8 512 28 28 (3211264)
I0312 14:13:12.654558 27288 net.cpp:165] Memory required for data: 1066139680
I0312 14:13:12.654561 27288 layer_factory.hpp:77] Creating layer res3b_branch2a
I0312 14:13:12.654570 27288 net.cpp:100] Creating Layer res3b_branch2a
I0312 14:13:12.654574 27288 net.cpp:434] res3b_branch2a <- res3a_res3a_relu_0_split_0
I0312 14:13:12.654580 27288 net.cpp:408] res3b_branch2a -> res3b_branch2a
I0312 14:13:12.656019 27288 net.cpp:150] Setting up res3b_branch2a
I0312 14:13:12.656034 27288 net.cpp:157] Top shape: 8 128 28 28 (802816)
I0312 14:13:12.656038 27288 net.cpp:165] Memory required for data: 1069350944
I0312 14:13:12.656044 27288 layer_factory.hpp:77] Creating layer bn3b_branch2a
I0312 14:13:12.656050 27288 net.cpp:100] Creating Layer bn3b_branch2a
I0312 14:13:12.656054 27288 net.cpp:434] bn3b_branch2a <- res3b_branch2a
I0312 14:13:12.656060 27288 net.cpp:395] bn3b_branch2a -> res3b_branch2a (in-place)
I0312 14:13:12.656339 27288 net.cpp:150] Setting up bn3b_branch2a
I0312 14:13:12.656347 27288 net.cpp:157] Top shape: 8 128 28 28 (802816)
I0312 14:13:12.656349 27288 net.cpp:165] Memory required for data: 1072562208
I0312 14:13:12.656357 27288 layer_factory.hpp:77] Creating layer scale3b_branch2a
I0312 14:13:12.656363 27288 net.cpp:100] Creating Layer scale3b_branch2a
I0312 14:13:12.656366 27288 net.cpp:434] scale3b_branch2a <- res3b_branch2a
I0312 14:13:12.656373 27288 net.cpp:395] scale3b_branch2a -> res3b_branch2a (in-place)
I0312 14:13:12.656426 27288 layer_factory.hpp:77] Creating layer scale3b_branch2a
I0312 14:13:12.656579 27288 net.cpp:150] Setting up scale3b_branch2a
I0312 14:13:12.656586 27288 net.cpp:157] Top shape: 8 128 28 28 (802816)
I0312 14:13:12.656589 27288 net.cpp:165] Memory required for data: 1075773472
I0312 14:13:12.656602 27288 layer_factory.hpp:77] Creating layer res3b_branch2a_relu
I0312 14:13:12.656607 27288 net.cpp:100] Creating Layer res3b_branch2a_relu
I0312 14:13:12.656611 27288 net.cpp:434] res3b_branch2a_relu <- res3b_branch2a
I0312 14:13:12.656616 27288 net.cpp:395] res3b_branch2a_relu -> res3b_branch2a (in-place)
I0312 14:13:12.656785 27288 net.cpp:150] Setting up res3b_branch2a_relu
I0312 14:13:12.656793 27288 net.cpp:157] Top shape: 8 128 28 28 (802816)
I0312 14:13:12.656796 27288 net.cpp:165] Memory required for data: 1078984736
I0312 14:13:12.656800 27288 layer_factory.hpp:77] Creating layer res3b_branch2b
I0312 14:13:12.656808 27288 net.cpp:100] Creating Layer res3b_branch2b
I0312 14:13:12.656812 27288 net.cpp:434] res3b_branch2b <- res3b_branch2a
I0312 14:13:12.656818 27288 net.cpp:408] res3b_branch2b -> res3b_branch2b
I0312 14:13:12.658623 27288 net.cpp:150] Setting up res3b_branch2b
I0312 14:13:12.658638 27288 net.cpp:157] Top shape: 8 128 28 28 (802816)
I0312 14:13:12.658641 27288 net.cpp:165] Memory required for data: 1082196000
I0312 14:13:12.658648 27288 layer_factory.hpp:77] Creating layer bn3b_branch2b
I0312 14:13:12.658654 27288 net.cpp:100] Creating Layer bn3b_branch2b
I0312 14:13:12.658659 27288 net.cpp:434] bn3b_branch2b <- res3b_branch2b
I0312 14:13:12.658664 27288 net.cpp:395] bn3b_branch2b -> res3b_branch2b (in-place)
I0312 14:13:12.658944 27288 net.cpp:150] Setting up bn3b_branch2b
I0312 14:13:12.658951 27288 net.cpp:157] Top shape: 8 128 28 28 (802816)
I0312 14:13:12.658954 27288 net.cpp:165] Memory required for data: 1085407264
I0312 14:13:12.658962 27288 layer_factory.hpp:77] Creating layer scale3b_branch2b
I0312 14:13:12.658968 27288 net.cpp:100] Creating Layer scale3b_branch2b
I0312 14:13:12.658972 27288 net.cpp:434] scale3b_branch2b <- res3b_branch2b
I0312 14:13:12.658978 27288 net.cpp:395] scale3b_branch2b -> res3b_branch2b (in-place)
I0312 14:13:12.659034 27288 layer_factory.hpp:77] Creating layer scale3b_branch2b
I0312 14:13:12.659188 27288 net.cpp:150] Setting up scale3b_branch2b
I0312 14:13:12.659193 27288 net.cpp:157] Top shape: 8 128 28 28 (802816)
I0312 14:13:12.659201 27288 net.cpp:165] Memory required for data: 1088618528
I0312 14:13:12.659209 27288 layer_factory.hpp:77] Creating layer res3b_branch2b_relu
I0312 14:13:12.659215 27288 net.cpp:100] Creating Layer res3b_branch2b_relu
I0312 14:13:12.659219 27288 net.cpp:434] res3b_branch2b_relu <- res3b_branch2b
I0312 14:13:12.659224 27288 net.cpp:395] res3b_branch2b_relu -> res3b_branch2b (in-place)
I0312 14:13:12.659390 27288 net.cpp:150] Setting up res3b_branch2b_relu
I0312 14:13:12.659401 27288 net.cpp:157] Top shape: 8 128 28 28 (802816)
I0312 14:13:12.659404 27288 net.cpp:165] Memory required for data: 1091829792
I0312 14:13:12.659407 27288 layer_factory.hpp:77] Creating layer res3b_branch2c
I0312 14:13:12.659415 27288 net.cpp:100] Creating Layer res3b_branch2c
I0312 14:13:12.659418 27288 net.cpp:434] res3b_branch2c <- res3b_branch2b
I0312 14:13:12.659425 27288 net.cpp:408] res3b_branch2c -> res3b_branch2c
I0312 14:13:12.660557 27288 net.cpp:150] Setting up res3b_branch2c
I0312 14:13:12.660570 27288 net.cpp:157] Top shape: 8 512 28 28 (3211264)
I0312 14:13:12.660574 27288 net.cpp:165] Memory required for data: 1104674848
I0312 14:13:12.660580 27288 layer_factory.hpp:77] Creating layer bn3b_branch2c
I0312 14:13:12.660588 27288 net.cpp:100] Creating Layer bn3b_branch2c
I0312 14:13:12.660591 27288 net.cpp:434] bn3b_branch2c <- res3b_branch2c
I0312 14:13:12.660596 27288 net.cpp:395] bn3b_branch2c -> res3b_branch2c (in-place)
I0312 14:13:12.660876 27288 net.cpp:150] Setting up bn3b_branch2c
I0312 14:13:12.660882 27288 net.cpp:157] Top shape: 8 512 28 28 (3211264)
I0312 14:13:12.660886 27288 net.cpp:165] Memory required for data: 1117519904
I0312 14:13:12.660892 27288 layer_factory.hpp:77] Creating layer scale3b_branch2c
I0312 14:13:12.660900 27288 net.cpp:100] Creating Layer scale3b_branch2c
I0312 14:13:12.660904 27288 net.cpp:434] scale3b_branch2c <- res3b_branch2c
I0312 14:13:12.660910 27288 net.cpp:395] scale3b_branch2c -> res3b_branch2c (in-place)
I0312 14:13:12.660979 27288 layer_factory.hpp:77] Creating layer scale3b_branch2c
I0312 14:13:12.661132 27288 net.cpp:150] Setting up scale3b_branch2c
I0312 14:13:12.661140 27288 net.cpp:157] Top shape: 8 512 28 28 (3211264)
I0312 14:13:12.661144 27288 net.cpp:165] Memory required for data: 1130364960
I0312 14:13:12.661150 27288 layer_factory.hpp:77] Creating layer res3b
I0312 14:13:12.661155 27288 net.cpp:100] Creating Layer res3b
I0312 14:13:12.661159 27288 net.cpp:434] res3b <- res3a_res3a_relu_0_split_1
I0312 14:13:12.661164 27288 net.cpp:434] res3b <- res3b_branch2c
I0312 14:13:12.661168 27288 net.cpp:408] res3b -> res3b
I0312 14:13:12.661198 27288 net.cpp:150] Setting up res3b
I0312 14:13:12.661204 27288 net.cpp:157] Top shape: 8 512 28 28 (3211264)
I0312 14:13:12.661207 27288 net.cpp:165] Memory required for data: 1143210016
I0312 14:13:12.661211 27288 layer_factory.hpp:77] Creating layer res3b_relu
I0312 14:13:12.661216 27288 net.cpp:100] Creating Layer res3b_relu
I0312 14:13:12.661219 27288 net.cpp:434] res3b_relu <- res3b
I0312 14:13:12.661224 27288 net.cpp:395] res3b_relu -> res3b (in-place)
I0312 14:13:12.661381 27288 net.cpp:150] Setting up res3b_relu
I0312 14:13:12.661389 27288 net.cpp:157] Top shape: 8 512 28 28 (3211264)
I0312 14:13:12.661393 27288 net.cpp:165] Memory required for data: 1156055072
I0312 14:13:12.661396 27288 layer_factory.hpp:77] Creating layer res3b_res3b_relu_0_split
I0312 14:13:12.661401 27288 net.cpp:100] Creating Layer res3b_res3b_relu_0_split
I0312 14:13:12.661406 27288 net.cpp:434] res3b_res3b_relu_0_split <- res3b
I0312 14:13:12.661412 27288 net.cpp:408] res3b_res3b_relu_0_split -> res3b_res3b_relu_0_split_0
I0312 14:13:12.661418 27288 net.cpp:408] res3b_res3b_relu_0_split -> res3b_res3b_relu_0_split_1
I0312 14:13:12.661473 27288 net.cpp:150] Setting up res3b_res3b_relu_0_split
I0312 14:13:12.661478 27288 net.cpp:157] Top shape: 8 512 28 28 (3211264)
I0312 14:13:12.661484 27288 net.cpp:157] Top shape: 8 512 28 28 (3211264)
I0312 14:13:12.661485 27288 net.cpp:165] Memory required for data: 1181745184
I0312 14:13:12.661494 27288 layer_factory.hpp:77] Creating layer res3c_branch2a
I0312 14:13:12.661501 27288 net.cpp:100] Creating Layer res3c_branch2a
I0312 14:13:12.661505 27288 net.cpp:434] res3c_branch2a <- res3b_res3b_relu_0_split_0
I0312 14:13:12.661514 27288 net.cpp:408] res3c_branch2a -> res3c_branch2a
I0312 14:13:12.662634 27288 net.cpp:150] Setting up res3c_branch2a
I0312 14:13:12.662647 27288 net.cpp:157] Top shape: 8 128 28 28 (802816)
I0312 14:13:12.662652 27288 net.cpp:165] Memory required for data: 1184956448
I0312 14:13:12.662657 27288 layer_factory.hpp:77] Creating layer bn3c_branch2a
I0312 14:13:12.662665 27288 net.cpp:100] Creating Layer bn3c_branch2a
I0312 14:13:12.662668 27288 net.cpp:434] bn3c_branch2a <- res3c_branch2a
I0312 14:13:12.662674 27288 net.cpp:395] bn3c_branch2a -> res3c_branch2a (in-place)
I0312 14:13:12.662950 27288 net.cpp:150] Setting up bn3c_branch2a
I0312 14:13:12.662956 27288 net.cpp:157] Top shape: 8 128 28 28 (802816)
I0312 14:13:12.662961 27288 net.cpp:165] Memory required for data: 1188167712
I0312 14:13:12.662966 27288 layer_factory.hpp:77] Creating layer scale3c_branch2a
I0312 14:13:12.662974 27288 net.cpp:100] Creating Layer scale3c_branch2a
I0312 14:13:12.662977 27288 net.cpp:434] scale3c_branch2a <- res3c_branch2a
I0312 14:13:12.662983 27288 net.cpp:395] scale3c_branch2a -> res3c_branch2a (in-place)
I0312 14:13:12.663038 27288 layer_factory.hpp:77] Creating layer scale3c_branch2a
I0312 14:13:12.663199 27288 net.cpp:150] Setting up scale3c_branch2a
I0312 14:13:12.663208 27288 net.cpp:157] Top shape: 8 128 28 28 (802816)
I0312 14:13:12.663210 27288 net.cpp:165] Memory required for data: 1191378976
I0312 14:13:12.663218 27288 layer_factory.hpp:77] Creating layer res3c_branch2a_relu
I0312 14:13:12.663223 27288 net.cpp:100] Creating Layer res3c_branch2a_relu
I0312 14:13:12.663225 27288 net.cpp:434] res3c_branch2a_relu <- res3c_branch2a
I0312 14:13:12.663230 27288 net.cpp:395] res3c_branch2a_relu -> res3c_branch2a (in-place)
I0312 14:13:12.663393 27288 net.cpp:150] Setting up res3c_branch2a_relu
I0312 14:13:12.663400 27288 net.cpp:157] Top shape: 8 128 28 28 (802816)
I0312 14:13:12.663404 27288 net.cpp:165] Memory required for data: 1194590240
I0312 14:13:12.663408 27288 layer_factory.hpp:77] Creating layer res3c_branch2b
I0312 14:13:12.663417 27288 net.cpp:100] Creating Layer res3c_branch2b
I0312 14:13:12.663420 27288 net.cpp:434] res3c_branch2b <- res3c_branch2a
I0312 14:13:12.663426 27288 net.cpp:408] res3c_branch2b -> res3c_branch2b
I0312 14:13:12.665863 27288 net.cpp:150] Setting up res3c_branch2b
I0312 14:13:12.665879 27288 net.cpp:157] Top shape: 8 128 28 28 (802816)
I0312 14:13:12.665882 27288 net.cpp:165] Memory required for data: 1197801504
I0312 14:13:12.665889 27288 layer_factory.hpp:77] Creating layer bn3c_branch2b
I0312 14:13:12.665896 27288 net.cpp:100] Creating Layer bn3c_branch2b
I0312 14:13:12.665900 27288 net.cpp:434] bn3c_branch2b <- res3c_branch2b
I0312 14:13:12.665905 27288 net.cpp:395] bn3c_branch2b -> res3c_branch2b (in-place)
I0312 14:13:12.666190 27288 net.cpp:150] Setting up bn3c_branch2b
I0312 14:13:12.666198 27288 net.cpp:157] Top shape: 8 128 28 28 (802816)
I0312 14:13:12.666201 27288 net.cpp:165] Memory required for data: 1201012768
I0312 14:13:12.666208 27288 layer_factory.hpp:77] Creating layer scale3c_branch2b
I0312 14:13:12.666215 27288 net.cpp:100] Creating Layer scale3c_branch2b
I0312 14:13:12.666219 27288 net.cpp:434] scale3c_branch2b <- res3c_branch2b
I0312 14:13:12.666224 27288 net.cpp:395] scale3c_branch2b -> res3c_branch2b (in-place)
I0312 14:13:12.666278 27288 layer_factory.hpp:77] Creating layer scale3c_branch2b
I0312 14:13:12.666435 27288 net.cpp:150] Setting up scale3c_branch2b
I0312 14:13:12.666442 27288 net.cpp:157] Top shape: 8 128 28 28 (802816)
I0312 14:13:12.666446 27288 net.cpp:165] Memory required for data: 1204224032
I0312 14:13:12.666452 27288 layer_factory.hpp:77] Creating layer res3c_branch2b_relu
I0312 14:13:12.666458 27288 net.cpp:100] Creating Layer res3c_branch2b_relu
I0312 14:13:12.666461 27288 net.cpp:434] res3c_branch2b_relu <- res3c_branch2b
I0312 14:13:12.666471 27288 net.cpp:395] res3c_branch2b_relu -> res3c_branch2b (in-place)
I0312 14:13:12.666960 27288 net.cpp:150] Setting up res3c_branch2b_relu
I0312 14:13:12.666972 27288 net.cpp:157] Top shape: 8 128 28 28 (802816)
I0312 14:13:12.666976 27288 net.cpp:165] Memory required for data: 1207435296
I0312 14:13:12.666980 27288 layer_factory.hpp:77] Creating layer res3c_branch2c
I0312 14:13:12.666988 27288 net.cpp:100] Creating Layer res3c_branch2c
I0312 14:13:12.666992 27288 net.cpp:434] res3c_branch2c <- res3c_branch2b
I0312 14:13:12.666999 27288 net.cpp:408] res3c_branch2c -> res3c_branch2c
I0312 14:13:12.667809 27288 net.cpp:150] Setting up res3c_branch2c
I0312 14:13:12.667819 27288 net.cpp:157] Top shape: 8 512 28 28 (3211264)
I0312 14:13:12.667822 27288 net.cpp:165] Memory required for data: 1220280352
I0312 14:13:12.667827 27288 layer_factory.hpp:77] Creating layer bn3c_branch2c
I0312 14:13:12.667835 27288 net.cpp:100] Creating Layer bn3c_branch2c
I0312 14:13:12.667840 27288 net.cpp:434] bn3c_branch2c <- res3c_branch2c
I0312 14:13:12.667843 27288 net.cpp:395] bn3c_branch2c -> res3c_branch2c (in-place)
I0312 14:13:12.668123 27288 net.cpp:150] Setting up bn3c_branch2c
I0312 14:13:12.668130 27288 net.cpp:157] Top shape: 8 512 28 28 (3211264)
I0312 14:13:12.668133 27288 net.cpp:165] Memory required for data: 1233125408
I0312 14:13:12.668140 27288 layer_factory.hpp:77] Creating layer scale3c_branch2c
I0312 14:13:12.668148 27288 net.cpp:100] Creating Layer scale3c_branch2c
I0312 14:13:12.668153 27288 net.cpp:434] scale3c_branch2c <- res3c_branch2c
I0312 14:13:12.668159 27288 net.cpp:395] scale3c_branch2c -> res3c_branch2c (in-place)
I0312 14:13:12.668216 27288 layer_factory.hpp:77] Creating layer scale3c_branch2c
I0312 14:13:12.668375 27288 net.cpp:150] Setting up scale3c_branch2c
I0312 14:13:12.668381 27288 net.cpp:157] Top shape: 8 512 28 28 (3211264)
I0312 14:13:12.668385 27288 net.cpp:165] Memory required for data: 1245970464
I0312 14:13:12.668391 27288 layer_factory.hpp:77] Creating layer res3c
I0312 14:13:12.668396 27288 net.cpp:100] Creating Layer res3c
I0312 14:13:12.668401 27288 net.cpp:434] res3c <- res3b_res3b_relu_0_split_1
I0312 14:13:12.668404 27288 net.cpp:434] res3c <- res3c_branch2c
I0312 14:13:12.668409 27288 net.cpp:408] res3c -> res3c
I0312 14:13:12.668439 27288 net.cpp:150] Setting up res3c
I0312 14:13:12.668445 27288 net.cpp:157] Top shape: 8 512 28 28 (3211264)
I0312 14:13:12.668448 27288 net.cpp:165] Memory required for data: 1258815520
I0312 14:13:12.668452 27288 layer_factory.hpp:77] Creating layer res3c_relu
I0312 14:13:12.668457 27288 net.cpp:100] Creating Layer res3c_relu
I0312 14:13:12.668460 27288 net.cpp:434] res3c_relu <- res3c
I0312 14:13:12.668465 27288 net.cpp:395] res3c_relu -> res3c (in-place)
I0312 14:13:12.669028 27288 net.cpp:150] Setting up res3c_relu
I0312 14:13:12.669044 27288 net.cpp:157] Top shape: 8 512 28 28 (3211264)
I0312 14:13:12.669047 27288 net.cpp:165] Memory required for data: 1271660576
I0312 14:13:12.669050 27288 layer_factory.hpp:77] Creating layer res3c_res3c_relu_0_split
I0312 14:13:12.669057 27288 net.cpp:100] Creating Layer res3c_res3c_relu_0_split
I0312 14:13:12.669060 27288 net.cpp:434] res3c_res3c_relu_0_split <- res3c
I0312 14:13:12.669068 27288 net.cpp:408] res3c_res3c_relu_0_split -> res3c_res3c_relu_0_split_0
I0312 14:13:12.669075 27288 net.cpp:408] res3c_res3c_relu_0_split -> res3c_res3c_relu_0_split_1
I0312 14:13:12.669138 27288 net.cpp:150] Setting up res3c_res3c_relu_0_split
I0312 14:13:12.669145 27288 net.cpp:157] Top shape: 8 512 28 28 (3211264)
I0312 14:13:12.669149 27288 net.cpp:157] Top shape: 8 512 28 28 (3211264)
I0312 14:13:12.669152 27288 net.cpp:165] Memory required for data: 1297350688
I0312 14:13:12.669157 27288 layer_factory.hpp:77] Creating layer res3d_branch2a
I0312 14:13:12.669164 27288 net.cpp:100] Creating Layer res3d_branch2a
I0312 14:13:12.669169 27288 net.cpp:434] res3d_branch2a <- res3c_res3c_relu_0_split_0
I0312 14:13:12.669176 27288 net.cpp:408] res3d_branch2a -> res3d_branch2a
I0312 14:13:12.671301 27288 net.cpp:150] Setting up res3d_branch2a
I0312 14:13:12.671315 27288 net.cpp:157] Top shape: 8 128 28 28 (802816)
I0312 14:13:12.671319 27288 net.cpp:165] Memory required for data: 1300561952
I0312 14:13:12.671325 27288 layer_factory.hpp:77] Creating layer bn3d_branch2a
I0312 14:13:12.671334 27288 net.cpp:100] Creating Layer bn3d_branch2a
I0312 14:13:12.671337 27288 net.cpp:434] bn3d_branch2a <- res3d_branch2a
I0312 14:13:12.671342 27288 net.cpp:395] bn3d_branch2a -> res3d_branch2a (in-place)
I0312 14:13:12.671622 27288 net.cpp:150] Setting up bn3d_branch2a
I0312 14:13:12.671629 27288 net.cpp:157] Top shape: 8 128 28 28 (802816)
I0312 14:13:12.671633 27288 net.cpp:165] Memory required for data: 1303773216
I0312 14:13:12.671658 27288 layer_factory.hpp:77] Creating layer scale3d_branch2a
I0312 14:13:12.671667 27288 net.cpp:100] Creating Layer scale3d_branch2a
I0312 14:13:12.671671 27288 net.cpp:434] scale3d_branch2a <- res3d_branch2a
I0312 14:13:12.671676 27288 net.cpp:395] scale3d_branch2a -> res3d_branch2a (in-place)
I0312 14:13:12.671732 27288 layer_factory.hpp:77] Creating layer scale3d_branch2a
I0312 14:13:12.671892 27288 net.cpp:150] Setting up scale3d_branch2a
I0312 14:13:12.671900 27288 net.cpp:157] Top shape: 8 128 28 28 (802816)
I0312 14:13:12.671902 27288 net.cpp:165] Memory required for data: 1306984480
I0312 14:13:12.671910 27288 layer_factory.hpp:77] Creating layer res3d_branch2a_relu
I0312 14:13:12.671916 27288 net.cpp:100] Creating Layer res3d_branch2a_relu
I0312 14:13:12.671918 27288 net.cpp:434] res3d_branch2a_relu <- res3d_branch2a
I0312 14:13:12.671923 27288 net.cpp:395] res3d_branch2a_relu -> res3d_branch2a (in-place)
I0312 14:13:12.672086 27288 net.cpp:150] Setting up res3d_branch2a_relu
I0312 14:13:12.672093 27288 net.cpp:157] Top shape: 8 128 28 28 (802816)
I0312 14:13:12.672097 27288 net.cpp:165] Memory required for data: 1310195744
I0312 14:13:12.672101 27288 layer_factory.hpp:77] Creating layer res3d_branch2b
I0312 14:13:12.672109 27288 net.cpp:100] Creating Layer res3d_branch2b
I0312 14:13:12.672113 27288 net.cpp:434] res3d_branch2b <- res3d_branch2a
I0312 14:13:12.672119 27288 net.cpp:408] res3d_branch2b -> res3d_branch2b
I0312 14:13:12.673681 27288 net.cpp:150] Setting up res3d_branch2b
I0312 14:13:12.673696 27288 net.cpp:157] Top shape: 8 128 28 28 (802816)
I0312 14:13:12.673701 27288 net.cpp:165] Memory required for data: 1313407008
I0312 14:13:12.673707 27288 layer_factory.hpp:77] Creating layer bn3d_branch2b
I0312 14:13:12.673712 27288 net.cpp:100] Creating Layer bn3d_branch2b
I0312 14:13:12.673717 27288 net.cpp:434] bn3d_branch2b <- res3d_branch2b
I0312 14:13:12.673722 27288 net.cpp:395] bn3d_branch2b -> res3d_branch2b (in-place)
I0312 14:13:12.674010 27288 net.cpp:150] Setting up bn3d_branch2b
I0312 14:13:12.674017 27288 net.cpp:157] Top shape: 8 128 28 28 (802816)
I0312 14:13:12.674021 27288 net.cpp:165] Memory required for data: 1316618272
I0312 14:13:12.674027 27288 layer_factory.hpp:77] Creating layer scale3d_branch2b
I0312 14:13:12.674034 27288 net.cpp:100] Creating Layer scale3d_branch2b
I0312 14:13:12.674037 27288 net.cpp:434] scale3d_branch2b <- res3d_branch2b
I0312 14:13:12.674043 27288 net.cpp:395] scale3d_branch2b -> res3d_branch2b (in-place)
I0312 14:13:12.674099 27288 layer_factory.hpp:77] Creating layer scale3d_branch2b
I0312 14:13:12.674257 27288 net.cpp:150] Setting up scale3d_branch2b
I0312 14:13:12.674264 27288 net.cpp:157] Top shape: 8 128 28 28 (802816)
I0312 14:13:12.674268 27288 net.cpp:165] Memory required for data: 1319829536
I0312 14:13:12.674274 27288 layer_factory.hpp:77] Creating layer res3d_branch2b_relu
I0312 14:13:12.674280 27288 net.cpp:100] Creating Layer res3d_branch2b_relu
I0312 14:13:12.674283 27288 net.cpp:434] res3d_branch2b_relu <- res3d_branch2b
I0312 14:13:12.674289 27288 net.cpp:395] res3d_branch2b_relu -> res3d_branch2b (in-place)
I0312 14:13:12.674459 27288 net.cpp:150] Setting up res3d_branch2b_relu
I0312 14:13:12.674468 27288 net.cpp:157] Top shape: 8 128 28 28 (802816)
I0312 14:13:12.674470 27288 net.cpp:165] Memory required for data: 1323040800
I0312 14:13:12.674477 27288 layer_factory.hpp:77] Creating layer res3d_branch2c
I0312 14:13:12.674486 27288 net.cpp:100] Creating Layer res3d_branch2c
I0312 14:13:12.674490 27288 net.cpp:434] res3d_branch2c <- res3d_branch2b
I0312 14:13:12.674496 27288 net.cpp:408] res3d_branch2c -> res3d_branch2c
I0312 14:13:12.675653 27288 net.cpp:150] Setting up res3d_branch2c
I0312 14:13:12.675668 27288 net.cpp:157] Top shape: 8 512 28 28 (3211264)
I0312 14:13:12.675670 27288 net.cpp:165] Memory required for data: 1335885856
I0312 14:13:12.675676 27288 layer_factory.hpp:77] Creating layer bn3d_branch2c
I0312 14:13:12.675684 27288 net.cpp:100] Creating Layer bn3d_branch2c
I0312 14:13:12.675688 27288 net.cpp:434] bn3d_branch2c <- res3d_branch2c
I0312 14:13:12.675693 27288 net.cpp:395] bn3d_branch2c -> res3d_branch2c (in-place)
I0312 14:13:12.675977 27288 net.cpp:150] Setting up bn3d_branch2c
I0312 14:13:12.675985 27288 net.cpp:157] Top shape: 8 512 28 28 (3211264)
I0312 14:13:12.675988 27288 net.cpp:165] Memory required for data: 1348730912
I0312 14:13:12.675995 27288 layer_factory.hpp:77] Creating layer scale3d_branch2c
I0312 14:13:12.676002 27288 net.cpp:100] Creating Layer scale3d_branch2c
I0312 14:13:12.676007 27288 net.cpp:434] scale3d_branch2c <- res3d_branch2c
I0312 14:13:12.676012 27288 net.cpp:395] scale3d_branch2c -> res3d_branch2c (in-place)
I0312 14:13:12.676070 27288 layer_factory.hpp:77] Creating layer scale3d_branch2c
I0312 14:13:12.676224 27288 net.cpp:150] Setting up scale3d_branch2c
I0312 14:13:12.676231 27288 net.cpp:157] Top shape: 8 512 28 28 (3211264)
I0312 14:13:12.676234 27288 net.cpp:165] Memory required for data: 1361575968
I0312 14:13:12.676241 27288 layer_factory.hpp:77] Creating layer res3d
I0312 14:13:12.676247 27288 net.cpp:100] Creating Layer res3d
I0312 14:13:12.676251 27288 net.cpp:434] res3d <- res3c_res3c_relu_0_split_1
I0312 14:13:12.676256 27288 net.cpp:434] res3d <- res3d_branch2c
I0312 14:13:12.676260 27288 net.cpp:408] res3d -> res3d
I0312 14:13:12.676291 27288 net.cpp:150] Setting up res3d
I0312 14:13:12.676298 27288 net.cpp:157] Top shape: 8 512 28 28 (3211264)
I0312 14:13:12.676301 27288 net.cpp:165] Memory required for data: 1374421024
I0312 14:13:12.676304 27288 layer_factory.hpp:77] Creating layer res3d_relu
I0312 14:13:12.676309 27288 net.cpp:100] Creating Layer res3d_relu
I0312 14:13:12.676312 27288 net.cpp:434] res3d_relu <- res3d
I0312 14:13:12.676318 27288 net.cpp:395] res3d_relu -> res3d (in-place)
I0312 14:13:12.676482 27288 net.cpp:150] Setting up res3d_relu
I0312 14:13:12.676491 27288 net.cpp:157] Top shape: 8 512 28 28 (3211264)
I0312 14:13:12.676493 27288 net.cpp:165] Memory required for data: 1387266080
I0312 14:13:12.676496 27288 layer_factory.hpp:77] Creating layer res3d_res3d_relu_0_split
I0312 14:13:12.676502 27288 net.cpp:100] Creating Layer res3d_res3d_relu_0_split
I0312 14:13:12.676506 27288 net.cpp:434] res3d_res3d_relu_0_split <- res3d
I0312 14:13:12.676512 27288 net.cpp:408] res3d_res3d_relu_0_split -> res3d_res3d_relu_0_split_0
I0312 14:13:12.676518 27288 net.cpp:408] res3d_res3d_relu_0_split -> res3d_res3d_relu_0_split_1
I0312 14:13:12.676575 27288 net.cpp:150] Setting up res3d_res3d_relu_0_split
I0312 14:13:12.676581 27288 net.cpp:157] Top shape: 8 512 28 28 (3211264)
I0312 14:13:12.676585 27288 net.cpp:157] Top shape: 8 512 28 28 (3211264)
I0312 14:13:12.676589 27288 net.cpp:165] Memory required for data: 1412956192
I0312 14:13:12.676591 27288 layer_factory.hpp:77] Creating layer res4a_branch1
I0312 14:13:12.676599 27288 net.cpp:100] Creating Layer res4a_branch1
I0312 14:13:12.676604 27288 net.cpp:434] res4a_branch1 <- res3d_res3d_relu_0_split_0
I0312 14:13:12.676610 27288 net.cpp:408] res4a_branch1 -> res4a_branch1
I0312 14:13:12.679010 27288 net.cpp:150] Setting up res4a_branch1
I0312 14:13:12.679025 27288 net.cpp:157] Top shape: 8 1024 14 14 (1605632)
I0312 14:13:12.679029 27288 net.cpp:165] Memory required for data: 1419378720
I0312 14:13:12.679035 27288 layer_factory.hpp:77] Creating layer bn4a_branch1
I0312 14:13:12.679046 27288 net.cpp:100] Creating Layer bn4a_branch1
I0312 14:13:12.679050 27288 net.cpp:434] bn4a_branch1 <- res4a_branch1
I0312 14:13:12.679057 27288 net.cpp:395] bn4a_branch1 -> res4a_branch1 (in-place)
I0312 14:13:12.679355 27288 net.cpp:150] Setting up bn4a_branch1
I0312 14:13:12.679363 27288 net.cpp:157] Top shape: 8 1024 14 14 (1605632)
I0312 14:13:12.679366 27288 net.cpp:165] Memory required for data: 1425801248
I0312 14:13:12.679373 27288 layer_factory.hpp:77] Creating layer scale4a_branch1
I0312 14:13:12.679381 27288 net.cpp:100] Creating Layer scale4a_branch1
I0312 14:13:12.679385 27288 net.cpp:434] scale4a_branch1 <- res4a_branch1
I0312 14:13:12.679391 27288 net.cpp:395] scale4a_branch1 -> res4a_branch1 (in-place)
I0312 14:13:12.679445 27288 layer_factory.hpp:77] Creating layer scale4a_branch1
I0312 14:13:12.679610 27288 net.cpp:150] Setting up scale4a_branch1
I0312 14:13:12.679616 27288 net.cpp:157] Top shape: 8 1024 14 14 (1605632)
I0312 14:13:12.679620 27288 net.cpp:165] Memory required for data: 1432223776
I0312 14:13:12.679626 27288 layer_factory.hpp:77] Creating layer res4a_branch2a
I0312 14:13:12.679635 27288 net.cpp:100] Creating Layer res4a_branch2a
I0312 14:13:12.679637 27288 net.cpp:434] res4a_branch2a <- res3d_res3d_relu_0_split_1
I0312 14:13:12.679642 27288 net.cpp:408] res4a_branch2a -> res4a_branch2a
I0312 14:13:12.680827 27288 net.cpp:150] Setting up res4a_branch2a
I0312 14:13:12.680842 27288 net.cpp:157] Top shape: 8 256 14 14 (401408)
I0312 14:13:12.680845 27288 net.cpp:165] Memory required for data: 1433829408
I0312 14:13:12.680851 27288 layer_factory.hpp:77] Creating layer bn4a_branch2a
I0312 14:13:12.680858 27288 net.cpp:100] Creating Layer bn4a_branch2a
I0312 14:13:12.680861 27288 net.cpp:434] bn4a_branch2a <- res4a_branch2a
I0312 14:13:12.680869 27288 net.cpp:395] bn4a_branch2a -> res4a_branch2a (in-place)
I0312 14:13:12.681190 27288 net.cpp:150] Setting up bn4a_branch2a
I0312 14:13:12.681200 27288 net.cpp:157] Top shape: 8 256 14 14 (401408)
I0312 14:13:12.681203 27288 net.cpp:165] Memory required for data: 1435435040
I0312 14:13:12.681211 27288 layer_factory.hpp:77] Creating layer scale4a_branch2a
I0312 14:13:12.681217 27288 net.cpp:100] Creating Layer scale4a_branch2a
I0312 14:13:12.681221 27288 net.cpp:434] scale4a_branch2a <- res4a_branch2a
I0312 14:13:12.681228 27288 net.cpp:395] scale4a_branch2a -> res4a_branch2a (in-place)
I0312 14:13:12.681299 27288 layer_factory.hpp:77] Creating layer scale4a_branch2a
I0312 14:13:12.681450 27288 net.cpp:150] Setting up scale4a_branch2a
I0312 14:13:12.681457 27288 net.cpp:157] Top shape: 8 256 14 14 (401408)
I0312 14:13:12.681460 27288 net.cpp:165] Memory required for data: 1437040672
I0312 14:13:12.681468 27288 layer_factory.hpp:77] Creating layer res4a_branch2a_relu
I0312 14:13:12.681473 27288 net.cpp:100] Creating Layer res4a_branch2a_relu
I0312 14:13:12.681475 27288 net.cpp:434] res4a_branch2a_relu <- res4a_branch2a
I0312 14:13:12.681483 27288 net.cpp:395] res4a_branch2a_relu -> res4a_branch2a (in-place)
I0312 14:13:12.681648 27288 net.cpp:150] Setting up res4a_branch2a_relu
I0312 14:13:12.681656 27288 net.cpp:157] Top shape: 8 256 14 14 (401408)
I0312 14:13:12.681659 27288 net.cpp:165] Memory required for data: 1438646304
I0312 14:13:12.681663 27288 layer_factory.hpp:77] Creating layer res4a_branch2b
I0312 14:13:12.681677 27288 net.cpp:100] Creating Layer res4a_branch2b
I0312 14:13:12.681682 27288 net.cpp:434] res4a_branch2b <- res4a_branch2a
I0312 14:13:12.681691 27288 net.cpp:408] res4a_branch2b -> res4a_branch2b
I0312 14:13:12.684463 27288 net.cpp:150] Setting up res4a_branch2b
I0312 14:13:12.684476 27288 net.cpp:157] Top shape: 8 256 14 14 (401408)
I0312 14:13:12.684480 27288 net.cpp:165] Memory required for data: 1440251936
I0312 14:13:12.684487 27288 layer_factory.hpp:77] Creating layer bn4a_branch2b
I0312 14:13:12.684494 27288 net.cpp:100] Creating Layer bn4a_branch2b
I0312 14:13:12.684499 27288 net.cpp:434] bn4a_branch2b <- res4a_branch2b
I0312 14:13:12.684504 27288 net.cpp:395] bn4a_branch2b -> res4a_branch2b (in-place)
I0312 14:13:12.684803 27288 net.cpp:150] Setting up bn4a_branch2b
I0312 14:13:12.684809 27288 net.cpp:157] Top shape: 8 256 14 14 (401408)
I0312 14:13:12.684813 27288 net.cpp:165] Memory required for data: 1441857568
I0312 14:13:12.684819 27288 layer_factory.hpp:77] Creating layer scale4a_branch2b
I0312 14:13:12.684828 27288 net.cpp:100] Creating Layer scale4a_branch2b
I0312 14:13:12.684831 27288 net.cpp:434] scale4a_branch2b <- res4a_branch2b
I0312 14:13:12.684837 27288 net.cpp:395] scale4a_branch2b -> res4a_branch2b (in-place)
I0312 14:13:12.684895 27288 layer_factory.hpp:77] Creating layer scale4a_branch2b
I0312 14:13:12.685058 27288 net.cpp:150] Setting up scale4a_branch2b
I0312 14:13:12.685067 27288 net.cpp:157] Top shape: 8 256 14 14 (401408)
I0312 14:13:12.685070 27288 net.cpp:165] Memory required for data: 1443463200
I0312 14:13:12.685076 27288 layer_factory.hpp:77] Creating layer res4a_branch2b_relu
I0312 14:13:12.685083 27288 net.cpp:100] Creating Layer res4a_branch2b_relu
I0312 14:13:12.685087 27288 net.cpp:434] res4a_branch2b_relu <- res4a_branch2b
I0312 14:13:12.685092 27288 net.cpp:395] res4a_branch2b_relu -> res4a_branch2b (in-place)
I0312 14:13:12.685261 27288 net.cpp:150] Setting up res4a_branch2b_relu
I0312 14:13:12.685271 27288 net.cpp:157] Top shape: 8 256 14 14 (401408)
I0312 14:13:12.685276 27288 net.cpp:165] Memory required for data: 1445068832
I0312 14:13:12.685278 27288 layer_factory.hpp:77] Creating layer res4a_branch2c
I0312 14:13:12.685286 27288 net.cpp:100] Creating Layer res4a_branch2c
I0312 14:13:12.685289 27288 net.cpp:434] res4a_branch2c <- res4a_branch2b
I0312 14:13:12.685297 27288 net.cpp:408] res4a_branch2c -> res4a_branch2c
I0312 14:13:12.687523 27288 net.cpp:150] Setting up res4a_branch2c
I0312 14:13:12.687538 27288 net.cpp:157] Top shape: 8 1024 14 14 (1605632)
I0312 14:13:12.687542 27288 net.cpp:165] Memory required for data: 1451491360
I0312 14:13:12.687548 27288 layer_factory.hpp:77] Creating layer bn4a_branch2c
I0312 14:13:12.687554 27288 net.cpp:100] Creating Layer bn4a_branch2c
I0312 14:13:12.687558 27288 net.cpp:434] bn4a_branch2c <- res4a_branch2c
I0312 14:13:12.687566 27288 net.cpp:395] bn4a_branch2c -> res4a_branch2c (in-place)
I0312 14:13:12.687862 27288 net.cpp:150] Setting up bn4a_branch2c
I0312 14:13:12.687870 27288 net.cpp:157] Top shape: 8 1024 14 14 (1605632)
I0312 14:13:12.687872 27288 net.cpp:165] Memory required for data: 1457913888
I0312 14:13:12.687880 27288 layer_factory.hpp:77] Creating layer scale4a_branch2c
I0312 14:13:12.687886 27288 net.cpp:100] Creating Layer scale4a_branch2c
I0312 14:13:12.687891 27288 net.cpp:434] scale4a_branch2c <- res4a_branch2c
I0312 14:13:12.687897 27288 net.cpp:395] scale4a_branch2c -> res4a_branch2c (in-place)
I0312 14:13:12.687952 27288 layer_factory.hpp:77] Creating layer scale4a_branch2c
I0312 14:13:12.688118 27288 net.cpp:150] Setting up scale4a_branch2c
I0312 14:13:12.688125 27288 net.cpp:157] Top shape: 8 1024 14 14 (1605632)
I0312 14:13:12.688128 27288 net.cpp:165] Memory required for data: 1464336416
I0312 14:13:12.688135 27288 layer_factory.hpp:77] Creating layer res4a
I0312 14:13:12.688140 27288 net.cpp:100] Creating Layer res4a
I0312 14:13:12.688144 27288 net.cpp:434] res4a <- res4a_branch1
I0312 14:13:12.688148 27288 net.cpp:434] res4a <- res4a_branch2c
I0312 14:13:12.688153 27288 net.cpp:408] res4a -> res4a
I0312 14:13:12.688186 27288 net.cpp:150] Setting up res4a
I0312 14:13:12.688192 27288 net.cpp:157] Top shape: 8 1024 14 14 (1605632)
I0312 14:13:12.688195 27288 net.cpp:165] Memory required for data: 1470758944
I0312 14:13:12.688199 27288 layer_factory.hpp:77] Creating layer res4a_relu
I0312 14:13:12.688205 27288 net.cpp:100] Creating Layer res4a_relu
I0312 14:13:12.688208 27288 net.cpp:434] res4a_relu <- res4a
I0312 14:13:12.688212 27288 net.cpp:395] res4a_relu -> res4a (in-place)
I0312 14:13:12.688719 27288 net.cpp:150] Setting up res4a_relu
I0312 14:13:12.688731 27288 net.cpp:157] Top shape: 8 1024 14 14 (1605632)
I0312 14:13:12.688735 27288 net.cpp:165] Memory required for data: 1477181472
I0312 14:13:12.688738 27288 layer_factory.hpp:77] Creating layer res4a_res4a_relu_0_split
I0312 14:13:12.688763 27288 net.cpp:100] Creating Layer res4a_res4a_relu_0_split
I0312 14:13:12.688767 27288 net.cpp:434] res4a_res4a_relu_0_split <- res4a
I0312 14:13:12.688773 27288 net.cpp:408] res4a_res4a_relu_0_split -> res4a_res4a_relu_0_split_0
I0312 14:13:12.688781 27288 net.cpp:408] res4a_res4a_relu_0_split -> res4a_res4a_relu_0_split_1
I0312 14:13:12.688838 27288 net.cpp:150] Setting up res4a_res4a_relu_0_split
I0312 14:13:12.688845 27288 net.cpp:157] Top shape: 8 1024 14 14 (1605632)
I0312 14:13:12.688849 27288 net.cpp:157] Top shape: 8 1024 14 14 (1605632)
I0312 14:13:12.688851 27288 net.cpp:165] Memory required for data: 1490026528
I0312 14:13:12.688855 27288 layer_factory.hpp:77] Creating layer res4b_branch2a
I0312 14:13:12.688864 27288 net.cpp:100] Creating Layer res4b_branch2a
I0312 14:13:12.688868 27288 net.cpp:434] res4b_branch2a <- res4a_res4a_relu_0_split_0
I0312 14:13:12.688874 27288 net.cpp:408] res4b_branch2a -> res4b_branch2a
I0312 14:13:12.689811 27288 net.cpp:150] Setting up res4b_branch2a
I0312 14:13:12.689823 27288 net.cpp:157] Top shape: 8 256 14 14 (401408)
I0312 14:13:12.689826 27288 net.cpp:165] Memory required for data: 1491632160
I0312 14:13:12.689832 27288 layer_factory.hpp:77] Creating layer bn4b_branch2a
I0312 14:13:12.689841 27288 net.cpp:100] Creating Layer bn4b_branch2a
I0312 14:13:12.689843 27288 net.cpp:434] bn4b_branch2a <- res4b_branch2a
I0312 14:13:12.689848 27288 net.cpp:395] bn4b_branch2a -> res4b_branch2a (in-place)
I0312 14:13:12.690134 27288 net.cpp:150] Setting up bn4b_branch2a
I0312 14:13:12.690141 27288 net.cpp:157] Top shape: 8 256 14 14 (401408)
I0312 14:13:12.690145 27288 net.cpp:165] Memory required for data: 1493237792
I0312 14:13:12.690151 27288 layer_factory.hpp:77] Creating layer scale4b_branch2a
I0312 14:13:12.690158 27288 net.cpp:100] Creating Layer scale4b_branch2a
I0312 14:13:12.690162 27288 net.cpp:434] scale4b_branch2a <- res4b_branch2a
I0312 14:13:12.690167 27288 net.cpp:395] scale4b_branch2a -> res4b_branch2a (in-place)
I0312 14:13:12.690224 27288 layer_factory.hpp:77] Creating layer scale4b_branch2a
I0312 14:13:12.690378 27288 net.cpp:150] Setting up scale4b_branch2a
I0312 14:13:12.690385 27288 net.cpp:157] Top shape: 8 256 14 14 (401408)
I0312 14:13:12.690388 27288 net.cpp:165] Memory required for data: 1494843424
I0312 14:13:12.690394 27288 layer_factory.hpp:77] Creating layer res4b_branch2a_relu
I0312 14:13:12.690402 27288 net.cpp:100] Creating Layer res4b_branch2a_relu
I0312 14:13:12.690407 27288 net.cpp:434] res4b_branch2a_relu <- res4b_branch2a
I0312 14:13:12.690410 27288 net.cpp:395] res4b_branch2a_relu -> res4b_branch2a (in-place)
I0312 14:13:12.690907 27288 net.cpp:150] Setting up res4b_branch2a_relu
I0312 14:13:12.690920 27288 net.cpp:157] Top shape: 8 256 14 14 (401408)
I0312 14:13:12.690924 27288 net.cpp:165] Memory required for data: 1496449056
I0312 14:13:12.690927 27288 layer_factory.hpp:77] Creating layer res4b_branch2b
I0312 14:13:12.690937 27288 net.cpp:100] Creating Layer res4b_branch2b
I0312 14:13:12.690940 27288 net.cpp:434] res4b_branch2b <- res4b_branch2a
I0312 14:13:12.690948 27288 net.cpp:408] res4b_branch2b -> res4b_branch2b
I0312 14:13:12.693835 27288 net.cpp:150] Setting up res4b_branch2b
I0312 14:13:12.693850 27288 net.cpp:157] Top shape: 8 256 14 14 (401408)
I0312 14:13:12.693855 27288 net.cpp:165] Memory required for data: 1498054688
I0312 14:13:12.693861 27288 layer_factory.hpp:77] Creating layer bn4b_branch2b
I0312 14:13:12.693867 27288 net.cpp:100] Creating Layer bn4b_branch2b
I0312 14:13:12.693871 27288 net.cpp:434] bn4b_branch2b <- res4b_branch2b
I0312 14:13:12.693876 27288 net.cpp:395] bn4b_branch2b -> res4b_branch2b (in-place)
I0312 14:13:12.694171 27288 net.cpp:150] Setting up bn4b_branch2b
I0312 14:13:12.694178 27288 net.cpp:157] Top shape: 8 256 14 14 (401408)
I0312 14:13:12.694181 27288 net.cpp:165] Memory required for data: 1499660320
I0312 14:13:12.694188 27288 layer_factory.hpp:77] Creating layer scale4b_branch2b
I0312 14:13:12.694196 27288 net.cpp:100] Creating Layer scale4b_branch2b
I0312 14:13:12.694205 27288 net.cpp:434] scale4b_branch2b <- res4b_branch2b
I0312 14:13:12.694211 27288 net.cpp:395] scale4b_branch2b -> res4b_branch2b (in-place)
I0312 14:13:12.694267 27288 layer_factory.hpp:77] Creating layer scale4b_branch2b
I0312 14:13:12.694425 27288 net.cpp:150] Setting up scale4b_branch2b
I0312 14:13:12.694432 27288 net.cpp:157] Top shape: 8 256 14 14 (401408)
I0312 14:13:12.694435 27288 net.cpp:165] Memory required for data: 1501265952
I0312 14:13:12.694442 27288 layer_factory.hpp:77] Creating layer res4b_branch2b_relu
I0312 14:13:12.694447 27288 net.cpp:100] Creating Layer res4b_branch2b_relu
I0312 14:13:12.694452 27288 net.cpp:434] res4b_branch2b_relu <- res4b_branch2b
I0312 14:13:12.694458 27288 net.cpp:395] res4b_branch2b_relu -> res4b_branch2b (in-place)
I0312 14:13:12.694631 27288 net.cpp:150] Setting up res4b_branch2b_relu
I0312 14:13:12.694640 27288 net.cpp:157] Top shape: 8 256 14 14 (401408)
I0312 14:13:12.694643 27288 net.cpp:165] Memory required for data: 1502871584
I0312 14:13:12.694646 27288 layer_factory.hpp:77] Creating layer res4b_branch2c
I0312 14:13:12.694654 27288 net.cpp:100] Creating Layer res4b_branch2c
I0312 14:13:12.694658 27288 net.cpp:434] res4b_branch2c <- res4b_branch2b
I0312 14:13:12.694665 27288 net.cpp:408] res4b_branch2c -> res4b_branch2c
I0312 14:13:12.696930 27288 net.cpp:150] Setting up res4b_branch2c
I0312 14:13:12.696954 27288 net.cpp:157] Top shape: 8 1024 14 14 (1605632)
I0312 14:13:12.696957 27288 net.cpp:165] Memory required for data: 1509294112
I0312 14:13:12.696964 27288 layer_factory.hpp:77] Creating layer bn4b_branch2c
I0312 14:13:12.696969 27288 net.cpp:100] Creating Layer bn4b_branch2c
I0312 14:13:12.696974 27288 net.cpp:434] bn4b_branch2c <- res4b_branch2c
I0312 14:13:12.696980 27288 net.cpp:395] bn4b_branch2c -> res4b_branch2c (in-place)
I0312 14:13:12.697279 27288 net.cpp:150] Setting up bn4b_branch2c
I0312 14:13:12.697286 27288 net.cpp:157] Top shape: 8 1024 14 14 (1605632)
I0312 14:13:12.697289 27288 net.cpp:165] Memory required for data: 1515716640
I0312 14:13:12.697298 27288 layer_factory.hpp:77] Creating layer scale4b_branch2c
I0312 14:13:12.697304 27288 net.cpp:100] Creating Layer scale4b_branch2c
I0312 14:13:12.697309 27288 net.cpp:434] scale4b_branch2c <- res4b_branch2c
I0312 14:13:12.697314 27288 net.cpp:395] scale4b_branch2c -> res4b_branch2c (in-place)
I0312 14:13:12.697369 27288 layer_factory.hpp:77] Creating layer scale4b_branch2c
I0312 14:13:12.697537 27288 net.cpp:150] Setting up scale4b_branch2c
I0312 14:13:12.697544 27288 net.cpp:157] Top shape: 8 1024 14 14 (1605632)
I0312 14:13:12.697547 27288 net.cpp:165] Memory required for data: 1522139168
I0312 14:13:12.697554 27288 layer_factory.hpp:77] Creating layer res4b
I0312 14:13:12.697559 27288 net.cpp:100] Creating Layer res4b
I0312 14:13:12.697563 27288 net.cpp:434] res4b <- res4a_res4a_relu_0_split_1
I0312 14:13:12.697567 27288 net.cpp:434] res4b <- res4b_branch2c
I0312 14:13:12.697572 27288 net.cpp:408] res4b -> res4b
I0312 14:13:12.697605 27288 net.cpp:150] Setting up res4b
I0312 14:13:12.697612 27288 net.cpp:157] Top shape: 8 1024 14 14 (1605632)
I0312 14:13:12.697614 27288 net.cpp:165] Memory required for data: 1528561696
I0312 14:13:12.697618 27288 layer_factory.hpp:77] Creating layer res4b_relu
I0312 14:13:12.697623 27288 net.cpp:100] Creating Layer res4b_relu
I0312 14:13:12.697625 27288 net.cpp:434] res4b_relu <- res4b
I0312 14:13:12.697630 27288 net.cpp:395] res4b_relu -> res4b (in-place)
I0312 14:13:12.697798 27288 net.cpp:150] Setting up res4b_relu
I0312 14:13:12.697806 27288 net.cpp:157] Top shape: 8 1024 14 14 (1605632)
I0312 14:13:12.697809 27288 net.cpp:165] Memory required for data: 1534984224
I0312 14:13:12.697813 27288 layer_factory.hpp:77] Creating layer res4b_res4b_relu_0_split
I0312 14:13:12.697819 27288 net.cpp:100] Creating Layer res4b_res4b_relu_0_split
I0312 14:13:12.697824 27288 net.cpp:434] res4b_res4b_relu_0_split <- res4b
I0312 14:13:12.697829 27288 net.cpp:408] res4b_res4b_relu_0_split -> res4b_res4b_relu_0_split_0
I0312 14:13:12.697839 27288 net.cpp:408] res4b_res4b_relu_0_split -> res4b_res4b_relu_0_split_1
I0312 14:13:12.697907 27288 net.cpp:150] Setting up res4b_res4b_relu_0_split
I0312 14:13:12.697914 27288 net.cpp:157] Top shape: 8 1024 14 14 (1605632)
I0312 14:13:12.697919 27288 net.cpp:157] Top shape: 8 1024 14 14 (1605632)
I0312 14:13:12.697922 27288 net.cpp:165] Memory required for data: 1547829280
I0312 14:13:12.697926 27288 layer_factory.hpp:77] Creating layer res4c_branch2a
I0312 14:13:12.697934 27288 net.cpp:100] Creating Layer res4c_branch2a
I0312 14:13:12.697938 27288 net.cpp:434] res4c_branch2a <- res4b_res4b_relu_0_split_0
I0312 14:13:12.697943 27288 net.cpp:408] res4c_branch2a -> res4c_branch2a
I0312 14:13:12.699234 27288 net.cpp:150] Setting up res4c_branch2a
I0312 14:13:12.699246 27288 net.cpp:157] Top shape: 8 256 14 14 (401408)
I0312 14:13:12.699250 27288 net.cpp:165] Memory required for data: 1549434912
I0312 14:13:12.699256 27288 layer_factory.hpp:77] Creating layer bn4c_branch2a
I0312 14:13:12.699265 27288 net.cpp:100] Creating Layer bn4c_branch2a
I0312 14:13:12.699268 27288 net.cpp:434] bn4c_branch2a <- res4c_branch2a
I0312 14:13:12.699273 27288 net.cpp:395] bn4c_branch2a -> res4c_branch2a (in-place)
I0312 14:13:12.699568 27288 net.cpp:150] Setting up bn4c_branch2a
I0312 14:13:12.699576 27288 net.cpp:157] Top shape: 8 256 14 14 (401408)
I0312 14:13:12.699579 27288 net.cpp:165] Memory required for data: 1551040544
I0312 14:13:12.699585 27288 layer_factory.hpp:77] Creating layer scale4c_branch2a
I0312 14:13:12.699594 27288 net.cpp:100] Creating Layer scale4c_branch2a
I0312 14:13:12.699597 27288 net.cpp:434] scale4c_branch2a <- res4c_branch2a
I0312 14:13:12.699602 27288 net.cpp:395] scale4c_branch2a -> res4c_branch2a (in-place)
I0312 14:13:12.699661 27288 layer_factory.hpp:77] Creating layer scale4c_branch2a
I0312 14:13:12.699821 27288 net.cpp:150] Setting up scale4c_branch2a
I0312 14:13:12.699831 27288 net.cpp:157] Top shape: 8 256 14 14 (401408)
I0312 14:13:12.699833 27288 net.cpp:165] Memory required for data: 1552646176
I0312 14:13:12.699856 27288 layer_factory.hpp:77] Creating layer res4c_branch2a_relu
I0312 14:13:12.699861 27288 net.cpp:100] Creating Layer res4c_branch2a_relu
I0312 14:13:12.699864 27288 net.cpp:434] res4c_branch2a_relu <- res4c_branch2a
I0312 14:13:12.699869 27288 net.cpp:395] res4c_branch2a_relu -> res4c_branch2a (in-place)
I0312 14:13:12.700047 27288 net.cpp:150] Setting up res4c_branch2a_relu
I0312 14:13:12.700055 27288 net.cpp:157] Top shape: 8 256 14 14 (401408)
I0312 14:13:12.700059 27288 net.cpp:165] Memory required for data: 1554251808
I0312 14:13:12.700062 27288 layer_factory.hpp:77] Creating layer res4c_branch2b
I0312 14:13:12.700072 27288 net.cpp:100] Creating Layer res4c_branch2b
I0312 14:13:12.700075 27288 net.cpp:434] res4c_branch2b <- res4c_branch2a
I0312 14:13:12.700083 27288 net.cpp:408] res4c_branch2b -> res4c_branch2b
I0312 14:13:12.703291 27288 net.cpp:150] Setting up res4c_branch2b
I0312 14:13:12.703306 27288 net.cpp:157] Top shape: 8 256 14 14 (401408)
I0312 14:13:12.703310 27288 net.cpp:165] Memory required for data: 1555857440
I0312 14:13:12.703317 27288 layer_factory.hpp:77] Creating layer bn4c_branch2b
I0312 14:13:12.703325 27288 net.cpp:100] Creating Layer bn4c_branch2b
I0312 14:13:12.703328 27288 net.cpp:434] bn4c_branch2b <- res4c_branch2b
I0312 14:13:12.703335 27288 net.cpp:395] bn4c_branch2b -> res4c_branch2b (in-place)
I0312 14:13:12.703639 27288 net.cpp:150] Setting up bn4c_branch2b
I0312 14:13:12.703649 27288 net.cpp:157] Top shape: 8 256 14 14 (401408)
I0312 14:13:12.703651 27288 net.cpp:165] Memory required for data: 1557463072
I0312 14:13:12.703658 27288 layer_factory.hpp:77] Creating layer scale4c_branch2b
I0312 14:13:12.703665 27288 net.cpp:100] Creating Layer scale4c_branch2b
I0312 14:13:12.703668 27288 net.cpp:434] scale4c_branch2b <- res4c_branch2b
I0312 14:13:12.703675 27288 net.cpp:395] scale4c_branch2b -> res4c_branch2b (in-place)
I0312 14:13:12.703734 27288 layer_factory.hpp:77] Creating layer scale4c_branch2b
I0312 14:13:12.703900 27288 net.cpp:150] Setting up scale4c_branch2b
I0312 14:13:12.703910 27288 net.cpp:157] Top shape: 8 256 14 14 (401408)
I0312 14:13:12.703914 27288 net.cpp:165] Memory required for data: 1559068704
I0312 14:13:12.703920 27288 layer_factory.hpp:77] Creating layer res4c_branch2b_relu
I0312 14:13:12.703927 27288 net.cpp:100] Creating Layer res4c_branch2b_relu
I0312 14:13:12.703930 27288 net.cpp:434] res4c_branch2b_relu <- res4c_branch2b
I0312 14:13:12.703935 27288 net.cpp:395] res4c_branch2b_relu -> res4c_branch2b (in-place)
I0312 14:13:12.704119 27288 net.cpp:150] Setting up res4c_branch2b_relu
I0312 14:13:12.704129 27288 net.cpp:157] Top shape: 8 256 14 14 (401408)
I0312 14:13:12.704133 27288 net.cpp:165] Memory required for data: 1560674336
I0312 14:13:12.704135 27288 layer_factory.hpp:77] Creating layer res4c_branch2c
I0312 14:13:12.704144 27288 net.cpp:100] Creating Layer res4c_branch2c
I0312 14:13:12.704147 27288 net.cpp:434] res4c_branch2c <- res4c_branch2b
I0312 14:13:12.704152 27288 net.cpp:408] res4c_branch2c -> res4c_branch2c
I0312 14:13:12.706437 27288 net.cpp:150] Setting up res4c_branch2c
I0312 14:13:12.706451 27288 net.cpp:157] Top shape: 8 1024 14 14 (1605632)
I0312 14:13:12.706455 27288 net.cpp:165] Memory required for data: 1567096864
I0312 14:13:12.706461 27288 layer_factory.hpp:77] Creating layer bn4c_branch2c
I0312 14:13:12.706470 27288 net.cpp:100] Creating Layer bn4c_branch2c
I0312 14:13:12.706473 27288 net.cpp:434] bn4c_branch2c <- res4c_branch2c
I0312 14:13:12.706478 27288 net.cpp:395] bn4c_branch2c -> res4c_branch2c (in-place)
I0312 14:13:12.706786 27288 net.cpp:150] Setting up bn4c_branch2c
I0312 14:13:12.706794 27288 net.cpp:157] Top shape: 8 1024 14 14 (1605632)
I0312 14:13:12.706796 27288 net.cpp:165] Memory required for data: 1573519392
I0312 14:13:12.706804 27288 layer_factory.hpp:77] Creating layer scale4c_branch2c
I0312 14:13:12.706811 27288 net.cpp:100] Creating Layer scale4c_branch2c
I0312 14:13:12.706815 27288 net.cpp:434] scale4c_branch2c <- res4c_branch2c
I0312 14:13:12.706820 27288 net.cpp:395] scale4c_branch2c -> res4c_branch2c (in-place)
I0312 14:13:12.706876 27288 layer_factory.hpp:77] Creating layer scale4c_branch2c
I0312 14:13:12.707051 27288 net.cpp:150] Setting up scale4c_branch2c
I0312 14:13:12.707057 27288 net.cpp:157] Top shape: 8 1024 14 14 (1605632)
I0312 14:13:12.707060 27288 net.cpp:165] Memory required for data: 1579941920
I0312 14:13:12.707068 27288 layer_factory.hpp:77] Creating layer res4c
I0312 14:13:12.707075 27288 net.cpp:100] Creating Layer res4c
I0312 14:13:12.707079 27288 net.cpp:434] res4c <- res4b_res4b_relu_0_split_1
I0312 14:13:12.707083 27288 net.cpp:434] res4c <- res4c_branch2c
I0312 14:13:12.707088 27288 net.cpp:408] res4c -> res4c
I0312 14:13:12.707121 27288 net.cpp:150] Setting up res4c
I0312 14:13:12.707128 27288 net.cpp:157] Top shape: 8 1024 14 14 (1605632)
I0312 14:13:12.707130 27288 net.cpp:165] Memory required for data: 1586364448
I0312 14:13:12.707134 27288 layer_factory.hpp:77] Creating layer res4c_relu
I0312 14:13:12.707140 27288 net.cpp:100] Creating Layer res4c_relu
I0312 14:13:12.707144 27288 net.cpp:434] res4c_relu <- res4c
I0312 14:13:12.707149 27288 net.cpp:395] res4c_relu -> res4c (in-place)
I0312 14:13:12.707659 27288 net.cpp:150] Setting up res4c_relu
I0312 14:13:12.707672 27288 net.cpp:157] Top shape: 8 1024 14 14 (1605632)
I0312 14:13:12.707675 27288 net.cpp:165] Memory required for data: 1592786976
I0312 14:13:12.707679 27288 layer_factory.hpp:77] Creating layer res4c_res4c_relu_0_split
I0312 14:13:12.707686 27288 net.cpp:100] Creating Layer res4c_res4c_relu_0_split
I0312 14:13:12.707690 27288 net.cpp:434] res4c_res4c_relu_0_split <- res4c
I0312 14:13:12.707697 27288 net.cpp:408] res4c_res4c_relu_0_split -> res4c_res4c_relu_0_split_0
I0312 14:13:12.707705 27288 net.cpp:408] res4c_res4c_relu_0_split -> res4c_res4c_relu_0_split_1
I0312 14:13:12.707768 27288 net.cpp:150] Setting up res4c_res4c_relu_0_split
I0312 14:13:12.707774 27288 net.cpp:157] Top shape: 8 1024 14 14 (1605632)
I0312 14:13:12.707778 27288 net.cpp:157] Top shape: 8 1024 14 14 (1605632)
I0312 14:13:12.707785 27288 net.cpp:165] Memory required for data: 1605632032
I0312 14:13:12.707789 27288 layer_factory.hpp:77] Creating layer res4d_branch2a
I0312 14:13:12.707798 27288 net.cpp:100] Creating Layer res4d_branch2a
I0312 14:13:12.707801 27288 net.cpp:434] res4d_branch2a <- res4c_res4c_relu_0_split_0
I0312 14:13:12.707808 27288 net.cpp:408] res4d_branch2a -> res4d_branch2a
I0312 14:13:12.708745 27288 net.cpp:150] Setting up res4d_branch2a
I0312 14:13:12.708755 27288 net.cpp:157] Top shape: 8 256 14 14 (401408)
I0312 14:13:12.708757 27288 net.cpp:165] Memory required for data: 1607237664
I0312 14:13:12.708763 27288 layer_factory.hpp:77] Creating layer bn4d_branch2a
I0312 14:13:12.708770 27288 net.cpp:100] Creating Layer bn4d_branch2a
I0312 14:13:12.708775 27288 net.cpp:434] bn4d_branch2a <- res4d_branch2a
I0312 14:13:12.708780 27288 net.cpp:395] bn4d_branch2a -> res4d_branch2a (in-place)
I0312 14:13:12.709112 27288 net.cpp:150] Setting up bn4d_branch2a
I0312 14:13:12.709120 27288 net.cpp:157] Top shape: 8 256 14 14 (401408)
I0312 14:13:12.709125 27288 net.cpp:165] Memory required for data: 1608843296
I0312 14:13:12.709131 27288 layer_factory.hpp:77] Creating layer scale4d_branch2a
I0312 14:13:12.709139 27288 net.cpp:100] Creating Layer scale4d_branch2a
I0312 14:13:12.709143 27288 net.cpp:434] scale4d_branch2a <- res4d_branch2a
I0312 14:13:12.709151 27288 net.cpp:395] scale4d_branch2a -> res4d_branch2a (in-place)
I0312 14:13:12.709213 27288 layer_factory.hpp:77] Creating layer scale4d_branch2a
I0312 14:13:12.709393 27288 net.cpp:150] Setting up scale4d_branch2a
I0312 14:13:12.709400 27288 net.cpp:157] Top shape: 8 256 14 14 (401408)
I0312 14:13:12.709403 27288 net.cpp:165] Memory required for data: 1610448928
I0312 14:13:12.709410 27288 layer_factory.hpp:77] Creating layer res4d_branch2a_relu
I0312 14:13:12.709415 27288 net.cpp:100] Creating Layer res4d_branch2a_relu
I0312 14:13:12.709419 27288 net.cpp:434] res4d_branch2a_relu <- res4d_branch2a
I0312 14:13:12.709424 27288 net.cpp:395] res4d_branch2a_relu -> res4d_branch2a (in-place)
I0312 14:13:12.709929 27288 net.cpp:150] Setting up res4d_branch2a_relu
I0312 14:13:12.709944 27288 net.cpp:157] Top shape: 8 256 14 14 (401408)
I0312 14:13:12.709947 27288 net.cpp:165] Memory required for data: 1612054560
I0312 14:13:12.709951 27288 layer_factory.hpp:77] Creating layer res4d_branch2b
I0312 14:13:12.709959 27288 net.cpp:100] Creating Layer res4d_branch2b
I0312 14:13:12.709964 27288 net.cpp:434] res4d_branch2b <- res4d_branch2a
I0312 14:13:12.709969 27288 net.cpp:408] res4d_branch2b -> res4d_branch2b
I0312 14:13:12.712831 27288 net.cpp:150] Setting up res4d_branch2b
I0312 14:13:12.712844 27288 net.cpp:157] Top shape: 8 256 14 14 (401408)
I0312 14:13:12.712848 27288 net.cpp:165] Memory required for data: 1613660192
I0312 14:13:12.712855 27288 layer_factory.hpp:77] Creating layer bn4d_branch2b
I0312 14:13:12.712862 27288 net.cpp:100] Creating Layer bn4d_branch2b
I0312 14:13:12.712865 27288 net.cpp:434] bn4d_branch2b <- res4d_branch2b
I0312 14:13:12.712872 27288 net.cpp:395] bn4d_branch2b -> res4d_branch2b (in-place)
I0312 14:13:12.713228 27288 net.cpp:150] Setting up bn4d_branch2b
I0312 14:13:12.713238 27288 net.cpp:157] Top shape: 8 256 14 14 (401408)
I0312 14:13:12.713240 27288 net.cpp:165] Memory required for data: 1615265824
I0312 14:13:12.713263 27288 layer_factory.hpp:77] Creating layer scale4d_branch2b
I0312 14:13:12.713270 27288 net.cpp:100] Creating Layer scale4d_branch2b
I0312 14:13:12.713274 27288 net.cpp:434] scale4d_branch2b <- res4d_branch2b
I0312 14:13:12.713279 27288 net.cpp:395] scale4d_branch2b -> res4d_branch2b (in-place)
I0312 14:13:12.713340 27288 layer_factory.hpp:77] Creating layer scale4d_branch2b
I0312 14:13:12.713505 27288 net.cpp:150] Setting up scale4d_branch2b
I0312 14:13:12.713512 27288 net.cpp:157] Top shape: 8 256 14 14 (401408)
I0312 14:13:12.713515 27288 net.cpp:165] Memory required for data: 1616871456
I0312 14:13:12.713521 27288 layer_factory.hpp:77] Creating layer res4d_branch2b_relu
I0312 14:13:12.713528 27288 net.cpp:100] Creating Layer res4d_branch2b_relu
I0312 14:13:12.713536 27288 net.cpp:434] res4d_branch2b_relu <- res4d_branch2b
I0312 14:13:12.713541 27288 net.cpp:395] res4d_branch2b_relu -> res4d_branch2b (in-place)
I0312 14:13:12.713719 27288 net.cpp:150] Setting up res4d_branch2b_relu
I0312 14:13:12.713727 27288 net.cpp:157] Top shape: 8 256 14 14 (401408)
I0312 14:13:12.713730 27288 net.cpp:165] Memory required for data: 1618477088
I0312 14:13:12.713734 27288 layer_factory.hpp:77] Creating layer res4d_branch2c
I0312 14:13:12.713742 27288 net.cpp:100] Creating Layer res4d_branch2c
I0312 14:13:12.713747 27288 net.cpp:434] res4d_branch2c <- res4d_branch2b
I0312 14:13:12.713753 27288 net.cpp:408] res4d_branch2c -> res4d_branch2c
I0312 14:13:12.716035 27288 net.cpp:150] Setting up res4d_branch2c
I0312 14:13:12.716049 27288 net.cpp:157] Top shape: 8 1024 14 14 (1605632)
I0312 14:13:12.716053 27288 net.cpp:165] Memory required for data: 1624899616
I0312 14:13:12.716060 27288 layer_factory.hpp:77] Creating layer bn4d_branch2c
I0312 14:13:12.716068 27288 net.cpp:100] Creating Layer bn4d_branch2c
I0312 14:13:12.716073 27288 net.cpp:434] bn4d_branch2c <- res4d_branch2c
I0312 14:13:12.716078 27288 net.cpp:395] bn4d_branch2c -> res4d_branch2c (in-place)
I0312 14:13:12.716388 27288 net.cpp:150] Setting up bn4d_branch2c
I0312 14:13:12.716395 27288 net.cpp:157] Top shape: 8 1024 14 14 (1605632)
I0312 14:13:12.716398 27288 net.cpp:165] Memory required for data: 1631322144
I0312 14:13:12.716405 27288 layer_factory.hpp:77] Creating layer scale4d_branch2c
I0312 14:13:12.716413 27288 net.cpp:100] Creating Layer scale4d_branch2c
I0312 14:13:12.716418 27288 net.cpp:434] scale4d_branch2c <- res4d_branch2c
I0312 14:13:12.716423 27288 net.cpp:395] scale4d_branch2c -> res4d_branch2c (in-place)
I0312 14:13:12.716481 27288 layer_factory.hpp:77] Creating layer scale4d_branch2c
I0312 14:13:12.716661 27288 net.cpp:150] Setting up scale4d_branch2c
I0312 14:13:12.716668 27288 net.cpp:157] Top shape: 8 1024 14 14 (1605632)
I0312 14:13:12.716672 27288 net.cpp:165] Memory required for data: 1637744672
I0312 14:13:12.716680 27288 layer_factory.hpp:77] Creating layer res4d
I0312 14:13:12.716684 27288 net.cpp:100] Creating Layer res4d
I0312 14:13:12.716688 27288 net.cpp:434] res4d <- res4c_res4c_relu_0_split_1
I0312 14:13:12.716692 27288 net.cpp:434] res4d <- res4d_branch2c
I0312 14:13:12.716697 27288 net.cpp:408] res4d -> res4d
I0312 14:13:12.716732 27288 net.cpp:150] Setting up res4d
I0312 14:13:12.716737 27288 net.cpp:157] Top shape: 8 1024 14 14 (1605632)
I0312 14:13:12.716740 27288 net.cpp:165] Memory required for data: 1644167200
I0312 14:13:12.716744 27288 layer_factory.hpp:77] Creating layer res4d_relu
I0312 14:13:12.716749 27288 net.cpp:100] Creating Layer res4d_relu
I0312 14:13:12.716753 27288 net.cpp:434] res4d_relu <- res4d
I0312 14:13:12.716758 27288 net.cpp:395] res4d_relu -> res4d (in-place)
I0312 14:13:12.716928 27288 net.cpp:150] Setting up res4d_relu
I0312 14:13:12.716936 27288 net.cpp:157] Top shape: 8 1024 14 14 (1605632)
I0312 14:13:12.716964 27288 net.cpp:165] Memory required for data: 1650589728
I0312 14:13:12.716966 27288 layer_factory.hpp:77] Creating layer res4d_res4d_relu_0_split
I0312 14:13:12.716974 27288 net.cpp:100] Creating Layer res4d_res4d_relu_0_split
I0312 14:13:12.716977 27288 net.cpp:434] res4d_res4d_relu_0_split <- res4d
I0312 14:13:12.716991 27288 net.cpp:408] res4d_res4d_relu_0_split -> res4d_res4d_relu_0_split_0
I0312 14:13:12.716998 27288 net.cpp:408] res4d_res4d_relu_0_split -> res4d_res4d_relu_0_split_1
I0312 14:13:12.717063 27288 net.cpp:150] Setting up res4d_res4d_relu_0_split
I0312 14:13:12.717070 27288 net.cpp:157] Top shape: 8 1024 14 14 (1605632)
I0312 14:13:12.717074 27288 net.cpp:157] Top shape: 8 1024 14 14 (1605632)
I0312 14:13:12.717077 27288 net.cpp:165] Memory required for data: 1663434784
I0312 14:13:12.717082 27288 layer_factory.hpp:77] Creating layer res4e_branch2a
I0312 14:13:12.717089 27288 net.cpp:100] Creating Layer res4e_branch2a
I0312 14:13:12.717093 27288 net.cpp:434] res4e_branch2a <- res4d_res4d_relu_0_split_0
I0312 14:13:12.717104 27288 net.cpp:408] res4e_branch2a -> res4e_branch2a
I0312 14:13:12.718492 27288 net.cpp:150] Setting up res4e_branch2a
I0312 14:13:12.718508 27288 net.cpp:157] Top shape: 8 256 14 14 (401408)
I0312 14:13:12.718510 27288 net.cpp:165] Memory required for data: 1665040416
I0312 14:13:12.718518 27288 layer_factory.hpp:77] Creating layer bn4e_branch2a
I0312 14:13:12.718523 27288 net.cpp:100] Creating Layer bn4e_branch2a
I0312 14:13:12.718528 27288 net.cpp:434] bn4e_branch2a <- res4e_branch2a
I0312 14:13:12.718533 27288 net.cpp:395] bn4e_branch2a -> res4e_branch2a (in-place)
I0312 14:13:12.718840 27288 net.cpp:150] Setting up bn4e_branch2a
I0312 14:13:12.718849 27288 net.cpp:157] Top shape: 8 256 14 14 (401408)
I0312 14:13:12.718852 27288 net.cpp:165] Memory required for data: 1666646048
I0312 14:13:12.718859 27288 layer_factory.hpp:77] Creating layer scale4e_branch2a
I0312 14:13:12.718865 27288 net.cpp:100] Creating Layer scale4e_branch2a
I0312 14:13:12.718869 27288 net.cpp:434] scale4e_branch2a <- res4e_branch2a
I0312 14:13:12.718875 27288 net.cpp:395] scale4e_branch2a -> res4e_branch2a (in-place)
I0312 14:13:12.718936 27288 layer_factory.hpp:77] Creating layer scale4e_branch2a
I0312 14:13:12.719103 27288 net.cpp:150] Setting up scale4e_branch2a
I0312 14:13:12.719110 27288 net.cpp:157] Top shape: 8 256 14 14 (401408)
I0312 14:13:12.719113 27288 net.cpp:165] Memory required for data: 1668251680
I0312 14:13:12.719120 27288 layer_factory.hpp:77] Creating layer res4e_branch2a_relu
I0312 14:13:12.719125 27288 net.cpp:100] Creating Layer res4e_branch2a_relu
I0312 14:13:12.719130 27288 net.cpp:434] res4e_branch2a_relu <- res4e_branch2a
I0312 14:13:12.719135 27288 net.cpp:395] res4e_branch2a_relu -> res4e_branch2a (in-place)
I0312 14:13:12.719303 27288 net.cpp:150] Setting up res4e_branch2a_relu
I0312 14:13:12.719311 27288 net.cpp:157] Top shape: 8 256 14 14 (401408)
I0312 14:13:12.719316 27288 net.cpp:165] Memory required for data: 1669857312
I0312 14:13:12.719318 27288 layer_factory.hpp:77] Creating layer res4e_branch2b
I0312 14:13:12.719326 27288 net.cpp:100] Creating Layer res4e_branch2b
I0312 14:13:12.719331 27288 net.cpp:434] res4e_branch2b <- res4e_branch2a
I0312 14:13:12.719337 27288 net.cpp:408] res4e_branch2b -> res4e_branch2b
I0312 14:13:12.722247 27288 net.cpp:150] Setting up res4e_branch2b
I0312 14:13:12.722262 27288 net.cpp:157] Top shape: 8 256 14 14 (401408)
I0312 14:13:12.722265 27288 net.cpp:165] Memory required for data: 1671462944
I0312 14:13:12.722272 27288 layer_factory.hpp:77] Creating layer bn4e_branch2b
I0312 14:13:12.722280 27288 net.cpp:100] Creating Layer bn4e_branch2b
I0312 14:13:12.722285 27288 net.cpp:434] bn4e_branch2b <- res4e_branch2b
I0312 14:13:12.722290 27288 net.cpp:395] bn4e_branch2b -> res4e_branch2b (in-place)
I0312 14:13:12.722605 27288 net.cpp:150] Setting up bn4e_branch2b
I0312 14:13:12.722612 27288 net.cpp:157] Top shape: 8 256 14 14 (401408)
I0312 14:13:12.722615 27288 net.cpp:165] Memory required for data: 1673068576
I0312 14:13:12.722622 27288 layer_factory.hpp:77] Creating layer scale4e_branch2b
I0312 14:13:12.722630 27288 net.cpp:100] Creating Layer scale4e_branch2b
I0312 14:13:12.722635 27288 net.cpp:434] scale4e_branch2b <- res4e_branch2b
I0312 14:13:12.722640 27288 net.cpp:395] scale4e_branch2b -> res4e_branch2b (in-place)
I0312 14:13:12.722703 27288 layer_factory.hpp:77] Creating layer scale4e_branch2b
I0312 14:13:12.722872 27288 net.cpp:150] Setting up scale4e_branch2b
I0312 14:13:12.722879 27288 net.cpp:157] Top shape: 8 256 14 14 (401408)
I0312 14:13:12.722882 27288 net.cpp:165] Memory required for data: 1674674208
I0312 14:13:12.722889 27288 layer_factory.hpp:77] Creating layer res4e_branch2b_relu
I0312 14:13:12.722895 27288 net.cpp:100] Creating Layer res4e_branch2b_relu
I0312 14:13:12.722898 27288 net.cpp:434] res4e_branch2b_relu <- res4e_branch2b
I0312 14:13:12.722903 27288 net.cpp:395] res4e_branch2b_relu -> res4e_branch2b (in-place)
I0312 14:13:12.723079 27288 net.cpp:150] Setting up res4e_branch2b_relu
I0312 14:13:12.723088 27288 net.cpp:157] Top shape: 8 256 14 14 (401408)
I0312 14:13:12.723096 27288 net.cpp:165] Memory required for data: 1676279840
I0312 14:13:12.723099 27288 layer_factory.hpp:77] Creating layer res4e_branch2c
I0312 14:13:12.723109 27288 net.cpp:100] Creating Layer res4e_branch2c
I0312 14:13:12.723114 27288 net.cpp:434] res4e_branch2c <- res4e_branch2b
I0312 14:13:12.723119 27288 net.cpp:408] res4e_branch2c -> res4e_branch2c
I0312 14:13:12.725451 27288 net.cpp:150] Setting up res4e_branch2c
I0312 14:13:12.725468 27288 net.cpp:157] Top shape: 8 1024 14 14 (1605632)
I0312 14:13:12.725472 27288 net.cpp:165] Memory required for data: 1682702368
I0312 14:13:12.725478 27288 layer_factory.hpp:77] Creating layer bn4e_branch2c
I0312 14:13:12.725484 27288 net.cpp:100] Creating Layer bn4e_branch2c
I0312 14:13:12.725488 27288 net.cpp:434] bn4e_branch2c <- res4e_branch2c
I0312 14:13:12.725495 27288 net.cpp:395] bn4e_branch2c -> res4e_branch2c (in-place)
I0312 14:13:12.725808 27288 net.cpp:150] Setting up bn4e_branch2c
I0312 14:13:12.725816 27288 net.cpp:157] Top shape: 8 1024 14 14 (1605632)
I0312 14:13:12.725819 27288 net.cpp:165] Memory required for data: 1689124896
I0312 14:13:12.725827 27288 layer_factory.hpp:77] Creating layer scale4e_branch2c
I0312 14:13:12.725833 27288 net.cpp:100] Creating Layer scale4e_branch2c
I0312 14:13:12.725836 27288 net.cpp:434] scale4e_branch2c <- res4e_branch2c
I0312 14:13:12.725842 27288 net.cpp:395] scale4e_branch2c -> res4e_branch2c (in-place)
I0312 14:13:12.725901 27288 layer_factory.hpp:77] Creating layer scale4e_branch2c
I0312 14:13:12.726080 27288 net.cpp:150] Setting up scale4e_branch2c
I0312 14:13:12.726088 27288 net.cpp:157] Top shape: 8 1024 14 14 (1605632)
I0312 14:13:12.726090 27288 net.cpp:165] Memory required for data: 1695547424
I0312 14:13:12.726097 27288 layer_factory.hpp:77] Creating layer res4e
I0312 14:13:12.726104 27288 net.cpp:100] Creating Layer res4e
I0312 14:13:12.726106 27288 net.cpp:434] res4e <- res4d_res4d_relu_0_split_1
I0312 14:13:12.726110 27288 net.cpp:434] res4e <- res4e_branch2c
I0312 14:13:12.726117 27288 net.cpp:408] res4e -> res4e
I0312 14:13:12.726151 27288 net.cpp:150] Setting up res4e
I0312 14:13:12.726157 27288 net.cpp:157] Top shape: 8 1024 14 14 (1605632)
I0312 14:13:12.726161 27288 net.cpp:165] Memory required for data: 1701969952
I0312 14:13:12.726163 27288 layer_factory.hpp:77] Creating layer res4e_relu
I0312 14:13:12.726171 27288 net.cpp:100] Creating Layer res4e_relu
I0312 14:13:12.726176 27288 net.cpp:434] res4e_relu <- res4e
I0312 14:13:12.726179 27288 net.cpp:395] res4e_relu -> res4e (in-place)
I0312 14:13:12.726722 27288 net.cpp:150] Setting up res4e_relu
I0312 14:13:12.726735 27288 net.cpp:157] Top shape: 8 1024 14 14 (1605632)
I0312 14:13:12.726739 27288 net.cpp:165] Memory required for data: 1708392480
I0312 14:13:12.726743 27288 layer_factory.hpp:77] Creating layer res4e_res4e_relu_0_split
I0312 14:13:12.726749 27288 net.cpp:100] Creating Layer res4e_res4e_relu_0_split
I0312 14:13:12.726753 27288 net.cpp:434] res4e_res4e_relu_0_split <- res4e
I0312 14:13:12.726759 27288 net.cpp:408] res4e_res4e_relu_0_split -> res4e_res4e_relu_0_split_0
I0312 14:13:12.726768 27288 net.cpp:408] res4e_res4e_relu_0_split -> res4e_res4e_relu_0_split_1
I0312 14:13:12.726832 27288 net.cpp:150] Setting up res4e_res4e_relu_0_split
I0312 14:13:12.726840 27288 net.cpp:157] Top shape: 8 1024 14 14 (1605632)
I0312 14:13:12.726843 27288 net.cpp:157] Top shape: 8 1024 14 14 (1605632)
I0312 14:13:12.726846 27288 net.cpp:165] Memory required for data: 1721237536
I0312 14:13:12.726850 27288 layer_factory.hpp:77] Creating layer res4f_branch2a
I0312 14:13:12.726857 27288 net.cpp:100] Creating Layer res4f_branch2a
I0312 14:13:12.726861 27288 net.cpp:434] res4f_branch2a <- res4e_res4e_relu_0_split_0
I0312 14:13:12.726866 27288 net.cpp:408] res4f_branch2a -> res4f_branch2a
I0312 14:13:12.727833 27288 net.cpp:150] Setting up res4f_branch2a
I0312 14:13:12.727843 27288 net.cpp:157] Top shape: 8 256 14 14 (401408)
I0312 14:13:12.727846 27288 net.cpp:165] Memory required for data: 1722843168
I0312 14:13:12.727855 27288 layer_factory.hpp:77] Creating layer bn4f_branch2a
I0312 14:13:12.727864 27288 net.cpp:100] Creating Layer bn4f_branch2a
I0312 14:13:12.727867 27288 net.cpp:434] bn4f_branch2a <- res4f_branch2a
I0312 14:13:12.727872 27288 net.cpp:395] bn4f_branch2a -> res4f_branch2a (in-place)
I0312 14:13:12.728183 27288 net.cpp:150] Setting up bn4f_branch2a
I0312 14:13:12.728190 27288 net.cpp:157] Top shape: 8 256 14 14 (401408)
I0312 14:13:12.728194 27288 net.cpp:165] Memory required for data: 1724448800
I0312 14:13:12.728200 27288 layer_factory.hpp:77] Creating layer scale4f_branch2a
I0312 14:13:12.728209 27288 net.cpp:100] Creating Layer scale4f_branch2a
I0312 14:13:12.728212 27288 net.cpp:434] scale4f_branch2a <- res4f_branch2a
I0312 14:13:12.728219 27288 net.cpp:395] scale4f_branch2a -> res4f_branch2a (in-place)
I0312 14:13:12.728278 27288 layer_factory.hpp:77] Creating layer scale4f_branch2a
I0312 14:13:12.728443 27288 net.cpp:150] Setting up scale4f_branch2a
I0312 14:13:12.728451 27288 net.cpp:157] Top shape: 8 256 14 14 (401408)
I0312 14:13:12.728453 27288 net.cpp:165] Memory required for data: 1726054432
I0312 14:13:12.728461 27288 layer_factory.hpp:77] Creating layer res4f_branch2a_relu
I0312 14:13:12.728466 27288 net.cpp:100] Creating Layer res4f_branch2a_relu
I0312 14:13:12.728471 27288 net.cpp:434] res4f_branch2a_relu <- res4f_branch2a
I0312 14:13:12.728474 27288 net.cpp:395] res4f_branch2a_relu -> res4f_branch2a (in-place)
I0312 14:13:12.729023 27288 net.cpp:150] Setting up res4f_branch2a_relu
I0312 14:13:12.729038 27288 net.cpp:157] Top shape: 8 256 14 14 (401408)
I0312 14:13:12.729041 27288 net.cpp:165] Memory required for data: 1727660064
I0312 14:13:12.729045 27288 layer_factory.hpp:77] Creating layer res4f_branch2b
I0312 14:13:12.729054 27288 net.cpp:100] Creating Layer res4f_branch2b
I0312 14:13:12.729059 27288 net.cpp:434] res4f_branch2b <- res4f_branch2a
I0312 14:13:12.729066 27288 net.cpp:408] res4f_branch2b -> res4f_branch2b
I0312 14:13:12.731968 27288 net.cpp:150] Setting up res4f_branch2b
I0312 14:13:12.731984 27288 net.cpp:157] Top shape: 8 256 14 14 (401408)
I0312 14:13:12.731987 27288 net.cpp:165] Memory required for data: 1729265696
I0312 14:13:12.731994 27288 layer_factory.hpp:77] Creating layer bn4f_branch2b
I0312 14:13:12.732000 27288 net.cpp:100] Creating Layer bn4f_branch2b
I0312 14:13:12.732004 27288 net.cpp:434] bn4f_branch2b <- res4f_branch2b
I0312 14:13:12.732010 27288 net.cpp:395] bn4f_branch2b -> res4f_branch2b (in-place)
I0312 14:13:12.732328 27288 net.cpp:150] Setting up bn4f_branch2b
I0312 14:13:12.732338 27288 net.cpp:157] Top shape: 8 256 14 14 (401408)
I0312 14:13:12.732342 27288 net.cpp:165] Memory required for data: 1730871328
I0312 14:13:12.732348 27288 layer_factory.hpp:77] Creating layer scale4f_branch2b
I0312 14:13:12.732355 27288 net.cpp:100] Creating Layer scale4f_branch2b
I0312 14:13:12.732359 27288 net.cpp:434] scale4f_branch2b <- res4f_branch2b
I0312 14:13:12.732365 27288 net.cpp:395] scale4f_branch2b -> res4f_branch2b (in-place)
I0312 14:13:12.732427 27288 layer_factory.hpp:77] Creating layer scale4f_branch2b
I0312 14:13:12.732600 27288 net.cpp:150] Setting up scale4f_branch2b
I0312 14:13:12.732607 27288 net.cpp:157] Top shape: 8 256 14 14 (401408)
I0312 14:13:12.732610 27288 net.cpp:165] Memory required for data: 1732476960
I0312 14:13:12.732617 27288 layer_factory.hpp:77] Creating layer res4f_branch2b_relu
I0312 14:13:12.732623 27288 net.cpp:100] Creating Layer res4f_branch2b_relu
I0312 14:13:12.732626 27288 net.cpp:434] res4f_branch2b_relu <- res4f_branch2b
I0312 14:13:12.732632 27288 net.cpp:395] res4f_branch2b_relu -> res4f_branch2b (in-place)
I0312 14:13:12.732811 27288 net.cpp:150] Setting up res4f_branch2b_relu
I0312 14:13:12.732820 27288 net.cpp:157] Top shape: 8 256 14 14 (401408)
I0312 14:13:12.732822 27288 net.cpp:165] Memory required for data: 1734082592
I0312 14:13:12.732826 27288 layer_factory.hpp:77] Creating layer res4f_branch2c
I0312 14:13:12.732834 27288 net.cpp:100] Creating Layer res4f_branch2c
I0312 14:13:12.732838 27288 net.cpp:434] res4f_branch2c <- res4f_branch2b
I0312 14:13:12.732849 27288 net.cpp:408] res4f_branch2c -> res4f_branch2c
I0312 14:13:12.735224 27288 net.cpp:150] Setting up res4f_branch2c
I0312 14:13:12.735239 27288 net.cpp:157] Top shape: 8 1024 14 14 (1605632)
I0312 14:13:12.735242 27288 net.cpp:165] Memory required for data: 1740505120
I0312 14:13:12.735249 27288 layer_factory.hpp:77] Creating layer bn4f_branch2c
I0312 14:13:12.735257 27288 net.cpp:100] Creating Layer bn4f_branch2c
I0312 14:13:12.735261 27288 net.cpp:434] bn4f_branch2c <- res4f_branch2c
I0312 14:13:12.735266 27288 net.cpp:395] bn4f_branch2c -> res4f_branch2c (in-place)
I0312 14:13:12.735589 27288 net.cpp:150] Setting up bn4f_branch2c
I0312 14:13:12.735596 27288 net.cpp:157] Top shape: 8 1024 14 14 (1605632)
I0312 14:13:12.735599 27288 net.cpp:165] Memory required for data: 1746927648
I0312 14:13:12.735646 27288 layer_factory.hpp:77] Creating layer scale4f_branch2c
I0312 14:13:12.735653 27288 net.cpp:100] Creating Layer scale4f_branch2c
I0312 14:13:12.735657 27288 net.cpp:434] scale4f_branch2c <- res4f_branch2c
I0312 14:13:12.735662 27288 net.cpp:395] scale4f_branch2c -> res4f_branch2c (in-place)
I0312 14:13:12.735723 27288 layer_factory.hpp:77] Creating layer scale4f_branch2c
I0312 14:13:12.735910 27288 net.cpp:150] Setting up scale4f_branch2c
I0312 14:13:12.735918 27288 net.cpp:157] Top shape: 8 1024 14 14 (1605632)
I0312 14:13:12.735920 27288 net.cpp:165] Memory required for data: 1753350176
I0312 14:13:12.735927 27288 layer_factory.hpp:77] Creating layer res4f
I0312 14:13:12.735932 27288 net.cpp:100] Creating Layer res4f
I0312 14:13:12.735936 27288 net.cpp:434] res4f <- res4e_res4e_relu_0_split_1
I0312 14:13:12.735940 27288 net.cpp:434] res4f <- res4f_branch2c
I0312 14:13:12.735945 27288 net.cpp:408] res4f -> res4f
I0312 14:13:12.735981 27288 net.cpp:150] Setting up res4f
I0312 14:13:12.735987 27288 net.cpp:157] Top shape: 8 1024 14 14 (1605632)
I0312 14:13:12.735991 27288 net.cpp:165] Memory required for data: 1759772704
I0312 14:13:12.735994 27288 layer_factory.hpp:77] Creating layer res4f_relu
I0312 14:13:12.735999 27288 net.cpp:100] Creating Layer res4f_relu
I0312 14:13:12.736002 27288 net.cpp:434] res4f_relu <- res4f
I0312 14:13:12.736007 27288 net.cpp:395] res4f_relu -> res4f (in-place)
I0312 14:13:12.736178 27288 net.cpp:150] Setting up res4f_relu
I0312 14:13:12.736187 27288 net.cpp:157] Top shape: 8 1024 14 14 (1605632)
I0312 14:13:12.736191 27288 net.cpp:165] Memory required for data: 1766195232
I0312 14:13:12.736193 27288 layer_factory.hpp:77] Creating layer res4f_res4f_relu_0_split
I0312 14:13:12.736201 27288 net.cpp:100] Creating Layer res4f_res4f_relu_0_split
I0312 14:13:12.736204 27288 net.cpp:434] res4f_res4f_relu_0_split <- res4f
I0312 14:13:12.736210 27288 net.cpp:408] res4f_res4f_relu_0_split -> res4f_res4f_relu_0_split_0
I0312 14:13:12.736217 27288 net.cpp:408] res4f_res4f_relu_0_split -> res4f_res4f_relu_0_split_1
I0312 14:13:12.736280 27288 net.cpp:150] Setting up res4f_res4f_relu_0_split
I0312 14:13:12.736286 27288 net.cpp:157] Top shape: 8 1024 14 14 (1605632)
I0312 14:13:12.736290 27288 net.cpp:157] Top shape: 8 1024 14 14 (1605632)
I0312 14:13:12.736294 27288 net.cpp:165] Memory required for data: 1779040288
I0312 14:13:12.736297 27288 layer_factory.hpp:77] Creating layer res5a_branch1
I0312 14:13:12.736305 27288 net.cpp:100] Creating Layer res5a_branch1
I0312 14:13:12.736308 27288 net.cpp:434] res5a_branch1 <- res4f_res4f_relu_0_split_0
I0312 14:13:12.736315 27288 net.cpp:408] res5a_branch1 -> res5a_branch1
I0312 14:13:12.741083 27288 net.cpp:150] Setting up res5a_branch1
I0312 14:13:12.741101 27288 net.cpp:157] Top shape: 8 2048 7 7 (802816)
I0312 14:13:12.741104 27288 net.cpp:165] Memory required for data: 1782251552
I0312 14:13:12.741111 27288 layer_factory.hpp:77] Creating layer bn5a_branch1
I0312 14:13:12.741117 27288 net.cpp:100] Creating Layer bn5a_branch1
I0312 14:13:12.741120 27288 net.cpp:434] bn5a_branch1 <- res5a_branch1
I0312 14:13:12.741127 27288 net.cpp:395] bn5a_branch1 -> res5a_branch1 (in-place)
I0312 14:13:12.741490 27288 net.cpp:150] Setting up bn5a_branch1
I0312 14:13:12.741498 27288 net.cpp:157] Top shape: 8 2048 7 7 (802816)
I0312 14:13:12.741502 27288 net.cpp:165] Memory required for data: 1785462816
I0312 14:13:12.741508 27288 layer_factory.hpp:77] Creating layer scale5a_branch1
I0312 14:13:12.741515 27288 net.cpp:100] Creating Layer scale5a_branch1
I0312 14:13:12.741519 27288 net.cpp:434] scale5a_branch1 <- res5a_branch1
I0312 14:13:12.741525 27288 net.cpp:395] scale5a_branch1 -> res5a_branch1 (in-place)
I0312 14:13:12.741586 27288 layer_factory.hpp:77] Creating layer scale5a_branch1
I0312 14:13:12.741777 27288 net.cpp:150] Setting up scale5a_branch1
I0312 14:13:12.741785 27288 net.cpp:157] Top shape: 8 2048 7 7 (802816)
I0312 14:13:12.741787 27288 net.cpp:165] Memory required for data: 1788674080
I0312 14:13:12.741794 27288 layer_factory.hpp:77] Creating layer res5a_branch2a
I0312 14:13:12.741802 27288 net.cpp:100] Creating Layer res5a_branch2a
I0312 14:13:12.741806 27288 net.cpp:434] res5a_branch2a <- res4f_res4f_relu_0_split_1
I0312 14:13:12.741811 27288 net.cpp:408] res5a_branch2a -> res5a_branch2a
I0312 14:13:12.744266 27288 net.cpp:150] Setting up res5a_branch2a
I0312 14:13:12.744279 27288 net.cpp:157] Top shape: 8 512 7 7 (200704)
I0312 14:13:12.744283 27288 net.cpp:165] Memory required for data: 1789476896
I0312 14:13:12.744290 27288 layer_factory.hpp:77] Creating layer bn5a_branch2a
I0312 14:13:12.744297 27288 net.cpp:100] Creating Layer bn5a_branch2a
I0312 14:13:12.744302 27288 net.cpp:434] bn5a_branch2a <- res5a_branch2a
I0312 14:13:12.744307 27288 net.cpp:395] bn5a_branch2a -> res5a_branch2a (in-place)
I0312 14:13:12.744637 27288 net.cpp:150] Setting up bn5a_branch2a
I0312 14:13:12.744644 27288 net.cpp:157] Top shape: 8 512 7 7 (200704)
I0312 14:13:12.744648 27288 net.cpp:165] Memory required for data: 1790279712
I0312 14:13:12.744655 27288 layer_factory.hpp:77] Creating layer scale5a_branch2a
I0312 14:13:12.744662 27288 net.cpp:100] Creating Layer scale5a_branch2a
I0312 14:13:12.744665 27288 net.cpp:434] scale5a_branch2a <- res5a_branch2a
I0312 14:13:12.744671 27288 net.cpp:395] scale5a_branch2a -> res5a_branch2a (in-place)
I0312 14:13:12.744731 27288 layer_factory.hpp:77] Creating layer scale5a_branch2a
I0312 14:13:12.744923 27288 net.cpp:150] Setting up scale5a_branch2a
I0312 14:13:12.744930 27288 net.cpp:157] Top shape: 8 512 7 7 (200704)
I0312 14:13:12.744933 27288 net.cpp:165] Memory required for data: 1791082528
I0312 14:13:12.744947 27288 layer_factory.hpp:77] Creating layer res5a_branch2a_relu
I0312 14:13:12.744954 27288 net.cpp:100] Creating Layer res5a_branch2a_relu
I0312 14:13:12.744957 27288 net.cpp:434] res5a_branch2a_relu <- res5a_branch2a
I0312 14:13:12.744963 27288 net.cpp:395] res5a_branch2a_relu -> res5a_branch2a (in-place)
I0312 14:13:12.745136 27288 net.cpp:150] Setting up res5a_branch2a_relu
I0312 14:13:12.745144 27288 net.cpp:157] Top shape: 8 512 7 7 (200704)
I0312 14:13:12.745147 27288 net.cpp:165] Memory required for data: 1791885344
I0312 14:13:12.745151 27288 layer_factory.hpp:77] Creating layer res5a_branch2b
I0312 14:13:12.745159 27288 net.cpp:100] Creating Layer res5a_branch2b
I0312 14:13:12.745163 27288 net.cpp:434] res5a_branch2b <- res5a_branch2a
I0312 14:13:12.745168 27288 net.cpp:408] res5a_branch2b -> res5a_branch2b
I0312 14:13:12.750370 27288 net.cpp:150] Setting up res5a_branch2b
I0312 14:13:12.750386 27288 net.cpp:157] Top shape: 8 512 7 7 (200704)
I0312 14:13:12.750389 27288 net.cpp:165] Memory required for data: 1792688160
I0312 14:13:12.750396 27288 layer_factory.hpp:77] Creating layer bn5a_branch2b
I0312 14:13:12.750404 27288 net.cpp:100] Creating Layer bn5a_branch2b
I0312 14:13:12.750408 27288 net.cpp:434] bn5a_branch2b <- res5a_branch2b
I0312 14:13:12.750413 27288 net.cpp:395] bn5a_branch2b -> res5a_branch2b (in-place)
I0312 14:13:12.750778 27288 net.cpp:150] Setting up bn5a_branch2b
I0312 14:13:12.750800 27288 net.cpp:157] Top shape: 8 512 7 7 (200704)
I0312 14:13:12.750803 27288 net.cpp:165] Memory required for data: 1793490976
I0312 14:13:12.750811 27288 layer_factory.hpp:77] Creating layer scale5a_branch2b
I0312 14:13:12.750824 27288 net.cpp:100] Creating Layer scale5a_branch2b
I0312 14:13:12.750828 27288 net.cpp:434] scale5a_branch2b <- res5a_branch2b
I0312 14:13:12.750833 27288 net.cpp:395] scale5a_branch2b -> res5a_branch2b (in-place)
I0312 14:13:12.750895 27288 layer_factory.hpp:77] Creating layer scale5a_branch2b
I0312 14:13:12.751085 27288 net.cpp:150] Setting up scale5a_branch2b
I0312 14:13:12.751092 27288 net.cpp:157] Top shape: 8 512 7 7 (200704)
I0312 14:13:12.751096 27288 net.cpp:165] Memory required for data: 1794293792
I0312 14:13:12.751102 27288 layer_factory.hpp:77] Creating layer res5a_branch2b_relu
I0312 14:13:12.751109 27288 net.cpp:100] Creating Layer res5a_branch2b_relu
I0312 14:13:12.751113 27288 net.cpp:434] res5a_branch2b_relu <- res5a_branch2b
I0312 14:13:12.751117 27288 net.cpp:395] res5a_branch2b_relu -> res5a_branch2b (in-place)
I0312 14:13:12.751289 27288 net.cpp:150] Setting up res5a_branch2b_relu
I0312 14:13:12.751297 27288 net.cpp:157] Top shape: 8 512 7 7 (200704)
I0312 14:13:12.751301 27288 net.cpp:165] Memory required for data: 1795096608
I0312 14:13:12.751304 27288 layer_factory.hpp:77] Creating layer res5a_branch2c
I0312 14:13:12.751312 27288 net.cpp:100] Creating Layer res5a_branch2c
I0312 14:13:12.751317 27288 net.cpp:434] res5a_branch2c <- res5a_branch2b
I0312 14:13:12.751323 27288 net.cpp:408] res5a_branch2c -> res5a_branch2c
I0312 14:13:12.754618 27288 net.cpp:150] Setting up res5a_branch2c
I0312 14:13:12.754633 27288 net.cpp:157] Top shape: 8 2048 7 7 (802816)
I0312 14:13:12.754637 27288 net.cpp:165] Memory required for data: 1798307872
I0312 14:13:12.754643 27288 layer_factory.hpp:77] Creating layer bn5a_branch2c
I0312 14:13:12.754652 27288 net.cpp:100] Creating Layer bn5a_branch2c
I0312 14:13:12.754655 27288 net.cpp:434] bn5a_branch2c <- res5a_branch2c
I0312 14:13:12.754660 27288 net.cpp:395] bn5a_branch2c -> res5a_branch2c (in-place)
I0312 14:13:12.755002 27288 net.cpp:150] Setting up bn5a_branch2c
I0312 14:13:12.755009 27288 net.cpp:157] Top shape: 8 2048 7 7 (802816)
I0312 14:13:12.755013 27288 net.cpp:165] Memory required for data: 1801519136
I0312 14:13:12.755022 27288 layer_factory.hpp:77] Creating layer scale5a_branch2c
I0312 14:13:12.755029 27288 net.cpp:100] Creating Layer scale5a_branch2c
I0312 14:13:12.755033 27288 net.cpp:434] scale5a_branch2c <- res5a_branch2c
I0312 14:13:12.755039 27288 net.cpp:395] scale5a_branch2c -> res5a_branch2c (in-place)
I0312 14:13:12.755100 27288 layer_factory.hpp:77] Creating layer scale5a_branch2c
I0312 14:13:12.755293 27288 net.cpp:150] Setting up scale5a_branch2c
I0312 14:13:12.755300 27288 net.cpp:157] Top shape: 8 2048 7 7 (802816)
I0312 14:13:12.755303 27288 net.cpp:165] Memory required for data: 1804730400
I0312 14:13:12.755311 27288 layer_factory.hpp:77] Creating layer res5a
I0312 14:13:12.755317 27288 net.cpp:100] Creating Layer res5a
I0312 14:13:12.755321 27288 net.cpp:434] res5a <- res5a_branch1
I0312 14:13:12.755326 27288 net.cpp:434] res5a <- res5a_branch2c
I0312 14:13:12.755329 27288 net.cpp:408] res5a -> res5a
I0312 14:13:12.755367 27288 net.cpp:150] Setting up res5a
I0312 14:13:12.755373 27288 net.cpp:157] Top shape: 8 2048 7 7 (802816)
…
I0312 14:13:12.908439 27288 net.cpp:493] Sharing parameters 'res4e_branch2a_w' owned by layer 'res4e_branch2a', param index 0
I0312 14:13:12.908443 27288 layer_factory.hpp:77] Creating layer bn4e_branch2a_p
I0312 14:13:12.908452 27288 net.cpp:100] Creating Layer bn4e_branch2a_p
I0312 14:13:12.908455 27288 net.cpp:434] bn4e_branch2a_p <- res4e_branch2a_p
I0312 14:13:12.908460 27288 net.cpp:395] bn4e_branch2a_p -> res4e_branch2a_p (in-place)
I0312 14:13:12.908856 27288 net.cpp:150] Setting up bn4e_branch2a_p
I0312 14:13:12.908864 27288 net.cpp:157] Top shape: 8 256 14 14 (401408)
I0312 14:13:12.908867 27288 net.cpp:165] Memory required for data: 3516465184
I0312 14:13:12.908874 27288 layer_factory.hpp:77] Creating layer scale4e_branch2a_p
I0312 14:13:12.908882 27288 net.cpp:100] Creating Layer scale4e_branch2a_p
I0312 14:13:12.908886 27288 net.cpp:434] scale4e_branch2a_p <- res4e_branch2a_p
I0312 14:13:12.908896 27288 net.cpp:395] scale4e_branch2a_p -> res4e_branch2a_p (in-place)
I0312 14:13:12.909000 27288 layer_factory.hpp:77] Creating layer scale4e_branch2a_p
I0312 14:13:12.909225 27288 net.cpp:150] Setting up scale4e_branch2a_p
I0312 14:13:12.909234 27288 net.cpp:157] Top shape: 8 256 14 14 (401408)
I0312 14:13:12.909236 27288 net.cpp:165] Memory required for data: 3518070816
I0312 14:13:12.909241 27288 net.cpp:493] Sharing parameters 'scale4e_branch2a_alpha' owned by layer 'scale4e_branch2a', param index 0
I0312 14:13:12.909246 27288 net.cpp:493] Sharing parameters 'scale4e_branch2a_beta' owned by layer 'scale4e_branch2a', param index 1
I0312 14:13:12.909250 27288 layer_factory.hpp:77] Creating layer res4e_branch2a_relu_p
I0312 14:13:12.909272 27288 net.cpp:100] Creating Layer res4e_branch2a_relu_p
I0312 14:13:12.909276 27288 net.cpp:434] res4e_branch2a_relu_p <- res4e_branch2a_p
I0312 14:13:12.909281 27288 net.cpp:395] res4e_branch2a_relu_p -> res4e_branch2a_p (in-place)
I0312 14:13:12.909869 27288 net.cpp:150] Setting up res4e_branch2a_relu_p
I0312 14:13:12.909883 27288 net.cpp:157] Top shape: 8 256 14 14 (401408)
I0312 14:13:12.909885 27288 net.cpp:165] Memory required for data: 3519676448
I0312 14:13:12.909889 27288 layer_factory.hpp:77] Creating layer res4e_branch2b_p
I0312 14:13:12.909898 27288 net.cpp:100] Creating Layer res4e_branch2b_p
I0312 14:13:12.909904 27288 net.cpp:434] res4e_branch2b_p <- res4e_branch2a_p
I0312 14:13:12.909910 27288 net.cpp:408] res4e_branch2b_p -> res4e_branch2b_p
I0312 14:13:12.912680 27288 net.cpp:150] Setting up res4e_branch2b_p
I0312 14:13:12.912696 27288 net.cpp:157] Top shape: 8 256 14 14 (401408)
I0312 14:13:12.912699 27288 net.cpp:165] Memory required for data: 3521282080
I0312 14:13:12.912704 27288 net.cpp:493] Sharing parameters 'res4e_branch2b_w' owned by layer 'res4e_branch2b', param index 0
I0312 14:13:12.912709 27288 layer_factory.hpp:77] Creating layer bn4e_branch2b_p
I0312 14:13:12.912715 27288 net.cpp:100] Creating Layer bn4e_branch2b_p
I0312 14:13:12.912719 27288 net.cpp:434] bn4e_branch2b_p <- res4e_branch2b_p
I0312 14:13:12.912725 27288 net.cpp:395] bn4e_branch2b_p -> res4e_branch2b_p (in-place)
I0312 14:13:12.913169 27288 net.cpp:150] Setting up bn4e_branch2b_p
I0312 14:13:12.913180 27288 net.cpp:157] Top shape: 8 256 14 14 (401408)
I0312 14:13:12.913184 27288 net.cpp:165] Memory required for data: 3522887712
I0312 14:13:12.913192 27288 layer_factory.hpp:77] Creating layer scale4e_branch2b_p
I0312 14:13:12.913198 27288 net.cpp:100] Creating Layer scale4e_branch2b_p
I0312 14:13:12.913203 27288 net.cpp:434] scale4e_branch2b_p <- res4e_branch2b_p
I0312 14:13:12.913209 27288 net.cpp:395] scale4e_branch2b_p -> res4e_branch2b_p (in-place)
I0312 14:13:12.913301 27288 layer_factory.hpp:77] Creating layer scale4e_branch2b_p
I0312 14:13:12.913516 27288 net.cpp:150] Setting up scale4e_branch2b_p
I0312 14:13:12.913524 27288 net.cpp:157] Top shape: 8 256 14 14 (401408)
I0312 14:13:12.913527 27288 net.cpp:165] Memory required for data: 3524493344
I0312 14:13:12.913532 27288 net.cpp:493] Sharing parameters 'scale4e_branch2b_alpha' owned by layer 'scale4e_branch2b', param index 0
I0312 14:13:12.913537 27288 net.cpp:493] Sharing parameters 'scale4e_branch2b_beta' owned by layer 'scale4e_branch2b', param index 1
I0312 14:13:12.913540 27288 layer_factory.hpp:77] Creating layer res4e_branch2b_relu_p
I0312 14:13:12.913545 27288 net.cpp:100] Creating Layer res4e_branch2b_relu_p
I0312 14:13:12.913549 27288 net.cpp:434] res4e_branch2b_relu_p <- res4e_branch2b_p
I0312 14:13:12.913555 27288 net.cpp:395] res4e_branch2b_relu_p -> res4e_branch2b_p (in-place)
I0312 14:13:12.914149 27288 net.cpp:150] Setting up res4e_branch2b_relu_p
I0312 14:13:12.914161 27288 net.cpp:157] Top shape: 8 256 14 14 (401408)
I0312 14:13:12.914165 27288 net.cpp:165] Memory required for data: 3526098976
I0312 14:13:12.914168 27288 layer_factory.hpp:77] Creating layer res4e_branch2c_p
I0312 14:13:12.914178 27288 net.cpp:100] Creating Layer res4e_branch2c_p
I0312 14:13:12.914186 27288 net.cpp:434] res4e_branch2c_p <- res4e_branch2b_p
I0312 14:13:12.914194 27288 net.cpp:408] res4e_branch2c_p -> res4e_branch2c_p
I0312 14:13:12.916749 27288 net.cpp:150] Setting up res4e_branch2c_p
I0312 14:13:12.916762 27288 net.cpp:157] Top shape: 8 1024 14 14 (1605632)
I0312 14:13:12.916766 27288 net.cpp:165] Memory required for data: 3532521504
I0312 14:13:12.916771 27288 net.cpp:493] Sharing parameters 'res4e_branch2c_w' owned by layer 'res4e_branch2c', param index 0
I0312 14:13:12.916776 27288 layer_factory.hpp:77] Creating layer bn4e_branch2c_p
I0312 14:13:12.916782 27288 net.cpp:100] Creating Layer bn4e_branch2c_p
I0312 14:13:12.916786 27288 net.cpp:434] bn4e_branch2c_p <- res4e_branch2c_p
I0312 14:13:12.916791 27288 net.cpp:395] bn4e_branch2c_p -> res4e_branch2c_p (in-place)
I0312 14:13:12.917243 27288 net.cpp:150] Setting up bn4e_branch2c_p
I0312 14:13:12.917265 27288 net.cpp:157] Top shape: 8 1024 14 14 (1605632)
I0312 14:13:12.917268 27288 net.cpp:165] Memory required for data: 3538944032
I0312 14:13:12.917275 27288 layer_factory.hpp:77] Creating layer scale4e_branch2c_p
I0312 14:13:12.917284 27288 net.cpp:100] Creating Layer scale4e_branch2c_p
I0312 14:13:12.917287 27288 net.cpp:434] scale4e_branch2c_p <- res4e_branch2c_p
I0312 14:13:12.917294 27288 net.cpp:395] scale4e_branch2c_p -> res4e_branch2c_p (in-place)
I0312 14:13:12.917366 27288 layer_factory.hpp:77] Creating layer scale4e_branch2c_p
I0312 14:13:12.917595 27288 net.cpp:150] Setting up scale4e_branch2c_p
I0312 14:13:12.917603 27288 net.cpp:157] Top shape: 8 1024 14 14 (1605632)
I0312 14:13:12.917606 27288 net.cpp:165] Memory required for data: 3545366560
I0312 14:13:12.917610 27288 net.cpp:493] Sharing parameters 'scale4e_branch2c_alpha' owned by layer 'scale4e_branch2c', param index 0
I0312 14:13:12.917615 27288 net.cpp:493] Sharing parameters 'scale4e_branch2c_beta' owned by layer 'scale4e_branch2c', param index 1
I0312 14:13:12.917619 27288 layer_factory.hpp:77] Creating layer res4e_p
I0312 14:13:12.917624 27288 net.cpp:100] Creating Layer res4e_p
I0312 14:13:12.917629 27288 net.cpp:434] res4e_p <- res4d_p_res4d_relu_p_0_split_1
I0312 14:13:12.917634 27288 net.cpp:434] res4e_p <- res4e_branch2c_p
I0312 14:13:12.917639 27288 net.cpp:408] res4e_p -> res4e_p
I0312 14:13:12.917681 27288 net.cpp:150] Setting up res4e_p
I0312 14:13:12.917687 27288 net.cpp:157] Top shape: 8 1024 14 14 (1605632)
I0312 14:13:12.917690 27288 net.cpp:165] Memory required for data: 3551789088
I0312 14:13:12.917695 27288 layer_factory.hpp:77] Creating layer res4e_relu_p
I0312 14:13:12.917699 27288 net.cpp:100] Creating Layer res4e_relu_p
I0312 14:13:12.917703 27288 net.cpp:434] res4e_relu_p <- res4e_p
I0312 14:13:12.917708 27288 net.cpp:395] res4e_relu_p -> res4e_p (in-place)
I0312 14:13:12.917897 27288 net.cpp:150] Setting up res4e_relu_p
I0312 14:13:12.917906 27288 net.cpp:157] Top shape: 8 1024 14 14 (1605632)
I0312 14:13:12.917908 27288 net.cpp:165] Memory required for data: 3558211616
I0312 14:13:12.917912 27288 layer_factory.hpp:77] Creating layer res4e_p_res4e_relu_p_0_split
I0312 14:13:12.917918 27288 net.cpp:100] Creating Layer res4e_p_res4e_relu_p_0_split
I0312 14:13:12.917922 27288 net.cpp:434] res4e_p_res4e_relu_p_0_split <- res4e_p
I0312 14:13:12.917928 27288 net.cpp:408] res4e_p_res4e_relu_p_0_split -> res4e_p_res4e_relu_p_0_split_0
I0312 14:13:12.917935 27288 net.cpp:408] res4e_p_res4e_relu_p_0_split -> res4e_p_res4e_relu_p_0_split_1
I0312 14:13:12.918011 27288 net.cpp:150] Setting up res4e_p_res4e_relu_p_0_split
I0312 14:13:12.918017 27288 net.cpp:157] Top shape: 8 1024 14 14 (1605632)
I0312 14:13:12.918021 27288 net.cpp:157] Top shape: 8 1024 14 14 (1605632)
I0312 14:13:12.918025 27288 net.cpp:165] Memory required for data: 3571056672
I0312 14:13:12.918027 27288 layer_factory.hpp:77] Creating layer res4f_branch2a_p
I0312 14:13:12.918035 27288 net.cpp:100] Creating Layer res4f_branch2a_p
I0312 14:13:12.918040 27288 net.cpp:434] res4f_branch2a_p <- res4e_p_res4e_relu_p_0_split_0
I0312 14:13:12.918046 27288 net.cpp:408] res4f_branch2a_p -> res4f_branch2a_p
I0312 14:13:12.919569 27288 net.cpp:150] Setting up res4f_branch2a_p
I0312 14:13:12.919584 27288 net.cpp:157] Top shape: 8 256 14 14 (401408)
I0312 14:13:12.919587 27288 net.cpp:165] Memory required for data: 3572662304
I0312 14:13:12.919592 27288 net.cpp:493] Sharing parameters 'res4f_branch2a_w' owned by layer 'res4f_branch2a', param index 0
I0312 14:13:12.919596 27288 layer_factory.hpp:77] Creating layer bn4f_branch2a_p
I0312 14:13:12.919602 27288 net.cpp:100] Creating Layer bn4f_branch2a_p
I0312 14:13:12.919606 27288 net.cpp:434] bn4f_branch2a_p <- res4f_branch2a_p
I0312 14:13:12.919613 27288 net.cpp:395] bn4f_branch2a_p -> res4f_branch2a_p (in-place)
I0312 14:13:12.920007 27288 net.cpp:150] Setting up bn4f_branch2a_p
I0312 14:13:12.920016 27288 net.cpp:157] Top shape: 8 256 14 14 (401408)
I0312 14:13:12.920019 27288 net.cpp:165] Memory required for data: 3574267936
I0312 14:13:12.920027 27288 layer_factory.hpp:77] Creating layer scale4f_branch2a_p
I0312 14:13:12.920032 27288 net.cpp:100] Creating Layer scale4f_branch2a_p
I0312 14:13:12.920037 27288 net.cpp:434] scale4f_branch2a_p <- res4f_branch2a_p
I0312 14:13:12.920042 27288 net.cpp:395] scale4f_branch2a_p -> res4f_branch2a_p (in-place)
I0312 14:13:12.920120 27288 layer_factory.hpp:77] Creating layer scale4f_branch2a_p
I0312 14:13:12.920336 27288 net.cpp:150] Setting up scale4f_branch2a_p
I0312 14:13:12.920342 27288 net.cpp:157] Top shape: 8 256 14 14 (401408)
I0312 14:13:12.920346 27288 net.cpp:165] Memory required for data: 3575873568
I0312 14:13:12.920351 27288 net.cpp:493] Sharing parameters 'scale4f_branch2a_alpha' owned by layer 'scale4f_branch2a', param index 0
I0312 14:13:12.920356 27288 net.cpp:493] Sharing parameters 'scale4f_branch2a_beta' owned by layer 'scale4f_branch2a', param index 1
I0312 14:13:12.920359 27288 layer_factory.hpp:77] Creating layer res4f_branch2a_relu_p
I0312 14:13:12.920366 27288 net.cpp:100] Creating Layer res4f_branch2a_relu_p
I0312 14:13:12.920368 27288 net.cpp:434] res4f_branch2a_relu_p <- res4f_branch2a_p
I0312 14:13:12.920374 27288 net.cpp:395] res4f_branch2a_relu_p -> res4f_branch2a_p (in-place)
I0312 14:13:12.920562 27288 net.cpp:150] Setting up res4f_branch2a_relu_p
I0312 14:13:12.920570 27288 net.cpp:157] Top shape: 8 256 14 14 (401408)
I0312 14:13:12.920574 27288 net.cpp:165] Memory required for data: 3577479200
I0312 14:13:12.920578 27288 layer_factory.hpp:77] Creating layer res4f_branch2b_p
I0312 14:13:12.920586 27288 net.cpp:100] Creating Layer res4f_branch2b_p
I0312 14:13:12.920590 27288 net.cpp:434] res4f_branch2b_p <- res4f_branch2a_p
I0312 14:13:12.920596 27288 net.cpp:408] res4f_branch2b_p -> res4f_branch2b_p
I0312 14:13:12.924264 27288 net.cpp:150] Setting up res4f_branch2b_p
I0312 14:13:12.924279 27288 net.cpp:157] Top shape: 8 256 14 14 (401408)
I0312 14:13:12.924283 27288 net.cpp:165] Memory required for data: 3579084832
I0312 14:13:12.924288 27288 net.cpp:493] Sharing parameters 'res4f_branch2b_w' owned by layer 'res4f_branch2b', param index 0
I0312 14:13:12.924293 27288 layer_factory.hpp:77] Creating layer bn4f_branch2b_p
I0312 14:13:12.924300 27288 net.cpp:100] Creating Layer bn4f_branch2b_p
I0312 14:13:12.924304 27288 net.cpp:434] bn4f_branch2b_p <- res4f_branch2b_p
I0312 14:13:12.924309 27288 net.cpp:395] bn4f_branch2b_p -> res4f_branch2b_p (in-place)
I0312 14:13:12.924726 27288 net.cpp:150] Setting up bn4f_branch2b_p
I0312 14:13:12.924733 27288 net.cpp:157] Top shape: 8 256 14 14 (401408)
I0312 14:13:12.924736 27288 net.cpp:165] Memory required for data: 3580690464
I0312 14:13:12.924743 27288 layer_factory.hpp:77] Creating layer scale4f_branch2b_p
I0312 14:13:12.924751 27288 net.cpp:100] Creating Layer scale4f_branch2b_p
I0312 14:13:12.924756 27288 net.cpp:434] scale4f_branch2b_p <- res4f_branch2b_p
I0312 14:13:12.924762 27288 net.cpp:395] scale4f_branch2b_p -> res4f_branch2b_p (in-place)
I0312 14:13:12.924839 27288 layer_factory.hpp:77] Creating layer scale4f_branch2b_p
I0312 14:13:12.925097 27288 net.cpp:150] Setting up scale4f_branch2b_p
I0312 14:13:12.925107 27288 net.cpp:157] Top shape: 8 256 14 14 (401408)
I0312 14:13:12.925115 27288 net.cpp:165] Memory required for data: 3582296096
I0312 14:13:12.925120 27288 net.cpp:493] Sharing parameters 'scale4f_branch2b_alpha' owned by layer 'scale4f_branch2b', param index 0
I0312 14:13:12.925127 27288 net.cpp:493] Sharing parameters 'scale4f_branch2b_beta' owned by layer 'scale4f_branch2b', param index 1
I0312 14:13:12.925130 27288 layer_factory.hpp:77] Creating layer res4f_branch2b_relu_p
I0312 14:13:12.925137 27288 net.cpp:100] Creating Layer res4f_branch2b_relu_p
I0312 14:13:12.925139 27288 net.cpp:434] res4f_branch2b_relu_p <- res4f_branch2b_p
I0312 14:13:12.925145 27288 net.cpp:395] res4f_branch2b_relu_p -> res4f_branch2b_p (in-place)
I0312 14:13:12.925362 27288 net.cpp:150] Setting up res4f_branch2b_relu_p
I0312 14:13:12.925371 27288 net.cpp:157] Top shape: 8 256 14 14 (401408)
I0312 14:13:12.925374 27288 net.cpp:165] Memory required for data: 3583901728
I0312 14:13:12.925377 27288 layer_factory.hpp:77] Creating layer res4f_branch2c_p
I0312 14:13:12.925386 27288 net.cpp:100] Creating Layer res4f_branch2c_p
I0312 14:13:12.925390 27288 net.cpp:434] res4f_branch2c_p <- res4f_branch2b_p
I0312 14:13:12.925395 27288 net.cpp:408] res4f_branch2c_p -> res4f_branch2c_p
I0312 14:13:12.927945 27288 net.cpp:150] Setting up res4f_branch2c_p
I0312 14:13:12.927959 27288 net.cpp:157] Top shape: 8 1024 14 14 (1605632)
I0312 14:13:12.927963 27288 net.cpp:165] Memory required for data: 3590324256
I0312 14:13:12.927968 27288 net.cpp:493] Sharing parameters 'res4f_branch2c_w' owned by layer 'res4f_branch2c', param index 0
I0312 14:13:12.927973 27288 layer_factory.hpp:77] Creating layer bn4f_branch2c_p
I0312 14:13:12.927978 27288 net.cpp:100] Creating Layer bn4f_branch2c_p
I0312 14:13:12.927983 27288 net.cpp:434] bn4f_branch2c_p <- res4f_branch2c_p
I0312 14:13:12.927989 27288 net.cpp:395] bn4f_branch2c_p -> res4f_branch2c_p (in-place)
I0312 14:13:12.928398 27288 net.cpp:150] Setting up bn4f_branch2c_p
I0312 14:13:12.928407 27288 net.cpp:157] Top shape: 8 1024 14 14 (1605632)
I0312 14:13:12.928411 27288 net.cpp:165] Memory required for data: 3596746784
I0312 14:13:12.928417 27288 layer_factory.hpp:77] Creating layer scale4f_branch2c_p
I0312 14:13:12.928426 27288 net.cpp:100] Creating Layer scale4f_branch2c_p
I0312 14:13:12.928429 27288 net.cpp:434] scale4f_branch2c_p <- res4f_branch2c_p
I0312 14:13:12.928433 27288 net.cpp:395] scale4f_branch2c_p -> res4f_branch2c_p (in-place)
I0312 14:13:12.928508 27288 layer_factory.hpp:77] Creating layer scale4f_branch2c_p
I0312 14:13:12.928738 27288 net.cpp:150] Setting up scale4f_branch2c_p
I0312 14:13:12.928745 27288 net.cpp:157] Top shape: 8 1024 14 14 (1605632)
I0312 14:13:12.928748 27288 net.cpp:165] Memory required for data: 3603169312
I0312 14:13:12.928752 27288 net.cpp:493] Sharing parameters 'scale4f_branch2c_alpha' owned by layer 'scale4f_branch2c', param index 0
I0312 14:13:12.928757 27288 net.cpp:493] Sharing parameters 'scale4f_branch2c_beta' owned by layer 'scale4f_branch2c', param index 1
I0312 14:13:12.928761 27288 layer_factory.hpp:77] Creating layer res4f_p
I0312 14:13:12.928766 27288 net.cpp:100] Creating Layer res4f_p
I0312 14:13:12.928771 27288 net.cpp:434] res4f_p <- res4e_p_res4e_relu_p_0_split_1
I0312 14:13:12.928774 27288 net.cpp:434] res4f_p <- res4f_branch2c_p
I0312 14:13:12.928779 27288 net.cpp:408] res4f_p -> res4f_p
I0312 14:13:12.928822 27288 net.cpp:150] Setting up res4f_p
I0312 14:13:12.928829 27288 net.cpp:157] Top shape: 8 1024 14 14 (1605632)
I0312 14:13:12.928833 27288 net.cpp:165] Memory required for data: 3609591840
I0312 14:13:12.928835 27288 layer_factory.hpp:77] Creating layer res4f_relu_p
I0312 14:13:12.928840 27288 net.cpp:100] Creating Layer res4f_relu_p
I0312 14:13:12.928843 27288 net.cpp:434] res4f_relu_p <- res4f_p
I0312 14:13:12.928848 27288 net.cpp:395] res4f_relu_p -> res4f_p (in-place)
I0312 14:13:12.929069 27288 net.cpp:150] Setting up res4f_relu_p
I0312 14:13:12.929078 27288 net.cpp:157] Top shape: 8 1024 14 14 (1605632)
I0312 14:13:12.929081 27288 net.cpp:165] Memory required for data: 3616014368
I0312 14:13:12.929090 27288 layer_factory.hpp:77] Creating layer res4f_p_res4f_relu_p_0_split
I0312 14:13:12.929097 27288 net.cpp:100] Creating Layer res4f_p_res4f_relu_p_0_split
I0312 14:13:12.929101 27288 net.cpp:434] res4f_p_res4f_relu_p_0_split <- res4f_p
I0312 14:13:12.929106 27288 net.cpp:408] res4f_p_res4f_relu_p_0_split -> res4f_p_res4f_relu_p_0_split_0
I0312 14:13:12.929116 27288 net.cpp:408] res4f_p_res4f_relu_p_0_split -> res4f_p_res4f_relu_p_0_split_1
I0312 14:13:12.929205 27288 net.cpp:150] Setting up res4f_p_res4f_relu_p_0_split
I0312 14:13:12.929214 27288 net.cpp:157] Top shape: 8 1024 14 14 (1605632)
I0312 14:13:12.929217 27288 net.cpp:157] Top shape: 8 1024 14 14 (1605632)
I0312 14:13:12.929220 27288 net.cpp:165] Memory required for data: 3628859424
I0312 14:13:12.929224 27288 layer_factory.hpp:77] Creating layer res5a_branch1_p
I0312 14:13:12.929234 27288 net.cpp:100] Creating Layer res5a_branch1_p
I0312 14:13:12.929237 27288 net.cpp:434] res5a_branch1_p <- res4f_p_res4f_relu_p_0_split_0
I0312 14:13:12.929244 27288 net.cpp:408] res5a_branch1_p -> res5a_branch1_p
I0312 14:13:12.934307 27288 net.cpp:150] Setting up res5a_branch1_p
I0312 14:13:12.934324 27288 net.cpp:157] Top shape: 8 2048 7 7 (802816)
I0312 14:13:12.934327 27288 net.cpp:165] Memory required for data: 3632070688
I0312 14:13:12.934332 27288 net.cpp:493] Sharing parameters 'res5a_branch1_w' owned by layer 'res5a_branch1', param index 0
I0312 14:13:12.934337 27288 layer_factory.hpp:77] Creating layer bn5a_branch1_p
I0312 14:13:12.934345 27288 net.cpp:100] Creating Layer bn5a_branch1_p
I0312 14:13:12.934348 27288 net.cpp:434] bn5a_branch1_p <- res5a_branch1_p
I0312 14:13:12.934355 27288 net.cpp:395] bn5a_branch1_p -> res5a_branch1_p (in-place)
I0312 14:13:12.934808 27288 net.cpp:150] Setting up bn5a_branch1_p
I0312 14:13:12.934815 27288 net.cpp:157] Top shape: 8 2048 7 7 (802816)
I0312 14:13:12.934818 27288 net.cpp:165] Memory required for data: 3635281952
I0312 14:13:12.934825 27288 layer_factory.hpp:77] Creating layer scale5a_branch1_p
I0312 14:13:12.934834 27288 net.cpp:100] Creating Layer scale5a_branch1_p
I0312 14:13:12.934837 27288 net.cpp:434] scale5a_branch1_p <- res5a_branch1_p
I0312 14:13:12.934841 27288 net.cpp:395] scale5a_branch1_p -> res5a_branch1_p (in-place)
I0312 14:13:12.934917 27288 layer_factory.hpp:77] Creating layer scale5a_branch1_p
I0312 14:13:12.935154 27288 net.cpp:150] Setting up scale5a_branch1_p
I0312 14:13:12.935161 27288 net.cpp:157] Top shape: 8 2048 7 7 (802816)
I0312 14:13:12.935164 27288 net.cpp:165] Memory required for data: 3638493216
I0312 14:13:12.935169 27288 net.cpp:493] Sharing parameters 'scale5a_branch1_alpha' owned by layer 'scale5a_branch1', param index 0
I0312 14:13:12.935173 27288 net.cpp:493] Sharing parameters 'scale5a_branch1_beta' owned by layer 'scale5a_branch1', param index 1
I0312 14:13:12.935178 27288 layer_factory.hpp:77] Creating layer res5a_branch2a_p
I0312 14:13:12.935185 27288 net.cpp:100] Creating Layer res5a_branch2a_p
I0312 14:13:12.935190 27288 net.cpp:434] res5a_branch2a_p <- res4f_p_res4f_relu_p_0_split_1
I0312 14:13:12.935195 27288 net.cpp:408] res5a_branch2a_p -> res5a_branch2a_p
I0312 14:13:12.937891 27288 net.cpp:150] Setting up res5a_branch2a_p
I0312 14:13:12.937906 27288 net.cpp:157] Top shape: 8 512 7 7 (200704)
I0312 14:13:12.937911 27288 net.cpp:165] Memory required for data: 3639296032
I0312 14:13:12.937916 27288 net.cpp:493] Sharing parameters 'res5a_branch2a_w' owned by layer 'res5a_branch2a', param index 0
I0312 14:13:12.937919 27288 layer_factory.hpp:77] Creating layer bn5a_branch2a_p
I0312 14:13:12.937927 27288 net.cpp:100] Creating Layer bn5a_branch2a_p
I0312 14:13:12.937930 27288 net.cpp:434] bn5a_branch2a_p <- res5a_branch2a_p
I0312 14:13:12.937937 27288 net.cpp:395] bn5a_branch2a_p -> res5a_branch2a_p (in-place)
I0312 14:13:12.938352 27288 net.cpp:150] Setting up bn5a_branch2a_p
I0312 14:13:12.938359 27288 net.cpp:157] Top shape: 8 512 7 7 (200704)
I0312 14:13:12.938364 27288 net.cpp:165] Memory required for data: 3640098848
I0312 14:13:12.938374 27288 layer_factory.hpp:77] Creating layer scale5a_branch2a_p
I0312 14:13:12.938382 27288 net.cpp:100] Creating Layer scale5a_branch2a_p
I0312 14:13:12.938385 27288 net.cpp:434] scale5a_branch2a_p <- res5a_branch2a_p
I0312 14:13:12.938393 27288 net.cpp:395] scale5a_branch2a_p -> res5a_branch2a_p (in-place)
I0312 14:13:12.938467 27288 layer_factory.hpp:77] Creating layer scale5a_branch2a_p
I0312 14:13:12.938706 27288 net.cpp:150] Setting up scale5a_branch2a_p
I0312 14:13:12.938714 27288 net.cpp:157] Top shape: 8 512 7 7 (200704)
I0312 14:13:12.938717 27288 net.cpp:165] Memory required for data: 3640901664
I0312 14:13:12.938724 27288 net.cpp:493] Sharing parameters 'scale5a_branch2a_alpha' owned by layer 'scale5a_branch2a', param index 0
I0312 14:13:12.938729 27288 net.cpp:493] Sharing parameters 'scale5a_branch2a_beta' owned by layer 'scale5a_branch2a', param index 1
I0312 14:13:12.938732 27288 layer_factory.hpp:77] Creating layer res5a_branch2a_relu_p
I0312 14:13:12.938738 27288 net.cpp:100] Creating Layer res5a_branch2a_relu_p
I0312 14:13:12.938741 27288 net.cpp:434] res5a_branch2a_relu_p <- res5a_branch2a_p
I0312 14:13:12.938747 27288 net.cpp:395] res5a_branch2a_relu_p -> res5a_branch2a_p (in-place)
I0312 14:13:12.938938 27288 net.cpp:150] Setting up res5a_branch2a_relu_p
I0312 14:13:12.938947 27288 net.cpp:157] Top shape: 8 512 7 7 (200704)
I0312 14:13:12.938951 27288 net.cpp:165] Memory required for data: 3641704480
I0312 14:13:12.938953 27288 layer_factory.hpp:77] Creating layer res5a_branch2b_p
I0312 14:13:12.938963 27288 net.cpp:100] Creating Layer res5a_branch2b_p
I0312 14:13:12.938967 27288 net.cpp:434] res5a_branch2b_p <- res5a_branch2a_p
I0312 14:13:12.938972 27288 net.cpp:408] res5a_branch2b_p -> res5a_branch2b_p
I0312 14:13:12.944394 27288 net.cpp:150] Setting up res5a_branch2b_p
I0312 14:13:12.944411 27288 net.cpp:157] Top shape: 8 512 7 7 (200704)
I0312 14:13:12.944414 27288 net.cpp:165] Memory required for data: 3642507296
I0312 14:13:12.944420 27288 net.cpp:493] Sharing parameters 'res5a_branch2b_w' owned by layer 'res5a_branch2b', param index 0
I0312 14:13:12.944424 27288 layer_factory.hpp:77] Creating layer bn5a_branch2b_p
I0312 14:13:12.944432 27288 net.cpp:100] Creating Layer bn5a_branch2b_p
I0312 14:13:12.944437 27288 net.cpp:434] bn5a_branch2b_p <- res5a_branch2b_p
I0312 14:13:12.944442 27288 net.cpp:395] bn5a_branch2b_p -> res5a_branch2b_p (in-place)
I0312 14:13:12.944861 27288 net.cpp:150] Setting up bn5a_branch2b_p
I0312 14:13:12.944869 27288 net.cpp:157] Top shape: 8 512 7 7 (200704)
I0312 14:13:12.944872 27288 net.cpp:165] Memory required for data: 3643310112
I0312 14:13:12.944880 27288 layer_factory.hpp:77] Creating layer scale5a_branch2b_p
I0312 14:13:12.944887 27288 net.cpp:100] Creating Layer scale5a_branch2b_p
I0312 14:13:12.944891 27288 net.cpp:434] scale5a_branch2b_p <- res5a_branch2b_p
I0312 14:13:12.944896 27288 net.cpp:395] scale5a_branch2b_p -> res5a_branch2b_p (in-place)
I0312 14:13:12.944983 27288 layer_factory.hpp:77] Creating layer scale5a_branch2b_p
I0312 14:13:12.945225 27288 net.cpp:150] Setting up scale5a_branch2b_p
I0312 14:13:12.945231 27288 net.cpp:157] Top shape: 8 512 7 7 (200704)
I0312 14:13:12.945235 27288 net.cpp:165] Memory required for data: 3644112928
I0312 14:13:12.945240 27288 net.cpp:493] Sharing parameters 'scale5a_branch2b_alpha' owned by layer 'scale5a_branch2b', param index 0
I0312 14:13:12.945245 27288 net.cpp:493] Sharing parameters 'scale5a_branch2b_beta' owned by layer 'scale5a_branch2b', param index 1
I0312 14:13:12.945248 27288 layer_factory.hpp:77] Creating layer res5a_branch2b_relu_p
I0312 14:13:12.945255 27288 net.cpp:100] Creating Layer res5a_branch2b_relu_p
I0312 14:13:12.945258 27288 net.cpp:434] res5a_branch2b_relu_p <- res5a_branch2b_p
I0312 14:13:12.945263 27288 net.cpp:395] res5a_branch2b_relu_p -> res5a_branch2b_p (in-place)
I0312 14:13:12.945875 27288 net.cpp:150] Setting up res5a_branch2b_relu_p
I0312 14:13:12.945889 27288 net.cpp:157] Top shape: 8 512 7 7 (200704)
I0312 14:13:12.945893 27288 net.cpp:165] Memory required for data: 3644915744
I0312 14:13:12.945900 27288 layer_factory.hpp:77] Creating layer res5a_branch2c_p
I0312 14:13:12.945911 27288 net.cpp:100] Creating Layer res5a_branch2c_p
I0312 14:13:12.945916 27288 net.cpp:434] res5a_branch2c_p <- res5a_branch2b_p
I0312 14:13:12.945924 27288 net.cpp:408] res5a_branch2c_p -> res5a_branch2c_p
I0312 14:13:12.949436 27288 net.cpp:150] Setting up res5a_branch2c_p
I0312 14:13:12.949452 27288 net.cpp:157] Top shape: 8 2048 7 7 (802816)
I0312 14:13:12.949456 27288 net.cpp:165] Memory required for data: 3648127008
I0312 14:13:12.949461 27288 net.cpp:493] Sharing parameters 'res5a_branch2c_w' owned by layer 'res5a_branch2c', param index 0
I0312 14:13:12.949465 27288 layer_factory.hpp:77] Creating layer bn5a_branch2c_p
I0312 14:13:12.949473 27288 net.cpp:100] Creating Layer bn5a_branch2c_p
I0312 14:13:12.949477 27288 net.cpp:434] bn5a_branch2c_p <- res5a_branch2c_p
I0312 14:13:12.949482 27288 net.cpp:395] bn5a_branch2c_p -> res5a_branch2c_p (in-place)
I0312 14:13:12.949924 27288 net.cpp:150] Setting up bn5a_branch2c_p
I0312 14:13:12.949932 27288 net.cpp:157] Top shape: 8 2048 7 7 (802816)
I0312 14:13:12.949936 27288 net.cpp:165] Memory required for data: 3651338272
I0312 14:13:12.949944 27288 layer_factory.hpp:77] Creating layer scale5a_branch2c_p
I0312 14:13:12.949951 27288 net.cpp:100] Creating Layer scale5a_branch2c_p
I0312 14:13:12.949955 27288 net.cpp:434] scale5a_branch2c_p <- res5a_branch2c_p
I0312 14:13:12.949960 27288 net.cpp:395] scale5a_branch2c_p -> res5a_branch2c_p (in-place)
I0312 14:13:12.950033 27288 layer_factory.hpp:77] Creating layer scale5a_branch2c_p
I0312 14:13:12.950282 27288 net.cpp:150] Setting up scale5a_branch2c_p
I0312 14:13:12.950289 27288 net.cpp:157] Top shape: 8 2048 7 7 (802816)
I0312 14:13:12.950294 27288 net.cpp:165] Memory required for data: 3654549536
I0312 14:13:12.950299 27288 net.cpp:493] Sharing parameters 'scale5a_branch2c_alpha' owned by layer 'scale5a_branch2c', param index 0
I0312 14:13:12.950302 27288 net.cpp:493] Sharing parameters 'scale5a_branch2c_beta' owned by layer 'scale5a_branch2c', param index 1
I0312 14:13:12.950306 27288 layer_factory.hpp:77] Creating layer res5a_p
I0312 14:13:12.950312 27288 net.cpp:100] Creating Layer res5a_p
I0312 14:13:12.950315 27288 net.cpp:434] res5a_p <- res5a_branch1_p
I0312 14:13:12.950320 27288 net.cpp:434] res5a_p <- res5a_branch2c_p
I0312 14:13:12.950325 27288 net.cpp:408] res5a_p -> res5a_p
I0312 14:13:12.950371 27288 net.cpp:150] Setting up res5a_p
I0312 14:13:12.950377 27288 net.cpp:157] Top shape: 8 2048 7 7 (802816)
I0312 14:13:12.950379 27288 net.cpp:165] Memory required for data: 3657760800
I0312 14:13:12.950383 27288 layer_factory.hpp:77] Creating layer res5a_relu_p
I0312 14:13:12.950388 27288 net.cpp:100] Creating Layer res5a_relu_p
I0312 14:13:12.950392 27288 net.cpp:434] res5a_relu_p <- res5a_p
I0312 14:13:12.950397 27288 net.cpp:395] res5a_relu_p -> res5a_p (in-place)
I0312 14:13:12.950585 27288 net.cpp:150] Setting up res5a_relu_p
I0312 14:13:12.950594 27288 net.cpp:157] Top shape: 8 2048 7 7 (802816)
I0312 14:13:12.950598 27288 net.cpp:165] Memory required for data: 3660972064
I0312 14:13:12.950600 27288 layer_factory.hpp:77] Creating layer res5a_p_res5a_relu_p_0_split
I0312 14:13:12.950606 27288 net.cpp:100] Creating Layer res5a_p_res5a_relu_p_0_split
I0312 14:13:12.950610 27288 net.cpp:434] res5a_p_res5a_relu_p_0_split <- res5a_p
I0312 14:13:12.950618 27288 net.cpp:408] res5a_p_res5a_relu_p_0_split -> res5a_p_res5a_relu_p_0_split_0
I0312 14:13:12.950624 27288 net.cpp:408] res5a_p_res5a_relu_p_0_split -> res5a_p_res5a_relu_p_0_split_1
I0312 14:13:12.950704 27288 net.cpp:150] Setting up res5a_p_res5a_relu_p_0_split
I0312 14:13:12.950711 27288 net.cpp:157] Top shape: 8 2048 7 7 (802816)
I0312 14:13:12.950716 27288 net.cpp:157] Top shape: 8 2048 7 7 (802816)
I0312 14:13:12.950717 27288 net.cpp:165] Memory required for data: 3667394592
I0312 14:13:12.950721 27288 layer_factory.hpp:77] Creating layer res5b_branch2a_p
I0312 14:13:12.950731 27288 net.cpp:100] Creating Layer res5b_branch2a_p
I0312 14:13:12.950737 27288 net.cpp:434] res5b_branch2a_p <- res5a_p_res5a_relu_p_0_split_0
I0312 14:13:12.950745 27288 net.cpp:408] res5b_branch2a_p -> res5b_branch2a_p
I0312 14:13:12.954253 27288 net.cpp:150] Setting up res5b_branch2a_p
I0312 14:13:12.954268 27288 net.cpp:157] Top shape: 8 512 7 7 (200704)
I0312 14:13:12.954272 27288 net.cpp:165] Memory required for data: 3668197408
I0312 14:13:12.954277 27288 net.cpp:493] Sharing parameters 'res5b_branch2a_w' owned by layer 'res5b_branch2a', param index 0
I0312 14:13:12.954282 27288 layer_factory.hpp:77] Creating layer bn5b_branch2a_p
I0312 14:13:12.954289 27288 net.cpp:100] Creating Layer bn5b_branch2a_p
I0312 14:13:12.954293 27288 net.cpp:434] bn5b_branch2a_p <- res5b_branch2a_p
I0312 14:13:12.954299 27288 net.cpp:395] bn5b_branch2a_p -> res5b_branch2a_p (in-place)
I0312 14:13:12.954723 27288 net.cpp:150] Setting up bn5b_branch2a_p
I0312 14:13:12.954731 27288 net.cpp:157] Top shape: 8 512 7 7 (200704)
I0312 14:13:12.954735 27288 net.cpp:165] Memory required for data: 3669000224
I0312 14:13:12.954742 27288 layer_factory.hpp:77] Creating layer scale5b_branch2a_p
I0312 14:13:12.954751 27288 net.cpp:100] Creating Layer scale5b_branch2a_p
I0312 14:13:12.954754 27288 net.cpp:434] scale5b_branch2a_p <- res5b_branch2a_p
I0312 14:13:12.954761 27288 net.cpp:395] scale5b_branch2a_p -> res5b_branch2a_p (in-place)
I0312 14:13:12.954833 27288 layer_factory.hpp:77] Creating layer scale5b_branch2a_p
I0312 14:13:12.955076 27288 net.cpp:150] Setting up scale5b_branch2a_p
I0312 14:13:12.955085 27288 net.cpp:157] Top shape: 8 512 7 7 (200704)
I0312 14:13:12.955087 27288 net.cpp:165] Memory required for data: 3669803040
I0312 14:13:12.955092 27288 net.cpp:493] Sharing parameters 'scale5b_branch2a_alpha' owned by layer 'scale5b_branch2a', param index 0
I0312 14:13:12.955097 27288 net.cpp:493] Sharing parameters 'scale5b_branch2a_beta' owned by layer 'scale5b_branch2a', param index 1
I0312 14:13:12.955101 27288 layer_factory.hpp:77] Creating layer res5b_branch2a_relu_p
I0312 14:13:12.955107 27288 net.cpp:100] Creating Layer res5b_branch2a_relu_p
I0312 14:13:12.955111 27288 net.cpp:434] res5b_branch2a_relu_p <- res5b_branch2a_p
I0312 14:13:12.955116 27288 net.cpp:395] res5b_branch2a_relu_p -> res5b_branch2a_p (in-place)
I0312 14:13:12.955304 27288 net.cpp:150] Setting up res5b_branch2a_relu_p
I0312 14:13:12.955313 27288 net.cpp:157] Top shape: 8 512 7 7 (200704)
I0312 14:13:12.955317 27288 net.cpp:165] Memory required for data: 3670605856
I0312 14:13:12.955320 27288 layer_factory.hpp:77] Creating layer res5b_branch2b_p
I0312 14:13:12.955328 27288 net.cpp:100] Creating Layer res5b_branch2b_p
I0312 14:13:12.955332 27288 net.cpp:434] res5b_branch2b_p <- res5b_branch2a_p
I0312 14:13:12.955338 27288 net.cpp:408] res5b_branch2b_p -> res5b_branch2b_p
I0312 14:13:12.960767 27288 net.cpp:150] Setting up res5b_branch2b_p
I0312 14:13:12.960785 27288 net.cpp:157] Top shape: 8 512 7 7 (200704)
I0312 14:13:12.960789 27288 net.cpp:165] Memory required for data: 3671408672
I0312 14:13:12.960794 27288 net.cpp:493] Sharing parameters 'res5b_branch2b_w' owned by layer 'res5b_branch2b', param index 0
I0312 14:13:12.960798 27288 layer_factory.hpp:77] Creating layer bn5b_branch2b_p
I0312 14:13:12.960805 27288 net.cpp:100] Creating Layer bn5b_branch2b_p
I0312 14:13:12.960809 27288 net.cpp:434] bn5b_branch2b_p <- res5b_branch2b_p
I0312 14:13:12.960815 27288 net.cpp:395] bn5b_branch2b_p -> res5b_branch2b_p (in-place)
I0312 14:13:12.961256 27288 net.cpp:150] Setting up bn5b_branch2b_p
I0312 14:13:12.961266 27288 net.cpp:157] Top shape: 8 512 7 7 (200704)
I0312 14:13:12.961271 27288 net.cpp:165] Memory required for data: 3672211488
I0312 14:13:12.961277 27288 layer_factory.hpp:77] Creating layer scale5b_branch2b_p
I0312 14:13:12.961283 27288 net.cpp:100] Creating Layer scale5b_branch2b_p
I0312 14:13:12.961287 27288 net.cpp:434] scale5b_branch2b_p <- res5b_branch2b_p
I0312 14:13:12.961294 27288 net.cpp:395] scale5b_branch2b_p -> res5b_branch2b_p (in-place)
I0312 14:13:12.961369 27288 layer_factory.hpp:77] Creating layer scale5b_branch2b_p
I0312 14:13:12.961617 27288 net.cpp:150] Setting up scale5b_branch2b_p
I0312 14:13:12.961627 27288 net.cpp:157] Top shape: 8 512 7 7 (200704)
I0312 14:13:12.961629 27288 net.cpp:165] Memory required for data: 3673014304
I0312 14:13:12.961634 27288 net.cpp:493] Sharing parameters 'scale5b_branch2b_alpha' owned by layer 'scale5b_branch2b', param index 0
I0312 14:13:12.961638 27288 net.cpp:493] Sharing parameters 'scale5b_branch2b_beta' owned by layer 'scale5b_branch2b', param index 1
I0312 14:13:12.961642 27288 layer_factory.hpp:77] Creating layer res5b_branch2b_relu_p
I0312 14:13:12.961648 27288 net.cpp:100] Creating Layer res5b_branch2b_relu_p
I0312 14:13:12.961652 27288 net.cpp:434] res5b_branch2b_relu_p <- res5b_branch2b_p
I0312 14:13:12.961657 27288 net.cpp:395] res5b_branch2b_relu_p -> res5b_branch2b_p (in-place)
I0312 14:13:12.961870 27288 net.cpp:150] Setting up res5b_branch2b_relu_p
I0312 14:13:12.961879 27288 net.cpp:157] Top shape: 8 512 7 7 (200704)
I0312 14:13:12.961882 27288 net.cpp:165] Memory required for data: 3673817120
I0312 14:13:12.961886 27288 layer_factory.hpp:77] Creating layer res5b_branch2c_p
I0312 14:13:12.961895 27288 net.cpp:100] Creating Layer res5b_branch2c_p
I0312 14:13:12.961899 27288 net.cpp:434] res5b_branch2c_p <- res5b_branch2b_p
I0312 14:13:12.961906 27288 net.cpp:408] res5b_branch2c_p -> res5b_branch2c_p
I0312 14:13:12.965443 27288 net.cpp:150] Setting up res5b_branch2c_p
I0312 14:13:12.965459 27288 net.cpp:157] Top shape: 8 2048 7 7 (802816)
I0312 14:13:12.965462 27288 net.cpp:165] Memory required for data: 3677028384
I0312 14:13:12.965468 27288 net.cpp:493] Sharing parameters 'res5b_branch2c_w' owned by layer 'res5b_branch2c', param index 0
I0312 14:13:12.965472 27288 layer_factory.hpp:77] Creating layer bn5b_branch2c_p
I0312 14:13:12.965481 27288 net.cpp:100] Creating Layer bn5b_branch2c_p
I0312 14:13:12.965484 27288 net.cpp:434] bn5b_branch2c_p <- res5b_branch2c_p
I0312 14:13:12.965489 27288 net.cpp:395] bn5b_branch2c_p -> res5b_branch2c_p (in-place)
I0312 14:13:12.965925 27288 net.cpp:150] Setting up bn5b_branch2c_p
I0312 14:13:12.965934 27288 net.cpp:157] Top shape: 8 2048 7 7 (802816)
I0312 14:13:12.965936 27288 net.cpp:165] Memory required for data: 3680239648
I0312 14:13:12.965943 27288 layer_factory.hpp:77] Creating layer scale5b_branch2c_p
I0312 14:13:12.965951 27288 net.cpp:100] Creating Layer scale5b_branch2c_p
I0312 14:13:12.965955 27288 net.cpp:434] scale5b_branch2c_p <- res5b_branch2c_p
I0312 14:13:12.965960 27288 net.cpp:395] scale5b_branch2c_p -> res5b_branch2c_p (in-place)
I0312 14:13:12.966035 27288 layer_factory.hpp:77] Creating layer scale5b_branch2c_p
I0312 14:13:12.966281 27288 net.cpp:150] Setting up scale5b_branch2c_p
I0312 14:13:12.966290 27288 net.cpp:157] Top shape: 8 2048 7 7 (802816)
I0312 14:13:12.966294 27288 net.cpp:165] Memory required for data: 3683450912
I0312 14:13:12.966298 27288 net.cpp:493] Sharing parameters 'scale5b_branch2c_alpha' owned by layer 'scale5b_branch2c', param index 0
I0312 14:13:12.966303 27288 net.cpp:493] Sharing parameters 'scale5b_branch2c_beta' owned by layer 'scale5b_branch2c', param index 1
I0312 14:13:12.966307 27288 layer_factory.hpp:77] Creating layer res5b_p
I0312 14:13:12.966313 27288 net.cpp:100] Creating Layer res5b_p
I0312 14:13:12.966317 27288 net.cpp:434] res5b_p <- res5a_p_res5a_relu_p_0_split_1
I0312 14:13:12.966322 27288 net.cpp:434] res5b_p <- res5b_branch2c_p
I0312 14:13:12.966327 27288 net.cpp:408] res5b_p -> res5b_p
I0312 14:13:12.966373 27288 net.cpp:150] Setting up res5b_p
I0312 14:13:12.966379 27288 net.cpp:157] Top shape: 8 2048 7 7 (802816)
I0312 14:13:12.966382 27288 net.cpp:165] Memory required for data: 3686662176
I0312 14:13:12.966387 27288 layer_factory.hpp:77] Creating layer res5b_relu_p
I0312 14:13:12.966392 27288 net.cpp:100] Creating Layer res5b_relu_p
I0312 14:13:12.966394 27288 net.cpp:434] res5b_relu_p <- res5b_p
I0312 14:13:12.966398 27288 net.cpp:395] res5b_relu_p -> res5b_p (in-place)
I0312 14:13:12.966588 27288 net.cpp:150] Setting up res5b_relu_p
I0312 14:13:12.966598 27288 net.cpp:157] Top shape: 8 2048 7 7 (802816)
I0312 14:13:12.966604 27288 net.cpp:165] Memory required for data: 3689873440
I0312 14:13:12.966608 27288 layer_factory.hpp:77] Creating layer res5b_p_res5b_relu_p_0_split
I0312 14:13:12.966615 27288 net.cpp:100] Creating Layer res5b_p_res5b_relu_p_0_split
I0312 14:13:12.966619 27288 net.cpp:434] res5b_p_res5b_relu_p_0_split <- res5b_p
I0312 14:13:12.966625 27288 net.cpp:408] res5b_p_res5b_relu_p_0_split -> res5b_p_res5b_relu_p_0_split_0
I0312 14:13:12.966631 27288 net.cpp:408] res5b_p_res5b_relu_p_0_split -> res5b_p_res5b_relu_p_0_split_1
I0312 14:13:12.966717 27288 net.cpp:150] Setting up res5b_p_res5b_relu_p_0_split
I0312 14:13:12.966723 27288 net.cpp:157] Top shape: 8 2048 7 7 (802816)
I0312 14:13:12.966727 27288 net.cpp:157] Top shape: 8 2048 7 7 (802816)
I0312 14:13:12.966729 27288 net.cpp:165] Memory required for data: 3696295968
I0312 14:13:12.966733 27288 layer_factory.hpp:77] Creating layer res5c_branch2a_p
I0312 14:13:12.966742 27288 net.cpp:100] Creating Layer res5c_branch2a_p
I0312 14:13:12.966745 27288 net.cpp:434] res5c_branch2a_p <- res5b_p_res5b_relu_p_0_split_0
I0312 14:13:12.966753 27288 net.cpp:408] res5c_branch2a_p -> res5c_branch2a_p
I0312 14:13:12.970264 27288 net.cpp:150] Setting up res5c_branch2a_p
I0312 14:13:12.970279 27288 net.cpp:157] Top shape: 8 512 7 7 (200704)
I0312 14:13:12.970283 27288 net.cpp:165] Memory required for data: 3697098784
I0312 14:13:12.970288 27288 net.cpp:493] Sharing parameters 'res5c_branch2a_w' owned by layer 'res5c_branch2a', param index 0
I0312 14:13:12.970293 27288 layer_factory.hpp:77] Creating layer bn5c_branch2a_p
I0312 14:13:12.970300 27288 net.cpp:100] Creating Layer bn5c_branch2a_p
I0312 14:13:12.970304 27288 net.cpp:434] bn5c_branch2a_p <- res5c_branch2a_p
I0312 14:13:12.970309 27288 net.cpp:395] bn5c_branch2a_p -> res5c_branch2a_p (in-place)
I0312 14:13:12.970744 27288 net.cpp:150] Setting up bn5c_branch2a_p
I0312 14:13:12.970752 27288 net.cpp:157] Top shape: 8 512 7 7 (200704)
I0312 14:13:12.970755 27288 net.cpp:165] Memory required for data: 3697901600
I0312 14:13:12.970762 27288 layer_factory.hpp:77] Creating layer scale5c_branch2a_p
I0312 14:13:12.970770 27288 net.cpp:100] Creating Layer scale5c_branch2a_p
I0312 14:13:12.970774 27288 net.cpp:434] scale5c_branch2a_p <- res5c_branch2a_p
I0312 14:13:12.970778 27288 net.cpp:395] scale5c_branch2a_p -> res5c_branch2a_p (in-place)
I0312 14:13:12.970854 27288 layer_factory.hpp:77] Creating layer scale5c_branch2a_p
I0312 14:13:12.971101 27288 net.cpp:150] Setting up scale5c_branch2a_p
I0312 14:13:12.971108 27288 net.cpp:157] Top shape: 8 512 7 7 (200704)
I0312 14:13:12.971112 27288 net.cpp:165] Memory required for data: 3698704416
I0312 14:13:12.971117 27288 net.cpp:493] Sharing parameters 'scale5c_branch2a_alpha' owned by layer 'scale5c_branch2a', param index 0
I0312 14:13:12.971122 27288 net.cpp:493] Sharing parameters 'scale5c_branch2a_beta' owned by layer 'scale5c_branch2a', param index 1
I0312 14:13:12.971125 27288 layer_factory.hpp:77] Creating layer res5c_branch2a_relu_p
I0312 14:13:12.971132 27288 net.cpp:100] Creating Layer res5c_branch2a_relu_p
I0312 14:13:12.971135 27288 net.cpp:434] res5c_branch2a_relu_p <- res5c_branch2a_p
I0312 14:13:12.971140 27288 net.cpp:395] res5c_branch2a_relu_p -> res5c_branch2a_p (in-place)
I0312 14:13:12.971328 27288 net.cpp:150] Setting up res5c_branch2a_relu_p
I0312 14:13:12.971335 27288 net.cpp:157] Top shape: 8 512 7 7 (200704)
I0312 14:13:12.971338 27288 net.cpp:165] Memory required for data: 3699507232
I0312 14:13:12.971343 27288 layer_factory.hpp:77] Creating layer res5c_branch2b_p
I0312 14:13:12.971350 27288 net.cpp:100] Creating Layer res5c_branch2b_p
I0312 14:13:12.971354 27288 net.cpp:434] res5c_branch2b_p <- res5c_branch2a_p
I0312 14:13:12.971361 27288 net.cpp:408] res5c_branch2b_p -> res5c_branch2b_p
I0312 14:13:12.976881 27288 net.cpp:150] Setting up res5c_branch2b_p
I0312 14:13:12.976898 27288 net.cpp:157] Top shape: 8 512 7 7 (200704)
I0312 14:13:12.976903 27288 net.cpp:165] Memory required for data: 3700310048
I0312 14:13:12.976913 27288 net.cpp:493] Sharing parameters 'res5c_branch2b_w' owned by layer 'res5c_branch2b', param index 0
I0312 14:13:12.976918 27288 layer_factory.hpp:77] Creating layer bn5c_branch2b_p
I0312 14:13:12.976924 27288 net.cpp:100] Creating Layer bn5c_branch2b_p
I0312 14:13:12.976928 27288 net.cpp:434] bn5c_branch2b_p <- res5c_branch2b_p
I0312 14:13:12.976935 27288 net.cpp:395] bn5c_branch2b_p -> res5c_branch2b_p (in-place)
I0312 14:13:12.977427 27288 net.cpp:150] Setting up bn5c_branch2b_p
I0312 14:13:12.977434 27288 net.cpp:157] Top shape: 8 512 7 7 (200704)
I0312 14:13:12.977437 27288 net.cpp:165] Memory required for data: 3701112864
I0312 14:13:12.977444 27288 layer_factory.hpp:77] Creating layer scale5c_branch2b_p
I0312 14:13:12.977453 27288 net.cpp:100] Creating Layer scale5c_branch2b_p
I0312 14:13:12.977457 27288 net.cpp:434] scale5c_branch2b_p <- res5c_branch2b_p
I0312 14:13:12.977464 27288 net.cpp:395] scale5c_branch2b_p -> res5c_branch2b_p (in-place)
I0312 14:13:12.977540 27288 layer_factory.hpp:77] Creating layer scale5c_branch2b_p
I0312 14:13:12.977785 27288 net.cpp:150] Setting up scale5c_branch2b_p
I0312 14:13:12.977793 27288 net.cpp:157] Top shape: 8 512 7 7 (200704)
I0312 14:13:12.977797 27288 net.cpp:165] Memory required for data: 3701915680
I0312 14:13:12.977802 27288 net.cpp:493] Sharing parameters 'scale5c_branch2b_alpha' owned by layer 'scale5c_branch2b', param index 0
I0312 14:13:12.977807 27288 net.cpp:493] Sharing parameters 'scale5c_branch2b_beta' owned by layer 'scale5c_branch2b', param index 1
I0312 14:13:12.977810 27288 layer_factory.hpp:77] Creating layer res5c_branch2b_relu_p
I0312 14:13:12.977815 27288 net.cpp:100] Creating Layer res5c_branch2b_relu_p
I0312 14:13:12.977819 27288 net.cpp:434] res5c_branch2b_relu_p <- res5c_branch2b_p
I0312 14:13:12.977824 27288 net.cpp:395] res5c_branch2b_relu_p -> res5c_branch2b_p (in-place)
I0312 14:13:12.978451 27288 net.cpp:150] Setting up res5c_branch2b_relu_p
I0312 14:13:12.978466 27288 net.cpp:157] Top shape: 8 512 7 7 (200704)
I0312 14:13:12.978469 27288 net.cpp:165] Memory required for data: 3702718496
I0312 14:13:12.978473 27288 layer_factory.hpp:77] Creating layer res5c_branch2c_p
I0312 14:13:12.978482 27288 net.cpp:100] Creating Layer res5c_branch2c_p
I0312 14:13:12.978487 27288 net.cpp:434] res5c_branch2c_p <- res5c_branch2b_p
I0312 14:13:12.978494 27288 net.cpp:408] res5c_branch2c_p -> res5c_branch2c_p
I0312 14:13:12.982086 27288 net.cpp:150] Setting up res5c_branch2c_p
I0312 14:13:12.982102 27288 net.cpp:157] Top shape: 8 2048 7 7 (802816)
I0312 14:13:12.982105 27288 net.cpp:165] Memory required for data: 3705929760
I0312 14:13:12.982111 27288 net.cpp:493] Sharing parameters 'res5c_branch2c_w' owned by layer 'res5c_branch2c', param index 0
I0312 14:13:12.982115 27288 layer_factory.hpp:77] Creating layer bn5c_branch2c_p
I0312 14:13:12.982122 27288 net.cpp:100] Creating Layer bn5c_branch2c_p
I0312 14:13:12.982125 27288 net.cpp:434] bn5c_branch2c_p <- res5c_branch2c_p
I0312 14:13:12.982132 27288 net.cpp:395] bn5c_branch2c_p -> res5c_branch2c_p (in-place)
I0312 14:13:12.982573 27288 net.cpp:150] Setting up bn5c_branch2c_p
I0312 14:13:12.982581 27288 net.cpp:157] Top shape: 8 2048 7 7 (802816)
I0312 14:13:12.982584 27288 net.cpp:165] Memory required for data: 3709141024
I0312 14:13:12.982591 27288 layer_factory.hpp:77] Creating layer scale5c_branch2c_p
I0312 14:13:12.982599 27288 net.cpp:100] Creating Layer scale5c_branch2c_p
I0312 14:13:12.982601 27288 net.cpp:434] scale5c_branch2c_p <- res5c_branch2c_p
I0312 14:13:12.982607 27288 net.cpp:395] scale5c_branch2c_p -> res5c_branch2c_p (in-place)
I0312 14:13:12.982686 27288 layer_factory.hpp:77] Creating layer scale5c_branch2c_p
I0312 14:13:12.982937 27288 net.cpp:150] Setting up scale5c_branch2c_p
I0312 14:13:12.982944 27288 net.cpp:157] Top shape: 8 2048 7 7 (802816)
I0312 14:13:12.982947 27288 net.cpp:165] Memory required for data: 3712352288
I0312 14:13:12.982952 27288 net.cpp:493] Sharing parameters 'scale5c_branch2c_alpha' owned by layer 'scale5c_branch2c', param index 0
I0312 14:13:12.982962 27288 net.cpp:493] Sharing parameters 'scale5c_branch2c_beta' owned by layer 'scale5c_branch2c', param index 1
I0312 14:13:12.982965 27288 layer_factory.hpp:77] Creating layer res5c_p
I0312 14:13:12.982972 27288 net.cpp:100] Creating Layer res5c_p
I0312 14:13:12.982976 27288 net.cpp:434] res5c_p <- res5b_p_res5b_relu_p_0_split_1
I0312 14:13:12.982981 27288 net.cpp:434] res5c_p <- res5c_branch2c_p
I0312 14:13:12.982986 27288 net.cpp:408] res5c_p -> res5c_p
I0312 14:13:12.983031 27288 net.cpp:150] Setting up res5c_p
I0312 14:13:12.983038 27288 net.cpp:157] Top shape: 8 2048 7 7 (802816)
I0312 14:13:12.983042 27288 net.cpp:165] Memory required for data: 3715563552
I0312 14:13:12.983044 27288 layer_factory.hpp:77] Creating layer res5c_relu_p
I0312 14:13:12.983052 27288 net.cpp:100] Creating Layer res5c_relu_p
I0312 14:13:12.983054 27288 net.cpp:434] res5c_relu_p <- res5c_p
I0312 14:13:12.983059 27288 net.cpp:395] res5c_relu_p -> res5c_p (in-place)
I0312 14:13:12.983245 27288 net.cpp:150] Setting up res5c_relu_p
I0312 14:13:12.983255 27288 net.cpp:157] Top shape: 8 2048 7 7 (802816)
I0312 14:13:12.983258 27288 net.cpp:165] Memory required for data: 3718774816
I0312 14:13:12.983263 27288 layer_factory.hpp:77] Creating layer pool_p
I0312 14:13:12.983268 27288 net.cpp:100] Creating Layer pool_p
I0312 14:13:12.983273 27288 net.cpp:434] pool_p <- res5c_p
I0312 14:13:12.983278 27288 net.cpp:408] pool_p -> pool_p
I0312 14:13:12.983502 27288 net.cpp:150] Setting up pool_p
I0312 14:13:12.983511 27288 net.cpp:157] Top shape: 8 2048 1 1 (16384)
I0312 14:13:12.983515 27288 net.cpp:165] Memory required for data: 3718840352
I0312 14:13:12.983518 27288 layer_factory.hpp:77] Creating layer ip1_p
I0312 14:13:12.983526 27288 net.cpp:100] Creating Layer ip1_p
I0312 14:13:12.983530 27288 net.cpp:434] ip1_p <- pool_p
I0312 14:13:12.983537 27288 net.cpp:408] ip1_p -> ip1_p
I0312 14:13:12.990402 27288 net.cpp:150] Setting up ip1_p
I0312 14:13:12.990417 27288 net.cpp:157] Top shape: 8 512 (4096)
I0312 14:13:12.990419 27288 net.cpp:165] Memory required for data: 3718856736
I0312 14:13:12.990424 27288 net.cpp:493] Sharing parameters 'ip1_w' owned by layer 'ip1', param index 0
I0312 14:13:12.990429 27288 net.cpp:493] Sharing parameters 'ip1_b' owned by layer 'ip1', param index 1
I0312 14:13:12.990433 27288 layer_factory.hpp:77] Creating layer relu1_p
I0312 14:13:12.990439 27288 net.cpp:100] Creating Layer relu1_p
I0312 14:13:12.990442 27288 net.cpp:434] relu1_p <- ip1_p
I0312 14:13:12.990447 27288 net.cpp:395] relu1_p -> ip1_p (in-place)
I0312 14:13:12.990648 27288 net.cpp:150] Setting up relu1_p
I0312 14:13:12.990655 27288 net.cpp:157] Top shape: 8 512 (4096)
I0312 14:13:12.990658 27288 net.cpp:165] Memory required for data: 3718873120
I0312 14:13:12.990661 27288 layer_factory.hpp:77] Creating layer ip2_p
I0312 14:13:12.990669 27288 net.cpp:100] Creating Layer ip2_p
I0312 14:13:12.990672 27288 net.cpp:434] ip2_p <- ip1_p
I0312 14:13:12.990680 27288 net.cpp:408] ip2_p -> ip2_p
I0312 14:13:12.992187 27288 net.cpp:150] Setting up ip2_p
I0312 14:13:12.992194 27288 net.cpp:157] Top shape: 8 512 (4096)
I0312 14:13:12.992197 27288 net.cpp:165] Memory required for data: 3718889504
I0312 14:13:12.992202 27288 net.cpp:493] Sharing parameters 'ip2_w' owned by layer 'ip2', param index 0
I0312 14:13:12.992205 27288 net.cpp:493] Sharing parameters 'ip2_b' owned by layer 'ip2', param index 1
I0312 14:13:12.992209 27288 layer_factory.hpp:77] Creating layer feat_p
I0312 14:13:12.992215 27288 net.cpp:100] Creating Layer feat_p
I0312 14:13:12.992219 27288 net.cpp:434] feat_p <- ip2_p
I0312 14:13:12.992225 27288 net.cpp:408] feat_p -> feat_p
I0312 14:13:12.994776 27288 net.cpp:150] Setting up feat_p
I0312 14:13:12.994789 27288 net.cpp:157] Top shape: 8 512 (4096)
I0312 14:13:12.994792 27288 net.cpp:165] Memory required for data: 3718905888
I0312 14:13:12.994797 27288 net.cpp:493] Sharing parameters 'feat_w' owned by layer 'feat', param index 0
I0312 14:13:12.994801 27288 net.cpp:493] Sharing parameters 'feat_b' owned by layer 'feat', param index 1
I0312 14:13:12.994809 27288 layer_factory.hpp:77] Creating layer loss
I0312 14:13:12.994817 27288 net.cpp:100] Creating Layer loss
…
