…
I0309 19:22:41.159487  4658 upgrade_proto.cpp:77] Attempting to upgrade batch norm layers using deprecated params: ../merge_models/res50_train_multiprocess.prototxt
I0309 19:22:41.159508  4658 upgrade_proto.cpp:80] Successfully upgraded batch norm layers using deprecated params.
I0309 19:22:41.162024  4658 net.cpp:58] Initializing net from parameters: 
name: "ResNet-50"
state {
  phase: TRAIN
}
layer {
  name: "data"
  type: "MemoryData"
  top: "pairs"
  top: "label"
  memory_data_param {
    batch_size: 8
    channels: 6
    height: 224
    width: 224
  }
}
layer {
  name: "slice"
  type: "Slice"
  bottom: "pairs"
  top: "data"
  top: "data_p"
  slice_param {
    slice_point: 3
    axis: 1
  }
}
layer {
  name: "conv1"
  type: "Convolution"
  bottom: "data"
  top: "conv1"
  param {
    name: "conv1_w"
    lr_mult: 1
  }
  param {
    name: "conv1_b"
    lr_mult: 2
  }
  convolution_param {
    num_output: 64
    pad: 3
    kernel_size: 7
    stride: 2
  }
}
layer {
  name: "bn_conv1"
  type: "BatchNorm"
  bottom: "conv1"
  top: "conv1"
  batch_norm_param {
    use_global_stats: false
  }
}
layer {
  name: "scale_conv1"
  type: "Scale"
  bottom: "conv1"
  top: "conv1"
  param {
    name: "scale_conv1_alpha"
  }
  param {
    name: "scale_conv1_beta"
  }
  scale_param {
    bias_term: true
  }
}
layer {
  name: "conv1_relu"
  type: "ReLU"
  bottom: "conv1"
  top: "conv1"
}
layer {
  name: "pool1"
  type: "Pooling"
  bottom: "conv1"
  top: "pool1"
  pooling_param {
    pool: MAX
    kernel_size: 3
    stride: 2
  }
}
layer {
  name: "res2a_branch1"
  type: "Convolution"
  bottom: "pool1"
  top: "res2a_branch1"
  param {
    name: "res2a_branch1_w"
    lr_mult: 1
  }
  convolution_param {
    num_output: 256
    bias_term: false
    pad: 0
    kernel_size: 1
    stride: 1
  }
}
layer {
  name: "bn2a_branch1"
  type: "BatchNorm"
  bottom: "res2a_branch1"
  top: "res2a_branch1"
  batch_norm_param {
    use_global_stats: false
  }
}
layer {
  name: "scale2a_branch1"
  type: "Scale"
  bottom: "res2a_branch1"
  top: "res2a_branch1"
  param {
    name: "scale2a_branch1_alpha"
  }
  param {
    name: "scale2a_branch1_beta"
  }
  scale_param {
    bias_term: true
  }
}
layer {
  name: "res2a_branch2a"
  type: "Convolution"
  bottom: "pool1"
  top: "res2a_branch2a"
  param {
    name: "res2a_branch2a_w"
    lr_mult: 1
  }
  convolution_param {
    num_output: 64
    bias_term: false
    pad: 0
    kernel_size: 1
    stride: 1
  }
}
layer {
  name: "bn2a_branch2a"
  type: "BatchNorm"
  bottom: "res2a_branch2a"
  top: "res2a_branch2a"
  batch_norm_param {
    use_global_stats: false
  }
}
layer {
  name: "scale2a_branch2a"
  type: "Scale"
  bottom: "res2a_branch2a"
  top: "res2a_branch2a"
  param {
    name: "scale2a_branch2a_alpha"
  }
  param {
    name: "scale2a_branch2a_beta"
  }
  scale_param {
    bias_term: true
  }
}
layer {
  name: "res2a_branch2a_relu"
  type: "ReLU"
  bottom: "res2a_branch2a"
  top: "res2a_branch2a"
}
layer {
  name: "res2a_branch2b"
  type: "Convolution"
  bottom: "res2a_branch2a"
  top: "res2a_branch2b"
  param {
    name: "res2a_branch2b_w"
    lr_mult: 1
  }
  convolution_param {
    num_output: 64
    bias_term: false
    pad: 1
    kernel_size: 3
    stride: 1
  }
}
layer {
  name: "bn2a_branch2b"
  type: "BatchNorm"
  bottom: "res2a_branch2b"
  top: "res2a_branch2b"
  batch_norm_param {
    use_global_stats: false
  }
}
layer {
  name: "scale2a_branch2b"
  type: "Scale"
  bottom: "res2a_branch2b"
  top: "res2a_branch2b"
  param {
    name: "scale2a_branch2b_alpha"
  }
  param {
    name: "scale2a_branch2b_beta"
  }
  scale_param {
    bias_term: true
  }
}
layer {
  name: "res2a_branch2b_relu"
  type: "ReLU"
  bottom: "res2a_branch2b"
  top: "res2a_branch2b"
}
layer {
  name: "res2a_branch2c"
  type: "Convolution"
  bottom: "res2a_branch2b"
  top: "res2a_branch2c"
  param {
    name: "res2a_branch2c_w"
    lr_mult: 1
  }
  convolution_param {
    num_output: 256
    bias_term: false
    pad: 0
    kernel_size: 1
    stride: 1
  }
}
layer {
  name: "bn2a_branch2c"
  type: "BatchNorm"
  bottom: "res2a_branch2c"
  top: "res2a_branch2c"
  batch_norm_param {
    use_global_stats: false
  }
}
layer {
  name: "scale2a_branch2c"
  type: "Scale"
  bottom: "res2a_branch2c"
  top: "res2a_branch2c"
  param {
    name: "scale2a_branch2c_alpha"
  }
  param {
    name: "scale2a_branch2c_beta"
  }
  scale_param {
    bias_term: true
  }
}
layer {
  name: "res2a"
  type: "Eltwise"
  bottom: "res2a_branch1"
  bottom: "res2a_branch2c"
  top: "res2a"
}
layer {
  name: "res2a_relu"
  type: "ReLU"
  bottom: "res2a"
  top: "res2a"
}
layer {
  name: "res2b_branch2a"
  type: "Convolution"
  bottom: "res2a"
  top: "res2b_branch2a"
  param {
    name: "res2b_branch2a_w"
    lr_mult: 1
  }
  convolution_param {
    num_output: 64
    bias_term: false
    pad: 0
    kernel_size: 1
    stride: 1
  }
}
layer {
  name: "bn2b_branch2a"
  type: "BatchNorm"
  bottom: "res2b_branch2a"
  top: "res2b_branch2a"
  batch_norm_param {
    use_global_stats: false
  }
}
layer {
  name: "scale2b_branch2a"
  type: "Scale"
  bottom: "res2b_branch2a"
  top: "res2b_branch2a"
  param {
    name: "scale2b_branch2a_alpha"
  }
  param {
    name: "scale2b_branch2a_beta"
  }
  scale_param {
    bias_term: true
  }
}
layer {
  name: "res2b_branch2a_relu"
  type: "ReLU"
  bottom: "res2b_branch2a"
  top: "res2b_branch2a"
}
layer {
  name: "res2b_branch2b"
  type: "Convolution"
  bottom: "res2b_branch2a"
  top: "res2b_branch2b"
  param {
    name: "res2b_branch2b_w"
    lr_mult: 1
  }
  convolution_param {
    num_output: 64
    bias_term: false
    pad: 1
    kernel_size: 3
    stride: 1
  }
}
layer {
  name: "bn2b_branch2b"
  type: "BatchNorm"
  bottom: "res2b_branch2b"
  top: "res2b_branch2b"
  batch_norm_param {
    use_global_stats: false
  }
}
layer {
  name: "scale2b_branch2b"
  type: "Scale"
  bottom: "res2b_branch2b"
  top: "res2b_branch2b"
  param {
    name: "scale2b_branch2b_alpha"
  }
  param {
    name: "scale2b_branch2b_beta"
  }
  scale_param {
    bias_term: true
  }
}
layer {
  name: "res2b_branch2b_relu"
  type: "ReLU"
  bottom: "res2b_branch2b"
  top: "res2b_branch2b"
}
layer {
  name: "res2b_branch2c"
  type: "Convolution"
  bottom: "res2b_branch2b"
  top: "res2b_branch2c"
  param {
    name: "res2b_branch2c_w"
    lr_mult: 1
  }
  convolution_param {
    num_output: 256
    bias_term: false
    pad: 0
    kernel_size: 1
    stride: 1
  }
}
layer {
  name: "bn2b_branch2c"
  type: "BatchNorm"
  bottom: "res2b_branch2c"
  top: "res2b_branch2c"
  batch_norm_param {
    use_global_stats: false
  }
}
layer {
  name: "scale2b_branch2c"
  type: "Scale"
  bottom: "res2b_branch2c"
  top: "res2b_branch2c"
  param {
    name: "scale2b_branch2c_alpha"
  }
  param {
    name: "scale2b_branch2c_beta"
  }
  scale_param {
    bias_term: true
  }
}
layer {
  name: "res2b"
  type: "Eltwise"
  bottom: "res2a"
  bottom: "res2b_branch2c"
  top: "res2b"
}
layer {
  name: "res2b_relu"
  type: "ReLU"
  bottom: "res2b"
  top: "res2b"
}
layer {
  name: "res2c_branch2a"
  type: "Convolution"
  bottom: "res2b"
  top: "res2c_branch2a"
  param {
    name: "res2c_branch2a_w"
    lr_mult: 1
  }
  convolution_param {
    num_output: 64
    bias_term: false
    pad: 0
    kernel_size: 1
    stride: 1
  }
}
layer {
  name: "bn2c_branch2a"
  type: "BatchNorm"
  bottom: "res2c_branch2a"
  top: "res2c_branch2a"
  batch_norm_param {
    use_global_stats: false
  }
}
layer {
  name: "scale2c_branch2a"
  type: "Scale"
  bottom: "res2c_branch2a"
  top: "res2c_branch2a"
  param {
    name: "scale2c_branch2a_alpha"
  }
  param {
    name: "scale2c_branch2a_beta"
  }
  scale_param {
    bias_term: true
  }
}
layer {
  name: "res2c_branch2a_relu"
  type: "ReLU"
  bottom: "res2c_branch2a"
  top: "res2c_branch2a"
}
layer {
  name: "res2c_branch2b"
  type: "Convolution"
  bottom: "res2c_branch2a"
  top: "res2c_branch2b"
  param {
    name: "res2c_branch2b_w"
    lr_mult: 1
  }
  convolution_param {
    num_output: 64
    bias_term: false
    pad: 1
    kernel_size: 3
    stride: 1
  }
}
layer {
  name: "bn2c_branch2b"
  type: "BatchNorm"
  bottom: "res2c_branch2b"
  top: "res2c_branch2b"
  batch_norm_param {
    use_global_stats: false
  }
}
layer {
  name: "scale2c_branch2b"
  type: "Scale"
  bottom: "res2c_branch2b"
  top: "res2c_branch2b"
  param {
    name: "scale2c_branch2b_alpha"
  }
  param {
    name: "scale2c_branch2b_beta"
  }
  scale_param {
    bias_term: true
  }
}
layer {
  name: "res2c_branch2b_relu"
  type: "ReLU"
  bottom: "res2c_branch2b"
  top: "res2c_branch2b"
}
layer {
  name: "res2c_branch2c"
  type: "Convolution"
  bottom: "res2c_branch2b"
  top: "res2c_branch2c"
  param {
    name: "res2c_branch2c_w"
    lr_mult: 1
  }
  convolution_param {
    num_output: 256
    bias_term: false
    pad: 0
    kernel_size: 1
    stride: 1
  }
}
layer {
  name: "bn2c_branch2c"
  type: "BatchNorm"
  bottom: "res2c_branch2c"
  top: "res2c_branch2c"
  batch_norm_param {
    use_global_stats: false
  }
}
layer {
  name: "scale2c_branch2c"
  type: "Scale"
  bottom: "res2c_branch2c"
  top: "res2c_branch2c"
  param {
    name: "scale2c_branch2c_alpha"
  }
  param {
    name: "scale2c_branch2c_beta"
  }
  scale_param {
    bias_term: true
  }
}
layer {
  name: "res2c"
  type: "Eltwise"
  bottom: "res2b"
  bottom: "res2c_branch2c"
  top: "res2c"
}
layer {
  name: "res2c_relu"
  type: "ReLU"
  bottom: "res2c"
  top: "res2c"
}
layer {
  name: "res3a_branch1"
  type: "Convolution"
  bottom: "res2c"
  top: "res3a_branch1"
  param {
    name: "res3a_branch1_w"
    lr_mult: 1
  }
  convolution_param {
    num_output: 512
    bias_term: false
    pad: 0
    kernel_size: 1
    stride: 2
  }
}
layer {
  name: "bn3a_branch1"
  type: "BatchNorm"
  bottom: "res3a_branch1"
  top: "res3a_branch1"
  batch_norm_param {
    use_global_stats: false
  }
}
layer {
  name: "scale3a_branch1"
  type: "Scale"
  bottom: "res3a_branch1"
  top: "res3a_branch1"
  param {
    name: "scale3a_branch1_alpha"
  }
  param {
    name: "scale3a_branch1_beta"
  }
  scale_param {
    bias_term: true
  }
}
layer {
  name: "res3a_branch2a"
  type: "Convolution"
  bottom: "res2c"
  top: "res3a_branch2a"
  param {
    name: "res3a_branch2a_w"
    lr_mult: 1
  }
  convolution_param {
    num_output: 128
    bias_term: false
    pad: 0
    kernel_size: 1
    stride: 2
  }
}
layer {
  name: "bn3a_branch2a"
  type: "BatchNorm"
  bottom: "res3a_branch2a"
  top: "res3a_branch2a"
  batch_norm_param {
    use_global_stats: false
  }
}
layer {
  name: "scale3a_branch2a"
  type: "Scale"
  bottom: "res3a_branch2a"
  top: "res3a_branch2a"
  param {
    name: "scale3a_branch2a_alpha"
  }
  param {
    name: "scale3a_branch2a_beta"
  }
  scale_param {
    bias_term: true
  }
}
layer {
  name: "res3a_branch2a_relu"
  type: "ReLU"
  bottom: "res3a_branch2a"
  top: "res3a_branch2a"
}
layer {
  name: "res3a_branch2b"
  type: "Convolution"
  bottom: "res3a_branch2a"
  top: "res3a_branch2b"
  param {
    name: "res3a_branch2b_w"
    lr_mult: 1
  }
  convolution_param {
    num_output: 128
    bias_term: false
    pad: 1
    kernel_size: 3
    stride: 1
  }
}
layer {
  name: "bn3a_branch2b"
  type: "BatchNorm"
  bottom: "res3a_branch2b"
  top: "res3a_branch2b"
  batch_norm_param {
    use_global_stats: false
  }
}
layer {
  name: "scale3a_branch2b"
  type: "Scale"
  bottom: "res3a_branch2b"
  top: "res3a_branch2b"
  param {
    name: "scale3a_branch2b_alpha"
  }
  param {
    name: "scale3a_branch2b_beta"
  }
  scale_param {
    bias_term: true
  }
}
layer {
  name: "res3a_branch2b_relu"
  type: "ReLU"
  bottom: "res3a_branch2b"
  top: "res3a_branch2b"
}
layer {
  name: "res3a_branch2c"
  type: "Convolution"
  bottom: "res3a_branch2b"
  top: "res3a_branch2c"
  param {
    name: "res3a_branch2c_w"
    lr_mult: 1
  }
  convolution_param {
    num_output: 512
    bias_term: false
    pad: 0
    kernel_size: 1
    stride: 1
  }
}
layer {
  name: "bn3a_branch2c"
  type: "BatchNorm"
  bottom: "res3a_branch2c"
  top: "res3a_branch2c"
  batch_norm_param {
    use_global_stats: false
  }
}
layer {
  name: "scale3a_branch2c"
  type: "Scale"
  bottom: "res3a_branch2c"
  top: "res3a_branch2c"
  param {
    name: "scale3a_branch2c_alpha"
  }
  param {
    name: "scale3a_branch2c_beta"
  }
  scale_param {
    bias_term: true
  }
}
layer {
  name: "res3a"
  type: "Eltwise"
  bottom: "res3a_branch1"
  bottom: "res3a_branch2c"
  top: "res3a"
}
layer {
  name: "res3a_relu"
  type: "ReLU"
  bottom: "res3a"
  top: "res3a"
}
layer {
  name: "res3b_branch2a"
  type: "Convolution"
  bottom: "res3a"
  top: "res3b_branch2a"
  param {
    name: "res3b_branch2a_w"
    lr_mult: 1
  }
  convolution_param {
    num_output: 128
    bias_term: false
    pad: 0
    kernel_size: 1
    stride: 1
  }
}
layer {
  name: "bn3b_branch2a"
  type: "BatchNorm"
  bottom: "res3b_branch2a"
  top: "res3b_branch2a"
  batch_norm_param {
    use_global_stats: false
  }
}
layer {
  name: "scale3b_branch2a"
  type: "Scale"
  bottom: "res3b_branch2a"
  top: "res3b_branch2a"
  param {
    name: "scale3b_branch2a_alpha"
  }
  param {
    name: "scale3b_branch2a_beta"
  }
  scale_param {
    bias_term: true
  }
}
layer {
  name: "res3b_branch2a_relu"
  type: "ReLU"
  bottom: "res3b_branch2a"
  top: "res3b_branch2a"
}
layer {
  name: "res3b_branch2b"
  type: "Convolution"
  bottom: "res3b_branch2a"
  top: "res3b_branch2b"
  param {
    name: "res3b_branch2b_w"
    lr_mult: 1
  }
  convolution_param {
    num_output: 128
    bias_term: false
    pad: 1
    kernel_size: 3
    stride: 1
  }
}
layer {
  name: "bn3b_branch2b"
  type: "BatchNorm"
  bottom: "res3b_branch2b"
  top: "res3b_branch2b"
  batch_norm_param {
    use_global_stats: false
  }
}
layer {
  name: "scale3b_branch2b"
  type: "Scale"
  bottom: "res3b_branch2b"
  top: "res3b_branch2b"
  param {
    name: "scale3b_branch2b_alpha"
  }
  param {
    name: "scale3b_branch2b_beta"
  }
  scale_param {
    bias_term: true
  }
}
layer {
  name: "res3b_branch2b_relu"
  type: "ReLU"
  bottom: "res3b_branch2b"
  top: "res3b_branch2b"
}
layer {
  name: "res3b_branch2c"
  type: "Convolution"
  bottom: "res3b_branch2b"
  top: "res3b_branch2c"
  param {
    name: "res3b_branch2c_w"
    lr_mult: 1
  }
  convolution_param {
    num_output: 512
    bias_term: false
    pad: 0
    kernel_size: 1
    stride: 1
  }
}
layer {
  name: "bn3b_branch2c"
  type: "BatchNorm"
  bottom: "res3b_branch2c"
  top: "res3b_branch2c"
  batch_norm_param {
    use_global_stats: false
  }
}
layer {
  name: "scale3b_branch2c"
  type: "Scale"
  bottom: "res3b_branch2c"
  top: "res3b_branch2c"
  param {
    name: "scale3b_branch2c_alpha"
  }
  param {
    name: "scale3b_branch2c_beta"
  }
  scale_param {
    bias_term: true
  }
}
layer {
  name: "res3b"
  type: "Eltwise"
  bottom: "res3a"
  bottom: "res3b_branch2c"
  top: "res3b"
}
layer {
  name: "res3b_relu"
  type: "ReLU"
  bottom: "res3b"
  top: "res3b"
}
layer {
  name: "res3c_branch2a"
  type: "Convolution"
  bottom: "res3b"
  top: "res3c_branch2a"
  param {
    name: "res3c_branch2a_w"
    lr_mult: 1
  }
  convolution_param {
    num_output: 128
    bias_term: false
    pad: 0
    kernel_size: 1
    stride: 1
  }
}
layer {
  name: "bn3c_branch2a"
  type: "BatchNorm"
  bottom: "res3c_branch2a"
  top: "res3c_branch2a"
  batch_norm_param {
    use_global_stats: false
  }
}
layer {
  name: "scale3c_branch2a"
  type: "Scale"
  bottom: "res3c_branch2a"
  top: "res3c_branch2a"
  param {
    name: "scale3c_branch2a_alpha"
  }
  param {
    name: "scale3c_branch2a_beta"
  }
  scale_param {
    bias_term: true
  }
}
layer {
  name: "res3c_branch2a_relu"
  type: "ReLU"
  bottom: "res3c_branch2a"
  top: "res3c_branch2a"
}
layer {
  name: "res3c_branch2b"
  type: "Convolution"
  bottom: "res3c_branch2a"
  top: "res3c_branch2b"
  param {
    name: "res3c_branch2b_w"
    lr_mult: 1
  }
  convolution_param {
    num_output: 128
    bias_term: false
    pad: 1
    kernel_size: 3
    stride: 1
  }
}
layer {
  name: "bn3c_branch2b"
  type: "BatchNorm"
  bottom: "res3c_branch2b"
  top: "res3c_branch2b"
  batch_norm_param {
    use_global_stats: false
  }
}
layer {
  name: "scale3c_branch2b"
  type: "Scale"
  bottom: "res3c_branch2b"
  top: "res3c_branch2b"
  param {
    name: "scale3c_branch2b_alpha"
  }
  param {
    name: "scale3c_branch2b_beta"
  }
  scale_param {
    bias_term: true
  }
}
layer {
  name: "res3c_branch2b_relu"
  type: "ReLU"
  bottom: "res3c_branch2b"
  top: "res3c_branch2b"
}
layer {
  name: "res3c_branch2c"
  type: "Convolution"
  bottom: "res3c_branch2b"
  top: "res3c_branch2c"
  param {
    name: "res3c_branch2c_w"
    lr_mult: 1
  }
  convolution_param {
    num_output: 512
    bias_term: false
    pad: 0
    kernel_size: 1
    stride: 1
  }
}
layer {
  name: "bn3c_branch2c"
  type: "BatchNorm"
  bottom: "res3c_branch2c"
  top: "res3c_branch2c"
  batch_norm_param {
    use_global_stats: false
  }
}
layer {
  name: "scale3c_branch2c"
  type: "Scale"
  bottom: "res3c_branch2c"
  top: "res3c_branch2c"
  param {
    name: "scale3c_branch2c_alpha"
  }
  param {
    name: "scale3c_branch2c_beta"
  }
  scale_param {
    bias_term: true
  }
}
layer {
  name: "res3c"
  type: "Eltwise"
  bottom: "res3b"
  bottom: "res3c_branch2c"
  top: "res3c"
}
layer {
  name: "res3c_relu"
  type: "ReLU"
  bottom: "res3c"
  top: "res3c"
}
layer {
  name: "res3d_branch2a"
  type: "Convolution"
  bottom: "res3c"
  top: "res3d_branch2a"
  param {
    name: "res3d_branch2a_w"
    lr_mult: 1
  }
  convolution_param {
    num_output: 128
    bias_term: false
    pad: 0
    kernel_size: 1
    stride: 1
  }
}
layer {
  name: "bn3d_branch2a"
  type: "BatchNorm"
  bottom: "res3d_branch2a"
  top: "res3d_branch2a"
  batch_norm_param {
    use_global_stats: false
  }
}
layer {
  name: "scale3d_branch2a"
  type: "Scale"
  bottom: "res3d_branch2a"
  top: "res3d_branch2a"
  param {
    name: "scale3d_branch2a_alpha"
  }
  param {
    name: "scale3d_branch2a_beta"
  }
  scale_param {
    bias_term: true
  }
}
layer {
  name: "res3d_branch2a_relu"
  type: "ReLU"
  bottom: "res3d_branch2a"
  top: "res3d_branch2a"
}
layer {
  name: "res3d_branch2b"
  type: "Convolution"
  bottom: "res3d_branch2a"
  top: "res3d_branch2b"
  param {
    name: "res3d_branch2b_w"
    lr_mult: 1
  }
  convolution_param {
    num_output: 128
    bias_term: false
    pad: 1
    kernel_size: 3
    stride: 1
  }
}
layer {
  name: "bn3d_branch2b"
  type: "BatchNorm"
  bottom: "res3d_branch2b"
  top: "res3d_branch2b"
  batch_norm_param {
    use_global_stats: false
  }
}
layer {
  name: "scale3d_branch2b"
  type: "Scale"
  bottom: "res3d_branch2b"
  top: "res3d_branch2b"
  param {
    name: "scale3d_branch2b_alpha"
  }
  param {
    name: "scale3d_branch2b_beta"
  }
  scale_param {
    bias_term: true
  }
}
layer {
  name: "res3d_branch2b_relu"
  type: "ReLU"
  bottom: "res3d_branch2b"
  top: "res3d_branch2b"
}
layer {
  name: "res3d_branch2c"
  type: "Convolution"
  bottom: "res3d_branch2b"
  top: "res3d_branch2c"
  param {
    name: "res3d_branch2c_w"
    lr_mult: 1
  }
  convolution_param {
    num_output: 512
    bias_term: false
    pad: 0
    kernel_size: 1
    stride: 1
  }
}
layer {
  name: "bn3d_branch2c"
  type: "BatchNorm"
  bottom: "res3d_branch2c"
  top: "res3d_branch2c"
  batch_norm_param {
    use_global_stats: false
  }
}
layer {
  name: "scale3d_branch2c"
  type: "Scale"
  bottom: "res3d_branch2c"
  top: "res3d_branch2c"
  param {
    name: "scale3d_branch2c_alpha"
  }
  param {
    name: "scale3d_branch2c_beta"
  }
  scale_param {
    bias_term: true
  }
}
layer {
  name: "res3d"
  type: "Eltwise"
  bottom: "res3c"
  bottom: "res3d_branch2c"
  top: "res3d"
}
layer {
  name: "res3d_relu"
  type: "ReLU"
  bottom: "res3d"
  top: "res3d"
}
layer {
  name: "res4a_branch1"
  type: "Convolution"
  bottom: "res3d"
  top: "res4a_branch1"
  param {
    name: "res4a_branch1_w"
    lr_mult: 1
  }
  convolution_param {
    num_output: 1024
    bias_term: false
    pad: 0
    kernel_size: 1
    stride: 2
  }
}
layer {
  name: "bn4a_branch1"
  type: "BatchNorm"
  bottom: "res4a_branch1"
  top: "res4a_branch1"
  batch_norm_param {
    use_global_stats: false
  }
}
layer {
  name: "scale4a_branch1"
  type: "Scale"
  bottom: "res4a_branch1"
  top: "res4a_branch1"
  param {
    name: "scale4a_branch1_alpha"
  }
  param {
    name: "scale4a_branch1_beta"
  }
  scale_param {
    bias_term: true
  }
}
layer {
  name: "res4a_branch2a"
  type: "Convolution"
  bottom: "res3d"
  top: "res4a_branch2a"
  param {
    name: "res4a_branch2a_w"
    lr_mult: 1
  }
  convolution_param {
    num_output: 256
    bias_term: false
    pad: 0
    kernel_size: 1
    stride: 2
  }
}
layer {
  name: "bn4a_branch2a"
  type: "BatchNorm"
  bottom: "res4a_branch2a"
  top: "res4a_branch2a"
  batch_norm_param {
    use_global_stats: false
  }
}
layer {
  name: "scale4a_branch2a"
  type: "Scale"
  bottom: "res4a_branch2a"
  top: "res4a_branch2a"
  param {
    name: "scale4a_branch2a_alpha"
  }
  param {
    name: "scale4a_branch2a_beta"
  }
  scale_param {
    bias_term: true
  }
}
layer {
  name: "res4a_branch2a_relu"
  type: "ReLU"
  bottom: "res4a_branch2a"
  top: "res4a_branch2a"
}
layer {
  name: "res4a_branch2b"
  type: "Convolution"
  bottom: "res4a_branch2a"
  top: "res4a_branch2b"
  param {
    name: "res4a_branch2b_w"
    lr_mult: 1
  }
  convolution_param {
    num_output: 256
    bias_term: false
    pad: 1
    kernel_size: 3
    stride: 1
  }
}
layer {
  name: "bn4a_branch2b"
  type: "BatchNorm"
  bottom: "res4a_branch2b"
  top: "res4a_branch2b"
  batch_norm_param {
    use_global_stats: false
  }
}
layer {
  name: "scale4a_branch2b"
  type: "Scale"
  bottom: "res4a_branch2b"
  top: "res4a_branch2b"
  param {
    name: "scale4a_branch2b_alpha"
  }
  param {
    name: "scale4a_branch2b_beta"
  }
  scale_param {
    bias_term: true
  }
}
layer {
  name: "res4a_branch2b_relu"
  type: "ReLU"
  bottom: "res4a_branch2b"
  top: "res4a_branch2b"
}
layer {
  name: "res4a_branch2c"
  type: "Convolution"
  bottom: "res4a_branch2b"
  top: "res4a_branch2c"
  param {
    name: "res4a_branch2c_w"
    lr_mult: 1
  }
  convolution_param {
    num_output: 1024
    bias_term: false
    pad: 0
    kernel_size: 1
    stride: 1
  }
}
layer {
  name: "bn4a_branch2c"
  type: "BatchNorm"
  bottom: "res4a_branch2c"
  top: "res4a_branch2c"
  batch_norm_param {
    use_global_stats: false
  }
}
layer {
  name: "scale4a_branch2c"
  type: "Scale"
  bottom: "res4a_branch2c"
  top: "res4a_branch2c"
  param {
    name: "scale4a_branch2c_alpha"
  }
  param {
    name: "scale4a_branch2c_beta"
  }
  scale_param {
    bias_term: true
  }
}
layer {
  name: "res4a"
  type: "Eltwise"
  bottom: "res4a_branch1"
  bottom: "res4a_branch2c"
  top: "res4a"
}
layer {
  name: "res4a_relu"
  type: "ReLU"
  bottom: "res4a"
  top: "res4a"
}
layer {
  name: "res4b_branch2a"
  type: "Convolution"
  bottom: "res4a"
  top: "res4b_branch2a"
  param {
    name: "res4b_branch2a_w"
    lr_mult: 1
  }
  convolution_param {
    num_output: 256
    bias_term: false
    pad: 0
    kernel_size: 1
    stride: 1
  }
}
layer {
  name: "bn4b_branch2a"
  type: "BatchNorm"
  bottom: "res4b_branch2a"
  top: "res4b_branch2a"
  batch_norm_param {
    use_global_stats: false
  }
}
layer {
  name: "scale4b_branch2a"
  type: "Scale"
  bottom: "res4b_branch2a"
  top: "res4b_branch2a"
  param {
    name: "scale4b_branch2a_alpha"
  }
  param {
    name: "scale4b_branch2a_beta"
  }
  scale_param {
    bias_term: true
  }
}
layer {
  name: "res4b_branch2a_relu"
  type: "ReLU"
  bottom: "res4b_branch2a"
  top: "res4b_branch2a"
}
layer {
  name: "res4b_branch2b"
  type: "Convolution"
  bottom: "res4b_branch2a"
  top: "res4b_branch2b"
  param {
    name: "res4b_branch2b_w"
    lr_mult: 1
  }
  convolution_param {
    num_output: 256
    bias_term: false
    pad: 1
    kernel_size: 3
    stride: 1
  }
}
layer {
  name: "bn4b_branch2b"
  type: "BatchNorm"
  bottom: "res4b_branch2b"
  top: "res4b_branch2b"
  batch_norm_param {
    use_global_stats: false
  }
}
layer {
  name: "scale4b_branch2b"
  type: "Scale"
  bottom: "res4b_branch2b"
  top: "res4b_branch2b"
  param {
    name: "scale4b_branch2b_alpha"
  }
  param {
    name: "scale4b_branch2b_beta"
  }
  scale_param {
    bias_term: true
  }
}
layer {
  name: "res4b_branch2b_relu"
  type: "ReLU"
  bottom: "res4b_branch2b"
  top: "res4b_branch2b"
}
layer {
  name: "res4b_branch2c"
  type: "Convolution"
  bottom: "res4b_branch2b"
  top: "res4b_branch2c"
  param {
    name: "res4b_branch2c_w"
    lr_mult: 1
  }
  convolution_param {
    num_output: 1024
    bias_term: false
    pad: 0
    kernel_size: 1
    stride: 1
  }
}
layer {
  name: "bn4b_branch2c"
  type: "BatchNorm"
  bottom: "res4b_branch2c"
  top: "res4b_branch2c"
  batch_norm_param {
    use_global_stats: false
  }
}
layer {
  name: "scale4b_branch2c"
  type: "Scale"
  bottom: "res4b_branch2c"
  top: "res4b_branch2c"
  param {
    name: "scale4b_branch2c_alpha"
  }
  param {
    name: "scale4b_branch2c_beta"
  }
  scale_param {
    bias_term: true
  }
}
layer {
  name: "res4b"
  type: "Eltwise"
  bottom: "res4a"
  bottom: "res4b_branch2c"
  top: "res4b"
}
layer {
  name: "res4b_relu"
  type: "ReLU"
  bottom: "res4b"
  top: "res4b"
}
layer {
  name: "res4c_branch2a"
  type: "Convolution"
  bottom: "res4b"
  top: "res4c_branch2a"
  param {
    name: "res4c_branch2a_w"
    lr_mult: 1
  }
  convolution_param {
    num_output: 256
    bias_term: false
    pad: 0
    kernel_size: 1
    stride: 1
  }
}
layer {
  name: "bn4c_branch2a"
  type: "BatchNorm"
  bottom: "res4c_branch2a"
  top: "res4c_branch2a"
  batch_norm_param {
    use_global_stats: false
  }
}
layer {
  name: "scale4c_branch2a"
  type: "Scale"
  bottom: "res4c_branch2a"
  top: "res4c_branch2a"
  param {
    name: "scale4c_branch2a_alpha"
  }
  param {
    name: "scale4c_branch2a_beta"
  }
  scale_param {
    bias_term: true
  }
}
layer {
  name: "res4c_branch2a_relu"
  type: "ReLU"
  bottom: "res4c_branch2a"
  top: "res4c_branch2a"
}
layer {
  name: "res4c_branch2b"
  type: "Convolution"
  bottom: "res4c_branch2a"
  top: "res4c_branch2b"
  param {
    name: "res4c_branch2b_w"
    lr_mult: 1
  }
  convolution_param {
    num_output: 256
    bias_term: false
    pad: 1
    kernel_size: 3
    stride: 1
  }
}
layer {
  name: "bn4c_branch2b"
  type: "BatchNorm"
  bottom: "res4c_branch2b"
  top: "res4c_branch2b"
  batch_norm_param {
    use_global_stats: false
  }
}
layer {
  name: "scale4c_branch2b"
  type: "Scale"
  bottom: "res4c_branch2b"
  top: "res4c_branch2b"
  param {
    name: "scale4c_branch2b_alpha"
  }
  param {
    name: "scale4c_branch2b_beta"
  }
  scale_param {
    bias_term: true
  }
}
layer {
  name: "res4c_branch2b_relu"
  type: "ReLU"
  bottom: "res4c_branch2b"
  top: "res4c_branch2b"
}
layer {
  name: "res4c_branch2c"
  type: "Convolution"
  bottom: "res4c_branch2b"
  top: "res4c_branch2c"
  param {
    name: "res4c_branch2c_w"
    lr_mult: 1
  }
  convolution_param {
    num_output: 1024
    bias_term: false
    pad: 0
    kernel_size: 1
    stride: 1
  }
}
layer {
  name: "bn4c_branch2c"
  type: "BatchNorm"
  bottom: "res4c_branch2c"
  top: "res4c_branch2c"
  batch_norm_param {
    use_global_stats: false
  }
}
layer {
  name: "scale4c_branch2c"
  type: "Scale"
  bottom: "res4c_branch2c"
  top: "res4c_branch2c"
  param {
    name: "scale4c_branch2c_alpha"
  }
  param {
    name: "scale4c_branch2c_beta"
  }
  scale_param {
    bias_term: true
  }
}
layer {
  name: "res4c"
  type: "Eltwise"
  bottom: "res4b"
  bottom: "res4c_branch2c"
  top: "res4c"
}
layer {
  name: "res4c_relu"
  type: "ReLU"
  bottom: "res4c"
  top: "res4c"
}
layer {
  name: "res4d_branch2a"
  type: "Convolution"
  bottom: "res4c"
  top: "res4d_branch2a"
  param {
    name: "res4d_branch2a_w"
    lr_mult: 1
  }
  convolution_param {
    num_output: 256
    bias_term: false
    pad: 0
    kernel_size: 1
    stride: 1
  }
}
layer {
  name: "bn4d_branch2a"
  type: "BatchNorm"
  bottom: "res4d_branch2a"
  top: "res4d_branch2a"
  batch_norm_param {
    use_global_stats: false
  }
}
layer {
  name: "scale4d_branch2a"
  type: "Scale"
  bottom: "res4d_branch2a"
  top: "res4d_branch2a"
  param {
    name: "scale4d_branch2a_alpha"
  }
  param {
    name: "scale4d_branch2a_beta"
  }
  scale_param {
    bias_term: true
  }
}
layer {
  name: "res4d_branch2a_relu"
  type: "ReLU"
  bottom: "res4d_branch2a"
  top: "res4d_branch2a"
}
layer {
  name: "res4d_branch2b"
  type: "Convolution"
  bottom: "res4d_branch2a"
  top: "res4d_branch2b"
  param {
    name: "res4d_branch2b_w"
    lr_mult: 1
  }
  convolution_param {
    num_output: 256
    bias_term: false
    pad: 1
    kernel_size: 3
    stride: 1
  }
}
layer {
  name: "bn4d_branch2b"
  type: "BatchNorm"
  bottom: "res4d_branch2b"
  top: "res4d_branch2b"
  batch_norm_param {
    use_global_stats: false
  }
}
layer {
  name: "scale4d_branch2b"
  type: "Scale"
  bottom: "res4d_branch2b"
  top: "res4d_branch2b"
  param {
    name: "scale4d_branch2b_alpha"
  }
  param {
    name: "scale4d_branch2b_beta"
  }
  scale_param {
    bias_term: true
  }
}
layer {
  name: "res4d_branch2b_relu"
  type: "ReLU"
  bottom: "res4d_branch2b"
  top: "res4d_branch2b"
}
layer {
  name: "res4d_branch2c"
  type: "Convolution"
  bottom: "res4d_branch2b"
  top: "res4d_branch2c"
  param {
    name: "res4d_branch2c_w"
    lr_mult: 1
  }
  convolution_param {
    num_output: 1024
    bias_term: false
    pad: 0
    kernel_size: 1
    stride: 1
  }
}
layer {
  name: "bn4d_branch2c"
  type: "BatchNorm"
  bottom: "res4d_branch2c"
  top: "res4d_branch2c"
  batch_norm_param {
    use_global_stats: false
  }
}
layer {
  name: "scale4d_branch2c"
  type: "Scale"
  bottom: "res4d_branch2c"
  top: "res4d_branch2c"
  param {
    name: "scale4d_branch2c_alpha"
  }
  param {
    name: "scale4d_branch2c_beta"
  }
  scale_param {
    bias_term: true
  }
}
layer {
  name: "res4d"
  type: "Eltwise"
  bottom: "res4c"
  bottom: "res4d_branch2c"
  top: "res4d"
}
layer {
  name: "res4d_relu"
  type: "ReLU"
  bottom: "res4d"
  top: "res4d"
}
layer {
  name: "res4e_branch2a"
  type: "Convolution"
  bottom: "res4d"
  top: "res4e_branch2a"
  param {
    name: "res4e_branch2a_w"
    lr_mult: 1
  }
  convolution_param {
    num_output:
I0309 19:22:41.163518  4658 layer_factory.hpp:77] Creating layer data
I0309 19:22:41.163542  4658 net.cpp:100] Creating Layer data
I0309 19:22:41.163552  4658 net.cpp:408] data -> pairs
I0309 19:22:41.163560  4658 net.cpp:408] data -> label
I0309 19:22:41.183262  4658 net.cpp:150] Setting up data
I0309 19:22:41.183293  4658 net.cpp:157] Top shape: 8 6 224 224 (2408448)
I0309 19:22:41.183298  4658 net.cpp:157] Top shape: 8 (8)
I0309 19:22:41.183301  4658 net.cpp:165] Memory required for data: 9633824
I0309 19:22:41.183308  4658 layer_factory.hpp:77] Creating layer slice
I0309 19:22:41.183326  4658 net.cpp:100] Creating Layer slice
I0309 19:22:41.183329  4658 net.cpp:434] slice <- pairs
I0309 19:22:41.183336  4658 net.cpp:408] slice -> data
I0309 19:22:41.183348  4658 net.cpp:408] slice -> data_p
I0309 19:22:41.183403  4658 net.cpp:150] Setting up slice
I0309 19:22:41.183410  4658 net.cpp:157] Top shape: 8 3 224 224 (1204224)
I0309 19:22:41.183414  4658 net.cpp:157] Top shape: 8 3 224 224 (1204224)
I0309 19:22:41.183418  4658 net.cpp:165] Memory required for data: 19267616
I0309 19:22:41.183421  4658 layer_factory.hpp:77] Creating layer conv1
I0309 19:22:41.183431  4658 net.cpp:100] Creating Layer conv1
I0309 19:22:41.183435  4658 net.cpp:434] conv1 <- data
I0309 19:22:41.183442  4658 net.cpp:408] conv1 -> conv1
I0309 19:22:41.593565  4658 net.cpp:150] Setting up conv1
I0309 19:22:41.593598  4658 net.cpp:157] Top shape: 8 64 112 112 (6422528)
I0309 19:22:41.593602  4658 net.cpp:165] Memory required for data: 44957728
I0309 19:22:41.593617  4658 layer_factory.hpp:77] Creating layer bn_conv1
I0309 19:22:41.593631  4658 net.cpp:100] Creating Layer bn_conv1
I0309 19:22:41.593636  4658 net.cpp:434] bn_conv1 <- conv1
I0309 19:22:41.593650  4658 net.cpp:395] bn_conv1 -> conv1 (in-place)
I0309 19:22:41.593921  4658 net.cpp:150] Setting up bn_conv1
I0309 19:22:41.593930  4658 net.cpp:157] Top shape: 8 64 112 112 (6422528)
I0309 19:22:41.593932  4658 net.cpp:165] Memory required for data: 70647840
I0309 19:22:41.593945  4658 layer_factory.hpp:77] Creating layer scale_conv1
I0309 19:22:41.593953  4658 net.cpp:100] Creating Layer scale_conv1
I0309 19:22:41.593957  4658 net.cpp:434] scale_conv1 <- conv1
I0309 19:22:41.593962  4658 net.cpp:395] scale_conv1 -> conv1 (in-place)
I0309 19:22:41.594012  4658 layer_factory.hpp:77] Creating layer scale_conv1
I0309 19:22:41.594171  4658 net.cpp:150] Setting up scale_conv1
I0309 19:22:41.594177  4658 net.cpp:157] Top shape: 8 64 112 112 (6422528)
I0309 19:22:41.594182  4658 net.cpp:165] Memory required for data: 96337952
I0309 19:22:41.594187  4658 layer_factory.hpp:77] Creating layer conv1_relu
I0309 19:22:41.594193  4658 net.cpp:100] Creating Layer conv1_relu
I0309 19:22:41.594197  4658 net.cpp:434] conv1_relu <- conv1
I0309 19:22:41.594202  4658 net.cpp:395] conv1_relu -> conv1 (in-place)
I0309 19:22:41.594355  4658 net.cpp:150] Setting up conv1_relu
I0309 19:22:41.594365  4658 net.cpp:157] Top shape: 8 64 112 112 (6422528)
I0309 19:22:41.594368  4658 net.cpp:165] Memory required for data: 122028064
I0309 19:22:41.594372  4658 layer_factory.hpp:77] Creating layer pool1
I0309 19:22:41.594378  4658 net.cpp:100] Creating Layer pool1
I0309 19:22:41.594383  4658 net.cpp:434] pool1 <- conv1
I0309 19:22:41.594388  4658 net.cpp:408] pool1 -> pool1
I0309 19:22:41.594446  4658 net.cpp:150] Setting up pool1
I0309 19:22:41.594454  4658 net.cpp:157] Top shape: 8 64 56 56 (1605632)
I0309 19:22:41.594456  4658 net.cpp:165] Memory required for data: 128450592
I0309 19:22:41.594460  4658 layer_factory.hpp:77] Creating layer pool1_pool1_0_split
I0309 19:22:41.594466  4658 net.cpp:100] Creating Layer pool1_pool1_0_split
I0309 19:22:41.594470  4658 net.cpp:434] pool1_pool1_0_split <- pool1
I0309 19:22:41.594475  4658 net.cpp:408] pool1_pool1_0_split -> pool1_pool1_0_split_0
I0309 19:22:41.594480  4658 net.cpp:408] pool1_pool1_0_split -> pool1_pool1_0_split_1
I0309 19:22:41.594525  4658 net.cpp:150] Setting up pool1_pool1_0_split
I0309 19:22:41.594532  4658 net.cpp:157] Top shape: 8 64 56 56 (1605632)
I0309 19:22:41.594537  4658 net.cpp:157] Top shape: 8 64 56 56 (1605632)
I0309 19:22:41.594539  4658 net.cpp:165] Memory required for data: 141295648
I0309 19:22:41.594542  4658 layer_factory.hpp:77] Creating layer res2a_branch1
I0309 19:22:41.594552  4658 net.cpp:100] Creating Layer res2a_branch1
I0309 19:22:41.594557  4658 net.cpp:434] res2a_branch1 <- pool1_pool1_0_split_0
I0309 19:22:41.594561  4658 net.cpp:408] res2a_branch1 -> res2a_branch1
I0309 19:22:41.595598  4658 net.cpp:150] Setting up res2a_branch1
I0309 19:22:41.595613  4658 net.cpp:157] Top shape: 8 256 56 56 (6422528)
I0309 19:22:41.595616  4658 net.cpp:165] Memory required for data: 166985760
I0309 19:22:41.595623  4658 layer_factory.hpp:77] Creating layer bn2a_branch1
I0309 19:22:41.595629  4658 net.cpp:100] Creating Layer bn2a_branch1
I0309 19:22:41.595633  4658 net.cpp:434] bn2a_branch1 <- res2a_branch1
I0309 19:22:41.595638  4658 net.cpp:395] bn2a_branch1 -> res2a_branch1 (in-place)
I0309 19:22:41.596962  4658 net.cpp:150] Setting up bn2a_branch1
I0309 19:22:41.596982  4658 net.cpp:157] Top shape: 8 256 56 56 (6422528)
I0309 19:22:41.596989  4658 net.cpp:165] Memory required for data: 192675872
I0309 19:22:41.597005  4658 layer_factory.hpp:77] Creating layer scale2a_branch1
I0309 19:22:41.597015  4658 net.cpp:100] Creating Layer scale2a_branch1
I0309 19:22:41.597019  4658 net.cpp:434] scale2a_branch1 <- res2a_branch1
I0309 19:22:41.597025  4658 net.cpp:395] scale2a_branch1 -> res2a_branch1 (in-place)
I0309 19:22:41.597081  4658 layer_factory.hpp:77] Creating layer scale2a_branch1
I0309 19:22:41.597234  4658 net.cpp:150] Setting up scale2a_branch1
I0309 19:22:41.597242  4658 net.cpp:157] Top shape: 8 256 56 56 (6422528)
I0309 19:22:41.597245  4658 net.cpp:165] Memory required for data: 218365984
I0309 19:22:41.597259  4658 layer_factory.hpp:77] Creating layer res2a_branch2a
I0309 19:22:41.597282  4658 net.cpp:100] Creating Layer res2a_branch2a
I0309 19:22:41.597301  4658 net.cpp:434] res2a_branch2a <- pool1_pool1_0_split_1
I0309 19:22:41.597307  4658 net.cpp:408] res2a_branch2a -> res2a_branch2a
I0309 19:22:41.598377  4658 net.cpp:150] Setting up res2a_branch2a
I0309 19:22:41.598392  4658 net.cpp:157] Top shape: 8 64 56 56 (1605632)
I0309 19:22:41.598395  4658 net.cpp:165] Memory required for data: 224788512
I0309 19:22:41.598402  4658 layer_factory.hpp:77] Creating layer bn2a_branch2a
I0309 19:22:41.598408  4658 net.cpp:100] Creating Layer bn2a_branch2a
I0309 19:22:41.598412  4658 net.cpp:434] bn2a_branch2a <- res2a_branch2a
I0309 19:22:41.598417  4658 net.cpp:395] bn2a_branch2a -> res2a_branch2a (in-place)
I0309 19:22:41.598670  4658 net.cpp:150] Setting up bn2a_branch2a
I0309 19:22:41.598678  4658 net.cpp:157] Top shape: 8 64 56 56 (1605632)
I0309 19:22:41.598681  4658 net.cpp:165] Memory required for data: 231211040
I0309 19:22:41.598692  4658 layer_factory.hpp:77] Creating layer scale2a_branch2a
I0309 19:22:41.598700  4658 net.cpp:100] Creating Layer scale2a_branch2a
I0309 19:22:41.598703  4658 net.cpp:434] scale2a_branch2a <- res2a_branch2a
I0309 19:22:41.598708  4658 net.cpp:395] scale2a_branch2a -> res2a_branch2a (in-place)
I0309 19:22:41.598758  4658 layer_factory.hpp:77] Creating layer scale2a_branch2a
I0309 19:22:41.598911  4658 net.cpp:150] Setting up scale2a_branch2a
I0309 19:22:41.598918  4658 net.cpp:157] Top shape: 8 64 56 56 (1605632)
I0309 19:22:41.598922  4658 net.cpp:165] Memory required for data: 237633568
I0309 19:22:41.598927  4658 layer_factory.hpp:77] Creating layer res2a_branch2a_relu
I0309 19:22:41.598933  4658 net.cpp:100] Creating Layer res2a_branch2a_relu
I0309 19:22:41.598937  4658 net.cpp:434] res2a_branch2a_relu <- res2a_branch2a
I0309 19:22:41.598942  4658 net.cpp:395] res2a_branch2a_relu -> res2a_branch2a (in-place)
I0309 19:22:41.599097  4658 net.cpp:150] Setting up res2a_branch2a_relu
I0309 19:22:41.599105  4658 net.cpp:157] Top shape: 8 64 56 56 (1605632)
I0309 19:22:41.599108  4658 net.cpp:165] Memory required for data: 244056096
I0309 19:22:41.599112  4658 layer_factory.hpp:77] Creating layer res2a_branch2b
I0309 19:22:41.599119  4658 net.cpp:100] Creating Layer res2a_branch2b
I0309 19:22:41.599123  4658 net.cpp:434] res2a_branch2b <- res2a_branch2a
I0309 19:22:41.599129  4658 net.cpp:408] res2a_branch2b -> res2a_branch2b
I0309 19:22:41.601580  4658 net.cpp:150] Setting up res2a_branch2b
I0309 19:22:41.601596  4658 net.cpp:157] Top shape: 8 64 56 56 (1605632)
I0309 19:22:41.601599  4658 net.cpp:165] Memory required for data: 250478624
I0309 19:22:41.601606  4658 layer_factory.hpp:77] Creating layer bn2a_branch2b
I0309 19:22:41.601616  4658 net.cpp:100] Creating Layer bn2a_branch2b
I0309 19:22:41.601620  4658 net.cpp:434] bn2a_branch2b <- res2a_branch2b
I0309 19:22:41.601625  4658 net.cpp:395] bn2a_branch2b -> res2a_branch2b (in-place)
I0309 19:22:41.601894  4658 net.cpp:150] Setting up bn2a_branch2b
I0309 19:22:41.601902  4658 net.cpp:157] Top shape: 8 64 56 56 (1605632)
I0309 19:22:41.601905  4658 net.cpp:165] Memory required for data: 256901152
I0309 19:22:41.601913  4658 layer_factory.hpp:77] Creating layer scale2a_branch2b
I0309 19:22:41.601920  4658 net.cpp:100] Creating Layer scale2a_branch2b
I0309 19:22:41.601924  4658 net.cpp:434] scale2a_branch2b <- res2a_branch2b
I0309 19:22:41.601929  4658 net.cpp:395] scale2a_branch2b -> res2a_branch2b (in-place)
I0309 19:22:41.601979  4658 layer_factory.hpp:77] Creating layer scale2a_branch2b
I0309 19:22:41.602133  4658 net.cpp:150] Setting up scale2a_branch2b
I0309 19:22:41.602141  4658 net.cpp:157] Top shape: 8 64 56 56 (1605632)
I0309 19:22:41.602144  4658 net.cpp:165] Memory required for data: 263323680
I0309 19:22:41.602151  4658 layer_factory.hpp:77] Creating layer res2a_branch2b_relu
I0309 19:22:41.602157  4658 net.cpp:100] Creating Layer res2a_branch2b_relu
I0309 19:22:41.602160  4658 net.cpp:434] res2a_branch2b_relu <- res2a_branch2b
I0309 19:22:41.602172  4658 net.cpp:395] res2a_branch2b_relu -> res2a_branch2b (in-place)
I0309 19:22:41.602334  4658 net.cpp:150] Setting up res2a_branch2b_relu
I0309 19:22:41.602344  4658 net.cpp:157] Top shape: 8 64 56 56 (1605632)
I0309 19:22:41.602346  4658 net.cpp:165] Memory required for data: 269746208
I0309 19:22:41.602350  4658 layer_factory.hpp:77] Creating layer res2a_branch2c
I0309 19:22:41.602357  4658 net.cpp:100] Creating Layer res2a_branch2c
I0309 19:22:41.602361  4658 net.cpp:434] res2a_branch2c <- res2a_branch2b
I0309 19:22:41.602367  4658 net.cpp:408] res2a_branch2c -> res2a_branch2c
I0309 19:22:41.603420  4658 net.cpp:150] Setting up res2a_branch2c
I0309 19:22:41.603435  4658 net.cpp:157] Top shape: 8 256 56 56 (6422528)
I0309 19:22:41.603438  4658 net.cpp:165] Memory required for data: 295436320
I0309 19:22:41.603444  4658 layer_factory.hpp:77] Creating layer bn2a_branch2c
I0309 19:22:41.603451  4658 net.cpp:100] Creating Layer bn2a_branch2c
I0309 19:22:41.603454  4658 net.cpp:434] bn2a_branch2c <- res2a_branch2c
I0309 19:22:41.603461  4658 net.cpp:395] bn2a_branch2c -> res2a_branch2c (in-place)
I0309 19:22:41.603754  4658 net.cpp:150] Setting up bn2a_branch2c
I0309 19:22:41.603761  4658 net.cpp:157] Top shape: 8 256 56 56 (6422528)
I0309 19:22:41.603765  4658 net.cpp:165] Memory required for data: 321126432
I0309 19:22:41.603773  4658 layer_factory.hpp:77] Creating layer scale2a_branch2c
I0309 19:22:41.603780  4658 net.cpp:100] Creating Layer scale2a_branch2c
I0309 19:22:41.603785  4658 net.cpp:434] scale2a_branch2c <- res2a_branch2c
I0309 19:22:41.603790  4658 net.cpp:395] scale2a_branch2c -> res2a_branch2c (in-place)
I0309 19:22:41.603842  4658 layer_factory.hpp:77] Creating layer scale2a_branch2c
I0309 19:22:41.603996  4658 net.cpp:150] Setting up scale2a_branch2c
I0309 19:22:41.604003  4658 net.cpp:157] Top shape: 8 256 56 56 (6422528)
I0309 19:22:41.604007  4658 net.cpp:165] Memory required for data: 346816544
I0309 19:22:41.604028  4658 layer_factory.hpp:77] Creating layer res2a
I0309 19:22:41.604034  4658 net.cpp:100] Creating Layer res2a
I0309 19:22:41.604053  4658 net.cpp:434] res2a <- res2a_branch1
I0309 19:22:41.604056  4658 net.cpp:434] res2a <- res2a_branch2c
I0309 19:22:41.604061  4658 net.cpp:408] res2a -> res2a
I0309 19:22:41.604090  4658 net.cpp:150] Setting up res2a
I0309 19:22:41.604096  4658 net.cpp:157] Top shape: 8 256 56 56 (6422528)
I0309 19:22:41.604099  4658 net.cpp:165] Memory required for data: 372506656
I0309 19:22:41.604104  4658 layer_factory.hpp:77] Creating layer res2a_relu
I0309 19:22:41.604109  4658 net.cpp:100] Creating Layer res2a_relu
I0309 19:22:41.604111  4658 net.cpp:434] res2a_relu <- res2a
I0309 19:22:41.604116  4658 net.cpp:395] res2a_relu -> res2a (in-place)
I0309 19:22:41.604274  4658 net.cpp:150] Setting up res2a_relu
I0309 19:22:41.604284  4658 net.cpp:157] Top shape: 8 256 56 56 (6422528)
I0309 19:22:41.604286  4658 net.cpp:165] Memory required for data: 398196768
I0309 19:22:41.604290  4658 layer_factory.hpp:77] Creating layer res2a_res2a_relu_0_split
I0309 19:22:41.604296  4658 net.cpp:100] Creating Layer res2a_res2a_relu_0_split
I0309 19:22:41.604300  4658 net.cpp:434] res2a_res2a_relu_0_split <- res2a
I0309 19:22:41.604305  4658 net.cpp:408] res2a_res2a_relu_0_split -> res2a_res2a_relu_0_split_0
I0309 19:22:41.604311  4658 net.cpp:408] res2a_res2a_relu_0_split -> res2a_res2a_relu_0_split_1
I0309 19:22:41.604360  4658 net.cpp:150] Setting up res2a_res2a_relu_0_split
I0309 19:22:41.604367  4658 net.cpp:157] Top shape: 8 256 56 56 (6422528)
I0309 19:22:41.604370  4658 net.cpp:157] Top shape: 8 256 56 56 (6422528)
I0309 19:22:41.604373  4658 net.cpp:165] Memory required for data: 449576992
I0309 19:22:41.604377  4658 layer_factory.hpp:77] Creating layer res2b_branch2a
I0309 19:22:41.604384  4658 net.cpp:100] Creating Layer res2b_branch2a
I0309 19:22:41.604387  4658 net.cpp:434] res2b_branch2a <- res2a_res2a_relu_0_split_0
I0309 19:22:41.604393  4658 net.cpp:408] res2b_branch2a -> res2b_branch2a
I0309 19:22:41.605530  4658 net.cpp:150] Setting up res2b_branch2a
I0309 19:22:41.605546  4658 net.cpp:157] Top shape: 8 64 56 56 (1605632)
I0309 19:22:41.605549  4658 net.cpp:165] Memory required for data: 455999520
I0309 19:22:41.605556  4658 layer_factory.hpp:77] Creating layer bn2b_branch2a
I0309 19:22:41.605562  4658 net.cpp:100] Creating Layer bn2b_branch2a
I0309 19:22:41.605566  4658 net.cpp:434] bn2b_branch2a <- res2b_branch2a
I0309 19:22:41.605571  4658 net.cpp:395] bn2b_branch2a -> res2b_branch2a (in-place)
I0309 19:22:41.605830  4658 net.cpp:150] Setting up bn2b_branch2a
I0309 19:22:41.605839  4658 net.cpp:157] Top shape: 8 64 56 56 (1605632)
I0309 19:22:41.605841  4658 net.cpp:165] Memory required for data: 462422048
I0309 19:22:41.605854  4658 layer_factory.hpp:77] Creating layer scale2b_branch2a
I0309 19:22:41.605861  4658 net.cpp:100] Creating Layer scale2b_branch2a
I0309 19:22:41.605865  4658 net.cpp:434] scale2b_branch2a <- res2b_branch2a
I0309 19:22:41.605870  4658 net.cpp:395] scale2b_branch2a -> res2b_branch2a (in-place)
I0309 19:22:41.605921  4658 layer_factory.hpp:77] Creating layer scale2b_branch2a
I0309 19:22:41.606078  4658 net.cpp:150] Setting up scale2b_branch2a
I0309 19:22:41.606086  4658 net.cpp:157] Top shape: 8 64 56 56 (1605632)
I0309 19:22:41.606088  4658 net.cpp:165] Memory required for data: 468844576
I0309 19:22:41.606096  4658 layer_factory.hpp:77] Creating layer res2b_branch2a_relu
I0309 19:22:41.606101  4658 net.cpp:100] Creating Layer res2b_branch2a_relu
I0309 19:22:41.606104  4658 net.cpp:434] res2b_branch2a_relu <- res2b_branch2a
I0309 19:22:41.606109  4658 net.cpp:395] res2b_branch2a_relu -> res2b_branch2a (in-place)
I0309 19:22:41.606263  4658 net.cpp:150] Setting up res2b_branch2a_relu
I0309 19:22:41.606272  4658 net.cpp:157] Top shape: 8 64 56 56 (1605632)
I0309 19:22:41.606276  4658 net.cpp:165] Memory required for data: 475267104
I0309 19:22:41.606279  4658 layer_factory.hpp:77] Creating layer res2b_branch2b
I0309 19:22:41.606287  4658 net.cpp:100] Creating Layer res2b_branch2b
I0309 19:22:41.606290  4658 net.cpp:434] res2b_branch2b <- res2b_branch2a
I0309 19:22:41.606297  4658 net.cpp:408] res2b_branch2b -> res2b_branch2b
I0309 19:22:41.607354  4658 net.cpp:150] Setting up res2b_branch2b
I0309 19:22:41.607368  4658 net.cpp:157] Top shape: 8 64 56 56 (1605632)
I0309 19:22:41.607372  4658 net.cpp:165] Memory required for data: 481689632
I0309 19:22:41.607378  4658 layer_factory.hpp:77] Creating layer bn2b_branch2b
I0309 19:22:41.607384  4658 net.cpp:100] Creating Layer bn2b_branch2b
I0309 19:22:41.607388  4658 net.cpp:434] bn2b_branch2b <- res2b_branch2b
I0309 19:22:41.607393  4658 net.cpp:395] bn2b_branch2b -> res2b_branch2b (in-place)
I0309 19:22:41.607659  4658 net.cpp:150] Setting up bn2b_branch2b
I0309 19:22:41.607667  4658 net.cpp:157] Top shape: 8 64 56 56 (1605632)
I0309 19:22:41.607671  4658 net.cpp:165] Memory required for data: 488112160
I0309 19:22:41.607677  4658 layer_factory.hpp:77] Creating layer scale2b_branch2b
I0309 19:22:41.607684  4658 net.cpp:100] Creating Layer scale2b_branch2b
I0309 19:22:41.607687  4658 net.cpp:434] scale2b_branch2b <- res2b_branch2b
I0309 19:22:41.607693  4658 net.cpp:395] scale2b_branch2b -> res2b_branch2b (in-place)
I0309 19:22:41.607743  4658 layer_factory.hpp:77] Creating layer scale2b_branch2b
I0309 19:22:41.607902  4658 net.cpp:150] Setting up scale2b_branch2b
I0309 19:22:41.607908  4658 net.cpp:157] Top shape: 8 64 56 56 (1605632)
I0309 19:22:41.607911  4658 net.cpp:165] Memory required for data: 494534688
I0309 19:22:41.607918  4658 layer_factory.hpp:77] Creating layer res2b_branch2b_relu
I0309 19:22:41.607926  4658 net.cpp:100] Creating Layer res2b_branch2b_relu
I0309 19:22:41.607930  4658 net.cpp:434] res2b_branch2b_relu <- res2b_branch2b
I0309 19:22:41.607935  4658 net.cpp:395] res2b_branch2b_relu -> res2b_branch2b (in-place)
I0309 19:22:41.608423  4658 net.cpp:150] Setting up res2b_branch2b_relu
I0309 19:22:41.608438  4658 net.cpp:157] Top shape: 8 64 56 56 (1605632)
I0309 19:22:41.608440  4658 net.cpp:165] Memory required for data: 500957216
I0309 19:22:41.608449  4658 layer_factory.hpp:77] Creating layer res2b_branch2c
I0309 19:22:41.608458  4658 net.cpp:100] Creating Layer res2b_branch2c
I0309 19:22:41.608463  4658 net.cpp:434] res2b_branch2c <- res2b_branch2b
I0309 19:22:41.608469  4658 net.cpp:408] res2b_branch2c -> res2b_branch2c
I0309 19:22:41.609604  4658 net.cpp:150] Setting up res2b_branch2c
I0309 19:22:41.609619  4658 net.cpp:157] Top shape: 8 256 56 56 (6422528)
I0309 19:22:41.609623  4658 net.cpp:165] Memory required for data: 526647328
I0309 19:22:41.609629  4658 layer_factory.hpp:77] Creating layer bn2b_branch2c
I0309 19:22:41.609635  4658 net.cpp:100] Creating Layer bn2b_branch2c
I0309 19:22:41.609639  4658 net.cpp:434] bn2b_branch2c <- res2b_branch2c
I0309 19:22:41.609644  4658 net.cpp:395] bn2b_branch2c -> res2b_branch2c (in-place)
I0309 19:22:41.609899  4658 net.cpp:150] Setting up bn2b_branch2c
I0309 19:22:41.609906  4658 net.cpp:157] Top shape: 8 256 56 56 (6422528)
I0309 19:22:41.609910  4658 net.cpp:165] Memory required for data: 552337440
I0309 19:22:41.609917  4658 layer_factory.hpp:77] Creating layer scale2b_branch2c
I0309 19:22:41.609923  4658 net.cpp:100] Creating Layer scale2b_branch2c
I0309 19:22:41.609926  4658 net.cpp:434] scale2b_branch2c <- res2b_branch2c
I0309 19:22:41.609932  4658 net.cpp:395] scale2b_branch2c -> res2b_branch2c (in-place)
I0309 19:22:41.609982  4658 layer_factory.hpp:77] Creating layer scale2b_branch2c
I0309 19:22:41.610131  4658 net.cpp:150] Setting up scale2b_branch2c
I0309 19:22:41.610137  4658 net.cpp:157] Top shape: 8 256 56 56 (6422528)
I0309 19:22:41.610141  4658 net.cpp:165] Memory required for data: 578027552
I0309 19:22:41.610147  4658 layer_factory.hpp:77] Creating layer res2b
I0309 19:22:41.610153  4658 net.cpp:100] Creating Layer res2b
I0309 19:22:41.610157  4658 net.cpp:434] res2b <- res2a_res2a_relu_0_split_1
I0309 19:22:41.610162  4658 net.cpp:434] res2b <- res2b_branch2c
I0309 19:22:41.610167  4658 net.cpp:408] res2b -> res2b
I0309 19:22:41.610195  4658 net.cpp:150] Setting up res2b
I0309 19:22:41.610203  4658 net.cpp:157] Top shape: 8 256 56 56 (6422528)
I0309 19:22:41.610205  4658 net.cpp:165] Memory required for data: 603717664
I0309 19:22:41.610208  4658 layer_factory.hpp:77] Creating layer res2b_relu
I0309 19:22:41.610213  4658 net.cpp:100] Creating Layer res2b_relu
I0309 19:22:41.610218  4658 net.cpp:434] res2b_relu <- res2b
I0309 19:22:41.610221  4658 net.cpp:395] res2b_relu -> res2b (in-place)
I0309 19:22:41.610380  4658 net.cpp:150] Setting up res2b_relu
I0309 19:22:41.610389  4658 net.cpp:157] Top shape: 8 256 56 56 (6422528)
I0309 19:22:41.610393  4658 net.cpp:165] Memory required for data: 629407776
I0309 19:22:41.610395  4658 layer_factory.hpp:77] Creating layer res2b_res2b_relu_0_split
I0309 19:22:41.610401  4658 net.cpp:100] Creating Layer res2b_res2b_relu_0_split
I0309 19:22:41.610405  4658 net.cpp:434] res2b_res2b_relu_0_split <- res2b
I0309 19:22:41.610410  4658 net.cpp:408] res2b_res2b_relu_0_split -> res2b_res2b_relu_0_split_0
I0309 19:22:41.610416  4658 net.cpp:408] res2b_res2b_relu_0_split -> res2b_res2b_relu_0_split_1
I0309 19:22:41.610466  4658 net.cpp:150] Setting up res2b_res2b_relu_0_split
I0309 19:22:41.610473  4658 net.cpp:157] Top shape: 8 256 56 56 (6422528)
I0309 19:22:41.610477  4658 net.cpp:157] Top shape: 8 256 56 56 (6422528)
I0309 19:22:41.610481  4658 net.cpp:165] Memory required for data: 680788000
I0309 19:22:41.610483  4658 layer_factory.hpp:77] Creating layer res2c_branch2a
I0309 19:22:41.610491  4658 net.cpp:100] Creating Layer res2c_branch2a
I0309 19:22:41.610494  4658 net.cpp:434] res2c_branch2a <- res2b_res2b_relu_0_split_0
I0309 19:22:41.610499  4658 net.cpp:408] res2c_branch2a -> res2c_branch2a
I0309 19:22:41.611557  4658 net.cpp:150] Setting up res2c_branch2a
I0309 19:22:41.611572  4658 net.cpp:157] Top shape: 8 64 56 56 (1605632)
I0309 19:22:41.611574  4658 net.cpp:165] Memory required for data: 687210528
I0309 19:22:41.611580  4658 layer_factory.hpp:77] Creating layer bn2c_branch2a
I0309 19:22:41.611587  4658 net.cpp:100] Creating Layer bn2c_branch2a
I0309 19:22:41.611595  4658 net.cpp:434] bn2c_branch2a <- res2c_branch2a
I0309 19:22:41.611601  4658 net.cpp:395] bn2c_branch2a -> res2c_branch2a (in-place)
I0309 19:22:41.611869  4658 net.cpp:150] Setting up bn2c_branch2a
I0309 19:22:41.611877  4658 net.cpp:157] Top shape: 8 64 56 56 (1605632)
I0309 19:22:41.611881  4658 net.cpp:165] Memory required for data: 693633056
I0309 19:22:41.611887  4658 layer_factory.hpp:77] Creating layer scale2c_branch2a
I0309 19:22:41.611894  4658 net.cpp:100] Creating Layer scale2c_branch2a
I0309 19:22:41.611898  4658 net.cpp:434] scale2c_branch2a <- res2c_branch2a
I0309 19:22:41.611903  4658 net.cpp:395] scale2c_branch2a -> res2c_branch2a (in-place)
I0309 19:22:41.611953  4658 layer_factory.hpp:77] Creating layer scale2c_branch2a
I0309 19:22:41.612119  4658 net.cpp:150] Setting up scale2c_branch2a
I0309 19:22:41.612128  4658 net.cpp:157] Top shape: 8 64 56 56 (1605632)
I0309 19:22:41.612131  4658 net.cpp:165] Memory required for data: 700055584
I0309 19:22:41.612138  4658 layer_factory.hpp:77] Creating layer res2c_branch2a_relu
I0309 19:22:41.612144  4658 net.cpp:100] Creating Layer res2c_branch2a_relu
I0309 19:22:41.612149  4658 net.cpp:434] res2c_branch2a_relu <- res2c_branch2a
I0309 19:22:41.612154  4658 net.cpp:395] res2c_branch2a_relu -> res2c_branch2a (in-place)
I0309 19:22:41.612309  4658 net.cpp:150] Setting up res2c_branch2a_relu
I0309 19:22:41.612320  4658 net.cpp:157] Top shape: 8 64 56 56 (1605632)
I0309 19:22:41.612323  4658 net.cpp:165] Memory required for data: 706478112
I0309 19:22:41.612327  4658 layer_factory.hpp:77] Creating layer res2c_branch2b
I0309 19:22:41.612334  4658 net.cpp:100] Creating Layer res2c_branch2b
I0309 19:22:41.612337  4658 net.cpp:434] res2c_branch2b <- res2c_branch2a
I0309 19:22:41.612344  4658 net.cpp:408] res2c_branch2b -> res2c_branch2b
I0309 19:22:41.613883  4658 net.cpp:150] Setting up res2c_branch2b
I0309 19:22:41.613899  4658 net.cpp:157] Top shape: 8 64 56 56 (1605632)
I0309 19:22:41.613903  4658 net.cpp:165] Memory required for data: 712900640
I0309 19:22:41.613910  4658 layer_factory.hpp:77] Creating layer bn2c_branch2b
I0309 19:22:41.613916  4658 net.cpp:100] Creating Layer bn2c_branch2b
I0309 19:22:41.613920  4658 net.cpp:434] bn2c_branch2b <- res2c_branch2b
I0309 19:22:41.613948  4658 net.cpp:395] bn2c_branch2b -> res2c_branch2b (in-place)
I0309 19:22:41.614264  4658 net.cpp:150] Setting up bn2c_branch2b
I0309 19:22:41.614274  4658 net.cpp:157] Top shape: 8 64 56 56 (1605632)
I0309 19:22:41.614279  4658 net.cpp:165] Memory required for data: 719323168
I0309 19:22:41.614285  4658 layer_factory.hpp:77] Creating layer scale2c_branch2b
I0309 19:22:41.614292  4658 net.cpp:100] Creating Layer scale2c_branch2b
I0309 19:22:41.614295  4658 net.cpp:434] scale2c_branch2b <- res2c_branch2b
I0309 19:22:41.614302  4658 net.cpp:395] scale2c_branch2b -> res2c_branch2b (in-place)
I0309 19:22:41.614357  4658 layer_factory.hpp:77] Creating layer scale2c_branch2b
I0309 19:22:41.614527  4658 net.cpp:150] Setting up scale2c_branch2b
I0309 19:22:41.614536  4658 net.cpp:157] Top shape: 8 64 56 56 (1605632)
I0309 19:22:41.614538  4658 net.cpp:165] Memory required for data: 725745696
I0309 19:22:41.614544  4658 layer_factory.hpp:77] Creating layer res2c_branch2b_relu
I0309 19:22:41.614550  4658 net.cpp:100] Creating Layer res2c_branch2b_relu
I0309 19:22:41.614554  4658 net.cpp:434] res2c_branch2b_relu <- res2c_branch2b
I0309 19:22:41.614560  4658 net.cpp:395] res2c_branch2b_relu -> res2c_branch2b (in-place)
I0309 19:22:41.614733  4658 net.cpp:150] Setting up res2c_branch2b_relu
I0309 19:22:41.614743  4658 net.cpp:157] Top shape: 8 64 56 56 (1605632)
I0309 19:22:41.614747  4658 net.cpp:165] Memory required for data: 732168224
I0309 19:22:41.614749  4658 layer_factory.hpp:77] Creating layer res2c_branch2c
I0309 19:22:41.614758  4658 net.cpp:100] Creating Layer res2c_branch2c
I0309 19:22:41.614763  4658 net.cpp:434] res2c_branch2c <- res2c_branch2b
I0309 19:22:41.614768  4658 net.cpp:408] res2c_branch2c -> res2c_branch2c
I0309 19:22:41.615914  4658 net.cpp:150] Setting up res2c_branch2c
I0309 19:22:41.615931  4658 net.cpp:157] Top shape: 8 256 56 56 (6422528)
I0309 19:22:41.615934  4658 net.cpp:165] Memory required for data: 757858336
I0309 19:22:41.615941  4658 layer_factory.hpp:77] Creating layer bn2c_branch2c
I0309 19:22:41.615947  4658 net.cpp:100] Creating Layer bn2c_branch2c
I0309 19:22:41.615952  4658 net.cpp:434] bn2c_branch2c <- res2c_branch2c
I0309 19:22:41.615957  4658 net.cpp:395] bn2c_branch2c -> res2c_branch2c (in-place)
I0309 19:22:41.616228  4658 net.cpp:150] Setting up bn2c_branch2c
I0309 19:22:41.616236  4658 net.cpp:157] Top shape: 8 256 56 56 (6422528)
I0309 19:22:41.616240  4658 net.cpp:165] Memory required for data: 783548448
I0309 19:22:41.616257  4658 layer_factory.hpp:77] Creating layer scale2c_branch2c
I0309 19:22:41.616266  4658 net.cpp:100] Creating Layer scale2c_branch2c
I0309 19:22:41.616268  4658 net.cpp:434] scale2c_branch2c <- res2c_branch2c
I0309 19:22:41.616276  4658 net.cpp:395] scale2c_branch2c -> res2c_branch2c (in-place)
I0309 19:22:41.616331  4658 layer_factory.hpp:77] Creating layer scale2c_branch2c
I0309 19:22:41.616492  4658 net.cpp:150] Setting up scale2c_branch2c
I0309 19:22:41.616500  4658 net.cpp:157] Top shape: 8 256 56 56 (6422528)
I0309 19:22:41.616503  4658 net.cpp:165] Memory required for data: 809238560
I0309 19:22:41.616510  4658 layer_factory.hpp:77] Creating layer res2c
I0309 19:22:41.616516  4658 net.cpp:100] Creating Layer res2c
I0309 19:22:41.616520  4658 net.cpp:434] res2c <- res2b_res2b_relu_0_split_1
I0309 19:22:41.616524  4658 net.cpp:434] res2c <- res2c_branch2c
I0309 19:22:41.616529  4658 net.cpp:408] res2c -> res2c
I0309 19:22:41.616561  4658 net.cpp:150] Setting up res2c
I0309 19:22:41.616569  4658 net.cpp:157] Top shape: 8 256 56 56 (6422528)
I0309 19:22:41.616571  4658 net.cpp:165] Memory required for data: 834928672
I0309 19:22:41.616575  4658 layer_factory.hpp:77] Creating layer res2c_relu
I0309 19:22:41.616580  4658 net.cpp:100] Creating Layer res2c_relu
I0309 19:22:41.616585  4658 net.cpp:434] res2c_relu <- res2c
I0309 19:22:41.616588  4658 net.cpp:395] res2c_relu -> res2c (in-place)
I0309 19:22:41.616763  4658 net.cpp:150] Setting up res2c_relu
I0309 19:22:41.616772  4658 net.cpp:157] Top shape: 8 256 56 56 (6422528)
I0309 19:22:41.616775  4658 net.cpp:165] Memory required for data: 860618784
I0309 19:22:41.616780  4658 layer_factory.hpp:77] Creating layer res2c_res2c_relu_0_split
I0309 19:22:41.616787  4658 net.cpp:100] Creating Layer res2c_res2c_relu_0_split
I0309 19:22:41.616791  4658 net.cpp:434] res2c_res2c_relu_0_split <- res2c
I0309 19:22:41.616796  4658 net.cpp:408] res2c_res2c_relu_0_split -> res2c_res2c_relu_0_split_0
I0309 19:22:41.616801  4658 net.cpp:408] res2c_res2c_relu_0_split -> res2c_res2c_relu_0_split_1
I0309 19:22:41.616856  4658 net.cpp:150] Setting up res2c_res2c_relu_0_split
I0309 19:22:41.616863  4658 net.cpp:157] Top shape: 8 256 56 56 (6422528)
I0309 19:22:41.616868  4658 net.cpp:157] Top shape: 8 256 56 56 (6422528)
I0309 19:22:41.616870  4658 net.cpp:165] Memory required for data: 911999008
I0309 19:22:41.616874  4658 layer_factory.hpp:77] Creating layer res3a_branch1
I0309 19:22:41.616883  4658 net.cpp:100] Creating Layer res3a_branch1
I0309 19:22:41.616886  4658 net.cpp:434] res3a_branch1 <- res2c_res2c_relu_0_split_0
I0309 19:22:41.616892  4658 net.cpp:408] res3a_branch1 -> res3a_branch1
I0309 19:22:41.619143  4658 net.cpp:150] Setting up res3a_branch1
I0309 19:22:41.619159  4658 net.cpp:157] Top shape: 8 512 28 28 (3211264)
I0309 19:22:41.619163  4658 net.cpp:165] Memory required for data: 924844064
I0309 19:22:41.619169  4658 layer_factory.hpp:77] Creating layer bn3a_branch1
I0309 19:22:41.619175  4658 net.cpp:100] Creating Layer bn3a_branch1
I0309 19:22:41.619179  4658 net.cpp:434] bn3a_branch1 <- res3a_branch1
I0309 19:22:41.619185  4658 net.cpp:395] bn3a_branch1 -> res3a_branch1 (in-place)
I0309 19:22:41.620422  4658 net.cpp:150] Setting up bn3a_branch1
I0309 19:22:41.620437  4658 net.cpp:157] Top shape: 8 512 28 28 (3211264)
I0309 19:22:41.620445  4658 net.cpp:165] Memory required for data: 937689120
I0309 19:22:41.620452  4658 layer_factory.hpp:77] Creating layer scale3a_branch1
I0309 19:22:41.620461  4658 net.cpp:100] Creating Layer scale3a_branch1
I0309 19:22:41.620466  4658 net.cpp:434] scale3a_branch1 <- res3a_branch1
I0309 19:22:41.620473  4658 net.cpp:395] scale3a_branch1 -> res3a_branch1 (in-place)
I0309 19:22:41.620533  4658 layer_factory.hpp:77] Creating layer scale3a_branch1
I0309 19:22:41.620690  4658 net.cpp:150] Setting up scale3a_branch1
I0309 19:22:41.620698  4658 net.cpp:157] Top shape: 8 512 28 28 (3211264)
I0309 19:22:41.620702  4658 net.cpp:165] Memory required for data: 950534176
I0309 19:22:41.620708  4658 layer_factory.hpp:77] Creating layer res3a_branch2a
I0309 19:22:41.620717  4658 net.cpp:100] Creating Layer res3a_branch2a
I0309 19:22:41.620720  4658 net.cpp:434] res3a_branch2a <- res2c_res2c_relu_0_split_1
I0309 19:22:41.620726  4658 net.cpp:408] res3a_branch2a -> res3a_branch2a
I0309 19:22:41.621960  4658 net.cpp:150] Setting up res3a_branch2a
I0309 19:22:41.621975  4658 net.cpp:157] Top shape: 8 128 28 28 (802816)
I0309 19:22:41.621980  4658 net.cpp:165] Memory required for data: 953745440
I0309 19:22:41.621986  4658 layer_factory.hpp:77] Creating layer bn3a_branch2a
I0309 19:22:41.621992  4658 net.cpp:100] Creating Layer bn3a_branch2a
I0309 19:22:41.621996  4658 net.cpp:434] bn3a_branch2a <- res3a_branch2a
I0309 19:22:41.622004  4658 net.cpp:395] bn3a_branch2a -> res3a_branch2a (in-place)
I0309 19:22:41.622280  4658 net.cpp:150] Setting up bn3a_branch2a
I0309 19:22:41.622289  4658 net.cpp:157] Top shape: 8 128 28 28 (802816)
I0309 19:22:41.622292  4658 net.cpp:165] Memory required for data: 956956704
I0309 19:22:41.622300  4658 layer_factory.hpp:77] Creating layer scale3a_branch2a
I0309 19:22:41.622306  4658 net.cpp:100] Creating Layer scale3a_branch2a
I0309 19:22:41.622310  4658 net.cpp:434] scale3a_branch2a <- res3a_branch2a
I0309 19:22:41.622316  4658 net.cpp:395] scale3a_branch2a -> res3a_branch2a (in-place)
I0309 19:22:41.622377  4658 layer_factory.hpp:77] Creating layer scale3a_branch2a
I0309 19:22:41.622539  4658 net.cpp:150] Setting up scale3a_branch2a
I0309 19:22:41.622546  4658 net.cpp:157] Top shape: 8 128 28 28 (802816)
I0309 19:22:41.622550  4658 net.cpp:165] Memory required for data: 960167968
I0309 19:22:41.622556  4658 layer_factory.hpp:77] Creating layer res3a_branch2a_relu
I0309 19:22:41.622561  4658 net.cpp:100] Creating Layer res3a_branch2a_relu
I0309 19:22:41.622567  4658 net.cpp:434] res3a_branch2a_relu <- res3a_branch2a
I0309 19:22:41.622571  4658 net.cpp:395] res3a_branch2a_relu -> res3a_branch2a (in-place)
I0309 19:22:41.622747  4658 net.cpp:150] Setting up res3a_branch2a_relu
I0309 19:22:41.622757  4658 net.cpp:157] Top shape: 8 128 28 28 (802816)
I0309 19:22:41.622761  4658 net.cpp:165] Memory required for data: 963379232
I0309 19:22:41.622764  4658 layer_factory.hpp:77] Creating layer res3a_branch2b
I0309 19:22:41.622772  4658 net.cpp:100] Creating Layer res3a_branch2b
I0309 19:22:41.622776  4658 net.cpp:434] res3a_branch2b <- res3a_branch2a
I0309 19:22:41.622784  4658 net.cpp:408] res3a_branch2b -> res3a_branch2b
I0309 19:22:41.624320  4658 net.cpp:150] Setting up res3a_branch2b
I0309 19:22:41.624333  4658 net.cpp:157] Top shape: 8 128 28 28 (802816)
I0309 19:22:41.624337  4658 net.cpp:165] Memory required for data: 966590496
I0309 19:22:41.624343  4658 layer_factory.hpp:77] Creating layer bn3a_branch2b
I0309 19:22:41.624351  4658 net.cpp:100] Creating Layer bn3a_branch2b
I0309 19:22:41.624356  4658 net.cpp:434] bn3a_branch2b <- res3a_branch2b
I0309 19:22:41.624361  4658 net.cpp:395] bn3a_branch2b -> res3a_branch2b (in-place)
I0309 19:22:41.624650  4658 net.cpp:150] Setting up bn3a_branch2b
I0309 19:22:41.624657  4658 net.cpp:157] Top shape: 8 128 28 28 (802816)
I0309 19:22:41.624660  4658 net.cpp:165] Memory required for data: 969801760
I0309 19:22:41.624668  4658 layer_factory.hpp:77] Creating layer scale3a_branch2b
I0309 19:22:41.624675  4658 net.cpp:100] Creating Layer scale3a_branch2b
I0309 19:22:41.624685  4658 net.cpp:434] scale3a_branch2b <- res3a_branch2b
I0309 19:22:41.624691  4658 net.cpp:395] scale3a_branch2b -> res3a_branch2b (in-place)
I0309 19:22:41.624748  4658 layer_factory.hpp:77] Creating layer scale3a_branch2b
I0309 19:22:41.624907  4658 net.cpp:150] Setting up scale3a_branch2b
I0309 19:22:41.624914  4658 net.cpp:157] Top shape: 8 128 28 28 (802816)
I0309 19:22:41.624918  4658 net.cpp:165] Memory required for data: 973013024
I0309 19:22:41.624925  4658 layer_factory.hpp:77] Creating layer res3a_branch2b_relu
I0309 19:22:41.624931  4658 net.cpp:100] Creating Layer res3a_branch2b_relu
I0309 19:22:41.624935  4658 net.cpp:434] res3a_branch2b_relu <- res3a_branch2b
I0309 19:22:41.624963  4658 net.cpp:395] res3a_branch2b_relu -> res3a_branch2b (in-place)
I0309 19:22:41.625524  4658 net.cpp:150] Setting up res3a_branch2b_relu
I0309 19:22:41.625535  4658 net.cpp:157] Top shape: 8 128 28 28 (802816)
I0309 19:22:41.625540  4658 net.cpp:165] Memory required for data: 976224288
I0309 19:22:41.625543  4658 layer_factory.hpp:77] Creating layer res3a_branch2c
I0309 19:22:41.625560  4658 net.cpp:100] Creating Layer res3a_branch2c
I0309 19:22:41.625566  4658 net.cpp:434] res3a_branch2c <- res3a_branch2b
I0309 19:22:41.625571  4658 net.cpp:408] res3a_branch2c -> res3a_branch2c
I0309 19:22:41.626425  4658 net.cpp:150] Setting up res3a_branch2c
I0309 19:22:41.626436  4658 net.cpp:157] Top shape: 8 512 28 28 (3211264)
I0309 19:22:41.626440  4658 net.cpp:165] Memory required for data: 989069344
I0309 19:22:41.626446  4658 layer_factory.hpp:77] Creating layer bn3a_branch2c
I0309 19:22:41.626453  4658 net.cpp:100] Creating Layer bn3a_branch2c
I0309 19:22:41.626457  4658 net.cpp:434] bn3a_branch2c <- res3a_branch2c
I0309 19:22:41.626462  4658 net.cpp:395] bn3a_branch2c -> res3a_branch2c (in-place)
I0309 19:22:41.626747  4658 net.cpp:150] Setting up bn3a_branch2c
I0309 19:22:41.626755  4658 net.cpp:157] Top shape: 8 512 28 28 (3211264)
I0309 19:22:41.626758  4658 net.cpp:165] Memory required for data: 1001914400
I0309 19:22:41.626765  4658 layer_factory.hpp:77] Creating layer scale3a_branch2c
I0309 19:22:41.626773  4658 net.cpp:100] Creating Layer scale3a_branch2c
I0309 19:22:41.626777  4658 net.cpp:434] scale3a_branch2c <- res3a_branch2c
I0309 19:22:41.626782  4658 net.cpp:395] scale3a_branch2c -> res3a_branch2c (in-place)
I0309 19:22:41.626843  4658 layer_factory.hpp:77] Creating layer scale3a_branch2c
I0309 19:22:41.627004  4658 net.cpp:150] Setting up scale3a_branch2c
I0309 19:22:41.627012  4658 net.cpp:157] Top shape: 8 512 28 28 (3211264)
I0309 19:22:41.627015  4658 net.cpp:165] Memory required for data: 1014759456
I0309 19:22:41.627022  4658 layer_factory.hpp:77] Creating layer res3a
I0309 19:22:41.627028  4658 net.cpp:100] Creating Layer res3a
I0309 19:22:41.627032  4658 net.cpp:434] res3a <- res3a_branch1
I0309 19:22:41.627038  4658 net.cpp:434] res3a <- res3a_branch2c
I0309 19:22:41.627041  4658 net.cpp:408] res3a -> res3a
I0309 19:22:41.627071  4658 net.cpp:150] Setting up res3a
I0309 19:22:41.627079  4658 net.cpp:157] Top shape: 8 512 28 28 (3211264)
I0309 19:22:41.627081  4658 net.cpp:165] Memory required for data: 1027604512
I0309 19:22:41.627085  4658 layer_factory.hpp:77] Creating layer res3a_relu
I0309 19:22:41.627091  4658 net.cpp:100] Creating Layer res3a_relu
I0309 19:22:41.627095  4658 net.cpp:434] res3a_relu <- res3a
I0309 19:22:41.627100  4658 net.cpp:395] res3a_relu -> res3a (in-place)
I0309 19:22:41.627606  4658 net.cpp:150] Setting up res3a_relu
I0309 19:22:41.627621  4658 net.cpp:157] Top shape: 8 512 28 28 (3211264)
I0309 19:22:41.627625  4658 net.cpp:165] Memory required for data: 1040449568
I0309 19:22:41.627629  4658 layer_factory.hpp:77] Creating layer res3a_res3a_relu_0_split
I0309 19:22:41.627635  4658 net.cpp:100] Creating Layer res3a_res3a_relu_0_split
I0309 19:22:41.627640  4658 net.cpp:434] res3a_res3a_relu_0_split <- res3a
I0309 19:22:41.627646  4658 net.cpp:408] res3a_res3a_relu_0_split -> res3a_res3a_relu_0_split_0
I0309 19:22:41.627658  4658 net.cpp:408] res3a_res3a_relu_0_split -> res3a_res3a_relu_0_split_1
I0309 19:22:41.627723  4658 net.cpp:150] Setting up res3a_res3a_relu_0_split
I0309 19:22:41.627732  4658 net.cpp:157] Top shape: 8 512 28 28 (3211264)
I0309 19:22:41.627737  4658 net.cpp:157] Top shape: 8 512 28 28 (3211264)
I0309 19:22:41.627739  4658 net.cpp:165] Memory required for data: 1066139680
I0309 19:22:41.627743  4658 layer_factory.hpp:77] Creating layer res3b_branch2a
I0309 19:22:41.627753  4658 net.cpp:100] Creating Layer res3b_branch2a
I0309 19:22:41.627756  4658 net.cpp:434] res3b_branch2a <- res3a_res3a_relu_0_split_0
I0309 19:22:41.627763  4658 net.cpp:408] res3b_branch2a -> res3b_branch2a
I0309 19:22:41.629339  4658 net.cpp:150] Setting up res3b_branch2a
I0309 19:22:41.629355  4658 net.cpp:157] Top shape: 8 128 28 28 (802816)
I0309 19:22:41.629359  4658 net.cpp:165] Memory required for data: 1069350944
I0309 19:22:41.629366  4658 layer_factory.hpp:77] Creating layer bn3b_branch2a
I0309 19:22:41.629372  4658 net.cpp:100] Creating Layer bn3b_branch2a
I0309 19:22:41.629375  4658 net.cpp:434] bn3b_branch2a <- res3b_branch2a
I0309 19:22:41.629382  4658 net.cpp:395] bn3b_branch2a -> res3b_branch2a (in-place)
I0309 19:22:41.629674  4658 net.cpp:150] Setting up bn3b_branch2a
I0309 19:22:41.629683  4658 net.cpp:157] Top shape: 8 128 28 28 (802816)
I0309 19:22:41.629685  4658 net.cpp:165] Memory required for data: 1072562208
I0309 19:22:41.629693  4658 layer_factory.hpp:77] Creating layer scale3b_branch2a
I0309 19:22:41.629699  4658 net.cpp:100] Creating Layer scale3b_branch2a
I0309 19:22:41.629703  4658 net.cpp:434] scale3b_branch2a <- res3b_branch2a
I0309 19:22:41.629709  4658 net.cpp:395] scale3b_branch2a -> res3b_branch2a (in-place)
I0309 19:22:41.629766  4658 layer_factory.hpp:77] Creating layer scale3b_branch2a
I0309 19:22:41.629928  4658 net.cpp:150] Setting up scale3b_branch2a
I0309 19:22:41.629936  4658 net.cpp:157] Top shape: 8 128 28 28 (802816)
I0309 19:22:41.629940  4658 net.cpp:165] Memory required for data: 1075773472
I0309 19:22:41.629946  4658 layer_factory.hpp:77] Creating layer res3b_branch2a_relu
I0309 19:22:41.629952  4658 net.cpp:100] Creating Layer res3b_branch2a_relu
I0309 19:22:41.629956  4658 net.cpp:434] res3b_branch2a_relu <- res3b_branch2a
I0309 19:22:41.629961  4658 net.cpp:395] res3b_branch2a_relu -> res3b_branch2a (in-place)
I0309 19:22:41.630138  4658 net.cpp:150] Setting up res3b_branch2a_relu
I0309 19:22:41.630147  4658 net.cpp:157] Top shape: 8 128 28 28 (802816)
I0309 19:22:41.630151  4658 net.cpp:165] Memory required for data: 1078984736
I0309 19:22:41.630154  4658 layer_factory.hpp:77] Creating layer res3b_branch2b
I0309 19:22:41.630163  4658 net.cpp:100] Creating Layer res3b_branch2b
I0309 19:22:41.630167  4658 net.cpp:434] res3b_branch2b <- res3b_branch2a
I0309 19:22:41.630173  4658 net.cpp:408] res3b_branch2b -> res3b_branch2b
I0309 19:22:41.632066  4658 net.cpp:150] Setting up res3b_branch2b
I0309 19:22:41.632081  4658 net.cpp:157] Top shape: 8 128 28 28 (802816)
I0309 19:22:41.632084  4658 net.cpp:165] Memory required for data: 1082196000
I0309 19:22:41.632091  4658 layer_factory.hpp:77] Creating layer bn3b_branch2b
I0309 19:22:41.632098  4658 net.cpp:100] Creating Layer bn3b_branch2b
I0309 19:22:41.632103  4658 net.cpp:434] bn3b_branch2b <- res3b_branch2b
I0309 19:22:41.632108  4658 net.cpp:395] bn3b_branch2b -> res3b_branch2b (in-place)
I0309 19:22:41.632401  4658 net.cpp:150] Setting up bn3b_branch2b
I0309 19:22:41.632410  4658 net.cpp:157] Top shape: 8 128 28 28 (802816)
I0309 19:22:41.632413  4658 net.cpp:165] Memory required for data: 1085407264
I0309 19:22:41.632421  4658 layer_factory.hpp:77] Creating layer scale3b_branch2b
I0309 19:22:41.632428  4658 net.cpp:100] Creating Layer scale3b_branch2b
I0309 19:22:41.632432  4658 net.cpp:434] scale3b_branch2b <- res3b_branch2b
I0309 19:22:41.632438  4658 net.cpp:395] scale3b_branch2b -> res3b_branch2b (in-place)
I0309 19:22:41.632495  4658 layer_factory.hpp:77] Creating layer scale3b_branch2b
I0309 19:22:41.632658  4658 net.cpp:150] Setting up scale3b_branch2b
I0309 19:22:41.632664  4658 net.cpp:157] Top shape: 8 128 28 28 (802816)
I0309 19:22:41.632673  4658 net.cpp:165] Memory required for data: 1088618528
I0309 19:22:41.632679  4658 layer_factory.hpp:77] Creating layer res3b_branch2b_relu
I0309 19:22:41.632686  4658 net.cpp:100] Creating Layer res3b_branch2b_relu
I0309 19:22:41.632690  4658 net.cpp:434] res3b_branch2b_relu <- res3b_branch2b
I0309 19:22:41.632695  4658 net.cpp:395] res3b_branch2b_relu -> res3b_branch2b (in-place)
I0309 19:22:41.632870  4658 net.cpp:150] Setting up res3b_branch2b_relu
I0309 19:22:41.632881  4658 net.cpp:157] Top shape: 8 128 28 28 (802816)
I0309 19:22:41.632884  4658 net.cpp:165] Memory required for data: 1091829792
I0309 19:22:41.632889  4658 layer_factory.hpp:77] Creating layer res3b_branch2c
I0309 19:22:41.632896  4658 net.cpp:100] Creating Layer res3b_branch2c
I0309 19:22:41.632899  4658 net.cpp:434] res3b_branch2c <- res3b_branch2b
I0309 19:22:41.632906  4658 net.cpp:408] res3b_branch2c -> res3b_branch2c
I0309 19:22:41.634176  4658 net.cpp:150] Setting up res3b_branch2c
I0309 19:22:41.634189  4658 net.cpp:157] Top shape: 8 512 28 28 (3211264)
I0309 19:22:41.634193  4658 net.cpp:165] Memory required for data: 1104674848
I0309 19:22:41.634199  4658 layer_factory.hpp:77] Creating layer bn3b_branch2c
I0309 19:22:41.634207  4658 net.cpp:100] Creating Layer bn3b_branch2c
I0309 19:22:41.634212  4658 net.cpp:434] bn3b_branch2c <- res3b_branch2c
I0309 19:22:41.634217  4658 net.cpp:395] bn3b_branch2c -> res3b_branch2c (in-place)
I0309 19:22:41.634508  4658 net.cpp:150] Setting up bn3b_branch2c
I0309 19:22:41.634516  4658 net.cpp:157] Top shape: 8 512 28 28 (3211264)
I0309 19:22:41.634521  4658 net.cpp:165] Memory required for data: 1117519904
I0309 19:22:41.634527  4658 layer_factory.hpp:77] Creating layer scale3b_branch2c
I0309 19:22:41.634536  4658 net.cpp:100] Creating Layer scale3b_branch2c
I0309 19:22:41.634541  4658 net.cpp:434] scale3b_branch2c <- res3b_branch2c
I0309 19:22:41.634546  4658 net.cpp:395] scale3b_branch2c -> res3b_branch2c (in-place)
I0309 19:22:41.634609  4658 layer_factory.hpp:77] Creating layer scale3b_branch2c
I0309 19:22:41.634773  4658 net.cpp:150] Setting up scale3b_branch2c
I0309 19:22:41.634780  4658 net.cpp:157] Top shape: 8 512 28 28 (3211264)
I0309 19:22:41.634783  4658 net.cpp:165] Memory required for data: 1130364960
I0309 19:22:41.634790  4658 layer_factory.hpp:77] Creating layer res3b
I0309 19:22:41.634795  4658 net.cpp:100] Creating Layer res3b
I0309 19:22:41.634799  4658 net.cpp:434] res3b <- res3a_res3a_relu_0_split_1
I0309 19:22:41.634804  4658 net.cpp:434] res3b <- res3b_branch2c
I0309 19:22:41.634809  4658 net.cpp:408] res3b -> res3b
I0309 19:22:41.634841  4658 net.cpp:150] Setting up res3b
I0309 19:22:41.634848  4658 net.cpp:157] Top shape: 8 512 28 28 (3211264)
I0309 19:22:41.634851  4658 net.cpp:165] Memory required for data: 1143210016
I0309 19:22:41.634855  4658 layer_factory.hpp:77] Creating layer res3b_relu
I0309 19:22:41.634860  4658 net.cpp:100] Creating Layer res3b_relu
I0309 19:22:41.634863  4658 net.cpp:434] res3b_relu <- res3b
I0309 19:22:41.634868  4658 net.cpp:395] res3b_relu -> res3b (in-place)
I0309 19:22:41.635051  4658 net.cpp:150] Setting up res3b_relu
I0309 19:22:41.635061  4658 net.cpp:157] Top shape: 8 512 28 28 (3211264)
I0309 19:22:41.635066  4658 net.cpp:165] Memory required for data: 1156055072
I0309 19:22:41.635084  4658 layer_factory.hpp:77] Creating layer res3b_res3b_relu_0_split
I0309 19:22:41.635090  4658 net.cpp:100] Creating Layer res3b_res3b_relu_0_split
I0309 19:22:41.635093  4658 net.cpp:434] res3b_res3b_relu_0_split <- res3b
I0309 19:22:41.635102  4658 net.cpp:408] res3b_res3b_relu_0_split -> res3b_res3b_relu_0_split_0
I0309 19:22:41.635108  4658 net.cpp:408] res3b_res3b_relu_0_split -> res3b_res3b_relu_0_split_1
I0309 19:22:41.635169  4658 net.cpp:150] Setting up res3b_res3b_relu_0_split
I0309 19:22:41.635175  4658 net.cpp:157] Top shape: 8 512 28 28 (3211264)
I0309 19:22:41.635180  4658 net.cpp:157] Top shape: 8 512 28 28 (3211264)
I0309 19:22:41.635184  4658 net.cpp:165] Memory required for data: 1181745184
I0309 19:22:41.635191  4658 layer_factory.hpp:77] Creating layer res3c_branch2a
I0309 19:22:41.635200  4658 net.cpp:100] Creating Layer res3c_branch2a
I0309 19:22:41.635205  4658 net.cpp:434] res3c_branch2a <- res3b_res3b_relu_0_split_0
I0309 19:22:41.635212  4658 net.cpp:408] res3c_branch2a -> res3c_branch2a
I0309 19:22:41.636458  4658 net.cpp:150] Setting up res3c_branch2a
I0309 19:22:41.636472  4658 net.cpp:157] Top shape: 8 128 28 28 (802816)
I0309 19:22:41.636476  4658 net.cpp:165] Memory required for data: 1184956448
I0309 19:22:41.636483  4658 layer_factory.hpp:77] Creating layer bn3c_branch2a
I0309 19:22:41.636492  4658 net.cpp:100] Creating Layer bn3c_branch2a
I0309 19:22:41.636495  4658 net.cpp:434] bn3c_branch2a <- res3c_branch2a
I0309 19:22:41.636500  4658 net.cpp:395] bn3c_branch2a -> res3c_branch2a (in-place)
I0309 19:22:41.636806  4658 net.cpp:150] Setting up bn3c_branch2a
I0309 19:22:41.636813  4658 net.cpp:157] Top shape: 8 128 28 28 (802816)
I0309 19:22:41.636817  4658 net.cpp:165] Memory required for data: 1188167712
I0309 19:22:41.636824  4658 layer_factory.hpp:77] Creating layer scale3c_branch2a
I0309 19:22:41.636832  4658 net.cpp:100] Creating Layer scale3c_branch2a
I0309 19:22:41.636835  4658 net.cpp:434] scale3c_branch2a <- res3c_branch2a
I0309 19:22:41.636842  4658 net.cpp:395] scale3c_branch2a -> res3c_branch2a (in-place)
I0309 19:22:41.636899  4658 layer_factory.hpp:77] Creating layer scale3c_branch2a
I0309 19:22:41.637094  4658 net.cpp:150] Setting up scale3c_branch2a
I0309 19:22:41.637104  4658 net.cpp:157] Top shape: 8 128 28 28 (802816)
I0309 19:22:41.637107  4658 net.cpp:165] Memory required for data: 1191378976
I0309 19:22:41.637115  4658 layer_factory.hpp:77] Creating layer res3c_branch2a_relu
I0309 19:22:41.637121  4658 net.cpp:100] Creating Layer res3c_branch2a_relu
I0309 19:22:41.637125  4658 net.cpp:434] res3c_branch2a_relu <- res3c_branch2a
I0309 19:22:41.637130  4658 net.cpp:395] res3c_branch2a_relu -> res3c_branch2a (in-place)
I0309 19:22:41.637337  4658 net.cpp:150] Setting up res3c_branch2a_relu
I0309 19:22:41.637346  4658 net.cpp:157] Top shape: 8 128 28 28 (802816)
I0309 19:22:41.637349  4658 net.cpp:165] Memory required for data: 1194590240
I0309 19:22:41.637353  4658 layer_factory.hpp:77] Creating layer res3c_branch2b
I0309 19:22:41.637362  4658 net.cpp:100] Creating Layer res3c_branch2b
I0309 19:22:41.637367  4658 net.cpp:434] res3c_branch2b <- res3c_branch2a
I0309 19:22:41.637372  4658 net.cpp:408] res3c_branch2b -> res3c_branch2b
I0309 19:22:41.639880  4658 net.cpp:150] Setting up res3c_branch2b
I0309 19:22:41.639895  4658 net.cpp:157] Top shape: 8 128 28 28 (802816)
I0309 19:22:41.639899  4658 net.cpp:165] Memory required for data: 1197801504
I0309 19:22:41.639905  4658 layer_factory.hpp:77] Creating layer bn3c_branch2b
I0309 19:22:41.639911  4658 net.cpp:100] Creating Layer bn3c_branch2b
I0309 19:22:41.639916  4658 net.cpp:434] bn3c_branch2b <- res3c_branch2b
I0309 19:22:41.639922  4658 net.cpp:395] bn3c_branch2b -> res3c_branch2b (in-place)
I0309 19:22:41.640221  4658 net.cpp:150] Setting up bn3c_branch2b
I0309 19:22:41.640229  4658 net.cpp:157] Top shape: 8 128 28 28 (802816)
I0309 19:22:41.640233  4658 net.cpp:165] Memory required for data: 1201012768
I0309 19:22:41.640240  4658 layer_factory.hpp:77] Creating layer scale3c_branch2b
I0309 19:22:41.640249  4658 net.cpp:100] Creating Layer scale3c_branch2b
I0309 19:22:41.640251  4658 net.cpp:434] scale3c_branch2b <- res3c_branch2b
I0309 19:22:41.640257  4658 net.cpp:395] scale3c_branch2b -> res3c_branch2b (in-place)
I0309 19:22:41.640314  4658 layer_factory.hpp:77] Creating layer scale3c_branch2b
I0309 19:22:41.640480  4658 net.cpp:150] Setting up scale3c_branch2b
I0309 19:22:41.640486  4658 net.cpp:157] Top shape: 8 128 28 28 (802816)
I0309 19:22:41.640491  4658 net.cpp:165] Memory required for data: 1204224032
I0309 19:22:41.640497  4658 layer_factory.hpp:77] Creating layer res3c_branch2b_relu
I0309 19:22:41.640504  4658 net.cpp:100] Creating Layer res3c_branch2b_relu
I0309 19:22:41.640507  4658 net.cpp:434] res3c_branch2b_relu <- res3c_branch2b
I0309 19:22:41.640518  4658 net.cpp:395] res3c_branch2b_relu -> res3c_branch2b (in-place)
I0309 19:22:41.641067  4658 net.cpp:150] Setting up res3c_branch2b_relu
I0309 19:22:41.641088  4658 net.cpp:157] Top shape: 8 128 28 28 (802816)
I0309 19:22:41.641091  4658 net.cpp:165] Memory required for data: 1207435296
I0309 19:22:41.641095  4658 layer_factory.hpp:77] Creating layer res3c_branch2c
I0309 19:22:41.641105  4658 net.cpp:100] Creating Layer res3c_branch2c
I0309 19:22:41.641110  4658 net.cpp:434] res3c_branch2c <- res3c_branch2b
I0309 19:22:41.641118  4658 net.cpp:408] res3c_branch2c -> res3c_branch2c
I0309 19:22:41.642010  4658 net.cpp:150] Setting up res3c_branch2c
I0309 19:22:41.642021  4658 net.cpp:157] Top shape: 8 512 28 28 (3211264)
I0309 19:22:41.642024  4658 net.cpp:165] Memory required for data: 1220280352
I0309 19:22:41.642031  4658 layer_factory.hpp:77] Creating layer bn3c_branch2c
I0309 19:22:41.642038  4658 net.cpp:100] Creating Layer bn3c_branch2c
I0309 19:22:41.642042  4658 net.cpp:434] bn3c_branch2c <- res3c_branch2c
I0309 19:22:41.642047  4658 net.cpp:395] bn3c_branch2c -> res3c_branch2c (in-place)
I0309 19:22:41.642341  4658 net.cpp:150] Setting up bn3c_branch2c
I0309 19:22:41.642349  4658 net.cpp:157] Top shape: 8 512 28 28 (3211264)
I0309 19:22:41.642354  4658 net.cpp:165] Memory required for data: 1233125408
I0309 19:22:41.642360  4658 layer_factory.hpp:77] Creating layer scale3c_branch2c
I0309 19:22:41.642369  4658 net.cpp:100] Creating Layer scale3c_branch2c
I0309 19:22:41.642372  4658 net.cpp:434] scale3c_branch2c <- res3c_branch2c
I0309 19:22:41.642379  4658 net.cpp:395] scale3c_branch2c -> res3c_branch2c (in-place)
I0309 19:22:41.642441  4658 layer_factory.hpp:77] Creating layer scale3c_branch2c
I0309 19:22:41.642607  4658 net.cpp:150] Setting up scale3c_branch2c
I0309 19:22:41.642616  4658 net.cpp:157] Top shape: 8 512 28 28 (3211264)
I0309 19:22:41.642618  4658 net.cpp:165] Memory required for data: 1245970464
I0309 19:22:41.642626  4658 layer_factory.hpp:77] Creating layer res3c
I0309 19:22:41.642630  4658 net.cpp:100] Creating Layer res3c
I0309 19:22:41.642634  4658 net.cpp:434] res3c <- res3b_res3b_relu_0_split_1
I0309 19:22:41.642639  4658 net.cpp:434] res3c <- res3c_branch2c
I0309 19:22:41.642643  4658 net.cpp:408] res3c -> res3c
I0309 19:22:41.642676  4658 net.cpp:150] Setting up res3c
I0309 19:22:41.642683  4658 net.cpp:157] Top shape: 8 512 28 28 (3211264)
I0309 19:22:41.642686  4658 net.cpp:165] Memory required for data: 1258815520
I0309 19:22:41.642690  4658 layer_factory.hpp:77] Creating layer res3c_relu
I0309 19:22:41.642695  4658 net.cpp:100] Creating Layer res3c_relu
I0309 19:22:41.642699  4658 net.cpp:434] res3c_relu <- res3c
I0309 19:22:41.642704  4658 net.cpp:395] res3c_relu -> res3c (in-place)
I0309 19:22:41.643214  4658 net.cpp:150] Setting up res3c_relu
I0309 19:22:41.643227  4658 net.cpp:157] Top shape: 8 512 28 28 (3211264)
I0309 19:22:41.643231  4658 net.cpp:165] Memory required for data: 1271660576
I0309 19:22:41.643234  4658 layer_factory.hpp:77] Creating layer res3c_res3c_relu_0_split
I0309 19:22:41.643241  4658 net.cpp:100] Creating Layer res3c_res3c_relu_0_split
I0309 19:22:41.643244  4658 net.cpp:434] res3c_res3c_relu_0_split <- res3c
I0309 19:22:41.643252  4658 net.cpp:408] res3c_res3c_relu_0_split -> res3c_res3c_relu_0_split_0
I0309 19:22:41.643260  4658 net.cpp:408] res3c_res3c_relu_0_split -> res3c_res3c_relu_0_split_1
I0309 19:22:41.643321  4658 net.cpp:150] Setting up res3c_res3c_relu_0_split
I0309 19:22:41.643327  4658 net.cpp:157] Top shape: 8 512 28 28 (3211264)
I0309 19:22:41.643332  4658 net.cpp:157] Top shape: 8 512 28 28 (3211264)
I0309 19:22:41.643335  4658 net.cpp:165] Memory required for data: 1297350688
I0309 19:22:41.643338  4658 layer_factory.hpp:77] Creating layer res3d_branch2a
I0309 19:22:41.643347  4658 net.cpp:100] Creating Layer res3d_branch2a
I0309 19:22:41.643352  4658 net.cpp:434] res3d_branch2a <- res3c_res3c_relu_0_split_0
I0309 19:22:41.643357  4658 net.cpp:408] res3d_branch2a -> res3d_branch2a
I0309 19:22:41.645752  4658 net.cpp:150] Setting up res3d_branch2a
I0309 19:22:41.645768  4658 net.cpp:157] Top shape: 8 128 28 28 (802816)
I0309 19:22:41.645772  4658 net.cpp:165] Memory required for data: 1300561952
I0309 19:22:41.645779  4658 layer_factory.hpp:77] Creating layer bn3d_branch2a
I0309 19:22:41.645787  4658 net.cpp:100] Creating Layer bn3d_branch2a
I0309 19:22:41.645792  4658 net.cpp:434] bn3d_branch2a <- res3d_branch2a
I0309 19:22:41.645797  4658 net.cpp:395] bn3d_branch2a -> res3d_branch2a (in-place)
I0309 19:22:41.646093  4658 net.cpp:150] Setting up bn3d_branch2a
I0309 19:22:41.646101  4658 net.cpp:157] Top shape: 8 128 28 28 (802816)
I0309 19:22:41.646104  4658 net.cpp:165] Memory required for data: 1303773216
I0309 19:22:41.646132  4658 layer_factory.hpp:77] Creating layer scale3d_branch2a
I0309 19:22:41.646142  4658 net.cpp:100] Creating Layer scale3d_branch2a
I0309 19:22:41.646145  4658 net.cpp:434] scale3d_branch2a <- res3d_branch2a
I0309 19:22:41.646152  4658 net.cpp:395] scale3d_branch2a -> res3d_branch2a (in-place)
I0309 19:22:41.646212  4658 layer_factory.hpp:77] Creating layer scale3d_branch2a
I0309 19:22:41.646379  4658 net.cpp:150] Setting up scale3d_branch2a
I0309 19:22:41.646387  4658 net.cpp:157] Top shape: 8 128 28 28 (802816)
I0309 19:22:41.646390  4658 net.cpp:165] Memory required for data: 1306984480
I0309 19:22:41.646397  4658 layer_factory.hpp:77] Creating layer res3d_branch2a_relu
I0309 19:22:41.646404  4658 net.cpp:100] Creating Layer res3d_branch2a_relu
I0309 19:22:41.646409  4658 net.cpp:434] res3d_branch2a_relu <- res3d_branch2a
I0309 19:22:41.646414  4658 net.cpp:395] res3d_branch2a_relu -> res3d_branch2a (in-place)
I0309 19:22:41.646585  4658 net.cpp:150] Setting up res3d_branch2a_relu
I0309 19:22:41.646595  4658 net.cpp:157] Top shape: 8 128 28 28 (802816)
I0309 19:22:41.646597  4658 net.cpp:165] Memory required for data: 1310195744
I0309 19:22:41.646601  4658 layer_factory.hpp:77] Creating layer res3d_branch2b
I0309 19:22:41.646610  4658 net.cpp:100] Creating Layer res3d_branch2b
I0309 19:22:41.646615  4658 net.cpp:434] res3d_branch2b <- res3d_branch2a
I0309 19:22:41.646620  4658 net.cpp:408] res3d_branch2b -> res3d_branch2b
I0309 19:22:41.648315  4658 net.cpp:150] Setting up res3d_branch2b
I0309 19:22:41.648331  4658 net.cpp:157] Top shape: 8 128 28 28 (802816)
I0309 19:22:41.648335  4658 net.cpp:165] Memory required for data: 1313407008
I0309 19:22:41.648341  4658 layer_factory.hpp:77] Creating layer bn3d_branch2b
I0309 19:22:41.648347  4658 net.cpp:100] Creating Layer bn3d_branch2b
I0309 19:22:41.648351  4658 net.cpp:434] bn3d_branch2b <- res3d_branch2b
I0309 19:22:41.648358  4658 net.cpp:395] bn3d_branch2b -> res3d_branch2b (in-place)
I0309 19:22:41.648656  4658 net.cpp:150] Setting up bn3d_branch2b
I0309 19:22:41.648663  4658 net.cpp:157] Top shape: 8 128 28 28 (802816)
I0309 19:22:41.648667  4658 net.cpp:165] Memory required for data: 1316618272
I0309 19:22:41.648675  4658 layer_factory.hpp:77] Creating layer scale3d_branch2b
I0309 19:22:41.648681  4658 net.cpp:100] Creating Layer scale3d_branch2b
I0309 19:22:41.648685  4658 net.cpp:434] scale3d_branch2b <- res3d_branch2b
I0309 19:22:41.648692  4658 net.cpp:395] scale3d_branch2b -> res3d_branch2b (in-place)
I0309 19:22:41.648751  4658 layer_factory.hpp:77] Creating layer scale3d_branch2b
I0309 19:22:41.648917  4658 net.cpp:150] Setting up scale3d_branch2b
I0309 19:22:41.648924  4658 net.cpp:157] Top shape: 8 128 28 28 (802816)
I0309 19:22:41.648928  4658 net.cpp:165] Memory required for data: 1319829536
I0309 19:22:41.648936  4658 layer_factory.hpp:77] Creating layer res3d_branch2b_relu
I0309 19:22:41.648964  4658 net.cpp:100] Creating Layer res3d_branch2b_relu
I0309 19:22:41.648968  4658 net.cpp:434] res3d_branch2b_relu <- res3d_branch2b
I0309 19:22:41.648975  4658 net.cpp:395] res3d_branch2b_relu -> res3d_branch2b (in-place)
I0309 19:22:41.649168  4658 net.cpp:150] Setting up res3d_branch2b_relu
I0309 19:22:41.649178  4658 net.cpp:157] Top shape: 8 128 28 28 (802816)
I0309 19:22:41.649181  4658 net.cpp:165] Memory required for data: 1323040800
I0309 19:22:41.649190  4658 layer_factory.hpp:77] Creating layer res3d_branch2c
I0309 19:22:41.649200  4658 net.cpp:100] Creating Layer res3d_branch2c
I0309 19:22:41.649204  4658 net.cpp:434] res3d_branch2c <- res3d_branch2b
I0309 19:22:41.649211  4658 net.cpp:408] res3d_branch2c -> res3d_branch2c
I0309 19:22:41.650465  4658 net.cpp:150] Setting up res3d_branch2c
I0309 19:22:41.650478  4658 net.cpp:157] Top shape: 8 512 28 28 (3211264)
I0309 19:22:41.650481  4658 net.cpp:165] Memory required for data: 1335885856
I0309 19:22:41.650488  4658 layer_factory.hpp:77] Creating layer bn3d_branch2c
I0309 19:22:41.650496  4658 net.cpp:100] Creating Layer bn3d_branch2c
I0309 19:22:41.650501  4658 net.cpp:434] bn3d_branch2c <- res3d_branch2c
I0309 19:22:41.650506  4658 net.cpp:395] bn3d_branch2c -> res3d_branch2c (in-place)
I0309 19:22:41.650804  4658 net.cpp:150] Setting up bn3d_branch2c
I0309 19:22:41.650812  4658 net.cpp:157] Top shape: 8 512 28 28 (3211264)
I0309 19:22:41.650815  4658 net.cpp:165] Memory required for data: 1348730912
I0309 19:22:41.650823  4658 layer_factory.hpp:77] Creating layer scale3d_branch2c
I0309 19:22:41.650830  4658 net.cpp:100] Creating Layer scale3d_branch2c
I0309 19:22:41.650835  4658 net.cpp:434] scale3d_branch2c <- res3d_branch2c
I0309 19:22:41.650841  4658 net.cpp:395] scale3d_branch2c -> res3d_branch2c (in-place)
I0309 19:22:41.650903  4658 layer_factory.hpp:77] Creating layer scale3d_branch2c
I0309 19:22:41.651072  4658 net.cpp:150] Setting up scale3d_branch2c
I0309 19:22:41.651080  4658 net.cpp:157] Top shape: 8 512 28 28 (3211264)
I0309 19:22:41.651083  4658 net.cpp:165] Memory required for data: 1361575968
I0309 19:22:41.651090  4658 layer_factory.hpp:77] Creating layer res3d
I0309 19:22:41.651098  4658 net.cpp:100] Creating Layer res3d
I0309 19:22:41.651103  4658 net.cpp:434] res3d <- res3c_res3c_relu_0_split_1
I0309 19:22:41.651106  4658 net.cpp:434] res3d <- res3d_branch2c
I0309 19:22:41.651111  4658 net.cpp:408] res3d -> res3d
I0309 19:22:41.651145  4658 net.cpp:150] Setting up res3d
I0309 19:22:41.651154  4658 net.cpp:157] Top shape: 8 512 28 28 (3211264)
I0309 19:22:41.651156  4658 net.cpp:165] Memory required for data: 1374421024
I0309 19:22:41.651160  4658 layer_factory.hpp:77] Creating layer res3d_relu
I0309 19:22:41.651165  4658 net.cpp:100] Creating Layer res3d_relu
I0309 19:22:41.651168  4658 net.cpp:434] res3d_relu <- res3d
I0309 19:22:41.651175  4658 net.cpp:395] res3d_relu -> res3d (in-place)
I0309 19:22:41.651346  4658 net.cpp:150] Setting up res3d_relu
I0309 19:22:41.651355  4658 net.cpp:157] Top shape: 8 512 28 28 (3211264)
I0309 19:22:41.651358  4658 net.cpp:165] Memory required for data: 1387266080
I0309 19:22:41.651362  4658 layer_factory.hpp:77] Creating layer res3d_res3d_relu_0_split
I0309 19:22:41.651368  4658 net.cpp:100] Creating Layer res3d_res3d_relu_0_split
I0309 19:22:41.651372  4658 net.cpp:434] res3d_res3d_relu_0_split <- res3d
I0309 19:22:41.651378  4658 net.cpp:408] res3d_res3d_relu_0_split -> res3d_res3d_relu_0_split_0
I0309 19:22:41.651386  4658 net.cpp:408] res3d_res3d_relu_0_split -> res3d_res3d_relu_0_split_1
I0309 19:22:41.651444  4658 net.cpp:150] Setting up res3d_res3d_relu_0_split
I0309 19:22:41.651451  4658 net.cpp:157] Top shape: 8 512 28 28 (3211264)
I0309 19:22:41.651455  4658 net.cpp:157] Top shape: 8 512 28 28 (3211264)
I0309 19:22:41.651458  4658 net.cpp:165] Memory required for data: 1412956192
I0309 19:22:41.651461  4658 layer_factory.hpp:77] Creating layer res4a_branch1
I0309 19:22:41.651470  4658 net.cpp:100] Creating Layer res4a_branch1
I0309 19:22:41.651474  4658 net.cpp:434] res4a_branch1 <- res3d_res3d_relu_0_split_0
I0309 19:22:41.651481  4658 net.cpp:408] res4a_branch1 -> res4a_branch1
I0309 19:22:41.654086  4658 net.cpp:150] Setting up res4a_branch1
I0309 19:22:41.654119  4658 net.cpp:157] Top shape: 8 1024 14 14 (1605632)
I0309 19:22:41.654122  4658 net.cpp:165] Memory required for data: 1419378720
I0309 19:22:41.654144  4658 layer_factory.hpp:77] Creating layer bn4a_branch1
I0309 19:22:41.654150  4658 net.cpp:100] Creating Layer bn4a_branch1
I0309 19:22:41.654158  4658 net.cpp:434] bn4a_branch1 <- res4a_branch1
I0309 19:22:41.654166  4658 net.cpp:395] bn4a_branch1 -> res4a_branch1 (in-place)
I0309 19:22:41.654480  4658 net.cpp:150] Setting up bn4a_branch1
I0309 19:22:41.654489  4658 net.cpp:157] Top shape: 8 1024 14 14 (1605632)
I0309 19:22:41.654491  4658 net.cpp:165] Memory required for data: 1425801248
I0309 19:22:41.654500  4658 layer_factory.hpp:77] Creating layer scale4a_branch1
I0309 19:22:41.654508  4658 net.cpp:100] Creating Layer scale4a_branch1
I0309 19:22:41.654512  4658 net.cpp:434] scale4a_branch1 <- res4a_branch1
I0309 19:22:41.654518  4658 net.cpp:395] scale4a_branch1 -> res4a_branch1 (in-place)
I0309 19:22:41.654575  4658 layer_factory.hpp:77] Creating layer scale4a_branch1
I0309 19:22:41.654752  4658 net.cpp:150] Setting up scale4a_branch1
I0309 19:22:41.654759  4658 net.cpp:157] Top shape: 8 1024 14 14 (1605632)
I0309 19:22:41.654762  4658 net.cpp:165] Memory required for data: 1432223776
I0309 19:22:41.654769  4658 layer_factory.hpp:77] Creating layer res4a_branch2a
I0309 19:22:41.654778  4658 net.cpp:100] Creating Layer res4a_branch2a
I0309 19:22:41.654783  4658 net.cpp:434] res4a_branch2a <- res3d_res3d_relu_0_split_1
I0309 19:22:41.654788  4658 net.cpp:408] res4a_branch2a -> res4a_branch2a
I0309 19:22:41.656054  4658 net.cpp:150] Setting up res4a_branch2a
I0309 19:22:41.656069  4658 net.cpp:157] Top shape: 8 256 14 14 (401408)
I0309 19:22:41.656072  4658 net.cpp:165] Memory required for data: 1433829408
I0309 19:22:41.656078  4658 layer_factory.hpp:77] Creating layer bn4a_branch2a
I0309 19:22:41.656085  4658 net.cpp:100] Creating Layer bn4a_branch2a
I0309 19:22:41.656090  4658 net.cpp:434] bn4a_branch2a <- res4a_branch2a
I0309 19:22:41.656095  4658 net.cpp:395] bn4a_branch2a -> res4a_branch2a (in-place)
I0309 19:22:41.656389  4658 net.cpp:150] Setting up bn4a_branch2a
I0309 19:22:41.656399  4658 net.cpp:157] Top shape: 8 256 14 14 (401408)
I0309 19:22:41.656401  4658 net.cpp:165] Memory required for data: 1435435040
I0309 19:22:41.656409  4658 layer_factory.hpp:77] Creating layer scale4a_branch2a
I0309 19:22:41.656415  4658 net.cpp:100] Creating Layer scale4a_branch2a
I0309 19:22:41.656419  4658 net.cpp:434] scale4a_branch2a <- res4a_branch2a
I0309 19:22:41.656425  4658 net.cpp:395] scale4a_branch2a -> res4a_branch2a (in-place)
I0309 19:22:41.656484  4658 layer_factory.hpp:77] Creating layer scale4a_branch2a
I0309 19:22:41.656646  4658 net.cpp:150] Setting up scale4a_branch2a
I0309 19:22:41.656653  4658 net.cpp:157] Top shape: 8 256 14 14 (401408)
I0309 19:22:41.656656  4658 net.cpp:165] Memory required for data: 1437040672
I0309 19:22:41.656663  4658 layer_factory.hpp:77] Creating layer res4a_branch2a_relu
I0309 19:22:41.656669  4658 net.cpp:100] Creating Layer res4a_branch2a_relu
I0309 19:22:41.656673  4658 net.cpp:434] res4a_branch2a_relu <- res4a_branch2a
I0309 19:22:41.656679  4658 net.cpp:395] res4a_branch2a_relu -> res4a_branch2a (in-place)
I0309 19:22:41.656853  4658 net.cpp:150] Setting up res4a_branch2a_relu
I0309 19:22:41.656863  4658 net.cpp:157] Top shape: 8 256 14 14 (401408)
I0309 19:22:41.656867  4658 net.cpp:165] Memory required for data: 1438646304
I0309 19:22:41.656870  4658 layer_factory.hpp:77] Creating layer res4a_branch2b
I0309 19:22:41.656878  4658 net.cpp:100] Creating Layer res4a_branch2b
I0309 19:22:41.656883  4658 net.cpp:434] res4a_branch2b <- res4a_branch2a
I0309 19:22:41.656890  4658 net.cpp:408] res4a_branch2b -> res4a_branch2b
I0309 19:22:41.659914  4658 net.cpp:150] Setting up res4a_branch2b
I0309 19:22:41.659930  4658 net.cpp:157] Top shape: 8 256 14 14 (401408)
I0309 19:22:41.659934  4658 net.cpp:165] Memory required for data: 1440251936
I0309 19:22:41.659941  4658 layer_factory.hpp:77] Creating layer bn4a_branch2b
I0309 19:22:41.659950  4658 net.cpp:100] Creating Layer bn4a_branch2b
I0309 19:22:41.659955  4658 net.cpp:434] bn4a_branch2b <- res4a_branch2b
I0309 19:22:41.659960  4658 net.cpp:395] bn4a_branch2b -> res4a_branch2b (in-place)
I0309 19:22:41.660279  4658 net.cpp:150] Setting up bn4a_branch2b
I0309 19:22:41.660286  4658 net.cpp:157] Top shape: 8 256 14 14 (401408)
I0309 19:22:41.660290  4658 net.cpp:165] Memory required for data: 1441857568
I0309 19:22:41.660297  4658 layer_factory.hpp:77] Creating layer scale4a_branch2b
I0309 19:22:41.660306  4658 net.cpp:100] Creating Layer scale4a_branch2b
I0309 19:22:41.660310  4658 net.cpp:434] scale4a_branch2b <- res4a_branch2b
I0309 19:22:41.660317  4658 net.cpp:395] scale4a_branch2b -> res4a_branch2b (in-place)
I0309 19:22:41.660379  4658 layer_factory.hpp:77] Creating layer scale4a_branch2b
I0309 19:22:41.660545  4658 net.cpp:150] Setting up scale4a_branch2b
I0309 19:22:41.660553  4658 net.cpp:157] Top shape: 8 256 14 14 (401408)
I0309 19:22:41.660557  4658 net.cpp:165] Memory required for data: 1443463200
I0309 19:22:41.660563  4658 layer_factory.hpp:77] Creating layer res4a_branch2b_relu
I0309 19:22:41.660571  4658 net.cpp:100] Creating Layer res4a_branch2b_relu
I0309 19:22:41.660575  4658 net.cpp:434] res4a_branch2b_relu <- res4a_branch2b
I0309 19:22:41.660580  4658 net.cpp:395] res4a_branch2b_relu -> res4a_branch2b (in-place)
I0309 19:22:41.660760  4658 net.cpp:150] Setting up res4a_branch2b_relu
I0309 19:22:41.660771  4658 net.cpp:157] Top shape: 8 256 14 14 (401408)
I0309 19:22:41.660774  4658 net.cpp:165] Memory required for data: 1445068832
I0309 19:22:41.660778  4658 layer_factory.hpp:77] Creating layer res4a_branch2c
I0309 19:22:41.660786  4658 net.cpp:100] Creating Layer res4a_branch2c
I0309 19:22:41.660790  4658 net.cpp:434] res4a_branch2c <- res4a_branch2b
I0309 19:22:41.660797  4658 net.cpp:408] res4a_branch2c -> res4a_branch2c
I0309 19:22:41.663238  4658 net.cpp:150] Setting up res4a_branch2c
I0309 19:22:41.663254  4658 net.cpp:157] Top shape: 8 1024 14 14 (1605632)
I0309 19:22:41.663259  4658 net.cpp:165] Memory required for data: 1451491360
I0309 19:22:41.663265  4658 layer_factory.hpp:77] Creating layer bn4a_branch2c
I0309 19:22:41.663271  4658 net.cpp:100] Creating Layer bn4a_branch2c
I0309 19:22:41.663275  4658 net.cpp:434] bn4a_branch2c <- res4a_branch2c
I0309 19:22:41.663282  4658 net.cpp:395] bn4a_branch2c -> res4a_branch2c (in-place)
I0309 19:22:41.663596  4658 net.cpp:150] Setting up bn4a_branch2c
I0309 19:22:41.663604  4658 net.cpp:157] Top shape: 8 1024 14 14 (1605632)
I0309 19:22:41.663607  4658 net.cpp:165] Memory required for data: 1457913888
I0309 19:22:41.663615  4658 layer_factory.hpp:77] Creating layer scale4a_branch2c
I0309 19:22:41.663624  4658 net.cpp:100] Creating Layer scale4a_branch2c
I0309 19:22:41.663626  4658 net.cpp:434] scale4a_branch2c <- res4a_branch2c
I0309 19:22:41.663633  4658 net.cpp:395] scale4a_branch2c -> res4a_branch2c (in-place)
I0309 19:22:41.663693  4658 layer_factory.hpp:77] Creating layer scale4a_branch2c
I0309 19:22:41.663873  4658 net.cpp:150] Setting up scale4a_branch2c
I0309 19:22:41.663882  4658 net.cpp:157] Top shape: 8 1024 14 14 (1605632)
I0309 19:22:41.663884  4658 net.cpp:165] Memory required for data: 1464336416
I0309 19:22:41.663892  4658 layer_factory.hpp:77] Creating layer res4a
I0309 19:22:41.663897  4658 net.cpp:100] Creating Layer res4a
I0309 19:22:41.663902  4658 net.cpp:434] res4a <- res4a_branch1
I0309 19:22:41.663906  4658 net.cpp:434] res4a <- res4a_branch2c
I0309 19:22:41.663910  4658 net.cpp:408] res4a -> res4a
I0309 19:22:41.663947  4658 net.cpp:150] Setting up res4a
I0309 19:22:41.663954  4658 net.cpp:157] Top shape: 8 1024 14 14 (1605632)
I0309 19:22:41.663957  4658 net.cpp:165] Memory required for data: 1470758944
I0309 19:22:41.663961  4658 layer_factory.hpp:77] Creating layer res4a_relu
I0309 19:22:41.663967  4658 net.cpp:100] Creating Layer res4a_relu
I0309 19:22:41.663971  4658 net.cpp:434] res4a_relu <- res4a
I0309 19:22:41.663976  4658 net.cpp:395] res4a_relu -> res4a (in-place)
I0309 19:22:41.664505  4658 net.cpp:150] Setting up res4a_relu
I0309 19:22:41.664518  4658 net.cpp:157] Top shape: 8 1024 14 14 (1605632)
I0309 19:22:41.664521  4658 net.cpp:165] Memory required for data: 1477181472
I0309 19:22:41.664525  4658 layer_factory.hpp:77] Creating layer res4a_res4a_relu_0_split
I0309 19:22:41.664558  4658 net.cpp:100] Creating Layer res4a_res4a_relu_0_split
I0309 19:22:41.664563  4658 net.cpp:434] res4a_res4a_relu_0_split <- res4a
I0309 19:22:41.664571  4658 net.cpp:408] res4a_res4a_relu_0_split -> res4a_res4a_relu_0_split_0
I0309 19:22:41.664577  4658 net.cpp:408] res4a_res4a_relu_0_split -> res4a_res4a_relu_0_split_1
I0309 19:22:41.664638  4658 net.cpp:150] Setting up res4a_res4a_relu_0_split
I0309 19:22:41.664645  4658 net.cpp:157] Top shape: 8 1024 14 14 (1605632)
I0309 19:22:41.664649  4658 net.cpp:157] Top shape: 8 1024 14 14 (1605632)
I0309 19:22:41.664652  4658 net.cpp:165] Memory required for data: 1490026528
I0309 19:22:41.664656  4658 layer_factory.hpp:77] Creating layer res4b_branch2a
I0309 19:22:41.664666  4658 net.cpp:100] Creating Layer res4b_branch2a
I0309 19:22:41.664670  4658 net.cpp:434] res4b_branch2a <- res4a_res4a_relu_0_split_0
I0309 19:22:41.664676  4658 net.cpp:408] res4b_branch2a -> res4b_branch2a
I0309 19:22:41.665722  4658 net.cpp:150] Setting up res4b_branch2a
I0309 19:22:41.665735  4658 net.cpp:157] Top shape: 8 256 14 14 (401408)
I0309 19:22:41.665738  4658 net.cpp:165] Memory required for data: 1491632160
I0309 19:22:41.665745  4658 layer_factory.hpp:77] Creating layer bn4b_branch2a
I0309 19:22:41.665752  4658 net.cpp:100] Creating Layer bn4b_branch2a
I0309 19:22:41.665756  4658 net.cpp:434] bn4b_branch2a <- res4b_branch2a
I0309 19:22:41.665761  4658 net.cpp:395] bn4b_branch2a -> res4b_branch2a (in-place)
I0309 19:22:41.666059  4658 net.cpp:150] Setting up bn4b_branch2a
I0309 19:22:41.666067  4658 net.cpp:157] Top shape: 8 256 14 14 (401408)
I0309 19:22:41.666070  4658 net.cpp:165] Memory required for data: 1493237792
I0309 19:22:41.666079  4658 layer_factory.hpp:77] Creating layer scale4b_branch2a
I0309 19:22:41.666085  4658 net.cpp:100] Creating Layer scale4b_branch2a
I0309 19:22:41.666090  4658 net.cpp:434] scale4b_branch2a <- res4b_branch2a
I0309 19:22:41.666095  4658 net.cpp:395] scale4b_branch2a -> res4b_branch2a (in-place)
I0309 19:22:41.666155  4658 layer_factory.hpp:77] Creating layer scale4b_branch2a
I0309 19:22:41.666319  4658 net.cpp:150] Setting up scale4b_branch2a
I0309 19:22:41.666327  4658 net.cpp:157] Top shape: 8 256 14 14 (401408)
I0309 19:22:41.666330  4658 net.cpp:165] Memory required for data: 1494843424
I0309 19:22:41.666337  4658 layer_factory.hpp:77] Creating layer res4b_branch2a_relu
I0309 19:22:41.666344  4658 net.cpp:100] Creating Layer res4b_branch2a_relu
I0309 19:22:41.666349  4658 net.cpp:434] res4b_branch2a_relu <- res4b_branch2a
I0309 19:22:41.666353  4658 net.cpp:395] res4b_branch2a_relu -> res4b_branch2a (in-place)
I0309 19:22:41.666874  4658 net.cpp:150] Setting up res4b_branch2a_relu
I0309 19:22:41.666887  4658 net.cpp:157] Top shape: 8 256 14 14 (401408)
I0309 19:22:41.666891  4658 net.cpp:165] Memory required for data: 1496449056
I0309 19:22:41.666894  4658 layer_factory.hpp:77] Creating layer res4b_branch2b
I0309 19:22:41.666904  4658 net.cpp:100] Creating Layer res4b_branch2b
I0309 19:22:41.666908  4658 net.cpp:434] res4b_branch2b <- res4b_branch2a
I0309 19:22:41.666916  4658 net.cpp:408] res4b_branch2b -> res4b_branch2b
I0309 19:22:41.669987  4658 net.cpp:150] Setting up res4b_branch2b
I0309 19:22:41.670004  4658 net.cpp:157] Top shape: 8 256 14 14 (401408)
I0309 19:22:41.670008  4658 net.cpp:165] Memory required for data: 1498054688
I0309 19:22:41.670017  4658 layer_factory.hpp:77] Creating layer bn4b_branch2b
I0309 19:22:41.670022  4658 net.cpp:100] Creating Layer bn4b_branch2b
I0309 19:22:41.670027  4658 net.cpp:434] bn4b_branch2b <- res4b_branch2b
I0309 19:22:41.670033  4658 net.cpp:395] bn4b_branch2b -> res4b_branch2b (in-place)
I0309 19:22:41.670346  4658 net.cpp:150] Setting up bn4b_branch2b
I0309 19:22:41.670353  4658 net.cpp:157] Top shape: 8 256 14 14 (401408)
I0309 19:22:41.670356  4658 net.cpp:165] Memory required for data: 1499660320
I0309 19:22:41.670363  4658 layer_factory.hpp:77] Creating layer scale4b_branch2b
I0309 19:22:41.670372  4658 net.cpp:100] Creating Layer scale4b_branch2b
I0309 19:22:41.670380  4658 net.cpp:434] scale4b_branch2b <- res4b_branch2b
I0309 19:22:41.670387  4658 net.cpp:395] scale4b_branch2b -> res4b_branch2b (in-place)
I0309 19:22:41.670449  4658 layer_factory.hpp:77] Creating layer scale4b_branch2b
I0309 19:22:41.670619  4658 net.cpp:150] Setting up scale4b_branch2b
I0309 19:22:41.670626  4658 net.cpp:157] Top shape: 8 256 14 14 (401408)
I0309 19:22:41.670629  4658 net.cpp:165] Memory required for data: 1501265952
I0309 19:22:41.670636  4658 layer_factory.hpp:77] Creating layer res4b_branch2b_relu
I0309 19:22:41.670642  4658 net.cpp:100] Creating Layer res4b_branch2b_relu
I0309 19:22:41.670646  4658 net.cpp:434] res4b_branch2b_relu <- res4b_branch2b
I0309 19:22:41.670651  4658 net.cpp:395] res4b_branch2b_relu -> res4b_branch2b (in-place)
I0309 19:22:41.670832  4658 net.cpp:150] Setting up res4b_branch2b_relu
I0309 19:22:41.670842  4658 net.cpp:157] Top shape: 8 256 14 14 (401408)
I0309 19:22:41.670846  4658 net.cpp:165] Memory required for data: 1502871584
I0309 19:22:41.670850  4658 layer_factory.hpp:77] Creating layer res4b_branch2c
I0309 19:22:41.670858  4658 net.cpp:100] Creating Layer res4b_branch2c
I0309 19:22:41.670863  4658 net.cpp:434] res4b_branch2c <- res4b_branch2b
I0309 19:22:41.670869  4658 net.cpp:408] res4b_branch2c -> res4b_branch2c
I0309 19:22:41.673326  4658 net.cpp:150] Setting up res4b_branch2c
I0309 19:22:41.673341  4658 net.cpp:157] Top shape: 8 1024 14 14 (1605632)
I0309 19:22:41.673346  4658 net.cpp:165] Memory required for data: 1509294112
I0309 19:22:41.673352  4658 layer_factory.hpp:77] Creating layer bn4b_branch2c
I0309 19:22:41.673358  4658 net.cpp:100] Creating Layer bn4b_branch2c
I0309 19:22:41.673362  4658 net.cpp:434] bn4b_branch2c <- res4b_branch2c
I0309 19:22:41.673368  4658 net.cpp:395] bn4b_branch2c -> res4b_branch2c (in-place)
I0309 19:22:41.673694  4658 net.cpp:150] Setting up bn4b_branch2c
I0309 19:22:41.673702  4658 net.cpp:157] Top shape: 8 1024 14 14 (1605632)
I0309 19:22:41.673705  4658 net.cpp:165] Memory required for data: 1515716640
I0309 19:22:41.673713  4658 layer_factory.hpp:77] Creating layer scale4b_branch2c
I0309 19:22:41.673722  4658 net.cpp:100] Creating Layer scale4b_branch2c
I0309 19:22:41.673727  4658 net.cpp:434] scale4b_branch2c <- res4b_branch2c
I0309 19:22:41.673732  4658 net.cpp:395] scale4b_branch2c -> res4b_branch2c (in-place)
I0309 19:22:41.673791  4658 layer_factory.hpp:77] Creating layer scale4b_branch2c
I0309 19:22:41.673969  4658 net.cpp:150] Setting up scale4b_branch2c
I0309 19:22:41.673977  4658 net.cpp:157] Top shape: 8 1024 14 14 (1605632)
I0309 19:22:41.673980  4658 net.cpp:165] Memory required for data: 1522139168
I0309 19:22:41.673988  4658 layer_factory.hpp:77] Creating layer res4b
I0309 19:22:41.673995  4658 net.cpp:100] Creating Layer res4b
I0309 19:22:41.673997  4658 net.cpp:434] res4b <- res4a_res4a_relu_0_split_1
I0309 19:22:41.674002  4658 net.cpp:434] res4b <- res4b_branch2c
I0309 19:22:41.674007  4658 net.cpp:408] res4b -> res4b
I0309 19:22:41.674043  4658 net.cpp:150] Setting up res4b
I0309 19:22:41.674051  4658 net.cpp:157] Top shape: 8 1024 14 14 (1605632)
I0309 19:22:41.674053  4658 net.cpp:165] Memory required for data: 1528561696
I0309 19:22:41.674057  4658 layer_factory.hpp:77] Creating layer res4b_relu
I0309 19:22:41.674062  4658 net.cpp:100] Creating Layer res4b_relu
I0309 19:22:41.674067  4658 net.cpp:434] res4b_relu <- res4b
I0309 19:22:41.674070  4658 net.cpp:395] res4b_relu -> res4b (in-place)
I0309 19:22:41.674247  4658 net.cpp:150] Setting up res4b_relu
I0309 19:22:41.674257  4658 net.cpp:157] Top shape: 8 1024 14 14 (1605632)
I0309 19:22:41.674259  4658 net.cpp:165] Memory required for data: 1534984224
I0309 19:22:41.674263  4658 layer_factory.hpp:77] Creating layer res4b_res4b_relu_0_split
I0309 19:22:41.674270  4658 net.cpp:100] Creating Layer res4b_res4b_relu_0_split
I0309 19:22:41.674274  4658 net.cpp:434] res4b_res4b_relu_0_split <- res4b
I0309 19:22:41.674280  4658 net.cpp:408] res4b_res4b_relu_0_split -> res4b_res4b_relu_0_split_0
I0309 19:22:41.674293  4658 net.cpp:408] res4b_res4b_relu_0_split -> res4b_res4b_relu_0_split_1
I0309 19:22:41.674365  4658 net.cpp:150] Setting up res4b_res4b_relu_0_split
I0309 19:22:41.674371  4658 net.cpp:157] Top shape: 8 1024 14 14 (1605632)
I0309 19:22:41.674377  4658 net.cpp:157] Top shape: 8 1024 14 14 (1605632)
I0309 19:22:41.674381  4658 net.cpp:165] Memory required for data: 1547829280
I0309 19:22:41.674384  4658 layer_factory.hpp:77] Creating layer res4c_branch2a
I0309 19:22:41.674393  4658 net.cpp:100] Creating Layer res4c_branch2a
I0309 19:22:41.674397  4658 net.cpp:434] res4c_branch2a <- res4b_res4b_relu_0_split_0
I0309 19:22:41.674402  4658 net.cpp:408] res4c_branch2a -> res4c_branch2a
I0309 19:22:41.675745  4658 net.cpp:150] Setting up res4c_branch2a
I0309 19:22:41.675760  4658 net.cpp:157] Top shape: 8 256 14 14 (401408)
I0309 19:22:41.675763  4658 net.cpp:165] Memory required for data: 1549434912
I0309 19:22:41.675770  4658 layer_factory.hpp:77] Creating layer bn4c_branch2a
I0309 19:22:41.675777  4658 net.cpp:100] Creating Layer bn4c_branch2a
I0309 19:22:41.675781  4658 net.cpp:434] bn4c_branch2a <- res4c_branch2a
I0309 19:22:41.675786  4658 net.cpp:395] bn4c_branch2a -> res4c_branch2a (in-place)
I0309 19:22:41.676095  4658 net.cpp:150] Setting up bn4c_branch2a
I0309 19:22:41.676102  4658 net.cpp:157] Top shape: 8 256 14 14 (401408)
I0309 19:22:41.676105  4658 net.cpp:165] Memory required for data: 1551040544
I0309 19:22:41.676113  4658 layer_factory.hpp:77] Creating layer scale4c_branch2a
I0309 19:22:41.676120  4658 net.cpp:100] Creating Layer scale4c_branch2a
I0309 19:22:41.676125  4658 net.cpp:434] scale4c_branch2a <- res4c_branch2a
I0309 19:22:41.676129  4658 net.cpp:395] scale4c_branch2a -> res4c_branch2a (in-place)
I0309 19:22:41.676190  4658 layer_factory.hpp:77] Creating layer scale4c_branch2a
I0309 19:22:41.676359  4658 net.cpp:150] Setting up scale4c_branch2a
I0309 19:22:41.676368  4658 net.cpp:157] Top shape: 8 256 14 14 (401408)
I0309 19:22:41.676371  4658 net.cpp:165] Memory required for data: 1552646176
I0309 19:22:41.676378  4658 layer_factory.hpp:77] Creating layer res4c_branch2a_relu
I0309 19:22:41.676384  4658 net.cpp:100] Creating Layer res4c_branch2a_relu
I0309 19:22:41.676388  4658 net.cpp:434] res4c_branch2a_relu <- res4c_branch2a
I0309 19:22:41.676393  4658 net.cpp:395] res4c_branch2a_relu -> res4c_branch2a (in-place)
I0309 19:22:41.676573  4658 net.cpp:150] Setting up res4c_branch2a_relu
I0309 19:22:41.676581  4658 net.cpp:157] Top shape: 8 256 14 14 (401408)
I0309 19:22:41.676585  4658 net.cpp:165] Memory required for data: 1554251808
I0309 19:22:41.676589  4658 layer_factory.hpp:77] Creating layer res4c_branch2b
I0309 19:22:41.676597  4658 net.cpp:100] Creating Layer res4c_branch2b
I0309 19:22:41.676601  4658 net.cpp:434] res4c_branch2b <- res4c_branch2a
I0309 19:22:41.676609  4658 net.cpp:408] res4c_branch2b -> res4c_branch2b
I0309 19:22:41.680189  4658 net.cpp:150] Setting up res4c_branch2b
I0309 19:22:41.680205  4658 net.cpp:157] Top shape: 8 256 14 14 (401408)
I0309 19:22:41.680209  4658 net.cpp:165] Memory required for data: 1555857440
I0309 19:22:41.680217  4658 layer_factory.hpp:77] Creating layer bn4c_branch2b
I0309 19:22:41.680225  4658 net.cpp:100] Creating Layer bn4c_branch2b
I0309 19:22:41.680229  4658 net.cpp:434] bn4c_branch2b <- res4c_branch2b
I0309 19:22:41.680235  4658 net.cpp:395] bn4c_branch2b -> res4c_branch2b (in-place)
I0309 19:22:41.680552  4658 net.cpp:150] Setting up bn4c_branch2b
I0309 19:22:41.680562  4658 net.cpp:157] Top shape: 8 256 14 14 (401408)
I0309 19:22:41.680565  4658 net.cpp:165] Memory required for data: 1557463072
I0309 19:22:41.680572  4658 layer_factory.hpp:77] Creating layer scale4c_branch2b
I0309 19:22:41.680579  4658 net.cpp:100] Creating Layer scale4c_branch2b
I0309 19:22:41.680583  4658 net.cpp:434] scale4c_branch2b <- res4c_branch2b
I0309 19:22:41.680589  4658 net.cpp:395] scale4c_branch2b -> res4c_branch2b (in-place)
I0309 19:22:41.680654  4658 layer_factory.hpp:77] Creating layer scale4c_branch2b
I0309 19:22:41.680826  4658 net.cpp:150] Setting up scale4c_branch2b
I0309 19:22:41.680840  4658 net.cpp:157] Top shape: 8 256 14 14 (401408)
I0309 19:22:41.680843  4658 net.cpp:165] Memory required for data: 1559068704
I0309 19:22:41.680850  4658 layer_factory.hpp:77] Creating layer res4c_branch2b_relu
I0309 19:22:41.680856  4658 net.cpp:100] Creating Layer res4c_branch2b_relu
I0309 19:22:41.680860  4658 net.cpp:434] res4c_branch2b_relu <- res4c_branch2b
I0309 19:22:41.680866  4658 net.cpp:395] res4c_branch2b_relu -> res4c_branch2b (in-place)
I0309 19:22:41.681105  4658 net.cpp:150] Setting up res4c_branch2b_relu
I0309 19:22:41.681118  4658 net.cpp:157] Top shape: 8 256 14 14 (401408)
I0309 19:22:41.681120  4658 net.cpp:165] Memory required for data: 1560674336
I0309 19:22:41.681124  4658 layer_factory.hpp:77] Creating layer res4c_branch2c
I0309 19:22:41.681135  4658 net.cpp:100] Creating Layer res4c_branch2c
I0309 19:22:41.681139  4658 net.cpp:434] res4c_branch2c <- res4c_branch2b
I0309 19:22:41.681146  4658 net.cpp:408] res4c_branch2c -> res4c_branch2c
I0309 19:22:41.683555  4658 net.cpp:150] Setting up res4c_branch2c
I0309 19:22:41.683570  4658 net.cpp:157] Top shape: 8 1024 14 14 (1605632)
I0309 19:22:41.683574  4658 net.cpp:165] Memory required for data: 1567096864
I0309 19:22:41.683581  4658 layer_factory.hpp:77] Creating layer bn4c_branch2c
I0309 19:22:41.683590  4658 net.cpp:100] Creating Layer bn4c_branch2c
I0309 19:22:41.683594  4658 net.cpp:434] bn4c_branch2c <- res4c_branch2c
I0309 19:22:41.683600  4658 net.cpp:395] bn4c_branch2c -> res4c_branch2c (in-place)
I0309 19:22:41.683948  4658 net.cpp:150] Setting up bn4c_branch2c
I0309 19:22:41.683956  4658 net.cpp:157] Top shape: 8 1024 14 14 (1605632)
I0309 19:22:41.683959  4658 net.cpp:165] Memory required for data: 1573519392
I0309 19:22:41.683967  4658 layer_factory.hpp:77] Creating layer scale4c_branch2c
I0309 19:22:41.683975  4658 net.cpp:100] Creating Layer scale4c_branch2c
I0309 19:22:41.683979  4658 net.cpp:434] scale4c_branch2c <- res4c_branch2c
I0309 19:22:41.683984  4658 net.cpp:395] scale4c_branch2c -> res4c_branch2c (in-place)
I0309 19:22:41.684044  4658 layer_factory.hpp:77] Creating layer scale4c_branch2c
I0309 19:22:41.684226  4658 net.cpp:150] Setting up scale4c_branch2c
I0309 19:22:41.684233  4658 net.cpp:157] Top shape: 8 1024 14 14 (1605632)
I0309 19:22:41.684237  4658 net.cpp:165] Memory required for data: 1579941920
I0309 19:22:41.684244  4658 layer_factory.hpp:77] Creating layer res4c
I0309 19:22:41.684252  4658 net.cpp:100] Creating Layer res4c
I0309 19:22:41.684255  4658 net.cpp:434] res4c <- res4b_res4b_relu_0_split_1
I0309 19:22:41.684260  4658 net.cpp:434] res4c <- res4c_branch2c
I0309 19:22:41.684265  4658 net.cpp:408] res4c -> res4c
I0309 19:22:41.684301  4658 net.cpp:150] Setting up res4c
I0309 19:22:41.684309  4658 net.cpp:157] Top shape: 8 1024 14 14 (1605632)
I0309 19:22:41.684311  4658 net.cpp:165] Memory required for data: 1586364448
I0309 19:22:41.684314  4658 layer_factory.hpp:77] Creating layer res4c_relu
I0309 19:22:41.684321  4658 net.cpp:100] Creating Layer res4c_relu
I0309 19:22:41.684325  4658 net.cpp:434] res4c_relu <- res4c
I0309 19:22:41.684330  4658 net.cpp:395] res4c_relu -> res4c (in-place)
I0309 19:22:41.684861  4658 net.cpp:150] Setting up res4c_relu
I0309 19:22:41.684875  4658 net.cpp:157] Top shape: 8 1024 14 14 (1605632)
I0309 19:22:41.684878  4658 net.cpp:165] Memory required for data: 1592786976
I0309 19:22:41.684882  4658 layer_factory.hpp:77] Creating layer res4c_res4c_relu_0_split
I0309 19:22:41.684890  4658 net.cpp:100] Creating Layer res4c_res4c_relu_0_split
I0309 19:22:41.684895  4658 net.cpp:434] res4c_res4c_relu_0_split <- res4c
I0309 19:22:41.684903  4658 net.cpp:408] res4c_res4c_relu_0_split -> res4c_res4c_relu_0_split_0
I0309 19:22:41.684911  4658 net.cpp:408] res4c_res4c_relu_0_split -> res4c_res4c_relu_0_split_1
I0309 19:22:41.685009  4658 net.cpp:150] Setting up res4c_res4c_relu_0_split
I0309 19:22:41.685017  4658 net.cpp:157] Top shape: 8 1024 14 14 (1605632)
I0309 19:22:41.685022  4658 net.cpp:157] Top shape: 8 1024 14 14 (1605632)
I0309 19:22:41.685031  4658 net.cpp:165] Memory required for data: 1605632032
I0309 19:22:41.685035  4658 layer_factory.hpp:77] Creating layer res4d_branch2a
I0309 19:22:41.685045  4658 net.cpp:100] Creating Layer res4d_branch2a
I0309 19:22:41.685050  4658 net.cpp:434] res4d_branch2a <- res4c_res4c_relu_0_split_0
I0309 19:22:41.685055  4658 net.cpp:408] res4d_branch2a -> res4d_branch2a
I0309 19:22:41.686074  4658 net.cpp:150] Setting up res4d_branch2a
I0309 19:22:41.686086  4658 net.cpp:157] Top shape: 8 256 14 14 (401408)
I0309 19:22:41.686089  4658 net.cpp:165] Memory required for data: 1607237664
I0309 19:22:41.686095  4658 layer_factory.hpp:77] Creating layer bn4d_branch2a
I0309 19:22:41.686103  4658 net.cpp:100] Creating Layer bn4d_branch2a
I0309 19:22:41.686107  4658 net.cpp:434] bn4d_branch2a <- res4d_branch2a
I0309 19:22:41.686112  4658 net.cpp:395] bn4d_branch2a -> res4d_branch2a (in-place)
I0309 19:22:41.686419  4658 net.cpp:150] Setting up bn4d_branch2a
I0309 19:22:41.686426  4658 net.cpp:157] Top shape: 8 256 14 14 (401408)
I0309 19:22:41.686429  4658 net.cpp:165] Memory required for data: 1608843296
I0309 19:22:41.686436  4658 layer_factory.hpp:77] Creating layer scale4d_branch2a
I0309 19:22:41.686444  4658 net.cpp:100] Creating Layer scale4d_branch2a
I0309 19:22:41.686448  4658 net.cpp:434] scale4d_branch2a <- res4d_branch2a
I0309 19:22:41.686455  4658 net.cpp:395] scale4d_branch2a -> res4d_branch2a (in-place)
I0309 19:22:41.686517  4658 layer_factory.hpp:77] Creating layer scale4d_branch2a
I0309 19:22:41.686692  4658 net.cpp:150] Setting up scale4d_branch2a
I0309 19:22:41.686700  4658 net.cpp:157] Top shape: 8 256 14 14 (401408)
I0309 19:22:41.686703  4658 net.cpp:165] Memory required for data: 1610448928
I0309 19:22:41.686710  4658 layer_factory.hpp:77] Creating layer res4d_branch2a_relu
I0309 19:22:41.686715  4658 net.cpp:100] Creating Layer res4d_branch2a_relu
I0309 19:22:41.686719  4658 net.cpp:434] res4d_branch2a_relu <- res4d_branch2a
I0309 19:22:41.686723  4658 net.cpp:395] res4d_branch2a_relu -> res4d_branch2a (in-place)
I0309 19:22:41.687252  4658 net.cpp:150] Setting up res4d_branch2a_relu
I0309 19:22:41.687266  4658 net.cpp:157] Top shape: 8 256 14 14 (401408)
I0309 19:22:41.687270  4658 net.cpp:165] Memory required for data: 1612054560
I0309 19:22:41.687274  4658 layer_factory.hpp:77] Creating layer res4d_branch2b
I0309 19:22:41.687283  4658 net.cpp:100] Creating Layer res4d_branch2b
I0309 19:22:41.687288  4658 net.cpp:434] res4d_branch2b <- res4d_branch2a
I0309 19:22:41.687294  4658 net.cpp:408] res4d_branch2b -> res4d_branch2b
I0309 19:22:41.690435  4658 net.cpp:150] Setting up res4d_branch2b
I0309 19:22:41.690451  4658 net.cpp:157] Top shape: 8 256 14 14 (401408)
I0309 19:22:41.690455  4658 net.cpp:165] Memory required for data: 1613660192
I0309 19:22:41.690462  4658 layer_factory.hpp:77] Creating layer bn4d_branch2b
I0309 19:22:41.690469  4658 net.cpp:100] Creating Layer bn4d_branch2b
I0309 19:22:41.690474  4658 net.cpp:434] bn4d_branch2b <- res4d_branch2b
I0309 19:22:41.690480  4658 net.cpp:395] bn4d_branch2b -> res4d_branch2b (in-place)
I0309 19:22:41.690826  4658 net.cpp:150] Setting up bn4d_branch2b
I0309 19:22:41.690850  4658 net.cpp:157] Top shape: 8 256 14 14 (401408)
I0309 19:22:41.690853  4658 net.cpp:165] Memory required for data: 1615265824
I0309 19:22:41.690861  4658 layer_factory.hpp:77] Creating layer scale4d_branch2b
I0309 19:22:41.690871  4658 net.cpp:100] Creating Layer scale4d_branch2b
I0309 19:22:41.690874  4658 net.cpp:434] scale4d_branch2b <- res4d_branch2b
I0309 19:22:41.690879  4658 net.cpp:395] scale4d_branch2b -> res4d_branch2b (in-place)
I0309 19:22:41.690948  4658 layer_factory.hpp:77] Creating layer scale4d_branch2b
I0309 19:22:41.691133  4658 net.cpp:150] Setting up scale4d_branch2b
I0309 19:22:41.691140  4658 net.cpp:157] Top shape: 8 256 14 14 (401408)
I0309 19:22:41.691144  4658 net.cpp:165] Memory required for data: 1616871456
I0309 19:22:41.691166  4658 layer_factory.hpp:77] Creating layer res4d_branch2b_relu
I0309 19:22:41.691174  4658 net.cpp:100] Creating Layer res4d_branch2b_relu
I0309 19:22:41.691197  4658 net.cpp:434] res4d_branch2b_relu <- res4d_branch2b
I0309 19:22:41.691202  4658 net.cpp:395] res4d_branch2b_relu -> res4d_branch2b (in-place)
I0309 19:22:41.691387  4658 net.cpp:150] Setting up res4d_branch2b_relu
I0309 19:22:41.691397  4658 net.cpp:157] Top shape: 8 256 14 14 (401408)
I0309 19:22:41.691401  4658 net.cpp:165] Memory required for data: 1618477088
I0309 19:22:41.691404  4658 layer_factory.hpp:77] Creating layer res4d_branch2c
I0309 19:22:41.691413  4658 net.cpp:100] Creating Layer res4d_branch2c
I0309 19:22:41.691417  4658 net.cpp:434] res4d_branch2c <- res4d_branch2b
I0309 19:22:41.691426  4658 net.cpp:408] res4d_branch2c -> res4d_branch2c
I0309 19:22:41.693884  4658 net.cpp:150] Setting up res4d_branch2c
I0309 19:22:41.693900  4658 net.cpp:157] Top shape: 8 1024 14 14 (1605632)
I0309 19:22:41.693904  4658 net.cpp:165] Memory required for data: 1624899616
I0309 19:22:41.693912  4658 layer_factory.hpp:77] Creating layer bn4d_branch2c
I0309 19:22:41.693919  4658 net.cpp:100] Creating Layer bn4d_branch2c
I0309 19:22:41.693923  4658 net.cpp:434] bn4d_branch2c <- res4d_branch2c
I0309 19:22:41.693929  4658 net.cpp:395] bn4d_branch2c -> res4d_branch2c (in-place)
I0309 19:22:41.694257  4658 net.cpp:150] Setting up bn4d_branch2c
I0309 19:22:41.694264  4658 net.cpp:157] Top shape: 8 1024 14 14 (1605632)
I0309 19:22:41.694267  4658 net.cpp:165] Memory required for data: 1631322144
I0309 19:22:41.694275  4658 layer_factory.hpp:77] Creating layer scale4d_branch2c
I0309 19:22:41.694283  4658 net.cpp:100] Creating Layer scale4d_branch2c
I0309 19:22:41.694288  4658 net.cpp:434] scale4d_branch2c <- res4d_branch2c
I0309 19:22:41.694293  4658 net.cpp:395] scale4d_branch2c -> res4d_branch2c (in-place)
I0309 19:22:41.694355  4658 layer_factory.hpp:77] Creating layer scale4d_branch2c
I0309 19:22:41.694545  4658 net.cpp:150] Setting up scale4d_branch2c
I0309 19:22:41.694552  4658 net.cpp:157] Top shape: 8 1024 14 14 (1605632)
I0309 19:22:41.694555  4658 net.cpp:165] Memory required for data: 1637744672
I0309 19:22:41.694563  4658 layer_factory.hpp:77] Creating layer res4d
I0309 19:22:41.694569  4658 net.cpp:100] Creating Layer res4d
I0309 19:22:41.694572  4658 net.cpp:434] res4d <- res4c_res4c_relu_0_split_1
I0309 19:22:41.694577  4658 net.cpp:434] res4d <- res4d_branch2c
I0309 19:22:41.694582  4658 net.cpp:408] res4d -> res4d
I0309 19:22:41.694620  4658 net.cpp:150] Setting up res4d
I0309 19:22:41.694628  4658 net.cpp:157] Top shape: 8 1024 14 14 (1605632)
I0309 19:22:41.694630  4658 net.cpp:165] Memory required for data: 1644167200
I0309 19:22:41.694634  4658 layer_factory.hpp:77] Creating layer res4d_relu
I0309 19:22:41.694639  4658 net.cpp:100] Creating Layer res4d_relu
I0309 19:22:41.694643  4658 net.cpp:434] res4d_relu <- res4d
I0309 19:22:41.694648  4658 net.cpp:395] res4d_relu -> res4d (in-place)
I0309 19:22:41.694826  4658 net.cpp:150] Setting up res4d_relu
I0309 19:22:41.694836  4658 net.cpp:157] Top shape: 8 1024 14 14 (1605632)
I0309 19:22:41.694839  4658 net.cpp:165] Memory required for data: 1650589728
I0309 19:22:41.694842  4658 layer_factory.hpp:77] Creating layer res4d_res4d_relu_0_split
I0309 19:22:41.694849  4658 net.cpp:100] Creating Layer res4d_res4d_relu_0_split
I0309 19:22:41.694852  4658 net.cpp:434] res4d_res4d_relu_0_split <- res4d
I0309 19:22:41.694859  4658 net.cpp:408] res4d_res4d_relu_0_split -> res4d_res4d_relu_0_split_0
I0309 19:22:41.694866  4658 net.cpp:408] res4d_res4d_relu_0_split -> res4d_res4d_relu_0_split_1
I0309 19:22:41.694931  4658 net.cpp:150] Setting up res4d_res4d_relu_0_split
I0309 19:22:41.694938  4658 net.cpp:157] Top shape: 8 1024 14 14 (1605632)
I0309 19:22:41.694942  4658 net.cpp:157] Top shape: 8 1024 14 14 (1605632)
I0309 19:22:41.694945  4658 net.cpp:165] Memory required for data: 1663434784
I0309 19:22:41.694949  4658 layer_factory.hpp:77] Creating layer res4e_branch2a
I0309 19:22:41.694957  4658 net.cpp:100] Creating Layer res4e_branch2a
I0309 19:22:41.694962  4658 net.cpp:434] res4e_branch2a <- res4d_res4d_relu_0_split_0
I0309 19:22:41.694973  4658 net.cpp:408] res4e_branch2a -> res4e_branch2a
I0309 19:22:41.696375  4658 net.cpp:150] Setting up res4e_branch2a
I0309 19:22:41.696391  4658 net.cpp:157] Top shape: 8 256 14 14 (401408)
I0309 19:22:41.696395  4658 net.cpp:165] Memory required for data: 1665040416
I0309 19:22:41.696401  4658 layer_factory.hpp:77] Creating layer bn4e_branch2a
I0309 19:22:41.696408  4658 net.cpp:100] Creating Layer bn4e_branch2a
I0309 19:22:41.696411  4658 net.cpp:434] bn4e_branch2a <- res4e_branch2a
I0309 19:22:41.696419  4658 net.cpp:395] bn4e_branch2a -> res4e_branch2a (in-place)
I0309 19:22:41.696750  4658 net.cpp:150] Setting up bn4e_branch2a
I0309 19:22:41.696759  4658 net.cpp:157] Top shape: 8 256 14 14 (401408)
I0309 19:22:41.696763  4658 net.cpp:165] Memory required for data: 1666646048
I0309 19:22:41.696769  4658 layer_factory.hpp:77] Creating layer scale4e_branch2a
I0309 19:22:41.696776  4658 net.cpp:100] Creating Layer scale4e_branch2a
I0309 19:22:41.696780  4658 net.cpp:434] scale4e_branch2a <- res4e_branch2a
I0309 19:22:41.696787  4658 net.cpp:395] scale4e_branch2a -> res4e_branch2a (in-place)
I0309 19:22:41.696851  4658 layer_factory.hpp:77] Creating layer scale4e_branch2a
I0309 19:22:41.697067  4658 net.cpp:150] Setting up scale4e_branch2a
I0309 19:22:41.697077  4658 net.cpp:157] Top shape: 8 256 14 14 (401408)
I0309 19:22:41.697080  4658 net.cpp:165] Memory required for data: 1668251680
I0309 19:22:41.697088  4658 layer_factory.hpp:77] Creating layer res4e_branch2a_relu
I0309 19:22:41.697093  4658 net.cpp:100] Creating Layer res4e_branch2a_relu
I0309 19:22:41.697098  4658 net.cpp:434] res4e_branch2a_relu <- res4e_branch2a
I0309 19:22:41.697104  4658 net.cpp:395] res4e_branch2a_relu -> res4e_branch2a (in-place)
I0309 19:22:41.697320  4658 net.cpp:150] Setting up res4e_branch2a_relu
I0309 19:22:41.697329  4658 net.cpp:157] Top shape: 8 256 14 14 (401408)
I0309 19:22:41.697333  4658 net.cpp:165] Memory required for data: 1669857312
I0309 19:22:41.697336  4658 layer_factory.hpp:77] Creating layer res4e_branch2b
I0309 19:22:41.697345  4658 net.cpp:100] Creating Layer res4e_branch2b
I0309 19:22:41.697350  4658 net.cpp:434] res4e_branch2b <- res4e_branch2a
I0309 19:22:41.697355  4658 net.cpp:408] res4e_branch2b -> res4e_branch2b
I0309 19:22:41.700354  4658 net.cpp:150] Setting up res4e_branch2b
I0309 19:22:41.700371  4658 net.cpp:157] Top shape: 8 256 14 14 (401408)
I0309 19:22:41.700374  4658 net.cpp:165] Memory required for data: 1671462944
I0309 19:22:41.700381  4658 layer_factory.hpp:77] Creating layer bn4e_branch2b
I0309 19:22:41.700389  4658 net.cpp:100] Creating Layer bn4e_branch2b
I0309 19:22:41.700393  4658 net.cpp:434] bn4e_branch2b <- res4e_branch2b
I0309 19:22:41.700399  4658 net.cpp:395] bn4e_branch2b -> res4e_branch2b (in-place)
I0309 19:22:41.700729  4658 net.cpp:150] Setting up bn4e_branch2b
I0309 19:22:41.700737  4658 net.cpp:157] Top shape: 8 256 14 14 (401408)
I0309 19:22:41.700742  4658 net.cpp:165] Memory required for data: 1673068576
I0309 19:22:41.700748  4658 layer_factory.hpp:77] Creating layer scale4e_branch2b
I0309 19:22:41.700757  4658 net.cpp:100] Creating Layer scale4e_branch2b
I0309 19:22:41.700762  4658 net.cpp:434] scale4e_branch2b <- res4e_branch2b
I0309 19:22:41.700767  4658 net.cpp:395] scale4e_branch2b -> res4e_branch2b (in-place)
I0309 19:22:41.700834  4658 layer_factory.hpp:77] Creating layer scale4e_branch2b
I0309 19:22:41.701040  4658 net.cpp:150] Setting up scale4e_branch2b
I0309 19:22:41.701050  4658 net.cpp:157] Top shape: 8 256 14 14 (401408)
I0309 19:22:41.701053  4658 net.cpp:165] Memory required for data: 1674674208
I0309 19:22:41.701061  4658 layer_factory.hpp:77] Creating layer res4e_branch2b_relu
I0309 19:22:41.701067  4658 net.cpp:100] Creating Layer res4e_branch2b_relu
I0309 19:22:41.701071  4658 net.cpp:434] res4e_branch2b_relu <- res4e_branch2b
I0309 19:22:41.701078  4658 net.cpp:395] res4e_branch2b_relu -> res4e_branch2b (in-place)
I0309 19:22:41.701301  4658 net.cpp:150] Setting up res4e_branch2b_relu
I0309 19:22:41.701311  4658 net.cpp:157] Top shape: 8 256 14 14 (401408)
I0309 19:22:41.701320  4658 net.cpp:165] Memory required for data: 1676279840
I0309 19:22:41.701324  4658 layer_factory.hpp:77] Creating layer res4e_branch2c
I0309 19:22:41.701334  4658 net.cpp:100] Creating Layer res4e_branch2c
I0309 19:22:41.701339  4658 net.cpp:434] res4e_branch2c <- res4e_branch2b
I0309 19:22:41.701344  4658 net.cpp:408] res4e_branch2c -> res4e_branch2c
I0309 19:22:41.703739  4658 net.cpp:150] Setting up res4e_branch2c
I0309 19:22:41.703757  4658 net.cpp:157] Top shape: 8 1024 14 14 (1605632)
I0309 19:22:41.703760  4658 net.cpp:165] Memory required for data: 1682702368
I0309 19:22:41.703768  4658 layer_factory.hpp:77] Creating layer bn4e_branch2c
I0309 19:22:41.703773  4658 net.cpp:100] Creating Layer bn4e_branch2c
I0309 19:22:41.703778  4658 net.cpp:434] bn4e_branch2c <- res4e_branch2c
I0309 19:22:41.703784  4658 net.cpp:395] bn4e_branch2c -> res4e_branch2c (in-place)
I0309 19:22:41.704118  4658 net.cpp:150] Setting up bn4e_branch2c
I0309 19:22:41.704129  4658 net.cpp:157] Top shape: 8 1024 14 14 (1605632)
I0309 19:22:41.704133  4658 net.cpp:165] Memory required for data: 1689124896
I0309 19:22:41.704140  4658 layer_factory.hpp:77] Creating layer scale4e_branch2c
I0309 19:22:41.704147  4658 net.cpp:100] Creating Layer scale4e_branch2c
I0309 19:22:41.704151  4658 net.cpp:434] scale4e_branch2c <- res4e_branch2c
I0309 19:22:41.704157  4658 net.cpp:395] scale4e_branch2c -> res4e_branch2c (in-place)
I0309 19:22:41.704222  4658 layer_factory.hpp:77] Creating layer scale4e_branch2c
I0309 19:22:41.704411  4658 net.cpp:150] Setting up scale4e_branch2c
I0309 19:22:41.704419  4658 net.cpp:157] Top shape: 8 1024 14 14 (1605632)
I0309 19:22:41.704422  4658 net.cpp:165] Memory required for data: 1695547424
I0309 19:22:41.704430  4658 layer_factory.hpp:77] Creating layer res4e
I0309 19:22:41.704435  4658 net.cpp:100] Creating Layer res4e
I0309 19:22:41.704439  4658 net.cpp:434] res4e <- res4d_res4d_relu_0_split_1
I0309 19:22:41.704443  4658 net.cpp:434] res4e <- res4e_branch2c
I0309 19:22:41.704450  4658 net.cpp:408] res4e -> res4e
I0309 19:22:41.704488  4658 net.cpp:150] Setting up res4e
I0309 19:22:41.704494  4658 net.cpp:157] Top shape: 8 1024 14 14 (1605632)
I0309 19:22:41.704497  4658 net.cpp:165] Memory required for data: 1701969952
I0309 19:22:41.704501  4658 layer_factory.hpp:77] Creating layer res4e_relu
I0309 19:22:41.704509  4658 net.cpp:100] Creating Layer res4e_relu
I0309 19:22:41.704512  4658 net.cpp:434] res4e_relu <- res4e
I0309 19:22:41.704516  4658 net.cpp:395] res4e_relu -> res4e (in-place)
I0309 19:22:41.705135  4658 net.cpp:150] Setting up res4e_relu
I0309 19:22:41.705150  4658 net.cpp:157] Top shape: 8 1024 14 14 (1605632)
I0309 19:22:41.705153  4658 net.cpp:165] Memory required for data: 1708392480
I0309 19:22:41.705157  4658 layer_factory.hpp:77] Creating layer res4e_res4e_relu_0_split
I0309 19:22:41.705166  4658 net.cpp:100] Creating Layer res4e_res4e_relu_0_split
I0309 19:22:41.705171  4658 net.cpp:434] res4e_res4e_relu_0_split <- res4e
I0309 19:22:41.705178  4658 net.cpp:408] res4e_res4e_relu_0_split -> res4e_res4e_relu_0_split_0
I0309 19:22:41.705186  4658 net.cpp:408] res4e_res4e_relu_0_split -> res4e_res4e_relu_0_split_1
I0309 19:22:41.705289  4658 net.cpp:150] Setting up res4e_res4e_relu_0_split
I0309 19:22:41.705297  4658 net.cpp:157] Top shape: 8 1024 14 14 (1605632)
I0309 19:22:41.705302  4658 net.cpp:157] Top shape: 8 1024 14 14 (1605632)
I0309 19:22:41.705304  4658 net.cpp:165] Memory required for data: 1721237536
I0309 19:22:41.705308  4658 layer_factory.hpp:77] Creating layer res4f_branch2a
I0309 19:22:41.705317  4658 net.cpp:100] Creating Layer res4f_branch2a
I0309 19:22:41.705322  4658 net.cpp:434] res4f_branch2a <- res4e_res4e_relu_0_split_0
I0309 19:22:41.705327  4658 net.cpp:408] res4f_branch2a -> res4f_branch2a
I0309 19:22:41.706332  4658 net.cpp:150] Setting up res4f_branch2a
I0309 19:22:41.706343  4658 net.cpp:157] Top shape: 8 256 14 14 (401408)
I0309 19:22:41.706346  4658 net.cpp:165] Memory required for data: 1722843168
I0309 19:22:41.706358  4658 layer_factory.hpp:77] Creating layer bn4f_branch2a
I0309 19:22:41.706367  4658 net.cpp:100] Creating Layer bn4f_branch2a
I0309 19:22:41.706370  4658 net.cpp:434] bn4f_branch2a <- res4f_branch2a
I0309 19:22:41.706375  4658 net.cpp:395] bn4f_branch2a -> res4f_branch2a (in-place)
I0309 19:22:41.706701  4658 net.cpp:150] Setting up bn4f_branch2a
I0309 19:22:41.706708  4658 net.cpp:157] Top shape: 8 256 14 14 (401408)
I0309 19:22:41.706712  4658 net.cpp:165] Memory required for data: 1724448800
I0309 19:22:41.706719  4658 layer_factory.hpp:77] Creating layer scale4f_branch2a
I0309 19:22:41.706727  4658 net.cpp:100] Creating Layer scale4f_branch2a
I0309 19:22:41.706730  4658 net.cpp:434] scale4f_branch2a <- res4f_branch2a
I0309 19:22:41.706737  4658 net.cpp:395] scale4f_branch2a -> res4f_branch2a (in-place)
I0309 19:22:41.706801  4658 layer_factory.hpp:77] Creating layer scale4f_branch2a
I0309 19:22:41.706977  4658 net.cpp:150] Setting up scale4f_branch2a
I0309 19:22:41.706985  4658 net.cpp:157] Top shape: 8 256 14 14 (401408)
I0309 19:22:41.706990  4658 net.cpp:165] Memory required for data: 1726054432
I0309 19:22:41.706996  4658 layer_factory.hpp:77] Creating layer res4f_branch2a_relu
I0309 19:22:41.707002  4658 net.cpp:100] Creating Layer res4f_branch2a_relu
I0309 19:22:41.707006  4658 net.cpp:434] res4f_branch2a_relu <- res4f_branch2a
I0309 19:22:41.707011  4658 net.cpp:395] res4f_branch2a_relu -> res4f_branch2a (in-place)
I0309 19:22:41.707553  4658 net.cpp:150] Setting up res4f_branch2a_relu
I0309 19:22:41.707566  4658 net.cpp:157] Top shape: 8 256 14 14 (401408)
I0309 19:22:41.707571  4658 net.cpp:165] Memory required for data: 1727660064
I0309 19:22:41.707574  4658 layer_factory.hpp:77] Creating layer res4f_branch2b
I0309 19:22:41.707583  4658 net.cpp:100] Creating Layer res4f_branch2b
I0309 19:22:41.707587  4658 net.cpp:434] res4f_branch2b <- res4f_branch2a
I0309 19:22:41.707595  4658 net.cpp:408] res4f_branch2b -> res4f_branch2b
I0309 19:22:41.710685  4658 net.cpp:150] Setting up res4f_branch2b
I0309 19:22:41.710700  4658 net.cpp:157] Top shape: 8 256 14 14 (401408)
I0309 19:22:41.710705  4658 net.cpp:165] Memory required for data: 1729265696
I0309 19:22:41.710712  4658 layer_factory.hpp:77] Creating layer bn4f_branch2b
I0309 19:22:41.710718  4658 net.cpp:100] Creating Layer bn4f_branch2b
I0309 19:22:41.710722  4658 net.cpp:434] bn4f_branch2b <- res4f_branch2b
I0309 19:22:41.710728  4658 net.cpp:395] bn4f_branch2b -> res4f_branch2b (in-place)
I0309 19:22:41.711061  4658 net.cpp:150] Setting up bn4f_branch2b
I0309 19:22:41.711071  4658 net.cpp:157] Top shape: 8 256 14 14 (401408)
I0309 19:22:41.711074  4658 net.cpp:165] Memory required for data: 1730871328
I0309 19:22:41.711081  4658 layer_factory.hpp:77] Creating layer scale4f_branch2b
I0309 19:22:41.711088  4658 net.cpp:100] Creating Layer scale4f_branch2b
I0309 19:22:41.711092  4658 net.cpp:434] scale4f_branch2b <- res4f_branch2b
I0309 19:22:41.711098  4658 net.cpp:395] scale4f_branch2b -> res4f_branch2b (in-place)
I0309 19:22:41.711164  4658 layer_factory.hpp:77] Creating layer scale4f_branch2b
I0309 19:22:41.711345  4658 net.cpp:150] Setting up scale4f_branch2b
I0309 19:22:41.711354  4658 net.cpp:157] Top shape: 8 256 14 14 (401408)
I0309 19:22:41.711356  4658 net.cpp:165] Memory required for data: 1732476960
I0309 19:22:41.711364  4658 layer_factory.hpp:77] Creating layer res4f_branch2b_relu
I0309 19:22:41.711369  4658 net.cpp:100] Creating Layer res4f_branch2b_relu
I0309 19:22:41.711374  4658 net.cpp:434] res4f_branch2b_relu <- res4f_branch2b
I0309 19:22:41.711380  4658 net.cpp:395] res4f_branch2b_relu -> res4f_branch2b (in-place)
I0309 19:22:41.711566  4658 net.cpp:150] Setting up res4f_branch2b_relu
I0309 19:22:41.711576  4658 net.cpp:157] Top shape: 8 256 14 14 (401408)
I0309 19:22:41.711580  4658 net.cpp:165] Memory required for data: 1734082592
I0309 19:22:41.711582  4658 layer_factory.hpp:77] Creating layer res4f_branch2c
I0309 19:22:41.711592  4658 net.cpp:100] Creating Layer res4f_branch2c
I0309 19:22:41.711597  4658 net.cpp:434] res4f_branch2c <- res4f_branch2b
I0309 19:22:41.711608  4658 net.cpp:408] res4f_branch2c -> res4f_branch2c
I0309 19:22:41.714221  4658 net.cpp:150] Setting up res4f_branch2c
I0309 19:22:41.714236  4658 net.cpp:157] Top shape: 8 1024 14 14 (1605632)
I0309 19:22:41.714241  4658 net.cpp:165] Memory required for data: 1740505120
I0309 19:22:41.714247  4658 layer_factory.hpp:77] Creating layer bn4f_branch2c
I0309 19:22:41.714256  4658 net.cpp:100] Creating Layer bn4f_branch2c
I0309 19:22:41.714259  4658 net.cpp:434] bn4f_branch2c <- res4f_branch2c
I0309 19:22:41.714265  4658 net.cpp:395] bn4f_branch2c -> res4f_branch2c (in-place)
I0309 19:22:41.714603  4658 net.cpp:150] Setting up bn4f_branch2c
I0309 19:22:41.714612  4658 net.cpp:157] Top shape: 8 1024 14 14 (1605632)
I0309 19:22:41.714614  4658 net.cpp:165] Memory required for data: 1746927648
I0309 19:22:41.714660  4658 layer_factory.hpp:77] Creating layer scale4f_branch2c
I0309 19:22:41.714668  4658 net.cpp:100] Creating Layer scale4f_branch2c
I0309 19:22:41.714673  4658 net.cpp:434] scale4f_branch2c <- res4f_branch2c
I0309 19:22:41.714678  4658 net.cpp:395] scale4f_branch2c -> res4f_branch2c (in-place)
I0309 19:22:41.714740  4658 layer_factory.hpp:77] Creating layer scale4f_branch2c
I0309 19:22:41.714936  4658 net.cpp:150] Setting up scale4f_branch2c
I0309 19:22:41.714943  4658 net.cpp:157] Top shape: 8 1024 14 14 (1605632)
I0309 19:22:41.714946  4658 net.cpp:165] Memory required for data: 1753350176
I0309 19:22:41.714954  4658 layer_factory.hpp:77] Creating layer res4f
I0309 19:22:41.714960  4658 net.cpp:100] Creating Layer res4f
I0309 19:22:41.714964  4658 net.cpp:434] res4f <- res4e_res4e_relu_0_split_1
I0309 19:22:41.714968  4658 net.cpp:434] res4f <- res4f_branch2c
I0309 19:22:41.714973  4658 net.cpp:408] res4f -> res4f
I0309 19:22:41.715013  4658 net.cpp:150] Setting up res4f
I0309 19:22:41.715019  4658 net.cpp:157] Top shape: 8 1024 14 14 (1605632)
I0309 19:22:41.715023  4658 net.cpp:165] Memory required for data: 1759772704
I0309 19:22:41.715025  4658 layer_factory.hpp:77] Creating layer res4f_relu
I0309 19:22:41.715031  4658 net.cpp:100] Creating Layer res4f_relu
I0309 19:22:41.715034  4658 net.cpp:434] res4f_relu <- res4f
I0309 19:22:41.715040  4658 net.cpp:395] res4f_relu -> res4f (in-place)
I0309 19:22:41.715219  4658 net.cpp:150] Setting up res4f_relu
I0309 19:22:41.715227  4658 net.cpp:157] Top shape: 8 1024 14 14 (1605632)
I0309 19:22:41.715230  4658 net.cpp:165] Memory required for data: 1766195232
I0309 19:22:41.715234  4658 layer_factory.hpp:77] Creating layer res4f_res4f_relu_0_split
I0309 19:22:41.715240  4658 net.cpp:100] Creating Layer res4f_res4f_relu_0_split
I0309 19:22:41.715243  4658 net.cpp:434] res4f_res4f_relu_0_split <- res4f
I0309 19:22:41.715250  4658 net.cpp:408] res4f_res4f_relu_0_split -> res4f_res4f_relu_0_split_0
I0309 19:22:41.715256  4658 net.cpp:408] res4f_res4f_relu_0_split -> res4f_res4f_relu_0_split_1
I0309 19:22:41.715322  4658 net.cpp:150] Setting up res4f_res4f_relu_0_split
I0309 19:22:41.715329  4658 net.cpp:157] Top shape: 8 1024 14 14 (1605632)
I0309 19:22:41.715333  4658 net.cpp:157] Top shape: 8 1024 14 14 (1605632)
I0309 19:22:41.715337  4658 net.cpp:165] Memory required for data: 1779040288
I0309 19:22:41.715340  4658 layer_factory.hpp:77] Creating layer res5a_branch1
I0309 19:22:41.715348  4658 net.cpp:100] Creating Layer res5a_branch1
I0309 19:22:41.715353  4658 net.cpp:434] res5a_branch1 <- res4f_res4f_relu_0_split_0
I0309 19:22:41.715360  4658 net.cpp:408] res5a_branch1 -> res5a_branch1
I0309 19:22:41.720350  4658 net.cpp:150] Setting up res5a_branch1
I0309 19:22:41.720366  4658 net.cpp:157] Top shape: 8 2048 7 7 (802816)
I0309 19:22:41.720369  4658 net.cpp:165] Memory required for data: 1782251552
I0309 19:22:41.720376  4658 layer_factory.hpp:77] Creating layer bn5a_branch1
I0309 19:22:41.720381  4658 net.cpp:100] Creating Layer bn5a_branch1
I0309 19:22:41.720387  4658 net.cpp:434] bn5a_branch1 <- res5a_branch1
I0309 19:22:41.720392  4658 net.cpp:395] bn5a_branch1 -> res5a_branch1 (in-place)
I0309 19:22:41.720763  4658 net.cpp:150] Setting up bn5a_branch1
I0309 19:22:41.720777  4658 net.cpp:157] Top shape: 8 2048 7 7 (802816)
I0309 19:22:41.720779  4658 net.cpp:165] Memory required for data: 1785462816
I0309 19:22:41.720788  4658 layer_factory.hpp:77] Creating layer scale5a_branch1
I0309 19:22:41.720794  4658 net.cpp:100] Creating Layer scale5a_branch1
I0309 19:22:41.720798  4658 net.cpp:434] scale5a_branch1 <- res5a_branch1
I0309 19:22:41.720805  4658 net.cpp:395] scale5a_branch1 -> res5a_branch1 (in-place)
I0309 19:22:41.720870  4658 layer_factory.hpp:77] Creating layer scale5a_branch1
I0309 19:22:41.721101  4658 net.cpp:150] Setting up scale5a_branch1
I0309 19:22:41.721112  4658 net.cpp:157] Top shape: 8 2048 7 7 (802816)
I0309 19:22:41.721115  4658 net.cpp:165] Memory required for data: 1788674080
I0309 19:22:41.721122  4658 layer_factory.hpp:77] Creating layer res5a_branch2a
I0309 19:22:41.721132  4658 net.cpp:100] Creating Layer res5a_branch2a
I0309 19:22:41.721137  4658 net.cpp:434] res5a_branch2a <- res4f_res4f_relu_0_split_1
I0309 19:22:41.721143  4658 net.cpp:408] res5a_branch2a -> res5a_branch2a
I0309 19:22:41.723749  4658 net.cpp:150] Setting up res5a_branch2a
I0309 19:22:41.723767  4658 net.cpp:157] Top shape: 8 512 7 7 (200704)
I0309 19:22:41.723770  4658 net.cpp:165] Memory required for data: 1789476896
I0309 19:22:41.723778  4658 layer_factory.hpp:77] Creating layer bn5a_branch2a
I0309 19:22:41.723784  4658 net.cpp:100] Creating Layer bn5a_branch2a
I0309 19:22:41.723788  4658 net.cpp:434] bn5a_branch2a <- res5a_branch2a
I0309 19:22:41.723795  4658 net.cpp:395] bn5a_branch2a -> res5a_branch2a (in-place)
I0309 19:22:41.724187  4658 net.cpp:150] Setting up bn5a_branch2a
I0309 19:22:41.724198  4658 net.cpp:157] Top shape: 8 512 7 7 (200704)
I0309 19:22:41.724201  4658 net.cpp:165] Memory required for data: 1790279712
I0309 19:22:41.724210  4658 layer_factory.hpp:77] Creating layer scale5a_branch2a
I0309 19:22:41.724216  4658 net.cpp:100] Creating Layer scale5a_branch2a
I0309 19:22:41.724220  4658 net.cpp:434] scale5a_branch2a <- res5a_branch2a
I0309 19:22:41.724225  4658 net.cpp:395] scale5a_branch2a -> res5a_branch2a (in-place)
I0309 19:22:41.724290  4658 layer_factory.hpp:77] Creating layer scale5a_branch2a
I0309 19:22:41.724488  4658 net.cpp:150] Setting up scale5a_branch2a
I0309 19:22:41.724495  4658 net.cpp:157] Top shape: 8 512 7 7 (200704)
I0309 19:22:41.724498  4658 net.cpp:165] Memory required for data: 1791082528
I0309 19:22:41.724506  4658 layer_factory.hpp:77] Creating layer res5a_branch2a_relu
I0309 19:22:41.724512  4658 net.cpp:100] Creating Layer res5a_branch2a_relu
I0309 19:22:41.724516  4658 net.cpp:434] res5a_branch2a_relu <- res5a_branch2a
I0309 19:22:41.724522  4658 net.cpp:395] res5a_branch2a_relu -> res5a_branch2a (in-place)
I0309 19:22:41.724723  4658 net.cpp:150] Setting up res5a_branch2a_relu
I0309 19:22:41.724733  4658 net.cpp:157] Top shape: 8 512 7 7 (200704)
I0309 19:22:41.724737  4658 net.cpp:165] Memory required for data: 1791885344
I0309 19:22:41.724740  4658 layer_factory.hpp:77] Creating layer res5a_branch2b
I0309 19:22:41.724750  4658 net.cpp:100] Creating Layer res5a_branch2b
I0309 19:22:41.724755  4658 net.cpp:434] res5a_branch2b <- res5a_branch2a
I0309 19:22:41.724761  4658 net.cpp:408] res5a_branch2b -> res5a_branch2b
I0309 19:22:41.730216  4658 net.cpp:150] Setting up res5a_branch2b
I0309 19:22:41.730232  4658 net.cpp:157] Top shape: 8 512 7 7 (200704)
I0309 19:22:41.730237  4658 net.cpp:165] Memory required for data: 1792688160
I0309 19:22:41.730243  4658 layer_factory.hpp:77] Creating layer bn5a_branch2b
I0309 19:22:41.730250  4658 net.cpp:100] Creating Layer bn5a_branch2b
I0309 19:22:41.730255  4658 net.cpp:434] bn5a_branch2b <- res5a_branch2b
I0309 19:22:41.730260  4658 net.cpp:395] bn5a_branch2b -> res5a_branch2b (in-place)
I0309 19:22:41.730612  4658 net.cpp:150] Setting up bn5a_branch2b
I0309 19:22:41.730621  4658 net.cpp:157] Top shape: 8 512 7 7 (200704)
I0309 19:22:41.730625  4658 net.cpp:165] Memory required for data: 1793490976
I0309 19:22:41.730633  4658 layer_factory.hpp:77] Creating layer scale5a_branch2b
I0309 19:22:41.730645  4658 net.cpp:100] Creating Layer scale5a_branch2b
I0309 19:22:41.730650  4658 net.cpp:434] scale5a_branch2b <- res5a_branch2b
I0309 19:22:41.730655  4658 net.cpp:395] scale5a_branch2b -> res5a_branch2b (in-place)
I0309 19:22:41.730720  4658 layer_factory.hpp:77] Creating layer scale5a_branch2b
I0309 19:22:41.730916  4658 net.cpp:150] Setting up scale5a_branch2b
I0309 19:22:41.730923  4658 net.cpp:157] Top shape: 8 512 7 7 (200704)
I0309 19:22:41.730927  4658 net.cpp:165] Memory required for data: 1794293792
I0309 19:22:41.730935  4658 layer_factory.hpp:77] Creating layer res5a_branch2b_relu
I0309 19:22:41.730943  4658 net.cpp:100] Creating Layer res5a_branch2b_relu
I0309 19:22:41.730947  4658 net.cpp:434] res5a_branch2b_relu <- res5a_branch2b
I0309 19:22:41.730952  4658 net.cpp:395] res5a_branch2b_relu -> res5a_branch2b (in-place)
I0309 19:22:41.731132  4658 net.cpp:150] Setting up res5a_branch2b_relu
I0309 19:22:41.731142  4658 net.cpp:157] Top shape: 8 512 7 7 (200704)
I0309 19:22:41.731144  4658 net.cpp:165] Memory required for data: 1795096608
I0309 19:22:41.731148  4658 layer_factory.hpp:77] Creating layer res5a_branch2c
I0309 19:22:41.731158  4658 net.cpp:100] Creating Layer res5a_branch2c
I0309 19:22:41.731161  4658 net.cpp:434] res5a_branch2c <- res5a_branch2b
I0309 19:22:41.731168  4658 net.cpp:408] res5a_branch2c -> res5a_branch2c
I0309 19:22:41.734679  4658 net.cpp:150] Setting up res5a_branch2c
I0309 19:22:41.734694  4658 net.cpp:157] Top shape: 8 2048 7 7 (802816)
I0309 19:22:41.734697  4658 net.cpp:165] Memory required for data: 1798307872
I0309 19:22:41.734704  4658 layer_factory.hpp:77] Creating layer bn5a_branch2c
I0309 19:22:41.734714  4658 net.cpp:100] Creating Layer bn5a_branch2c
I0309 19:22:41.734717  4658 net.cpp:434] bn5a_branch2c <- res5a_branch2c
I0309 19:22:41.734722  4658 net.cpp:395] bn5a_branch2c -> res5a_branch2c (in-place)
I0309 19:22:41.735077  4658 net.cpp:150] Setting up bn5a_branch2c
I0309 19:22:41.735085  4658 net.cpp:157] Top shape: 8 2048 7 7 (802816)
I0309 19:22:41.735090  4658 net.cpp:165] Memory required for data: 1801519136
I0309 19:22:41.735096  4658 layer_factory.hpp:77] Creating layer scale5a_branch2c
I0309 19:22:41.735105  4658 net.cpp:100] Creating Layer scale5a_branch2c
I0309 19:22:41.735108  4658 net.cpp:434] scale5a_branch2c <- res5a_branch2c
I0309 19:22:41.735116  4658 net.cpp:395] scale5a_branch2c -> res5a_branch2c (in-place)
I0309 19:22:41.735179  4658 layer_factory.hpp:77] Creating layer scale5a_branch2c
I0309 19:22:41.735381  4658 net.cpp:150] Setting up scale5a_branch2c
I0309 19:22:41.735390  4658 net.cpp:157] Top shape: 8 2048 7 7 (802816)
I0309 19:22:41.735394  4658 net.cpp:165] Memory required for data: 1804730400
I0309 19:22:41.735400  4658 layer_factory.hpp:77] Creating layer res5a
I0309 19:22:41.735407  4658 net.cpp:100] Creating Layer res5a
I0309 19:22:41.735411  4658 net.cpp:434] res5a <- res5a_branch1
I0309 19:22:41.735416  4658 net.cpp:434] res5a <- res5a_branch2c
I0309 19:22:41.735420  4658 net.cpp:408] res5a -> res5a
I0309 19:22:41.735460  4658 net.cpp:150] Setting up res5a
I0309 19:22:41.735468  4658 net.cpp:157] Top shape: 8 2048 7 7 (802816)
…
I0309 19:22:41.899462  4658 net.cpp:493] Sharing parameters 'res4e_branch2a_w' owned by layer 'res4e_branch2a', param index 0
I0309 19:22:41.899466  4658 layer_factory.hpp:77] Creating layer bn4e_branch2a_p
I0309 19:22:41.899475  4658 net.cpp:100] Creating Layer bn4e_branch2a_p
I0309 19:22:41.899479  4658 net.cpp:434] bn4e_branch2a_p <- res4e_branch2a_p
I0309 19:22:41.899485  4658 net.cpp:395] bn4e_branch2a_p -> res4e_branch2a_p (in-place)
I0309 19:22:41.899907  4658 net.cpp:150] Setting up bn4e_branch2a_p
I0309 19:22:41.899916  4658 net.cpp:157] Top shape: 8 256 14 14 (401408)
I0309 19:22:41.899919  4658 net.cpp:165] Memory required for data: 3516465184
I0309 19:22:41.899926  4658 layer_factory.hpp:77] Creating layer scale4e_branch2a_p
I0309 19:22:41.899935  4658 net.cpp:100] Creating Layer scale4e_branch2a_p
I0309 19:22:41.899938  4658 net.cpp:434] scale4e_branch2a_p <- res4e_branch2a_p
I0309 19:22:41.899950  4658 net.cpp:395] scale4e_branch2a_p -> res4e_branch2a_p (in-place)
I0309 19:22:41.900027  4658 layer_factory.hpp:77] Creating layer scale4e_branch2a_p
I0309 19:22:41.900249  4658 net.cpp:150] Setting up scale4e_branch2a_p
I0309 19:22:41.900259  4658 net.cpp:157] Top shape: 8 256 14 14 (401408)
I0309 19:22:41.900261  4658 net.cpp:165] Memory required for data: 3518070816
I0309 19:22:41.900266  4658 net.cpp:493] Sharing parameters 'scale4e_branch2a_alpha' owned by layer 'scale4e_branch2a', param index 0
I0309 19:22:41.900271  4658 net.cpp:493] Sharing parameters 'scale4e_branch2a_beta' owned by layer 'scale4e_branch2a', param index 1
I0309 19:22:41.900274  4658 layer_factory.hpp:77] Creating layer res4e_branch2a_relu_p
I0309 19:22:41.900281  4658 net.cpp:100] Creating Layer res4e_branch2a_relu_p
I0309 19:22:41.900285  4658 net.cpp:434] res4e_branch2a_relu_p <- res4e_branch2a_p
I0309 19:22:41.900290  4658 net.cpp:395] res4e_branch2a_relu_p -> res4e_branch2a_p (in-place)
I0309 19:22:41.900910  4658 net.cpp:150] Setting up res4e_branch2a_relu_p
I0309 19:22:41.900923  4658 net.cpp:157] Top shape: 8 256 14 14 (401408)
I0309 19:22:41.900928  4658 net.cpp:165] Memory required for data: 3519676448
I0309 19:22:41.900931  4658 layer_factory.hpp:77] Creating layer res4e_branch2b_p
I0309 19:22:41.900962  4658 net.cpp:100] Creating Layer res4e_branch2b_p
I0309 19:22:41.900969  4658 net.cpp:434] res4e_branch2b_p <- res4e_branch2a_p
I0309 19:22:41.900976  4658 net.cpp:408] res4e_branch2b_p -> res4e_branch2b_p
I0309 19:22:41.903998  4658 net.cpp:150] Setting up res4e_branch2b_p
I0309 19:22:41.904014  4658 net.cpp:157] Top shape: 8 256 14 14 (401408)
I0309 19:22:41.904019  4658 net.cpp:165] Memory required for data: 3521282080
I0309 19:22:41.904024  4658 net.cpp:493] Sharing parameters 'res4e_branch2b_w' owned by layer 'res4e_branch2b', param index 0
I0309 19:22:41.904029  4658 layer_factory.hpp:77] Creating layer bn4e_branch2b_p
I0309 19:22:41.904036  4658 net.cpp:100] Creating Layer bn4e_branch2b_p
I0309 19:22:41.904040  4658 net.cpp:434] bn4e_branch2b_p <- res4e_branch2b_p
I0309 19:22:41.904047  4658 net.cpp:395] bn4e_branch2b_p -> res4e_branch2b_p (in-place)
I0309 19:22:41.904496  4658 net.cpp:150] Setting up bn4e_branch2b_p
I0309 19:22:41.904506  4658 net.cpp:157] Top shape: 8 256 14 14 (401408)
I0309 19:22:41.904510  4658 net.cpp:165] Memory required for data: 3522887712
I0309 19:22:41.904516  4658 layer_factory.hpp:77] Creating layer scale4e_branch2b_p
I0309 19:22:41.904523  4658 net.cpp:100] Creating Layer scale4e_branch2b_p
I0309 19:22:41.904527  4658 net.cpp:434] scale4e_branch2b_p <- res4e_branch2b_p
I0309 19:22:41.904534  4658 net.cpp:395] scale4e_branch2b_p -> res4e_branch2b_p (in-place)
I0309 19:22:41.904613  4658 layer_factory.hpp:77] Creating layer scale4e_branch2b_p
I0309 19:22:41.904840  4658 net.cpp:150] Setting up scale4e_branch2b_p
I0309 19:22:41.904848  4658 net.cpp:157] Top shape: 8 256 14 14 (401408)
I0309 19:22:41.904851  4658 net.cpp:165] Memory required for data: 3524493344
I0309 19:22:41.904856  4658 net.cpp:493] Sharing parameters 'scale4e_branch2b_alpha' owned by layer 'scale4e_branch2b', param index 0
I0309 19:22:41.904861  4658 net.cpp:493] Sharing parameters 'scale4e_branch2b_beta' owned by layer 'scale4e_branch2b', param index 1
I0309 19:22:41.904865  4658 layer_factory.hpp:77] Creating layer res4e_branch2b_relu_p
I0309 19:22:41.904871  4658 net.cpp:100] Creating Layer res4e_branch2b_relu_p
I0309 19:22:41.904875  4658 net.cpp:434] res4e_branch2b_relu_p <- res4e_branch2b_p
I0309 19:22:41.904881  4658 net.cpp:395] res4e_branch2b_relu_p -> res4e_branch2b_p (in-place)
I0309 19:22:41.905570  4658 net.cpp:150] Setting up res4e_branch2b_relu_p
I0309 19:22:41.905586  4658 net.cpp:157] Top shape: 8 256 14 14 (401408)
I0309 19:22:41.905588  4658 net.cpp:165] Memory required for data: 3526098976
I0309 19:22:41.905592  4658 layer_factory.hpp:77] Creating layer res4e_branch2c_p
I0309 19:22:41.905602  4658 net.cpp:100] Creating Layer res4e_branch2c_p
I0309 19:22:41.905611  4658 net.cpp:434] res4e_branch2c_p <- res4e_branch2b_p
I0309 19:22:41.905619  4658 net.cpp:408] res4e_branch2c_p -> res4e_branch2c_p
I0309 19:22:41.908313  4658 net.cpp:150] Setting up res4e_branch2c_p
I0309 19:22:41.908329  4658 net.cpp:157] Top shape: 8 1024 14 14 (1605632)
I0309 19:22:41.908332  4658 net.cpp:165] Memory required for data: 3532521504
I0309 19:22:41.908339  4658 net.cpp:493] Sharing parameters 'res4e_branch2c_w' owned by layer 'res4e_branch2c', param index 0
I0309 19:22:41.908342  4658 layer_factory.hpp:77] Creating layer bn4e_branch2c_p
I0309 19:22:41.908350  4658 net.cpp:100] Creating Layer bn4e_branch2c_p
I0309 19:22:41.908355  4658 net.cpp:434] bn4e_branch2c_p <- res4e_branch2c_p
I0309 19:22:41.908360  4658 net.cpp:395] bn4e_branch2c_p -> res4e_branch2c_p (in-place)
I0309 19:22:41.908779  4658 net.cpp:150] Setting up bn4e_branch2c_p
I0309 19:22:41.908788  4658 net.cpp:157] Top shape: 8 1024 14 14 (1605632)
I0309 19:22:41.908792  4658 net.cpp:165] Memory required for data: 3538944032
I0309 19:22:41.908799  4658 layer_factory.hpp:77] Creating layer scale4e_branch2c_p
I0309 19:22:41.908807  4658 net.cpp:100] Creating Layer scale4e_branch2c_p
I0309 19:22:41.908812  4658 net.cpp:434] scale4e_branch2c_p <- res4e_branch2c_p
I0309 19:22:41.908818  4658 net.cpp:395] scale4e_branch2c_p -> res4e_branch2c_p (in-place)
I0309 19:22:41.908893  4658 layer_factory.hpp:77] Creating layer scale4e_branch2c_p
I0309 19:22:41.909171  4658 net.cpp:150] Setting up scale4e_branch2c_p
I0309 19:22:41.909181  4658 net.cpp:157] Top shape: 8 1024 14 14 (1605632)
I0309 19:22:41.909184  4658 net.cpp:165] Memory required for data: 3545366560
I0309 19:22:41.909189  4658 net.cpp:493] Sharing parameters 'scale4e_branch2c_alpha' owned by layer 'scale4e_branch2c', param index 0
I0309 19:22:41.909195  4658 net.cpp:493] Sharing parameters 'scale4e_branch2c_beta' owned by layer 'scale4e_branch2c', param index 1
I0309 19:22:41.909199  4658 layer_factory.hpp:77] Creating layer res4e_p
I0309 19:22:41.909206  4658 net.cpp:100] Creating Layer res4e_p
I0309 19:22:41.909210  4658 net.cpp:434] res4e_p <- res4d_p_res4d_relu_p_0_split_1
I0309 19:22:41.909214  4658 net.cpp:434] res4e_p <- res4e_branch2c_p
I0309 19:22:41.909220  4658 net.cpp:408] res4e_p -> res4e_p
I0309 19:22:41.909299  4658 net.cpp:150] Setting up res4e_p
I0309 19:22:41.909307  4658 net.cpp:157] Top shape: 8 1024 14 14 (1605632)
I0309 19:22:41.909310  4658 net.cpp:165] Memory required for data: 3551789088
I0309 19:22:41.909313  4658 layer_factory.hpp:77] Creating layer res4e_relu_p
I0309 19:22:41.909319  4658 net.cpp:100] Creating Layer res4e_relu_p
I0309 19:22:41.909322  4658 net.cpp:434] res4e_relu_p <- res4e_p
I0309 19:22:41.909328  4658 net.cpp:395] res4e_relu_p -> res4e_p (in-place)
I0309 19:22:41.909526  4658 net.cpp:150] Setting up res4e_relu_p
I0309 19:22:41.909536  4658 net.cpp:157] Top shape: 8 1024 14 14 (1605632)
I0309 19:22:41.909539  4658 net.cpp:165] Memory required for data: 3558211616
I0309 19:22:41.909543  4658 layer_factory.hpp:77] Creating layer res4e_p_res4e_relu_p_0_split
I0309 19:22:41.909549  4658 net.cpp:100] Creating Layer res4e_p_res4e_relu_p_0_split
I0309 19:22:41.909552  4658 net.cpp:434] res4e_p_res4e_relu_p_0_split <- res4e_p
I0309 19:22:41.909559  4658 net.cpp:408] res4e_p_res4e_relu_p_0_split -> res4e_p_res4e_relu_p_0_split_0
I0309 19:22:41.909566  4658 net.cpp:408] res4e_p_res4e_relu_p_0_split -> res4e_p_res4e_relu_p_0_split_1
I0309 19:22:41.909648  4658 net.cpp:150] Setting up res4e_p_res4e_relu_p_0_split
I0309 19:22:41.909656  4658 net.cpp:157] Top shape: 8 1024 14 14 (1605632)
I0309 19:22:41.909659  4658 net.cpp:157] Top shape: 8 1024 14 14 (1605632)
I0309 19:22:41.909662  4658 net.cpp:165] Memory required for data: 3571056672
I0309 19:22:41.909667  4658 layer_factory.hpp:77] Creating layer res4f_branch2a_p
I0309 19:22:41.909674  4658 net.cpp:100] Creating Layer res4f_branch2a_p
I0309 19:22:41.909678  4658 net.cpp:434] res4f_branch2a_p <- res4e_p_res4e_relu_p_0_split_0
I0309 19:22:41.909685  4658 net.cpp:408] res4f_branch2a_p -> res4f_branch2a_p
I0309 19:22:41.911362  4658 net.cpp:150] Setting up res4f_branch2a_p
I0309 19:22:41.911378  4658 net.cpp:157] Top shape: 8 256 14 14 (401408)
I0309 19:22:41.911382  4658 net.cpp:165] Memory required for data: 3572662304
I0309 19:22:41.911387  4658 net.cpp:493] Sharing parameters 'res4f_branch2a_w' owned by layer 'res4f_branch2a', param index 0
I0309 19:22:41.911392  4658 layer_factory.hpp:77] Creating layer bn4f_branch2a_p
I0309 19:22:41.911398  4658 net.cpp:100] Creating Layer bn4f_branch2a_p
I0309 19:22:41.911402  4658 net.cpp:434] bn4f_branch2a_p <- res4f_branch2a_p
I0309 19:22:41.911409  4658 net.cpp:395] bn4f_branch2a_p -> res4f_branch2a_p (in-place)
I0309 19:22:41.911829  4658 net.cpp:150] Setting up bn4f_branch2a_p
I0309 19:22:41.911839  4658 net.cpp:157] Top shape: 8 256 14 14 (401408)
I0309 19:22:41.911842  4658 net.cpp:165] Memory required for data: 3574267936
I0309 19:22:41.911850  4658 layer_factory.hpp:77] Creating layer scale4f_branch2a_p
I0309 19:22:41.911857  4658 net.cpp:100] Creating Layer scale4f_branch2a_p
I0309 19:22:41.911861  4658 net.cpp:434] scale4f_branch2a_p <- res4f_branch2a_p
I0309 19:22:41.911867  4658 net.cpp:395] scale4f_branch2a_p -> res4f_branch2a_p (in-place)
I0309 19:22:41.911949  4658 layer_factory.hpp:77] Creating layer scale4f_branch2a_p
I0309 19:22:41.912179  4658 net.cpp:150] Setting up scale4f_branch2a_p
I0309 19:22:41.912187  4658 net.cpp:157] Top shape: 8 256 14 14 (401408)
I0309 19:22:41.912190  4658 net.cpp:165] Memory required for data: 3575873568
I0309 19:22:41.912195  4658 net.cpp:493] Sharing parameters 'scale4f_branch2a_alpha' owned by layer 'scale4f_branch2a', param index 0
I0309 19:22:41.912200  4658 net.cpp:493] Sharing parameters 'scale4f_branch2a_beta' owned by layer 'scale4f_branch2a', param index 1
I0309 19:22:41.912204  4658 layer_factory.hpp:77] Creating layer res4f_branch2a_relu_p
I0309 19:22:41.912209  4658 net.cpp:100] Creating Layer res4f_branch2a_relu_p
I0309 19:22:41.912214  4658 net.cpp:434] res4f_branch2a_relu_p <- res4f_branch2a_p
I0309 19:22:41.912220  4658 net.cpp:395] res4f_branch2a_relu_p -> res4f_branch2a_p (in-place)
I0309 19:22:41.912415  4658 net.cpp:150] Setting up res4f_branch2a_relu_p
I0309 19:22:41.912425  4658 net.cpp:157] Top shape: 8 256 14 14 (401408)
I0309 19:22:41.912428  4658 net.cpp:165] Memory required for data: 3577479200
I0309 19:22:41.912432  4658 layer_factory.hpp:77] Creating layer res4f_branch2b_p
I0309 19:22:41.912441  4658 net.cpp:100] Creating Layer res4f_branch2b_p
I0309 19:22:41.912446  4658 net.cpp:434] res4f_branch2b_p <- res4f_branch2a_p
I0309 19:22:41.912452  4658 net.cpp:408] res4f_branch2b_p -> res4f_branch2b_p
I0309 19:22:41.916386  4658 net.cpp:150] Setting up res4f_branch2b_p
I0309 19:22:41.916401  4658 net.cpp:157] Top shape: 8 256 14 14 (401408)
I0309 19:22:41.916405  4658 net.cpp:165] Memory required for data: 3579084832
I0309 19:22:41.916410  4658 net.cpp:493] Sharing parameters 'res4f_branch2b_w' owned by layer 'res4f_branch2b', param index 0
I0309 19:22:41.916415  4658 layer_factory.hpp:77] Creating layer bn4f_branch2b_p
I0309 19:22:41.916426  4658 net.cpp:100] Creating Layer bn4f_branch2b_p
I0309 19:22:41.916430  4658 net.cpp:434] bn4f_branch2b_p <- res4f_branch2b_p
I0309 19:22:41.916436  4658 net.cpp:395] bn4f_branch2b_p -> res4f_branch2b_p (in-place)
I0309 19:22:41.916867  4658 net.cpp:150] Setting up bn4f_branch2b_p
I0309 19:22:41.916875  4658 net.cpp:157] Top shape: 8 256 14 14 (401408)
I0309 19:22:41.916878  4658 net.cpp:165] Memory required for data: 3580690464
I0309 19:22:41.916885  4658 layer_factory.hpp:77] Creating layer scale4f_branch2b_p
I0309 19:22:41.916894  4658 net.cpp:100] Creating Layer scale4f_branch2b_p
I0309 19:22:41.916898  4658 net.cpp:434] scale4f_branch2b_p <- res4f_branch2b_p
I0309 19:22:41.916904  4658 net.cpp:395] scale4f_branch2b_p -> res4f_branch2b_p (in-place)
I0309 19:22:41.917011  4658 layer_factory.hpp:77] Creating layer scale4f_branch2b_p
I0309 19:22:41.917273  4658 net.cpp:150] Setting up scale4f_branch2b_p
I0309 19:22:41.917295  4658 net.cpp:157] Top shape: 8 256 14 14 (401408)
I0309 19:22:41.917304  4658 net.cpp:165] Memory required for data: 3582296096
I0309 19:22:41.917309  4658 net.cpp:493] Sharing parameters 'scale4f_branch2b_alpha' owned by layer 'scale4f_branch2b', param index 0
I0309 19:22:41.917315  4658 net.cpp:493] Sharing parameters 'scale4f_branch2b_beta' owned by layer 'scale4f_branch2b', param index 1
I0309 19:22:41.917317  4658 layer_factory.hpp:77] Creating layer res4f_branch2b_relu_p
I0309 19:22:41.917323  4658 net.cpp:100] Creating Layer res4f_branch2b_relu_p
I0309 19:22:41.917327  4658 net.cpp:434] res4f_branch2b_relu_p <- res4f_branch2b_p
I0309 19:22:41.917332  4658 net.cpp:395] res4f_branch2b_relu_p -> res4f_branch2b_p (in-place)
I0309 19:22:41.917536  4658 net.cpp:150] Setting up res4f_branch2b_relu_p
I0309 19:22:41.917546  4658 net.cpp:157] Top shape: 8 256 14 14 (401408)
I0309 19:22:41.917548  4658 net.cpp:165] Memory required for data: 3583901728
I0309 19:22:41.917552  4658 layer_factory.hpp:77] Creating layer res4f_branch2c_p
I0309 19:22:41.917562  4658 net.cpp:100] Creating Layer res4f_branch2c_p
I0309 19:22:41.917565  4658 net.cpp:434] res4f_branch2c_p <- res4f_branch2b_p
I0309 19:22:41.917573  4658 net.cpp:408] res4f_branch2c_p -> res4f_branch2c_p
I0309 19:22:41.920356  4658 net.cpp:150] Setting up res4f_branch2c_p
I0309 19:22:41.920369  4658 net.cpp:157] Top shape: 8 1024 14 14 (1605632)
I0309 19:22:41.920373  4658 net.cpp:165] Memory required for data: 3590324256
I0309 19:22:41.920378  4658 net.cpp:493] Sharing parameters 'res4f_branch2c_w' owned by layer 'res4f_branch2c', param index 0
I0309 19:22:41.920383  4658 layer_factory.hpp:77] Creating layer bn4f_branch2c_p
I0309 19:22:41.920389  4658 net.cpp:100] Creating Layer bn4f_branch2c_p
I0309 19:22:41.920393  4658 net.cpp:434] bn4f_branch2c_p <- res4f_branch2c_p
I0309 19:22:41.920400  4658 net.cpp:395] bn4f_branch2c_p -> res4f_branch2c_p (in-place)
I0309 19:22:41.920827  4658 net.cpp:150] Setting up bn4f_branch2c_p
I0309 19:22:41.920836  4658 net.cpp:157] Top shape: 8 1024 14 14 (1605632)
I0309 19:22:41.920840  4658 net.cpp:165] Memory required for data: 3596746784
I0309 19:22:41.920847  4658 layer_factory.hpp:77] Creating layer scale4f_branch2c_p
I0309 19:22:41.920855  4658 net.cpp:100] Creating Layer scale4f_branch2c_p
I0309 19:22:41.920859  4658 net.cpp:434] scale4f_branch2c_p <- res4f_branch2c_p
I0309 19:22:41.920864  4658 net.cpp:395] scale4f_branch2c_p -> res4f_branch2c_p (in-place)
I0309 19:22:41.920963  4658 layer_factory.hpp:77] Creating layer scale4f_branch2c_p
I0309 19:22:41.921221  4658 net.cpp:150] Setting up scale4f_branch2c_p
I0309 19:22:41.921229  4658 net.cpp:157] Top shape: 8 1024 14 14 (1605632)
I0309 19:22:41.921233  4658 net.cpp:165] Memory required for data: 3603169312
I0309 19:22:41.921238  4658 net.cpp:493] Sharing parameters 'scale4f_branch2c_alpha' owned by layer 'scale4f_branch2c', param index 0
I0309 19:22:41.921243  4658 net.cpp:493] Sharing parameters 'scale4f_branch2c_beta' owned by layer 'scale4f_branch2c', param index 1
I0309 19:22:41.921247  4658 layer_factory.hpp:77] Creating layer res4f_p
I0309 19:22:41.921268  4658 net.cpp:100] Creating Layer res4f_p
I0309 19:22:41.921272  4658 net.cpp:434] res4f_p <- res4e_p_res4e_relu_p_0_split_1
I0309 19:22:41.921293  4658 net.cpp:434] res4f_p <- res4f_branch2c_p
I0309 19:22:41.921298  4658 net.cpp:408] res4f_p -> res4f_p
I0309 19:22:41.921344  4658 net.cpp:150] Setting up res4f_p
I0309 19:22:41.921351  4658 net.cpp:157] Top shape: 8 1024 14 14 (1605632)
I0309 19:22:41.921355  4658 net.cpp:165] Memory required for data: 3609591840
I0309 19:22:41.921358  4658 layer_factory.hpp:77] Creating layer res4f_relu_p
I0309 19:22:41.921365  4658 net.cpp:100] Creating Layer res4f_relu_p
I0309 19:22:41.921367  4658 net.cpp:434] res4f_relu_p <- res4f_p
I0309 19:22:41.921372  4658 net.cpp:395] res4f_relu_p -> res4f_p (in-place)
I0309 19:22:41.921571  4658 net.cpp:150] Setting up res4f_relu_p
I0309 19:22:41.921579  4658 net.cpp:157] Top shape: 8 1024 14 14 (1605632)
I0309 19:22:41.921582  4658 net.cpp:165] Memory required for data: 3616014368
I0309 19:22:41.921591  4658 layer_factory.hpp:77] Creating layer res4f_p_res4f_relu_p_0_split
I0309 19:22:41.921598  4658 net.cpp:100] Creating Layer res4f_p_res4f_relu_p_0_split
I0309 19:22:41.921602  4658 net.cpp:434] res4f_p_res4f_relu_p_0_split <- res4f_p
I0309 19:22:41.921608  4658 net.cpp:408] res4f_p_res4f_relu_p_0_split -> res4f_p_res4f_relu_p_0_split_0
I0309 19:22:41.921617  4658 net.cpp:408] res4f_p_res4f_relu_p_0_split -> res4f_p_res4f_relu_p_0_split_1
I0309 19:22:41.921700  4658 net.cpp:150] Setting up res4f_p_res4f_relu_p_0_split
I0309 19:22:41.921706  4658 net.cpp:157] Top shape: 8 1024 14 14 (1605632)
I0309 19:22:41.921710  4658 net.cpp:157] Top shape: 8 1024 14 14 (1605632)
I0309 19:22:41.921715  4658 net.cpp:165] Memory required for data: 3628859424
I0309 19:22:41.921717  4658 layer_factory.hpp:77] Creating layer res5a_branch1_p
I0309 19:22:41.921727  4658 net.cpp:100] Creating Layer res5a_branch1_p
I0309 19:22:41.921730  4658 net.cpp:434] res5a_branch1_p <- res4f_p_res4f_relu_p_0_split_0
I0309 19:22:41.921736  4658 net.cpp:408] res5a_branch1_p -> res5a_branch1_p
I0309 19:22:41.926939  4658 net.cpp:150] Setting up res5a_branch1_p
I0309 19:22:41.926955  4658 net.cpp:157] Top shape: 8 2048 7 7 (802816)
I0309 19:22:41.926959  4658 net.cpp:165] Memory required for data: 3632070688
I0309 19:22:41.926965  4658 net.cpp:493] Sharing parameters 'res5a_branch1_w' owned by layer 'res5a_branch1', param index 0
I0309 19:22:41.926970  4658 layer_factory.hpp:77] Creating layer bn5a_branch1_p
I0309 19:22:41.926977  4658 net.cpp:100] Creating Layer bn5a_branch1_p
I0309 19:22:41.926981  4658 net.cpp:434] bn5a_branch1_p <- res5a_branch1_p
I0309 19:22:41.926987  4658 net.cpp:395] bn5a_branch1_p -> res5a_branch1_p (in-place)
I0309 19:22:41.927454  4658 net.cpp:150] Setting up bn5a_branch1_p
I0309 19:22:41.927462  4658 net.cpp:157] Top shape: 8 2048 7 7 (802816)
I0309 19:22:41.927466  4658 net.cpp:165] Memory required for data: 3635281952
I0309 19:22:41.927474  4658 layer_factory.hpp:77] Creating layer scale5a_branch1_p
I0309 19:22:41.927481  4658 net.cpp:100] Creating Layer scale5a_branch1_p
I0309 19:22:41.927485  4658 net.cpp:434] scale5a_branch1_p <- res5a_branch1_p
I0309 19:22:41.927490  4658 net.cpp:395] scale5a_branch1_p -> res5a_branch1_p (in-place)
I0309 19:22:41.927569  4658 layer_factory.hpp:77] Creating layer scale5a_branch1_p
I0309 19:22:41.927824  4658 net.cpp:150] Setting up scale5a_branch1_p
I0309 19:22:41.927832  4658 net.cpp:157] Top shape: 8 2048 7 7 (802816)
I0309 19:22:41.927835  4658 net.cpp:165] Memory required for data: 3638493216
I0309 19:22:41.927840  4658 net.cpp:493] Sharing parameters 'scale5a_branch1_alpha' owned by layer 'scale5a_branch1', param index 0
I0309 19:22:41.927845  4658 net.cpp:493] Sharing parameters 'scale5a_branch1_beta' owned by layer 'scale5a_branch1', param index 1
I0309 19:22:41.927850  4658 layer_factory.hpp:77] Creating layer res5a_branch2a_p
I0309 19:22:41.927857  4658 net.cpp:100] Creating Layer res5a_branch2a_p
I0309 19:22:41.927862  4658 net.cpp:434] res5a_branch2a_p <- res4f_p_res4f_relu_p_0_split_1
I0309 19:22:41.927868  4658 net.cpp:408] res5a_branch2a_p -> res5a_branch2a_p
I0309 19:22:41.930717  4658 net.cpp:150] Setting up res5a_branch2a_p
I0309 19:22:41.930732  4658 net.cpp:157] Top shape: 8 512 7 7 (200704)
I0309 19:22:41.930737  4658 net.cpp:165] Memory required for data: 3639296032
I0309 19:22:41.930742  4658 net.cpp:493] Sharing parameters 'res5a_branch2a_w' owned by layer 'res5a_branch2a', param index 0
I0309 19:22:41.930745  4658 layer_factory.hpp:77] Creating layer bn5a_branch2a_p
I0309 19:22:41.930753  4658 net.cpp:100] Creating Layer bn5a_branch2a_p
I0309 19:22:41.930758  4658 net.cpp:434] bn5a_branch2a_p <- res5a_branch2a_p
I0309 19:22:41.930765  4658 net.cpp:395] bn5a_branch2a_p -> res5a_branch2a_p (in-place)
I0309 19:22:41.931196  4658 net.cpp:150] Setting up bn5a_branch2a_p
I0309 19:22:41.931205  4658 net.cpp:157] Top shape: 8 512 7 7 (200704)
I0309 19:22:41.931207  4658 net.cpp:165] Memory required for data: 3640098848
I0309 19:22:41.931221  4658 layer_factory.hpp:77] Creating layer scale5a_branch2a_p
I0309 19:22:41.931231  4658 net.cpp:100] Creating Layer scale5a_branch2a_p
I0309 19:22:41.931234  4658 net.cpp:434] scale5a_branch2a_p <- res5a_branch2a_p
I0309 19:22:41.931241  4658 net.cpp:395] scale5a_branch2a_p -> res5a_branch2a_p (in-place)
I0309 19:22:41.931318  4658 layer_factory.hpp:77] Creating layer scale5a_branch2a_p
I0309 19:22:41.931568  4658 net.cpp:150] Setting up scale5a_branch2a_p
I0309 19:22:41.931576  4658 net.cpp:157] Top shape: 8 512 7 7 (200704)
I0309 19:22:41.931581  4658 net.cpp:165] Memory required for data: 3640901664
I0309 19:22:41.931586  4658 net.cpp:493] Sharing parameters 'scale5a_branch2a_alpha' owned by layer 'scale5a_branch2a', param index 0
I0309 19:22:41.931591  4658 net.cpp:493] Sharing parameters 'scale5a_branch2a_beta' owned by layer 'scale5a_branch2a', param index 1
I0309 19:22:41.931593  4658 layer_factory.hpp:77] Creating layer res5a_branch2a_relu_p
I0309 19:22:41.931599  4658 net.cpp:100] Creating Layer res5a_branch2a_relu_p
I0309 19:22:41.931603  4658 net.cpp:434] res5a_branch2a_relu_p <- res5a_branch2a_p
I0309 19:22:41.931609  4658 net.cpp:395] res5a_branch2a_relu_p -> res5a_branch2a_p (in-place)
I0309 19:22:41.931808  4658 net.cpp:150] Setting up res5a_branch2a_relu_p
I0309 19:22:41.931818  4658 net.cpp:157] Top shape: 8 512 7 7 (200704)
I0309 19:22:41.931821  4658 net.cpp:165] Memory required for data: 3641704480
I0309 19:22:41.931825  4658 layer_factory.hpp:77] Creating layer res5a_branch2b_p
I0309 19:22:41.931835  4658 net.cpp:100] Creating Layer res5a_branch2b_p
I0309 19:22:41.931839  4658 net.cpp:434] res5a_branch2b_p <- res5a_branch2a_p
I0309 19:22:41.931845  4658 net.cpp:408] res5a_branch2b_p -> res5a_branch2b_p
I0309 19:22:41.937769  4658 net.cpp:150] Setting up res5a_branch2b_p
I0309 19:22:41.937788  4658 net.cpp:157] Top shape: 8 512 7 7 (200704)
I0309 19:22:41.937793  4658 net.cpp:165] Memory required for data: 3642507296
I0309 19:22:41.937798  4658 net.cpp:493] Sharing parameters 'res5a_branch2b_w' owned by layer 'res5a_branch2b', param index 0
I0309 19:22:41.937803  4658 layer_factory.hpp:77] Creating layer bn5a_branch2b_p
I0309 19:22:41.937810  4658 net.cpp:100] Creating Layer bn5a_branch2b_p
I0309 19:22:41.937815  4658 net.cpp:434] bn5a_branch2b_p <- res5a_branch2b_p
I0309 19:22:41.937820  4658 net.cpp:395] bn5a_branch2b_p -> res5a_branch2b_p (in-place)
I0309 19:22:41.938261  4658 net.cpp:150] Setting up bn5a_branch2b_p
I0309 19:22:41.938268  4658 net.cpp:157] Top shape: 8 512 7 7 (200704)
I0309 19:22:41.938271  4658 net.cpp:165] Memory required for data: 3643310112
I0309 19:22:41.938279  4658 layer_factory.hpp:77] Creating layer scale5a_branch2b_p
I0309 19:22:41.938287  4658 net.cpp:100] Creating Layer scale5a_branch2b_p
I0309 19:22:41.938292  4658 net.cpp:434] scale5a_branch2b_p <- res5a_branch2b_p
I0309 19:22:41.938297  4658 net.cpp:395] scale5a_branch2b_p -> res5a_branch2b_p (in-place)
I0309 19:22:41.938377  4658 layer_factory.hpp:77] Creating layer scale5a_branch2b_p
I0309 19:22:41.938658  4658 net.cpp:150] Setting up scale5a_branch2b_p
I0309 19:22:41.938668  4658 net.cpp:157] Top shape: 8 512 7 7 (200704)
I0309 19:22:41.938670  4658 net.cpp:165] Memory required for data: 3644112928
I0309 19:22:41.938675  4658 net.cpp:493] Sharing parameters 'scale5a_branch2b_alpha' owned by layer 'scale5a_branch2b', param index 0
I0309 19:22:41.938681  4658 net.cpp:493] Sharing parameters 'scale5a_branch2b_beta' owned by layer 'scale5a_branch2b', param index 1
I0309 19:22:41.938684  4658 layer_factory.hpp:77] Creating layer res5a_branch2b_relu_p
I0309 19:22:41.938693  4658 net.cpp:100] Creating Layer res5a_branch2b_relu_p
I0309 19:22:41.938711  4658 net.cpp:434] res5a_branch2b_relu_p <- res5a_branch2b_p
I0309 19:22:41.938715  4658 net.cpp:395] res5a_branch2b_relu_p -> res5a_branch2b_p (in-place)
I0309 19:22:41.939440  4658 net.cpp:150] Setting up res5a_branch2b_relu_p
I0309 19:22:41.939453  4658 net.cpp:157] Top shape: 8 512 7 7 (200704)
I0309 19:22:41.939456  4658 net.cpp:165] Memory required for data: 3644915744
I0309 19:22:41.939465  4658 layer_factory.hpp:77] Creating layer res5a_branch2c_p
I0309 19:22:41.939476  4658 net.cpp:100] Creating Layer res5a_branch2c_p
I0309 19:22:41.939481  4658 net.cpp:434] res5a_branch2c_p <- res5a_branch2b_p
I0309 19:22:41.939487  4658 net.cpp:408] res5a_branch2c_p -> res5a_branch2c_p
I0309 19:22:41.943331  4658 net.cpp:150] Setting up res5a_branch2c_p
I0309 19:22:41.943346  4658 net.cpp:157] Top shape: 8 2048 7 7 (802816)
I0309 19:22:41.943349  4658 net.cpp:165] Memory required for data: 3648127008
I0309 19:22:41.943356  4658 net.cpp:493] Sharing parameters 'res5a_branch2c_w' owned by layer 'res5a_branch2c', param index 0
I0309 19:22:41.943359  4658 layer_factory.hpp:77] Creating layer bn5a_branch2c_p
I0309 19:22:41.943367  4658 net.cpp:100] Creating Layer bn5a_branch2c_p
I0309 19:22:41.943372  4658 net.cpp:434] bn5a_branch2c_p <- res5a_branch2c_p
I0309 19:22:41.943377  4658 net.cpp:395] bn5a_branch2c_p -> res5a_branch2c_p (in-place)
I0309 19:22:41.943821  4658 net.cpp:150] Setting up bn5a_branch2c_p
I0309 19:22:41.943830  4658 net.cpp:157] Top shape: 8 2048 7 7 (802816)
I0309 19:22:41.943833  4658 net.cpp:165] Memory required for data: 3651338272
I0309 19:22:41.943840  4658 layer_factory.hpp:77] Creating layer scale5a_branch2c_p
I0309 19:22:41.943848  4658 net.cpp:100] Creating Layer scale5a_branch2c_p
I0309 19:22:41.943852  4658 net.cpp:434] scale5a_branch2c_p <- res5a_branch2c_p
I0309 19:22:41.943859  4658 net.cpp:395] scale5a_branch2c_p -> res5a_branch2c_p (in-place)
I0309 19:22:41.943938  4658 layer_factory.hpp:77] Creating layer scale5a_branch2c_p
I0309 19:22:41.944191  4658 net.cpp:150] Setting up scale5a_branch2c_p
I0309 19:22:41.944200  4658 net.cpp:157] Top shape: 8 2048 7 7 (802816)
I0309 19:22:41.944203  4658 net.cpp:165] Memory required for data: 3654549536
I0309 19:22:41.944208  4658 net.cpp:493] Sharing parameters 'scale5a_branch2c_alpha' owned by layer 'scale5a_branch2c', param index 0
I0309 19:22:41.944213  4658 net.cpp:493] Sharing parameters 'scale5a_branch2c_beta' owned by layer 'scale5a_branch2c', param index 1
I0309 19:22:41.944216  4658 layer_factory.hpp:77] Creating layer res5a_p
I0309 19:22:41.944223  4658 net.cpp:100] Creating Layer res5a_p
I0309 19:22:41.944226  4658 net.cpp:434] res5a_p <- res5a_branch1_p
I0309 19:22:41.944231  4658 net.cpp:434] res5a_p <- res5a_branch2c_p
I0309 19:22:41.944236  4658 net.cpp:408] res5a_p -> res5a_p
I0309 19:22:41.944288  4658 net.cpp:150] Setting up res5a_p
I0309 19:22:41.944295  4658 net.cpp:157] Top shape: 8 2048 7 7 (802816)
I0309 19:22:41.944298  4658 net.cpp:165] Memory required for data: 3657760800
I0309 19:22:41.944303  4658 layer_factory.hpp:77] Creating layer res5a_relu_p
I0309 19:22:41.944308  4658 net.cpp:100] Creating Layer res5a_relu_p
I0309 19:22:41.944311  4658 net.cpp:434] res5a_relu_p <- res5a_p
I0309 19:22:41.944317  4658 net.cpp:395] res5a_relu_p -> res5a_p (in-place)
I0309 19:22:41.944515  4658 net.cpp:150] Setting up res5a_relu_p
I0309 19:22:41.944525  4658 net.cpp:157] Top shape: 8 2048 7 7 (802816)
I0309 19:22:41.944528  4658 net.cpp:165] Memory required for data: 3660972064
I0309 19:22:41.944532  4658 layer_factory.hpp:77] Creating layer res5a_p_res5a_relu_p_0_split
I0309 19:22:41.944538  4658 net.cpp:100] Creating Layer res5a_p_res5a_relu_p_0_split
I0309 19:22:41.944542  4658 net.cpp:434] res5a_p_res5a_relu_p_0_split <- res5a_p
I0309 19:22:41.944548  4658 net.cpp:408] res5a_p_res5a_relu_p_0_split -> res5a_p_res5a_relu_p_0_split_0
I0309 19:22:41.944555  4658 net.cpp:408] res5a_p_res5a_relu_p_0_split -> res5a_p_res5a_relu_p_0_split_1
I0309 19:22:41.944640  4658 net.cpp:150] Setting up res5a_p_res5a_relu_p_0_split
I0309 19:22:41.944648  4658 net.cpp:157] Top shape: 8 2048 7 7 (802816)
I0309 19:22:41.944653  4658 net.cpp:157] Top shape: 8 2048 7 7 (802816)
I0309 19:22:41.944655  4658 net.cpp:165] Memory required for data: 3667394592
I0309 19:22:41.944658  4658 layer_factory.hpp:77] Creating layer res5b_branch2a_p
I0309 19:22:41.944669  4658 net.cpp:100] Creating Layer res5b_branch2a_p
I0309 19:22:41.944672  4658 net.cpp:434] res5b_branch2a_p <- res5a_p_res5a_relu_p_0_split_0
I0309 19:22:41.944682  4658 net.cpp:408] res5b_branch2a_p -> res5b_branch2a_p
I0309 19:22:41.948376  4658 net.cpp:150] Setting up res5b_branch2a_p
I0309 19:22:41.948391  4658 net.cpp:157] Top shape: 8 512 7 7 (200704)
I0309 19:22:41.948395  4658 net.cpp:165] Memory required for data: 3668197408
I0309 19:22:41.948400  4658 net.cpp:493] Sharing parameters 'res5b_branch2a_w' owned by layer 'res5b_branch2a', param index 0
I0309 19:22:41.948405  4658 layer_factory.hpp:77] Creating layer bn5b_branch2a_p
I0309 19:22:41.948413  4658 net.cpp:100] Creating Layer bn5b_branch2a_p
I0309 19:22:41.948417  4658 net.cpp:434] bn5b_branch2a_p <- res5b_branch2a_p
I0309 19:22:41.948422  4658 net.cpp:395] bn5b_branch2a_p -> res5b_branch2a_p (in-place)
I0309 19:22:41.948868  4658 net.cpp:150] Setting up bn5b_branch2a_p
I0309 19:22:41.948876  4658 net.cpp:157] Top shape: 8 512 7 7 (200704)
I0309 19:22:41.948879  4658 net.cpp:165] Memory required for data: 3669000224
I0309 19:22:41.948886  4658 layer_factory.hpp:77] Creating layer scale5b_branch2a_p
I0309 19:22:41.948894  4658 net.cpp:100] Creating Layer scale5b_branch2a_p
I0309 19:22:41.948899  4658 net.cpp:434] scale5b_branch2a_p <- res5b_branch2a_p
I0309 19:22:41.948905  4658 net.cpp:395] scale5b_branch2a_p -> res5b_branch2a_p (in-place)
I0309 19:22:41.949009  4658 layer_factory.hpp:77] Creating layer scale5b_branch2a_p
I0309 19:22:41.949290  4658 net.cpp:150] Setting up scale5b_branch2a_p
I0309 19:22:41.949301  4658 net.cpp:157] Top shape: 8 512 7 7 (200704)
I0309 19:22:41.949304  4658 net.cpp:165] Memory required for data: 3669803040
I0309 19:22:41.949309  4658 net.cpp:493] Sharing parameters 'scale5b_branch2a_alpha' owned by layer 'scale5b_branch2a', param index 0
I0309 19:22:41.949314  4658 net.cpp:493] Sharing parameters 'scale5b_branch2a_beta' owned by layer 'scale5b_branch2a', param index 1
I0309 19:22:41.949319  4658 layer_factory.hpp:77] Creating layer res5b_branch2a_relu_p
I0309 19:22:41.949326  4658 net.cpp:100] Creating Layer res5b_branch2a_relu_p
I0309 19:22:41.949329  4658 net.cpp:434] res5b_branch2a_relu_p <- res5b_branch2a_p
I0309 19:22:41.949334  4658 net.cpp:395] res5b_branch2a_relu_p -> res5b_branch2a_p (in-place)
I0309 19:22:41.949571  4658 net.cpp:150] Setting up res5b_branch2a_relu_p
I0309 19:22:41.949582  4658 net.cpp:157] Top shape: 8 512 7 7 (200704)
I0309 19:22:41.949585  4658 net.cpp:165] Memory required for data: 3670605856
I0309 19:22:41.949589  4658 layer_factory.hpp:77] Creating layer res5b_branch2b_p
I0309 19:22:41.949597  4658 net.cpp:100] Creating Layer res5b_branch2b_p
I0309 19:22:41.949600  4658 net.cpp:434] res5b_branch2b_p <- res5b_branch2a_p
I0309 19:22:41.949607  4658 net.cpp:408] res5b_branch2b_p -> res5b_branch2b_p
I0309 19:22:41.955399  4658 net.cpp:150] Setting up res5b_branch2b_p
I0309 19:22:41.955418  4658 net.cpp:157] Top shape: 8 512 7 7 (200704)
I0309 19:22:41.955422  4658 net.cpp:165] Memory required for data: 3671408672
I0309 19:22:41.955428  4658 net.cpp:493] Sharing parameters 'res5b_branch2b_w' owned by layer 'res5b_branch2b', param index 0
I0309 19:22:41.955432  4658 layer_factory.hpp:77] Creating layer bn5b_branch2b_p
I0309 19:22:41.955440  4658 net.cpp:100] Creating Layer bn5b_branch2b_p
I0309 19:22:41.955443  4658 net.cpp:434] bn5b_branch2b_p <- res5b_branch2b_p
I0309 19:22:41.955451  4658 net.cpp:395] bn5b_branch2b_p -> res5b_branch2b_p (in-place)
I0309 19:22:41.955893  4658 net.cpp:150] Setting up bn5b_branch2b_p
I0309 19:22:41.955904  4658 net.cpp:157] Top shape: 8 512 7 7 (200704)
I0309 19:22:41.955909  4658 net.cpp:165] Memory required for data: 3672211488
I0309 19:22:41.955915  4658 layer_factory.hpp:77] Creating layer scale5b_branch2b_p
I0309 19:22:41.955922  4658 net.cpp:100] Creating Layer scale5b_branch2b_p
I0309 19:22:41.955929  4658 net.cpp:434] scale5b_branch2b_p <- res5b_branch2b_p
I0309 19:22:41.955935  4658 net.cpp:395] scale5b_branch2b_p -> res5b_branch2b_p (in-place)
I0309 19:22:41.956014  4658 layer_factory.hpp:77] Creating layer scale5b_branch2b_p
I0309 19:22:41.956271  4658 net.cpp:150] Setting up scale5b_branch2b_p
I0309 19:22:41.956280  4658 net.cpp:157] Top shape: 8 512 7 7 (200704)
I0309 19:22:41.956284  4658 net.cpp:165] Memory required for data: 3673014304
I0309 19:22:41.956288  4658 net.cpp:493] Sharing parameters 'scale5b_branch2b_alpha' owned by layer 'scale5b_branch2b', param index 0
I0309 19:22:41.956293  4658 net.cpp:493] Sharing parameters 'scale5b_branch2b_beta' owned by layer 'scale5b_branch2b', param index 1
I0309 19:22:41.956297  4658 layer_factory.hpp:77] Creating layer res5b_branch2b_relu_p
I0309 19:22:41.956302  4658 net.cpp:100] Creating Layer res5b_branch2b_relu_p
I0309 19:22:41.956306  4658 net.cpp:434] res5b_branch2b_relu_p <- res5b_branch2b_p
I0309 19:22:41.956311  4658 net.cpp:395] res5b_branch2b_relu_p -> res5b_branch2b_p (in-place)
I0309 19:22:41.956511  4658 net.cpp:150] Setting up res5b_branch2b_relu_p
I0309 19:22:41.956521  4658 net.cpp:157] Top shape: 8 512 7 7 (200704)
I0309 19:22:41.956524  4658 net.cpp:165] Memory required for data: 3673817120
I0309 19:22:41.956528  4658 layer_factory.hpp:77] Creating layer res5b_branch2c_p
I0309 19:22:41.956537  4658 net.cpp:100] Creating Layer res5b_branch2c_p
I0309 19:22:41.956542  4658 net.cpp:434] res5b_branch2c_p <- res5b_branch2b_p
I0309 19:22:41.956548  4658 net.cpp:408] res5b_branch2c_p -> res5b_branch2c_p
I0309 19:22:41.960268  4658 net.cpp:150] Setting up res5b_branch2c_p
I0309 19:22:41.960284  4658 net.cpp:157] Top shape: 8 2048 7 7 (802816)
I0309 19:22:41.960289  4658 net.cpp:165] Memory required for data: 3677028384
I0309 19:22:41.960294  4658 net.cpp:493] Sharing parameters 'res5b_branch2c_w' owned by layer 'res5b_branch2c', param index 0
I0309 19:22:41.960299  4658 layer_factory.hpp:77] Creating layer bn5b_branch2c_p
I0309 19:22:41.960306  4658 net.cpp:100] Creating Layer bn5b_branch2c_p
I0309 19:22:41.960310  4658 net.cpp:434] bn5b_branch2c_p <- res5b_branch2c_p
I0309 19:22:41.960316  4658 net.cpp:395] bn5b_branch2c_p -> res5b_branch2c_p (in-place)
I0309 19:22:41.960765  4658 net.cpp:150] Setting up bn5b_branch2c_p
I0309 19:22:41.960774  4658 net.cpp:157] Top shape: 8 2048 7 7 (802816)
I0309 19:22:41.960777  4658 net.cpp:165] Memory required for data: 3680239648
I0309 19:22:41.960785  4658 layer_factory.hpp:77] Creating layer scale5b_branch2c_p
I0309 19:22:41.960793  4658 net.cpp:100] Creating Layer scale5b_branch2c_p
I0309 19:22:41.960798  4658 net.cpp:434] scale5b_branch2c_p <- res5b_branch2c_p
I0309 19:22:41.960803  4658 net.cpp:395] scale5b_branch2c_p -> res5b_branch2c_p (in-place)
I0309 19:22:41.960885  4658 layer_factory.hpp:77] Creating layer scale5b_branch2c_p
I0309 19:22:41.961184  4658 net.cpp:150] Setting up scale5b_branch2c_p
I0309 19:22:41.961194  4658 net.cpp:157] Top shape: 8 2048 7 7 (802816)
I0309 19:22:41.961197  4658 net.cpp:165] Memory required for data: 3683450912
I0309 19:22:41.961203  4658 net.cpp:493] Sharing parameters 'scale5b_branch2c_alpha' owned by layer 'scale5b_branch2c', param index 0
I0309 19:22:41.961210  4658 net.cpp:493] Sharing parameters 'scale5b_branch2c_beta' owned by layer 'scale5b_branch2c', param index 1
I0309 19:22:41.961213  4658 layer_factory.hpp:77] Creating layer res5b_p
I0309 19:22:41.961220  4658 net.cpp:100] Creating Layer res5b_p
I0309 19:22:41.961225  4658 net.cpp:434] res5b_p <- res5a_p_res5a_relu_p_0_split_1
I0309 19:22:41.961228  4658 net.cpp:434] res5b_p <- res5b_branch2c_p
I0309 19:22:41.961235  4658 net.cpp:408] res5b_p -> res5b_p
I0309 19:22:41.961313  4658 net.cpp:150] Setting up res5b_p
I0309 19:22:41.961320  4658 net.cpp:157] Top shape: 8 2048 7 7 (802816)
I0309 19:22:41.961324  4658 net.cpp:165] Memory required for data: 3686662176
I0309 19:22:41.961328  4658 layer_factory.hpp:77] Creating layer res5b_relu_p
I0309 19:22:41.961333  4658 net.cpp:100] Creating Layer res5b_relu_p
I0309 19:22:41.961336  4658 net.cpp:434] res5b_relu_p <- res5b_p
I0309 19:22:41.961343  4658 net.cpp:395] res5b_relu_p -> res5b_p (in-place)
I0309 19:22:41.961542  4658 net.cpp:150] Setting up res5b_relu_p
I0309 19:22:41.961551  4658 net.cpp:157] Top shape: 8 2048 7 7 (802816)
I0309 19:22:41.961560  4658 net.cpp:165] Memory required for data: 3689873440
I0309 19:22:41.961563  4658 layer_factory.hpp:77] Creating layer res5b_p_res5b_relu_p_0_split
I0309 19:22:41.961570  4658 net.cpp:100] Creating Layer res5b_p_res5b_relu_p_0_split
I0309 19:22:41.961575  4658 net.cpp:434] res5b_p_res5b_relu_p_0_split <- res5b_p
I0309 19:22:41.961581  4658 net.cpp:408] res5b_p_res5b_relu_p_0_split -> res5b_p_res5b_relu_p_0_split_0
I0309 19:22:41.961588  4658 net.cpp:408] res5b_p_res5b_relu_p_0_split -> res5b_p_res5b_relu_p_0_split_1
I0309 19:22:41.961675  4658 net.cpp:150] Setting up res5b_p_res5b_relu_p_0_split
I0309 19:22:41.961683  4658 net.cpp:157] Top shape: 8 2048 7 7 (802816)
I0309 19:22:41.961688  4658 net.cpp:157] Top shape: 8 2048 7 7 (802816)
I0309 19:22:41.961690  4658 net.cpp:165] Memory required for data: 3696295968
I0309 19:22:41.961694  4658 layer_factory.hpp:77] Creating layer res5c_branch2a_p
I0309 19:22:41.961704  4658 net.cpp:100] Creating Layer res5c_branch2a_p
I0309 19:22:41.961707  4658 net.cpp:434] res5c_branch2a_p <- res5b_p_res5b_relu_p_0_split_0
I0309 19:22:41.961714  4658 net.cpp:408] res5c_branch2a_p -> res5c_branch2a_p
I0309 19:22:41.965503  4658 net.cpp:150] Setting up res5c_branch2a_p
I0309 19:22:41.965519  4658 net.cpp:157] Top shape: 8 512 7 7 (200704)
I0309 19:22:41.965523  4658 net.cpp:165] Memory required for data: 3697098784
I0309 19:22:41.965528  4658 net.cpp:493] Sharing parameters 'res5c_branch2a_w' owned by layer 'res5c_branch2a', param index 0
I0309 19:22:41.965533  4658 layer_factory.hpp:77] Creating layer bn5c_branch2a_p
I0309 19:22:41.965540  4658 net.cpp:100] Creating Layer bn5c_branch2a_p
I0309 19:22:41.965545  4658 net.cpp:434] bn5c_branch2a_p <- res5c_branch2a_p
I0309 19:22:41.965550  4658 net.cpp:395] bn5c_branch2a_p -> res5c_branch2a_p (in-place)
I0309 19:22:41.966004  4658 net.cpp:150] Setting up bn5c_branch2a_p
I0309 19:22:41.966012  4658 net.cpp:157] Top shape: 8 512 7 7 (200704)
I0309 19:22:41.966017  4658 net.cpp:165] Memory required for data: 3697901600
I0309 19:22:41.966023  4658 layer_factory.hpp:77] Creating layer scale5c_branch2a_p
I0309 19:22:41.966032  4658 net.cpp:100] Creating Layer scale5c_branch2a_p
I0309 19:22:41.966037  4658 net.cpp:434] scale5c_branch2a_p <- res5c_branch2a_p
I0309 19:22:41.966042  4658 net.cpp:395] scale5c_branch2a_p -> res5c_branch2a_p (in-place)
I0309 19:22:41.966120  4658 layer_factory.hpp:77] Creating layer scale5c_branch2a_p
I0309 19:22:41.966378  4658 net.cpp:150] Setting up scale5c_branch2a_p
I0309 19:22:41.966387  4658 net.cpp:157] Top shape: 8 512 7 7 (200704)
I0309 19:22:41.966389  4658 net.cpp:165] Memory required for data: 3698704416
I0309 19:22:41.966395  4658 net.cpp:493] Sharing parameters 'scale5c_branch2a_alpha' owned by layer 'scale5c_branch2a', param index 0
I0309 19:22:41.966400  4658 net.cpp:493] Sharing parameters 'scale5c_branch2a_beta' owned by layer 'scale5c_branch2a', param index 1
I0309 19:22:41.966403  4658 layer_factory.hpp:77] Creating layer res5c_branch2a_relu_p
I0309 19:22:41.966411  4658 net.cpp:100] Creating Layer res5c_branch2a_relu_p
I0309 19:22:41.966414  4658 net.cpp:434] res5c_branch2a_relu_p <- res5c_branch2a_p
I0309 19:22:41.966420  4658 net.cpp:395] res5c_branch2a_relu_p -> res5c_branch2a_p (in-place)
I0309 19:22:41.966619  4658 net.cpp:150] Setting up res5c_branch2a_relu_p
I0309 19:22:41.966629  4658 net.cpp:157] Top shape: 8 512 7 7 (200704)
I0309 19:22:41.966631  4658 net.cpp:165] Memory required for data: 3699507232
I0309 19:22:41.966635  4658 layer_factory.hpp:77] Creating layer res5c_branch2b_p
I0309 19:22:41.966645  4658 net.cpp:100] Creating Layer res5c_branch2b_p
I0309 19:22:41.966648  4658 net.cpp:434] res5c_branch2b_p <- res5c_branch2a_p
I0309 19:22:41.966655  4658 net.cpp:408] res5c_branch2b_p -> res5c_branch2b_p
I0309 19:22:41.972328  4658 net.cpp:150] Setting up res5c_branch2b_p
I0309 19:22:41.972347  4658 net.cpp:157] Top shape: 8 512 7 7 (200704)
I0309 19:22:41.972350  4658 net.cpp:165] Memory required for data: 3700310048
I0309 19:22:41.972360  4658 net.cpp:493] Sharing parameters 'res5c_branch2b_w' owned by layer 'res5c_branch2b', param index 0
I0309 19:22:41.972365  4658 layer_factory.hpp:77] Creating layer bn5c_branch2b_p
I0309 19:22:41.972371  4658 net.cpp:100] Creating Layer bn5c_branch2b_p
I0309 19:22:41.972375  4658 net.cpp:434] bn5c_branch2b_p <- res5c_branch2b_p
I0309 19:22:41.972383  4658 net.cpp:395] bn5c_branch2b_p -> res5c_branch2b_p (in-place)
I0309 19:22:41.972833  4658 net.cpp:150] Setting up bn5c_branch2b_p
I0309 19:22:41.972842  4658 net.cpp:157] Top shape: 8 512 7 7 (200704)
I0309 19:22:41.972846  4658 net.cpp:165] Memory required for data: 3701112864
I0309 19:22:41.972852  4658 layer_factory.hpp:77] Creating layer scale5c_branch2b_p
I0309 19:22:41.972862  4658 net.cpp:100] Creating Layer scale5c_branch2b_p
I0309 19:22:41.972867  4658 net.cpp:434] scale5c_branch2b_p <- res5c_branch2b_p
I0309 19:22:41.972872  4658 net.cpp:395] scale5c_branch2b_p -> res5c_branch2b_p (in-place)
I0309 19:22:41.972975  4658 layer_factory.hpp:77] Creating layer scale5c_branch2b_p
I0309 19:22:41.973250  4658 net.cpp:150] Setting up scale5c_branch2b_p
I0309 19:22:41.973273  4658 net.cpp:157] Top shape: 8 512 7 7 (200704)
I0309 19:22:41.973276  4658 net.cpp:165] Memory required for data: 3701915680
I0309 19:22:41.973296  4658 net.cpp:493] Sharing parameters 'scale5c_branch2b_alpha' owned by layer 'scale5c_branch2b', param index 0
I0309 19:22:41.973301  4658 net.cpp:493] Sharing parameters 'scale5c_branch2b_beta' owned by layer 'scale5c_branch2b', param index 1
I0309 19:22:41.973305  4658 layer_factory.hpp:77] Creating layer res5c_branch2b_relu_p
I0309 19:22:41.973311  4658 net.cpp:100] Creating Layer res5c_branch2b_relu_p
I0309 19:22:41.973315  4658 net.cpp:434] res5c_branch2b_relu_p <- res5c_branch2b_p
I0309 19:22:41.973320  4658 net.cpp:395] res5c_branch2b_relu_p -> res5c_branch2b_p (in-place)
I0309 19:22:41.974057  4658 net.cpp:150] Setting up res5c_branch2b_relu_p
I0309 19:22:41.974071  4658 net.cpp:157] Top shape: 8 512 7 7 (200704)
I0309 19:22:41.974076  4658 net.cpp:165] Memory required for data: 3702718496
I0309 19:22:41.974079  4658 layer_factory.hpp:77] Creating layer res5c_branch2c_p
I0309 19:22:41.974088  4658 net.cpp:100] Creating Layer res5c_branch2c_p
I0309 19:22:41.974093  4658 net.cpp:434] res5c_branch2c_p <- res5c_branch2b_p
I0309 19:22:41.974100  4658 net.cpp:408] res5c_branch2c_p -> res5c_branch2c_p
I0309 19:22:41.977850  4658 net.cpp:150] Setting up res5c_branch2c_p
I0309 19:22:41.977866  4658 net.cpp:157] Top shape: 8 2048 7 7 (802816)
I0309 19:22:41.977869  4658 net.cpp:165] Memory required for data: 3705929760
I0309 19:22:41.977875  4658 net.cpp:493] Sharing parameters 'res5c_branch2c_w' owned by layer 'res5c_branch2c', param index 0
I0309 19:22:41.977880  4658 layer_factory.hpp:77] Creating layer bn5c_branch2c_p
I0309 19:22:41.977887  4658 net.cpp:100] Creating Layer bn5c_branch2c_p
I0309 19:22:41.977892  4658 net.cpp:434] bn5c_branch2c_p <- res5c_branch2c_p
I0309 19:22:41.977897  4658 net.cpp:395] bn5c_branch2c_p -> res5c_branch2c_p (in-place)
I0309 19:22:41.978364  4658 net.cpp:150] Setting up bn5c_branch2c_p
I0309 19:22:41.978374  4658 net.cpp:157] Top shape: 8 2048 7 7 (802816)
I0309 19:22:41.978376  4658 net.cpp:165] Memory required for data: 3709141024
I0309 19:22:41.978384  4658 layer_factory.hpp:77] Creating layer scale5c_branch2c_p
I0309 19:22:41.978394  4658 net.cpp:100] Creating Layer scale5c_branch2c_p
I0309 19:22:41.978397  4658 net.cpp:434] scale5c_branch2c_p <- res5c_branch2c_p
I0309 19:22:41.978402  4658 net.cpp:395] scale5c_branch2c_p -> res5c_branch2c_p (in-place)
I0309 19:22:41.978484  4658 layer_factory.hpp:77] Creating layer scale5c_branch2c_p
I0309 19:22:41.978749  4658 net.cpp:150] Setting up scale5c_branch2c_p
I0309 19:22:41.978756  4658 net.cpp:157] Top shape: 8 2048 7 7 (802816)
I0309 19:22:41.978760  4658 net.cpp:165] Memory required for data: 3712352288
I0309 19:22:41.978765  4658 net.cpp:493] Sharing parameters 'scale5c_branch2c_alpha' owned by layer 'scale5c_branch2c', param index 0
I0309 19:22:41.978775  4658 net.cpp:493] Sharing parameters 'scale5c_branch2c_beta' owned by layer 'scale5c_branch2c', param index 1
I0309 19:22:41.978778  4658 layer_factory.hpp:77] Creating layer res5c_p
I0309 19:22:41.978785  4658 net.cpp:100] Creating Layer res5c_p
I0309 19:22:41.978790  4658 net.cpp:434] res5c_p <- res5b_p_res5b_relu_p_0_split_1
I0309 19:22:41.978794  4658 net.cpp:434] res5c_p <- res5c_branch2c_p
I0309 19:22:41.978799  4658 net.cpp:408] res5c_p -> res5c_p
I0309 19:22:41.978847  4658 net.cpp:150] Setting up res5c_p
I0309 19:22:41.978855  4658 net.cpp:157] Top shape: 8 2048 7 7 (802816)
I0309 19:22:41.978858  4658 net.cpp:165] Memory required for data: 3715563552
I0309 19:22:41.978863  4658 layer_factory.hpp:77] Creating layer res5c_relu_p
I0309 19:22:41.978869  4658 net.cpp:100] Creating Layer res5c_relu_p
I0309 19:22:41.978873  4658 net.cpp:434] res5c_relu_p <- res5c_p
I0309 19:22:41.978878  4658 net.cpp:395] res5c_relu_p -> res5c_p (in-place)
I0309 19:22:41.979076  4658 net.cpp:150] Setting up res5c_relu_p
I0309 19:22:41.979087  4658 net.cpp:157] Top shape: 8 2048 7 7 (802816)
I0309 19:22:41.979090  4658 net.cpp:165] Memory required for data: 3718774816
I0309 19:22:41.979094  4658 layer_factory.hpp:77] Creating layer pool_p
I0309 19:22:41.979101  4658 net.cpp:100] Creating Layer pool_p
I0309 19:22:41.979105  4658 net.cpp:434] pool_p <- res5c_p
I0309 19:22:41.979110  4658 net.cpp:408] pool_p -> pool_p
I0309 19:22:41.979346  4658 net.cpp:150] Setting up pool_p
I0309 19:22:41.979355  4658 net.cpp:157] Top shape: 8 2048 1 1 (16384)
I0309 19:22:41.979358  4658 net.cpp:165] Memory required for data: 3718840352
I0309 19:22:41.979362  4658 layer_factory.hpp:77] Creating layer ip1_p
I0309 19:22:41.979370  4658 net.cpp:100] Creating Layer ip1_p
I0309 19:22:41.979374  4658 net.cpp:434] ip1_p <- pool_p
I0309 19:22:41.979382  4658 net.cpp:408] ip1_p -> ip1_p
I0309 19:22:41.986819  4658 net.cpp:150] Setting up ip1_p
I0309 19:22:41.986834  4658 net.cpp:157] Top shape: 8 512 (4096)
I0309 19:22:41.986837  4658 net.cpp:165] Memory required for data: 3718856736
I0309 19:22:41.986842  4658 net.cpp:493] Sharing parameters 'ip1_w' owned by layer 'ip1', param index 0
I0309 19:22:41.986847  4658 net.cpp:493] Sharing parameters 'ip1_b' owned by layer 'ip1', param index 1
I0309 19:22:41.986851  4658 layer_factory.hpp:77] Creating layer relu1_p
I0309 19:22:41.986857  4658 net.cpp:100] Creating Layer relu1_p
I0309 19:22:41.986860  4658 net.cpp:434] relu1_p <- ip1_p
I0309 19:22:41.986865  4658 net.cpp:395] relu1_p -> ip1_p (in-place)
I0309 19:22:41.987076  4658 net.cpp:150] Setting up relu1_p
I0309 19:22:41.987085  4658 net.cpp:157] Top shape: 8 512 (4096)
I0309 19:22:41.987088  4658 net.cpp:165] Memory required for data: 3718873120
I0309 19:22:41.987092  4658 layer_factory.hpp:77] Creating layer ip2_p
I0309 19:22:41.987100  4658 net.cpp:100] Creating Layer ip2_p
I0309 19:22:41.987104  4658 net.cpp:434] ip2_p <- ip1_p
I0309 19:22:41.987110  4658 net.cpp:408] ip2_p -> ip2_p
I0309 19:22:41.988672  4658 net.cpp:150] Setting up ip2_p
I0309 19:22:41.988679  4658 net.cpp:157] Top shape: 8 512 (4096)
I0309 19:22:41.988682  4658 net.cpp:165] Memory required for data: 3718889504
I0309 19:22:41.988687  4658 net.cpp:493] Sharing parameters 'ip2_w' owned by layer 'ip2', param index 0
I0309 19:22:41.988692  4658 net.cpp:493] Sharing parameters 'ip2_b' owned by layer 'ip2', param index 1
I0309 19:22:41.988695  4658 layer_factory.hpp:77] Creating layer feat_p
I0309 19:22:41.988703  4658 net.cpp:100] Creating Layer feat_p
I0309 19:22:41.988706  4658 net.cpp:434] feat_p <- ip2_p
I0309 19:22:41.988713  4658 net.cpp:408] feat_p -> feat_p
I0309 19:22:41.991359  4658 net.cpp:150] Setting up feat_p
I0309 19:22:41.991374  4658 net.cpp:157] Top shape: 8 512 (4096)
I0309 19:22:41.991377  4658 net.cpp:165] Memory required for data: 3718905888
I0309 19:22:41.991382  4658 net.cpp:493] Sharing parameters 'feat_w' owned by layer 'feat', param index 0
I0309 19:22:41.991386  4658 net.cpp:493] Sharing parameters 'feat_b' owned by layer 'feat', param index 1
I0309 19:22:41.991390  4658 layer_factory.hpp:77] Creating layer loss
I0309 19:22:41.991407  4658 net.cpp:100] Creating Layer loss
…
