…
I0301 20:57:51.721446  6576 upgrade_proto.cpp:77] Attempting to upgrade batch norm layers using deprecated params: ../merge_models/res50_train_multiprocess.prototxt
I0301 20:57:51.721468  6576 upgrade_proto.cpp:80] Successfully upgraded batch norm layers using deprecated params.
I0301 20:57:51.723703  6576 net.cpp:58] Initializing net from parameters: 
name: "ResNet-50"
state {
  phase: TRAIN
}
layer {
  name: "data"
  type: "MemoryData"
  top: "pairs"
  top: "label"
  memory_data_param {
    batch_size: 8
    channels: 6
    height: 224
    width: 224
  }
}
layer {
  name: "slice"
  type: "Slice"
  bottom: "pairs"
  top: "data"
  top: "data_p"
  slice_param {
    slice_point: 3
    axis: 1
  }
}
layer {
  name: "conv1"
  type: "Convolution"
  bottom: "data"
  top: "conv1"
  param {
    name: "conv1_w"
    lr_mult: 1
  }
  param {
    name: "conv1_b"
    lr_mult: 2
  }
  convolution_param {
    num_output: 64
    pad: 3
    kernel_size: 7
    stride: 2
  }
}
layer {
  name: "bn_conv1"
  type: "BatchNorm"
  bottom: "conv1"
  top: "conv1"
  batch_norm_param {
    use_global_stats: false
  }
}
layer {
  name: "scale_conv1"
  type: "Scale"
  bottom: "conv1"
  top: "conv1"
  param {
    name: "scale_conv1_alpha"
  }
  param {
    name: "scale_conv1_beta"
  }
  scale_param {
    bias_term: true
  }
}
layer {
  name: "conv1_relu"
  type: "ReLU"
  bottom: "conv1"
  top: "conv1"
}
layer {
  name: "pool1"
  type: "Pooling"
  bottom: "conv1"
  top: "pool1"
  pooling_param {
    pool: MAX
    kernel_size: 3
    stride: 2
  }
}
layer {
  name: "res2a_branch1"
  type: "Convolution"
  bottom: "pool1"
  top: "res2a_branch1"
  param {
    name: "res2a_branch1_w"
    lr_mult: 1
  }
  convolution_param {
    num_output: 256
    bias_term: false
    pad: 0
    kernel_size: 1
    stride: 1
  }
}
layer {
  name: "bn2a_branch1"
  type: "BatchNorm"
  bottom: "res2a_branch1"
  top: "res2a_branch1"
  batch_norm_param {
    use_global_stats: false
  }
}
layer {
  name: "scale2a_branch1"
  type: "Scale"
  bottom: "res2a_branch1"
  top: "res2a_branch1"
  param {
    name: "scale2a_branch1_alpha"
  }
  param {
    name: "scale2a_branch1_beta"
  }
  scale_param {
    bias_term: true
  }
}
layer {
  name: "res2a_branch2a"
  type: "Convolution"
  bottom: "pool1"
  top: "res2a_branch2a"
  param {
    name: "res2a_branch2a_w"
    lr_mult: 1
  }
  convolution_param {
    num_output: 64
    bias_term: false
    pad: 0
    kernel_size: 1
    stride: 1
  }
}
layer {
  name: "bn2a_branch2a"
  type: "BatchNorm"
  bottom: "res2a_branch2a"
  top: "res2a_branch2a"
  batch_norm_param {
    use_global_stats: false
  }
}
layer {
  name: "scale2a_branch2a"
  type: "Scale"
  bottom: "res2a_branch2a"
  top: "res2a_branch2a"
  param {
    name: "scale2a_branch2a_alpha"
  }
  param {
    name: "scale2a_branch2a_beta"
  }
  scale_param {
    bias_term: true
  }
}
layer {
  name: "res2a_branch2a_relu"
  type: "ReLU"
  bottom: "res2a_branch2a"
  top: "res2a_branch2a"
}
layer {
  name: "res2a_branch2b"
  type: "Convolution"
  bottom: "res2a_branch2a"
  top: "res2a_branch2b"
  param {
    name: "res2a_branch2b_w"
    lr_mult: 1
  }
  convolution_param {
    num_output: 64
    bias_term: false
    pad: 1
    kernel_size: 3
    stride: 1
  }
}
layer {
  name: "bn2a_branch2b"
  type: "BatchNorm"
  bottom: "res2a_branch2b"
  top: "res2a_branch2b"
  batch_norm_param {
    use_global_stats: false
  }
}
layer {
  name: "scale2a_branch2b"
  type: "Scale"
  bottom: "res2a_branch2b"
  top: "res2a_branch2b"
  param {
    name: "scale2a_branch2b_alpha"
  }
  param {
    name: "scale2a_branch2b_beta"
  }
  scale_param {
    bias_term: true
  }
}
layer {
  name: "res2a_branch2b_relu"
  type: "ReLU"
  bottom: "res2a_branch2b"
  top: "res2a_branch2b"
}
layer {
  name: "res2a_branch2c"
  type: "Convolution"
  bottom: "res2a_branch2b"
  top: "res2a_branch2c"
  param {
    name: "res2a_branch2c_w"
    lr_mult: 1
  }
  convolution_param {
    num_output: 256
    bias_term: false
    pad: 0
    kernel_size: 1
    stride: 1
  }
}
layer {
  name: "bn2a_branch2c"
  type: "BatchNorm"
  bottom: "res2a_branch2c"
  top: "res2a_branch2c"
  batch_norm_param {
    use_global_stats: false
  }
}
layer {
  name: "scale2a_branch2c"
  type: "Scale"
  bottom: "res2a_branch2c"
  top: "res2a_branch2c"
  param {
    name: "scale2a_branch2c_alpha"
  }
  param {
    name: "scale2a_branch2c_beta"
  }
  scale_param {
    bias_term: true
  }
}
layer {
  name: "res2a"
  type: "Eltwise"
  bottom: "res2a_branch1"
  bottom: "res2a_branch2c"
  top: "res2a"
}
layer {
  name: "res2a_relu"
  type: "ReLU"
  bottom: "res2a"
  top: "res2a"
}
layer {
  name: "res2b_branch2a"
  type: "Convolution"
  bottom: "res2a"
  top: "res2b_branch2a"
  param {
    name: "res2b_branch2a_w"
    lr_mult: 1
  }
  convolution_param {
    num_output: 64
    bias_term: false
    pad: 0
    kernel_size: 1
    stride: 1
  }
}
layer {
  name: "bn2b_branch2a"
  type: "BatchNorm"
  bottom: "res2b_branch2a"
  top: "res2b_branch2a"
  batch_norm_param {
    use_global_stats: false
  }
}
layer {
  name: "scale2b_branch2a"
  type: "Scale"
  bottom: "res2b_branch2a"
  top: "res2b_branch2a"
  param {
    name: "scale2b_branch2a_alpha"
  }
  param {
    name: "scale2b_branch2a_beta"
  }
  scale_param {
    bias_term: true
  }
}
layer {
  name: "res2b_branch2a_relu"
  type: "ReLU"
  bottom: "res2b_branch2a"
  top: "res2b_branch2a"
}
layer {
  name: "res2b_branch2b"
  type: "Convolution"
  bottom: "res2b_branch2a"
  top: "res2b_branch2b"
  param {
    name: "res2b_branch2b_w"
    lr_mult: 1
  }
  convolution_param {
    num_output: 64
    bias_term: false
    pad: 1
    kernel_size: 3
    stride: 1
  }
}
layer {
  name: "bn2b_branch2b"
  type: "BatchNorm"
  bottom: "res2b_branch2b"
  top: "res2b_branch2b"
  batch_norm_param {
    use_global_stats: false
  }
}
layer {
  name: "scale2b_branch2b"
  type: "Scale"
  bottom: "res2b_branch2b"
  top: "res2b_branch2b"
  param {
    name: "scale2b_branch2b_alpha"
  }
  param {
    name: "scale2b_branch2b_beta"
  }
  scale_param {
    bias_term: true
  }
}
layer {
  name: "res2b_branch2b_relu"
  type: "ReLU"
  bottom: "res2b_branch2b"
  top: "res2b_branch2b"
}
layer {
  name: "res2b_branch2c"
  type: "Convolution"
  bottom: "res2b_branch2b"
  top: "res2b_branch2c"
  param {
    name: "res2b_branch2c_w"
    lr_mult: 1
  }
  convolution_param {
    num_output: 256
    bias_term: false
    pad: 0
    kernel_size: 1
    stride: 1
  }
}
layer {
  name: "bn2b_branch2c"
  type: "BatchNorm"
  bottom: "res2b_branch2c"
  top: "res2b_branch2c"
  batch_norm_param {
    use_global_stats: false
  }
}
layer {
  name: "scale2b_branch2c"
  type: "Scale"
  bottom: "res2b_branch2c"
  top: "res2b_branch2c"
  param {
    name: "scale2b_branch2c_alpha"
  }
  param {
    name: "scale2b_branch2c_beta"
  }
  scale_param {
    bias_term: true
  }
}
layer {
  name: "res2b"
  type: "Eltwise"
  bottom: "res2a"
  bottom: "res2b_branch2c"
  top: "res2b"
}
layer {
  name: "res2b_relu"
  type: "ReLU"
  bottom: "res2b"
  top: "res2b"
}
layer {
  name: "res2c_branch2a"
  type: "Convolution"
  bottom: "res2b"
  top: "res2c_branch2a"
  param {
    name: "res2c_branch2a_w"
    lr_mult: 1
  }
  convolution_param {
    num_output: 64
    bias_term: false
    pad: 0
    kernel_size: 1
    stride: 1
  }
}
layer {
  name: "bn2c_branch2a"
  type: "BatchNorm"
  bottom: "res2c_branch2a"
  top: "res2c_branch2a"
  batch_norm_param {
    use_global_stats: false
  }
}
layer {
  name: "scale2c_branch2a"
  type: "Scale"
  bottom: "res2c_branch2a"
  top: "res2c_branch2a"
  param {
    name: "scale2c_branch2a_alpha"
  }
  param {
    name: "scale2c_branch2a_beta"
  }
  scale_param {
    bias_term: true
  }
}
layer {
  name: "res2c_branch2a_relu"
  type: "ReLU"
  bottom: "res2c_branch2a"
  top: "res2c_branch2a"
}
layer {
  name: "res2c_branch2b"
  type: "Convolution"
  bottom: "res2c_branch2a"
  top: "res2c_branch2b"
  param {
    name: "res2c_branch2b_w"
    lr_mult: 1
  }
  convolution_param {
    num_output: 64
    bias_term: false
    pad: 1
    kernel_size: 3
    stride: 1
  }
}
layer {
  name: "bn2c_branch2b"
  type: "BatchNorm"
  bottom: "res2c_branch2b"
  top: "res2c_branch2b"
  batch_norm_param {
    use_global_stats: false
  }
}
layer {
  name: "scale2c_branch2b"
  type: "Scale"
  bottom: "res2c_branch2b"
  top: "res2c_branch2b"
  param {
    name: "scale2c_branch2b_alpha"
  }
  param {
    name: "scale2c_branch2b_beta"
  }
  scale_param {
    bias_term: true
  }
}
layer {
  name: "res2c_branch2b_relu"
  type: "ReLU"
  bottom: "res2c_branch2b"
  top: "res2c_branch2b"
}
layer {
  name: "res2c_branch2c"
  type: "Convolution"
  bottom: "res2c_branch2b"
  top: "res2c_branch2c"
  param {
    name: "res2c_branch2c_w"
    lr_mult: 1
  }
  convolution_param {
    num_output: 256
    bias_term: false
    pad: 0
    kernel_size: 1
    stride: 1
  }
}
layer {
  name: "bn2c_branch2c"
  type: "BatchNorm"
  bottom: "res2c_branch2c"
  top: "res2c_branch2c"
  batch_norm_param {
    use_global_stats: false
  }
}
layer {
  name: "scale2c_branch2c"
  type: "Scale"
  bottom: "res2c_branch2c"
  top: "res2c_branch2c"
  param {
    name: "scale2c_branch2c_alpha"
  }
  param {
    name: "scale2c_branch2c_beta"
  }
  scale_param {
    bias_term: true
  }
}
layer {
  name: "res2c"
  type: "Eltwise"
  bottom: "res2b"
  bottom: "res2c_branch2c"
  top: "res2c"
}
layer {
  name: "res2c_relu"
  type: "ReLU"
  bottom: "res2c"
  top: "res2c"
}
layer {
  name: "res3a_branch1"
  type: "Convolution"
  bottom: "res2c"
  top: "res3a_branch1"
  param {
    name: "res3a_branch1_w"
    lr_mult: 1
  }
  convolution_param {
    num_output: 512
    bias_term: false
    pad: 0
    kernel_size: 1
    stride: 2
  }
}
layer {
  name: "bn3a_branch1"
  type: "BatchNorm"
  bottom: "res3a_branch1"
  top: "res3a_branch1"
  batch_norm_param {
    use_global_stats: false
  }
}
layer {
  name: "scale3a_branch1"
  type: "Scale"
  bottom: "res3a_branch1"
  top: "res3a_branch1"
  param {
    name: "scale3a_branch1_alpha"
  }
  param {
    name: "scale3a_branch1_beta"
  }
  scale_param {
    bias_term: true
  }
}
layer {
  name: "res3a_branch2a"
  type: "Convolution"
  bottom: "res2c"
  top: "res3a_branch2a"
  param {
    name: "res3a_branch2a_w"
    lr_mult: 1
  }
  convolution_param {
    num_output: 128
    bias_term: false
    pad: 0
    kernel_size: 1
    stride: 2
  }
}
layer {
  name: "bn3a_branch2a"
  type: "BatchNorm"
  bottom: "res3a_branch2a"
  top: "res3a_branch2a"
  batch_norm_param {
    use_global_stats: false
  }
}
layer {
  name: "scale3a_branch2a"
  type: "Scale"
  bottom: "res3a_branch2a"
  top: "res3a_branch2a"
  param {
    name: "scale3a_branch2a_alpha"
  }
  param {
    name: "scale3a_branch2a_beta"
  }
  scale_param {
    bias_term: true
  }
}
layer {
  name: "res3a_branch2a_relu"
  type: "ReLU"
  bottom: "res3a_branch2a"
  top: "res3a_branch2a"
}
layer {
  name: "res3a_branch2b"
  type: "Convolution"
  bottom: "res3a_branch2a"
  top: "res3a_branch2b"
  param {
    name: "res3a_branch2b_w"
    lr_mult: 1
  }
  convolution_param {
    num_output: 128
    bias_term: false
    pad: 1
    kernel_size: 3
    stride: 1
  }
}
layer {
  name: "bn3a_branch2b"
  type: "BatchNorm"
  bottom: "res3a_branch2b"
  top: "res3a_branch2b"
  batch_norm_param {
    use_global_stats: false
  }
}
layer {
  name: "scale3a_branch2b"
  type: "Scale"
  bottom: "res3a_branch2b"
  top: "res3a_branch2b"
  param {
    name: "scale3a_branch2b_alpha"
  }
  param {
    name: "scale3a_branch2b_beta"
  }
  scale_param {
    bias_term: true
  }
}
layer {
  name: "res3a_branch2b_relu"
  type: "ReLU"
  bottom: "res3a_branch2b"
  top: "res3a_branch2b"
}
layer {
  name: "res3a_branch2c"
  type: "Convolution"
  bottom: "res3a_branch2b"
  top: "res3a_branch2c"
  param {
    name: "res3a_branch2c_w"
    lr_mult: 1
  }
  convolution_param {
    num_output: 512
    bias_term: false
    pad: 0
    kernel_size: 1
    stride: 1
  }
}
layer {
  name: "bn3a_branch2c"
  type: "BatchNorm"
  bottom: "res3a_branch2c"
  top: "res3a_branch2c"
  batch_norm_param {
    use_global_stats: false
  }
}
layer {
  name: "scale3a_branch2c"
  type: "Scale"
  bottom: "res3a_branch2c"
  top: "res3a_branch2c"
  param {
    name: "scale3a_branch2c_alpha"
  }
  param {
    name: "scale3a_branch2c_beta"
  }
  scale_param {
    bias_term: true
  }
}
layer {
  name: "res3a"
  type: "Eltwise"
  bottom: "res3a_branch1"
  bottom: "res3a_branch2c"
  top: "res3a"
}
layer {
  name: "res3a_relu"
  type: "ReLU"
  bottom: "res3a"
  top: "res3a"
}
layer {
  name: "res3b_branch2a"
  type: "Convolution"
  bottom: "res3a"
  top: "res3b_branch2a"
  param {
    name: "res3b_branch2a_w"
    lr_mult: 1
  }
  convolution_param {
    num_output: 128
    bias_term: false
    pad: 0
    kernel_size: 1
    stride: 1
  }
}
layer {
  name: "bn3b_branch2a"
  type: "BatchNorm"
  bottom: "res3b_branch2a"
  top: "res3b_branch2a"
  batch_norm_param {
    use_global_stats: false
  }
}
layer {
  name: "scale3b_branch2a"
  type: "Scale"
  bottom: "res3b_branch2a"
  top: "res3b_branch2a"
  param {
    name: "scale3b_branch2a_alpha"
  }
  param {
    name: "scale3b_branch2a_beta"
  }
  scale_param {
    bias_term: true
  }
}
layer {
  name: "res3b_branch2a_relu"
  type: "ReLU"
  bottom: "res3b_branch2a"
  top: "res3b_branch2a"
}
layer {
  name: "res3b_branch2b"
  type: "Convolution"
  bottom: "res3b_branch2a"
  top: "res3b_branch2b"
  param {
    name: "res3b_branch2b_w"
    lr_mult: 1
  }
  convolution_param {
    num_output: 128
    bias_term: false
    pad: 1
    kernel_size: 3
    stride: 1
  }
}
layer {
  name: "bn3b_branch2b"
  type: "BatchNorm"
  bottom: "res3b_branch2b"
  top: "res3b_branch2b"
  batch_norm_param {
    use_global_stats: false
  }
}
layer {
  name: "scale3b_branch2b"
  type: "Scale"
  bottom: "res3b_branch2b"
  top: "res3b_branch2b"
  param {
    name: "scale3b_branch2b_alpha"
  }
  param {
    name: "scale3b_branch2b_beta"
  }
  scale_param {
    bias_term: true
  }
}
layer {
  name: "res3b_branch2b_relu"
  type: "ReLU"
  bottom: "res3b_branch2b"
  top: "res3b_branch2b"
}
layer {
  name: "res3b_branch2c"
  type: "Convolution"
  bottom: "res3b_branch2b"
  top: "res3b_branch2c"
  param {
    name: "res3b_branch2c_w"
    lr_mult: 1
  }
  convolution_param {
    num_output: 512
    bias_term: false
    pad: 0
    kernel_size: 1
    stride: 1
  }
}
layer {
  name: "bn3b_branch2c"
  type: "BatchNorm"
  bottom: "res3b_branch2c"
  top: "res3b_branch2c"
  batch_norm_param {
    use_global_stats: false
  }
}
layer {
  name: "scale3b_branch2c"
  type: "Scale"
  bottom: "res3b_branch2c"
  top: "res3b_branch2c"
  param {
    name: "scale3b_branch2c_alpha"
  }
  param {
    name: "scale3b_branch2c_beta"
  }
  scale_param {
    bias_term: true
  }
}
layer {
  name: "res3b"
  type: "Eltwise"
  bottom: "res3a"
  bottom: "res3b_branch2c"
  top: "res3b"
}
layer {
  name: "res3b_relu"
  type: "ReLU"
  bottom: "res3b"
  top: "res3b"
}
layer {
  name: "res3c_branch2a"
  type: "Convolution"
  bottom: "res3b"
  top: "res3c_branch2a"
  param {
    name: "res3c_branch2a_w"
    lr_mult: 1
  }
  convolution_param {
    num_output: 128
    bias_term: false
    pad: 0
    kernel_size: 1
    stride: 1
  }
}
layer {
  name: "bn3c_branch2a"
  type: "BatchNorm"
  bottom: "res3c_branch2a"
  top: "res3c_branch2a"
  batch_norm_param {
    use_global_stats: false
  }
}
layer {
  name: "scale3c_branch2a"
  type: "Scale"
  bottom: "res3c_branch2a"
  top: "res3c_branch2a"
  param {
    name: "scale3c_branch2a_alpha"
  }
  param {
    name: "scale3c_branch2a_beta"
  }
  scale_param {
    bias_term: true
  }
}
layer {
  name: "res3c_branch2a_relu"
  type: "ReLU"
  bottom: "res3c_branch2a"
  top: "res3c_branch2a"
}
layer {
  name: "res3c_branch2b"
  type: "Convolution"
  bottom: "res3c_branch2a"
  top: "res3c_branch2b"
  param {
    name: "res3c_branch2b_w"
    lr_mult: 1
  }
  convolution_param {
    num_output: 128
    bias_term: false
    pad: 1
    kernel_size: 3
    stride: 1
  }
}
layer {
  name: "bn3c_branch2b"
  type: "BatchNorm"
  bottom: "res3c_branch2b"
  top: "res3c_branch2b"
  batch_norm_param {
    use_global_stats: false
  }
}
layer {
  name: "scale3c_branch2b"
  type: "Scale"
  bottom: "res3c_branch2b"
  top: "res3c_branch2b"
  param {
    name: "scale3c_branch2b_alpha"
  }
  param {
    name: "scale3c_branch2b_beta"
  }
  scale_param {
    bias_term: true
  }
}
layer {
  name: "res3c_branch2b_relu"
  type: "ReLU"
  bottom: "res3c_branch2b"
  top: "res3c_branch2b"
}
layer {
  name: "res3c_branch2c"
  type: "Convolution"
  bottom: "res3c_branch2b"
  top: "res3c_branch2c"
  param {
    name: "res3c_branch2c_w"
    lr_mult: 1
  }
  convolution_param {
    num_output: 512
    bias_term: false
    pad: 0
    kernel_size: 1
    stride: 1
  }
}
layer {
  name: "bn3c_branch2c"
  type: "BatchNorm"
  bottom: "res3c_branch2c"
  top: "res3c_branch2c"
  batch_norm_param {
    use_global_stats: false
  }
}
layer {
  name: "scale3c_branch2c"
  type: "Scale"
  bottom: "res3c_branch2c"
  top: "res3c_branch2c"
  param {
    name: "scale3c_branch2c_alpha"
  }
  param {
    name: "scale3c_branch2c_beta"
  }
  scale_param {
    bias_term: true
  }
}
layer {
  name: "res3c"
  type: "Eltwise"
  bottom: "res3b"
  bottom: "res3c_branch2c"
  top: "res3c"
}
layer {
  name: "res3c_relu"
  type: "ReLU"
  bottom: "res3c"
  top: "res3c"
}
layer {
  name: "res3d_branch2a"
  type: "Convolution"
  bottom: "res3c"
  top: "res3d_branch2a"
  param {
    name: "res3d_branch2a_w"
    lr_mult: 1
  }
  convolution_param {
    num_output: 128
    bias_term: false
    pad: 0
    kernel_size: 1
    stride: 1
  }
}
layer {
  name: "bn3d_branch2a"
  type: "BatchNorm"
  bottom: "res3d_branch2a"
  top: "res3d_branch2a"
  batch_norm_param {
    use_global_stats: false
  }
}
layer {
  name: "scale3d_branch2a"
  type: "Scale"
  bottom: "res3d_branch2a"
  top: "res3d_branch2a"
  param {
    name: "scale3d_branch2a_alpha"
  }
  param {
    name: "scale3d_branch2a_beta"
  }
  scale_param {
    bias_term: true
  }
}
layer {
  name: "res3d_branch2a_relu"
  type: "ReLU"
  bottom: "res3d_branch2a"
  top: "res3d_branch2a"
}
layer {
  name: "res3d_branch2b"
  type: "Convolution"
  bottom: "res3d_branch2a"
  top: "res3d_branch2b"
  param {
    name: "res3d_branch2b_w"
    lr_mult: 1
  }
  convolution_param {
    num_output: 128
    bias_term: false
    pad: 1
    kernel_size: 3
    stride: 1
  }
}
layer {
  name: "bn3d_branch2b"
  type: "BatchNorm"
  bottom: "res3d_branch2b"
  top: "res3d_branch2b"
  batch_norm_param {
    use_global_stats: false
  }
}
layer {
  name: "scale3d_branch2b"
  type: "Scale"
  bottom: "res3d_branch2b"
  top: "res3d_branch2b"
  param {
    name: "scale3d_branch2b_alpha"
  }
  param {
    name: "scale3d_branch2b_beta"
  }
  scale_param {
    bias_term: true
  }
}
layer {
  name: "res3d_branch2b_relu"
  type: "ReLU"
  bottom: "res3d_branch2b"
  top: "res3d_branch2b"
}
layer {
  name: "res3d_branch2c"
  type: "Convolution"
  bottom: "res3d_branch2b"
  top: "res3d_branch2c"
  param {
    name: "res3d_branch2c_w"
    lr_mult: 1
  }
  convolution_param {
    num_output: 512
    bias_term: false
    pad: 0
    kernel_size: 1
    stride: 1
  }
}
layer {
  name: "bn3d_branch2c"
  type: "BatchNorm"
  bottom: "res3d_branch2c"
  top: "res3d_branch2c"
  batch_norm_param {
    use_global_stats: false
  }
}
layer {
  name: "scale3d_branch2c"
  type: "Scale"
  bottom: "res3d_branch2c"
  top: "res3d_branch2c"
  param {
    name: "scale3d_branch2c_alpha"
  }
  param {
    name: "scale3d_branch2c_beta"
  }
  scale_param {
    bias_term: true
  }
}
layer {
  name: "res3d"
  type: "Eltwise"
  bottom: "res3c"
  bottom: "res3d_branch2c"
  top: "res3d"
}
layer {
  name: "res3d_relu"
  type: "ReLU"
  bottom: "res3d"
  top: "res3d"
}
layer {
  name: "res4a_branch1"
  type: "Convolution"
  bottom: "res3d"
  top: "res4a_branch1"
  param {
    name: "res4a_branch1_w"
    lr_mult: 1
  }
  convolution_param {
    num_output: 1024
    bias_term: false
    pad: 0
    kernel_size: 1
    stride: 2
  }
}
layer {
  name: "bn4a_branch1"
  type: "BatchNorm"
  bottom: "res4a_branch1"
  top: "res4a_branch1"
  batch_norm_param {
    use_global_stats: false
  }
}
layer {
  name: "scale4a_branch1"
  type: "Scale"
  bottom: "res4a_branch1"
  top: "res4a_branch1"
  param {
    name: "scale4a_branch1_alpha"
  }
  param {
    name: "scale4a_branch1_beta"
  }
  scale_param {
    bias_term: true
  }
}
layer {
  name: "res4a_branch2a"
  type: "Convolution"
  bottom: "res3d"
  top: "res4a_branch2a"
  param {
    name: "res4a_branch2a_w"
    lr_mult: 1
  }
  convolution_param {
    num_output: 256
    bias_term: false
    pad: 0
    kernel_size: 1
    stride: 2
  }
}
layer {
  name: "bn4a_branch2a"
  type: "BatchNorm"
  bottom: "res4a_branch2a"
  top: "res4a_branch2a"
  batch_norm_param {
    use_global_stats: false
  }
}
layer {
  name: "scale4a_branch2a"
  type: "Scale"
  bottom: "res4a_branch2a"
  top: "res4a_branch2a"
  param {
    name: "scale4a_branch2a_alpha"
  }
  param {
    name: "scale4a_branch2a_beta"
  }
  scale_param {
    bias_term: true
  }
}
layer {
  name: "res4a_branch2a_relu"
  type: "ReLU"
  bottom: "res4a_branch2a"
  top: "res4a_branch2a"
}
layer {
  name: "res4a_branch2b"
  type: "Convolution"
  bottom: "res4a_branch2a"
  top: "res4a_branch2b"
  param {
    name: "res4a_branch2b_w"
    lr_mult: 1
  }
  convolution_param {
    num_output: 256
    bias_term: false
    pad: 1
    kernel_size: 3
    stride: 1
  }
}
layer {
  name: "bn4a_branch2b"
  type: "BatchNorm"
  bottom: "res4a_branch2b"
  top: "res4a_branch2b"
  batch_norm_param {
    use_global_stats: false
  }
}
layer {
  name: "scale4a_branch2b"
  type: "Scale"
  bottom: "res4a_branch2b"
  top: "res4a_branch2b"
  param {
    name: "scale4a_branch2b_alpha"
  }
  param {
    name: "scale4a_branch2b_beta"
  }
  scale_param {
    bias_term: true
  }
}
layer {
  name: "res4a_branch2b_relu"
  type: "ReLU"
  bottom: "res4a_branch2b"
  top: "res4a_branch2b"
}
layer {
  name: "res4a_branch2c"
  type: "Convolution"
  bottom: "res4a_branch2b"
  top: "res4a_branch2c"
  param {
    name: "res4a_branch2c_w"
    lr_mult: 1
  }
  convolution_param {
    num_output: 1024
    bias_term: false
    pad: 0
    kernel_size: 1
    stride: 1
  }
}
layer {
  name: "bn4a_branch2c"
  type: "BatchNorm"
  bottom: "res4a_branch2c"
  top: "res4a_branch2c"
  batch_norm_param {
    use_global_stats: false
  }
}
layer {
  name: "scale4a_branch2c"
  type: "Scale"
  bottom: "res4a_branch2c"
  top: "res4a_branch2c"
  param {
    name: "scale4a_branch2c_alpha"
  }
  param {
    name: "scale4a_branch2c_beta"
  }
  scale_param {
    bias_term: true
  }
}
layer {
  name: "res4a"
  type: "Eltwise"
  bottom: "res4a_branch1"
  bottom: "res4a_branch2c"
  top: "res4a"
}
layer {
  name: "res4a_relu"
  type: "ReLU"
  bottom: "res4a"
  top: "res4a"
}
layer {
  name: "res4b_branch2a"
  type: "Convolution"
  bottom: "res4a"
  top: "res4b_branch2a"
  param {
    name: "res4b_branch2a_w"
    lr_mult: 1
  }
  convolution_param {
    num_output: 256
    bias_term: false
    pad: 0
    kernel_size: 1
    stride: 1
  }
}
layer {
  name: "bn4b_branch2a"
  type: "BatchNorm"
  bottom: "res4b_branch2a"
  top: "res4b_branch2a"
  batch_norm_param {
    use_global_stats: false
  }
}
layer {
  name: "scale4b_branch2a"
  type: "Scale"
  bottom: "res4b_branch2a"
  top: "res4b_branch2a"
  param {
    name: "scale4b_branch2a_alpha"
  }
  param {
    name: "scale4b_branch2a_beta"
  }
  scale_param {
    bias_term: true
  }
}
layer {
  name: "res4b_branch2a_relu"
  type: "ReLU"
  bottom: "res4b_branch2a"
  top: "res4b_branch2a"
}
layer {
  name: "res4b_branch2b"
  type: "Convolution"
  bottom: "res4b_branch2a"
  top: "res4b_branch2b"
  param {
    name: "res4b_branch2b_w"
    lr_mult: 1
  }
  convolution_param {
    num_output: 256
    bias_term: false
    pad: 1
    kernel_size: 3
    stride: 1
  }
}
layer {
  name: "bn4b_branch2b"
  type: "BatchNorm"
  bottom: "res4b_branch2b"
  top: "res4b_branch2b"
  batch_norm_param {
    use_global_stats: false
  }
}
layer {
  name: "scale4b_branch2b"
  type: "Scale"
  bottom: "res4b_branch2b"
  top: "res4b_branch2b"
  param {
    name: "scale4b_branch2b_alpha"
  }
  param {
    name: "scale4b_branch2b_beta"
  }
  scale_param {
    bias_term: true
  }
}
layer {
  name: "res4b_branch2b_relu"
  type: "ReLU"
  bottom: "res4b_branch2b"
  top: "res4b_branch2b"
}
layer {
  name: "res4b_branch2c"
  type: "Convolution"
  bottom: "res4b_branch2b"
  top: "res4b_branch2c"
  param {
    name: "res4b_branch2c_w"
    lr_mult: 1
  }
  convolution_param {
    num_output: 1024
    bias_term: false
    pad: 0
    kernel_size: 1
    stride: 1
  }
}
layer {
  name: "bn4b_branch2c"
  type: "BatchNorm"
  bottom: "res4b_branch2c"
  top: "res4b_branch2c"
  batch_norm_param {
    use_global_stats: false
  }
}
layer {
  name: "scale4b_branch2c"
  type: "Scale"
  bottom: "res4b_branch2c"
  top: "res4b_branch2c"
  param {
    name: "scale4b_branch2c_alpha"
  }
  param {
    name: "scale4b_branch2c_beta"
  }
  scale_param {
    bias_term: true
  }
}
layer {
  name: "res4b"
  type: "Eltwise"
  bottom: "res4a"
  bottom: "res4b_branch2c"
  top: "res4b"
}
layer {
  name: "res4b_relu"
  type: "ReLU"
  bottom: "res4b"
  top: "res4b"
}
layer {
  name: "res4c_branch2a"
  type: "Convolution"
  bottom: "res4b"
  top: "res4c_branch2a"
  param {
    name: "res4c_branch2a_w"
    lr_mult: 1
  }
  convolution_param {
    num_output: 256
    bias_term: false
    pad: 0
    kernel_size: 1
    stride: 1
  }
}
layer {
  name: "bn4c_branch2a"
  type: "BatchNorm"
  bottom: "res4c_branch2a"
  top: "res4c_branch2a"
  batch_norm_param {
    use_global_stats: false
  }
}
layer {
  name: "scale4c_branch2a"
  type: "Scale"
  bottom: "res4c_branch2a"
  top: "res4c_branch2a"
  param {
    name: "scale4c_branch2a_alpha"
  }
  param {
    name: "scale4c_branch2a_beta"
  }
  scale_param {
    bias_term: true
  }
}
layer {
  name: "res4c_branch2a_relu"
  type: "ReLU"
  bottom: "res4c_branch2a"
  top: "res4c_branch2a"
}
layer {
  name: "res4c_branch2b"
  type: "Convolution"
  bottom: "res4c_branch2a"
  top: "res4c_branch2b"
  param {
    name: "res4c_branch2b_w"
    lr_mult: 1
  }
  convolution_param {
    num_output: 256
    bias_term: false
    pad: 1
    kernel_size: 3
    stride: 1
  }
}
layer {
  name: "bn4c_branch2b"
  type: "BatchNorm"
  bottom: "res4c_branch2b"
  top: "res4c_branch2b"
  batch_norm_param {
    use_global_stats: false
  }
}
layer {
  name: "scale4c_branch2b"
  type: "Scale"
  bottom: "res4c_branch2b"
  top: "res4c_branch2b"
  param {
    name: "scale4c_branch2b_alpha"
  }
  param {
    name: "scale4c_branch2b_beta"
  }
  scale_param {
    bias_term: true
  }
}
layer {
  name: "res4c_branch2b_relu"
  type: "ReLU"
  bottom: "res4c_branch2b"
  top: "res4c_branch2b"
}
layer {
  name: "res4c_branch2c"
  type: "Convolution"
  bottom: "res4c_branch2b"
  top: "res4c_branch2c"
  param {
    name: "res4c_branch2c_w"
    lr_mult: 1
  }
  convolution_param {
    num_output: 1024
    bias_term: false
    pad: 0
    kernel_size: 1
    stride: 1
  }
}
layer {
  name: "bn4c_branch2c"
  type: "BatchNorm"
  bottom: "res4c_branch2c"
  top: "res4c_branch2c"
  batch_norm_param {
    use_global_stats: false
  }
}
layer {
  name: "scale4c_branch2c"
  type: "Scale"
  bottom: "res4c_branch2c"
  top: "res4c_branch2c"
  param {
    name: "scale4c_branch2c_alpha"
  }
  param {
    name: "scale4c_branch2c_beta"
  }
  scale_param {
    bias_term: true
  }
}
layer {
  name: "res4c"
  type: "Eltwise"
  bottom: "res4b"
  bottom: "res4c_branch2c"
  top: "res4c"
}
layer {
  name: "res4c_relu"
  type: "ReLU"
  bottom: "res4c"
  top: "res4c"
}
layer {
  name: "res4d_branch2a"
  type: "Convolution"
  bottom: "res4c"
  top: "res4d_branch2a"
  param {
    name: "res4d_branch2a_w"
    lr_mult: 1
  }
  convolution_param {
    num_output: 256
    bias_term: false
    pad: 0
    kernel_size: 1
    stride: 1
  }
}
layer {
  name: "bn4d_branch2a"
  type: "BatchNorm"
  bottom: "res4d_branch2a"
  top: "res4d_branch2a"
  batch_norm_param {
    use_global_stats: false
  }
}
layer {
  name: "scale4d_branch2a"
  type: "Scale"
  bottom: "res4d_branch2a"
  top: "res4d_branch2a"
  param {
    name: "scale4d_branch2a_alpha"
  }
  param {
    name: "scale4d_branch2a_beta"
  }
  scale_param {
    bias_term: true
  }
}
layer {
  name: "res4d_branch2a_relu"
  type: "ReLU"
  bottom: "res4d_branch2a"
  top: "res4d_branch2a"
}
layer {
  name: "res4d_branch2b"
  type: "Convolution"
  bottom: "res4d_branch2a"
  top: "res4d_branch2b"
  param {
    name: "res4d_branch2b_w"
    lr_mult: 1
  }
  convolution_param {
    num_output: 256
    bias_term: false
    pad: 1
    kernel_size: 3
    stride: 1
  }
}
layer {
  name: "bn4d_branch2b"
  type: "BatchNorm"
  bottom: "res4d_branch2b"
  top: "res4d_branch2b"
  batch_norm_param {
    use_global_stats: false
  }
}
layer {
  name: "scale4d_branch2b"
  type: "Scale"
  bottom: "res4d_branch2b"
  top: "res4d_branch2b"
  param {
    name: "scale4d_branch2b_alpha"
  }
  param {
    name: "scale4d_branch2b_beta"
  }
  scale_param {
    bias_term: true
  }
}
layer {
  name: "res4d_branch2b_relu"
  type: "ReLU"
  bottom: "res4d_branch2b"
  top: "res4d_branch2b"
}
layer {
  name: "res4d_branch2c"
  type: "Convolution"
  bottom: "res4d_branch2b"
  top: "res4d_branch2c"
  param {
    name: "res4d_branch2c_w"
    lr_mult: 1
  }
  convolution_param {
    num_output: 1024
    bias_term: false
    pad: 0
    kernel_size: 1
    stride: 1
  }
}
layer {
  name: "bn4d_branch2c"
  type: "BatchNorm"
  bottom: "res4d_branch2c"
  top: "res4d_branch2c"
  batch_norm_param {
    use_global_stats: false
  }
}
layer {
  name: "scale4d_branch2c"
  type: "Scale"
  bottom: "res4d_branch2c"
  top: "res4d_branch2c"
  param {
    name: "scale4d_branch2c_alpha"
  }
  param {
    name: "scale4d_branch2c_beta"
  }
  scale_param {
    bias_term: true
  }
}
layer {
  name: "res4d"
  type: "Eltwise"
  bottom: "res4c"
  bottom: "res4d_branch2c"
  top: "res4d"
}
layer {
  name: "res4d_relu"
  type: "ReLU"
  bottom: "res4d"
  top: "res4d"
}
layer {
  name: "res4e_branch2a"
  type: "Convolution"
  bottom: "res4d"
  top: "res4e_branch2a"
  param {
    name: "res4e_branch2a_w"
    lr_mult: 1
  }
  convolution_param {
    num_output:
I0301 20:57:51.725517  6576 layer_factory.hpp:77] Creating layer data
I0301 20:57:51.725551  6576 net.cpp:100] Creating Layer data
I0301 20:57:51.725560  6576 net.cpp:408] data -> pairs
I0301 20:57:51.725574  6576 net.cpp:408] data -> label
I0301 20:57:51.744205  6576 net.cpp:150] Setting up data
I0301 20:57:51.744235  6576 net.cpp:157] Top shape: 8 6 224 224 (2408448)
I0301 20:57:51.744240  6576 net.cpp:157] Top shape: 8 (8)
I0301 20:57:51.744244  6576 net.cpp:165] Memory required for data: 9633824
I0301 20:57:51.744251  6576 layer_factory.hpp:77] Creating layer slice
I0301 20:57:51.744263  6576 net.cpp:100] Creating Layer slice
I0301 20:57:51.744268  6576 net.cpp:434] slice <- pairs
I0301 20:57:51.744276  6576 net.cpp:408] slice -> data
I0301 20:57:51.744285  6576 net.cpp:408] slice -> data_p
I0301 20:57:51.744318  6576 net.cpp:150] Setting up slice
I0301 20:57:51.744325  6576 net.cpp:157] Top shape: 8 3 224 224 (1204224)
I0301 20:57:51.744329  6576 net.cpp:157] Top shape: 8 3 224 224 (1204224)
I0301 20:57:51.744333  6576 net.cpp:165] Memory required for data: 19267616
I0301 20:57:51.744336  6576 layer_factory.hpp:77] Creating layer conv1
I0301 20:57:51.744346  6576 net.cpp:100] Creating Layer conv1
I0301 20:57:51.744350  6576 net.cpp:434] conv1 <- data
I0301 20:57:51.744356  6576 net.cpp:408] conv1 -> conv1
I0301 20:57:52.109855  6576 net.cpp:150] Setting up conv1
I0301 20:57:52.109887  6576 net.cpp:157] Top shape: 8 64 112 112 (6422528)
I0301 20:57:52.109892  6576 net.cpp:165] Memory required for data: 44957728
I0301 20:57:52.109906  6576 layer_factory.hpp:77] Creating layer bn_conv1
I0301 20:57:52.109916  6576 net.cpp:100] Creating Layer bn_conv1
I0301 20:57:52.109920  6576 net.cpp:434] bn_conv1 <- conv1
I0301 20:57:52.109935  6576 net.cpp:395] bn_conv1 -> conv1 (in-place)
I0301 20:57:52.110098  6576 net.cpp:150] Setting up bn_conv1
I0301 20:57:52.110106  6576 net.cpp:157] Top shape: 8 64 112 112 (6422528)
I0301 20:57:52.110110  6576 net.cpp:165] Memory required for data: 70647840
I0301 20:57:52.110121  6576 layer_factory.hpp:77] Creating layer scale_conv1
I0301 20:57:52.110129  6576 net.cpp:100] Creating Layer scale_conv1
I0301 20:57:52.110133  6576 net.cpp:434] scale_conv1 <- conv1
I0301 20:57:52.110138  6576 net.cpp:395] scale_conv1 -> conv1 (in-place)
I0301 20:57:52.110175  6576 layer_factory.hpp:77] Creating layer scale_conv1
I0301 20:57:52.110280  6576 net.cpp:150] Setting up scale_conv1
I0301 20:57:52.110287  6576 net.cpp:157] Top shape: 8 64 112 112 (6422528)
I0301 20:57:52.110291  6576 net.cpp:165] Memory required for data: 96337952
I0301 20:57:52.110296  6576 layer_factory.hpp:77] Creating layer conv1_relu
I0301 20:57:52.110306  6576 net.cpp:100] Creating Layer conv1_relu
I0301 20:57:52.110311  6576 net.cpp:434] conv1_relu <- conv1
I0301 20:57:52.110316  6576 net.cpp:395] conv1_relu -> conv1 (in-place)
I0301 20:57:52.110460  6576 net.cpp:150] Setting up conv1_relu
I0301 20:57:52.110469  6576 net.cpp:157] Top shape: 8 64 112 112 (6422528)
I0301 20:57:52.110473  6576 net.cpp:165] Memory required for data: 122028064
I0301 20:57:52.110476  6576 layer_factory.hpp:77] Creating layer pool1
I0301 20:57:52.110483  6576 net.cpp:100] Creating Layer pool1
I0301 20:57:52.110487  6576 net.cpp:434] pool1 <- conv1
I0301 20:57:52.110492  6576 net.cpp:408] pool1 -> pool1
I0301 20:57:52.110527  6576 net.cpp:150] Setting up pool1
I0301 20:57:52.110532  6576 net.cpp:157] Top shape: 8 64 56 56 (1605632)
I0301 20:57:52.110535  6576 net.cpp:165] Memory required for data: 128450592
I0301 20:57:52.110539  6576 layer_factory.hpp:77] Creating layer pool1_pool1_0_split
I0301 20:57:52.110544  6576 net.cpp:100] Creating Layer pool1_pool1_0_split
I0301 20:57:52.110548  6576 net.cpp:434] pool1_pool1_0_split <- pool1
I0301 20:57:52.110553  6576 net.cpp:408] pool1_pool1_0_split -> pool1_pool1_0_split_0
I0301 20:57:52.110559  6576 net.cpp:408] pool1_pool1_0_split -> pool1_pool1_0_split_1
I0301 20:57:52.110589  6576 net.cpp:150] Setting up pool1_pool1_0_split
I0301 20:57:52.110594  6576 net.cpp:157] Top shape: 8 64 56 56 (1605632)
I0301 20:57:52.110599  6576 net.cpp:157] Top shape: 8 64 56 56 (1605632)
I0301 20:57:52.110601  6576 net.cpp:165] Memory required for data: 141295648
I0301 20:57:52.110605  6576 layer_factory.hpp:77] Creating layer res2a_branch1
I0301 20:57:52.110615  6576 net.cpp:100] Creating Layer res2a_branch1
I0301 20:57:52.110618  6576 net.cpp:434] res2a_branch1 <- pool1_pool1_0_split_0
I0301 20:57:52.110625  6576 net.cpp:408] res2a_branch1 -> res2a_branch1
I0301 20:57:52.111418  6576 net.cpp:150] Setting up res2a_branch1
I0301 20:57:52.111433  6576 net.cpp:157] Top shape: 8 256 56 56 (6422528)
I0301 20:57:52.111436  6576 net.cpp:165] Memory required for data: 166985760
I0301 20:57:52.111443  6576 layer_factory.hpp:77] Creating layer bn2a_branch1
I0301 20:57:52.111449  6576 net.cpp:100] Creating Layer bn2a_branch1
I0301 20:57:52.111452  6576 net.cpp:434] bn2a_branch1 <- res2a_branch1
I0301 20:57:52.111457  6576 net.cpp:395] bn2a_branch1 -> res2a_branch1 (in-place)
I0301 20:57:52.112362  6576 net.cpp:150] Setting up bn2a_branch1
I0301 20:57:52.112376  6576 net.cpp:157] Top shape: 8 256 56 56 (6422528)
I0301 20:57:52.112380  6576 net.cpp:165] Memory required for data: 192675872
I0301 20:57:52.112390  6576 layer_factory.hpp:77] Creating layer scale2a_branch1
I0301 20:57:52.112398  6576 net.cpp:100] Creating Layer scale2a_branch1
I0301 20:57:52.112402  6576 net.cpp:434] scale2a_branch1 <- res2a_branch1
I0301 20:57:52.112407  6576 net.cpp:395] scale2a_branch1 -> res2a_branch1 (in-place)
I0301 20:57:52.112440  6576 layer_factory.hpp:77] Creating layer scale2a_branch1
I0301 20:57:52.112521  6576 net.cpp:150] Setting up scale2a_branch1
I0301 20:57:52.112529  6576 net.cpp:157] Top shape: 8 256 56 56 (6422528)
I0301 20:57:52.112531  6576 net.cpp:165] Memory required for data: 218365984
I0301 20:57:52.112543  6576 layer_factory.hpp:77] Creating layer res2a_branch2a
I0301 20:57:52.112550  6576 net.cpp:100] Creating Layer res2a_branch2a
I0301 20:57:52.112555  6576 net.cpp:434] res2a_branch2a <- pool1_pool1_0_split_1
I0301 20:57:52.112560  6576 net.cpp:408] res2a_branch2a -> res2a_branch2a
I0301 20:57:52.113446  6576 net.cpp:150] Setting up res2a_branch2a
I0301 20:57:52.113461  6576 net.cpp:157] Top shape: 8 64 56 56 (1605632)
I0301 20:57:52.113464  6576 net.cpp:165] Memory required for data: 224788512
I0301 20:57:52.113471  6576 layer_factory.hpp:77] Creating layer bn2a_branch2a
I0301 20:57:52.113476  6576 net.cpp:100] Creating Layer bn2a_branch2a
I0301 20:57:52.113481  6576 net.cpp:434] bn2a_branch2a <- res2a_branch2a
I0301 20:57:52.113487  6576 net.cpp:395] bn2a_branch2a -> res2a_branch2a (in-place)
I0301 20:57:52.113626  6576 net.cpp:150] Setting up bn2a_branch2a
I0301 20:57:52.113632  6576 net.cpp:157] Top shape: 8 64 56 56 (1605632)
I0301 20:57:52.113636  6576 net.cpp:165] Memory required for data: 231211040
I0301 20:57:52.113646  6576 layer_factory.hpp:77] Creating layer scale2a_branch2a
I0301 20:57:52.113653  6576 net.cpp:100] Creating Layer scale2a_branch2a
I0301 20:57:52.113657  6576 net.cpp:434] scale2a_branch2a <- res2a_branch2a
I0301 20:57:52.113662  6576 net.cpp:395] scale2a_branch2a -> res2a_branch2a (in-place)
I0301 20:57:52.113693  6576 layer_factory.hpp:77] Creating layer scale2a_branch2a
I0301 20:57:52.113777  6576 net.cpp:150] Setting up scale2a_branch2a
I0301 20:57:52.113785  6576 net.cpp:157] Top shape: 8 64 56 56 (1605632)
I0301 20:57:52.113788  6576 net.cpp:165] Memory required for data: 237633568
I0301 20:57:52.113795  6576 layer_factory.hpp:77] Creating layer res2a_branch2a_relu
I0301 20:57:52.113800  6576 net.cpp:100] Creating Layer res2a_branch2a_relu
I0301 20:57:52.113803  6576 net.cpp:434] res2a_branch2a_relu <- res2a_branch2a
I0301 20:57:52.113808  6576 net.cpp:395] res2a_branch2a_relu -> res2a_branch2a (in-place)
I0301 20:57:52.113945  6576 net.cpp:150] Setting up res2a_branch2a_relu
I0301 20:57:52.113953  6576 net.cpp:157] Top shape: 8 64 56 56 (1605632)
I0301 20:57:52.113956  6576 net.cpp:165] Memory required for data: 244056096
I0301 20:57:52.113960  6576 layer_factory.hpp:77] Creating layer res2a_branch2b
I0301 20:57:52.113967  6576 net.cpp:100] Creating Layer res2a_branch2b
I0301 20:57:52.113971  6576 net.cpp:434] res2a_branch2b <- res2a_branch2a
I0301 20:57:52.113977  6576 net.cpp:408] res2a_branch2b -> res2a_branch2b
I0301 20:57:52.115772  6576 net.cpp:150] Setting up res2a_branch2b
I0301 20:57:52.115787  6576 net.cpp:157] Top shape: 8 64 56 56 (1605632)
I0301 20:57:52.115790  6576 net.cpp:165] Memory required for data: 250478624
I0301 20:57:52.115797  6576 layer_factory.hpp:77] Creating layer bn2a_branch2b
I0301 20:57:52.115821  6576 net.cpp:100] Creating Layer bn2a_branch2b
I0301 20:57:52.115826  6576 net.cpp:434] bn2a_branch2b <- res2a_branch2b
I0301 20:57:52.115833  6576 net.cpp:395] bn2a_branch2b -> res2a_branch2b (in-place)
I0301 20:57:52.116005  6576 net.cpp:150] Setting up bn2a_branch2b
I0301 20:57:52.116014  6576 net.cpp:157] Top shape: 8 64 56 56 (1605632)
I0301 20:57:52.116017  6576 net.cpp:165] Memory required for data: 256901152
I0301 20:57:52.116025  6576 layer_factory.hpp:77] Creating layer scale2a_branch2b
I0301 20:57:52.116034  6576 net.cpp:100] Creating Layer scale2a_branch2b
I0301 20:57:52.116037  6576 net.cpp:434] scale2a_branch2b <- res2a_branch2b
I0301 20:57:52.116042  6576 net.cpp:395] scale2a_branch2b -> res2a_branch2b (in-place)
I0301 20:57:52.116076  6576 layer_factory.hpp:77] Creating layer scale2a_branch2b
I0301 20:57:52.116170  6576 net.cpp:150] Setting up scale2a_branch2b
I0301 20:57:52.116178  6576 net.cpp:157] Top shape: 8 64 56 56 (1605632)
I0301 20:57:52.116197  6576 net.cpp:165] Memory required for data: 263323680
I0301 20:57:52.116219  6576 layer_factory.hpp:77] Creating layer res2a_branch2b_relu
I0301 20:57:52.116225  6576 net.cpp:100] Creating Layer res2a_branch2b_relu
I0301 20:57:52.116228  6576 net.cpp:434] res2a_branch2b_relu <- res2a_branch2b
I0301 20:57:52.116237  6576 net.cpp:395] res2a_branch2b_relu -> res2a_branch2b (in-place)
I0301 20:57:52.116380  6576 net.cpp:150] Setting up res2a_branch2b_relu
I0301 20:57:52.116389  6576 net.cpp:157] Top shape: 8 64 56 56 (1605632)
I0301 20:57:52.116392  6576 net.cpp:165] Memory required for data: 269746208
I0301 20:57:52.116396  6576 layer_factory.hpp:77] Creating layer res2a_branch2c
I0301 20:57:52.116403  6576 net.cpp:100] Creating Layer res2a_branch2c
I0301 20:57:52.116407  6576 net.cpp:434] res2a_branch2c <- res2a_branch2b
I0301 20:57:52.116413  6576 net.cpp:408] res2a_branch2c -> res2a_branch2c
I0301 20:57:52.117331  6576 net.cpp:150] Setting up res2a_branch2c
I0301 20:57:52.117344  6576 net.cpp:157] Top shape: 8 256 56 56 (6422528)
I0301 20:57:52.117348  6576 net.cpp:165] Memory required for data: 295436320
I0301 20:57:52.117354  6576 layer_factory.hpp:77] Creating layer bn2a_branch2c
I0301 20:57:52.117360  6576 net.cpp:100] Creating Layer bn2a_branch2c
I0301 20:57:52.117364  6576 net.cpp:434] bn2a_branch2c <- res2a_branch2c
I0301 20:57:52.117370  6576 net.cpp:395] bn2a_branch2c -> res2a_branch2c (in-place)
I0301 20:57:52.117503  6576 net.cpp:150] Setting up bn2a_branch2c
I0301 20:57:52.117511  6576 net.cpp:157] Top shape: 8 256 56 56 (6422528)
I0301 20:57:52.117513  6576 net.cpp:165] Memory required for data: 321126432
I0301 20:57:52.117522  6576 layer_factory.hpp:77] Creating layer scale2a_branch2c
I0301 20:57:52.117527  6576 net.cpp:100] Creating Layer scale2a_branch2c
I0301 20:57:52.117532  6576 net.cpp:434] scale2a_branch2c <- res2a_branch2c
I0301 20:57:52.117537  6576 net.cpp:395] scale2a_branch2c -> res2a_branch2c (in-place)
I0301 20:57:52.117566  6576 layer_factory.hpp:77] Creating layer scale2a_branch2c
I0301 20:57:52.117647  6576 net.cpp:150] Setting up scale2a_branch2c
I0301 20:57:52.117655  6576 net.cpp:157] Top shape: 8 256 56 56 (6422528)
I0301 20:57:52.117658  6576 net.cpp:165] Memory required for data: 346816544
I0301 20:57:52.117666  6576 layer_factory.hpp:77] Creating layer res2a
I0301 20:57:52.117671  6576 net.cpp:100] Creating Layer res2a
I0301 20:57:52.117674  6576 net.cpp:434] res2a <- res2a_branch1
I0301 20:57:52.117678  6576 net.cpp:434] res2a <- res2a_branch2c
I0301 20:57:52.117683  6576 net.cpp:408] res2a -> res2a
I0301 20:57:52.117703  6576 net.cpp:150] Setting up res2a
I0301 20:57:52.117708  6576 net.cpp:157] Top shape: 8 256 56 56 (6422528)
I0301 20:57:52.117712  6576 net.cpp:165] Memory required for data: 372506656
I0301 20:57:52.117717  6576 layer_factory.hpp:77] Creating layer res2a_relu
I0301 20:57:52.117720  6576 net.cpp:100] Creating Layer res2a_relu
I0301 20:57:52.117724  6576 net.cpp:434] res2a_relu <- res2a
I0301 20:57:52.117728  6576 net.cpp:395] res2a_relu -> res2a (in-place)
I0301 20:57:52.117866  6576 net.cpp:150] Setting up res2a_relu
I0301 20:57:52.117874  6576 net.cpp:157] Top shape: 8 256 56 56 (6422528)
I0301 20:57:52.117877  6576 net.cpp:165] Memory required for data: 398196768
I0301 20:57:52.117880  6576 layer_factory.hpp:77] Creating layer res2a_res2a_relu_0_split
I0301 20:57:52.117887  6576 net.cpp:100] Creating Layer res2a_res2a_relu_0_split
I0301 20:57:52.117890  6576 net.cpp:434] res2a_res2a_relu_0_split <- res2a
I0301 20:57:52.117895  6576 net.cpp:408] res2a_res2a_relu_0_split -> res2a_res2a_relu_0_split_0
I0301 20:57:52.117902  6576 net.cpp:408] res2a_res2a_relu_0_split -> res2a_res2a_relu_0_split_1
I0301 20:57:52.117931  6576 net.cpp:150] Setting up res2a_res2a_relu_0_split
I0301 20:57:52.117936  6576 net.cpp:157] Top shape: 8 256 56 56 (6422528)
I0301 20:57:52.117941  6576 net.cpp:157] Top shape: 8 256 56 56 (6422528)
I0301 20:57:52.117944  6576 net.cpp:165] Memory required for data: 449576992
I0301 20:57:52.117947  6576 layer_factory.hpp:77] Creating layer res2b_branch2a
I0301 20:57:52.117954  6576 net.cpp:100] Creating Layer res2b_branch2a
I0301 20:57:52.117959  6576 net.cpp:434] res2b_branch2a <- res2a_res2a_relu_0_split_0
I0301 20:57:52.117964  6576 net.cpp:408] res2b_branch2a -> res2b_branch2a
I0301 20:57:52.118755  6576 net.cpp:150] Setting up res2b_branch2a
I0301 20:57:52.118768  6576 net.cpp:157] Top shape: 8 64 56 56 (1605632)
I0301 20:57:52.118772  6576 net.cpp:165] Memory required for data: 455999520
I0301 20:57:52.118778  6576 layer_factory.hpp:77] Creating layer bn2b_branch2a
I0301 20:57:52.118784  6576 net.cpp:100] Creating Layer bn2b_branch2a
I0301 20:57:52.118788  6576 net.cpp:434] bn2b_branch2a <- res2b_branch2a
I0301 20:57:52.118793  6576 net.cpp:395] bn2b_branch2a -> res2b_branch2a (in-place)
I0301 20:57:52.118937  6576 net.cpp:150] Setting up bn2b_branch2a
I0301 20:57:52.118944  6576 net.cpp:157] Top shape: 8 64 56 56 (1605632)
I0301 20:57:52.118947  6576 net.cpp:165] Memory required for data: 462422048
I0301 20:57:52.118959  6576 layer_factory.hpp:77] Creating layer scale2b_branch2a
I0301 20:57:52.118966  6576 net.cpp:100] Creating Layer scale2b_branch2a
I0301 20:57:52.118970  6576 net.cpp:434] scale2b_branch2a <- res2b_branch2a
I0301 20:57:52.118975  6576 net.cpp:395] scale2b_branch2a -> res2b_branch2a (in-place)
I0301 20:57:52.119007  6576 layer_factory.hpp:77] Creating layer scale2b_branch2a
I0301 20:57:52.119094  6576 net.cpp:150] Setting up scale2b_branch2a
I0301 20:57:52.119102  6576 net.cpp:157] Top shape: 8 64 56 56 (1605632)
I0301 20:57:52.119105  6576 net.cpp:165] Memory required for data: 468844576
I0301 20:57:52.119112  6576 layer_factory.hpp:77] Creating layer res2b_branch2a_relu
I0301 20:57:52.119117  6576 net.cpp:100] Creating Layer res2b_branch2a_relu
I0301 20:57:52.119120  6576 net.cpp:434] res2b_branch2a_relu <- res2b_branch2a
I0301 20:57:52.119125  6576 net.cpp:395] res2b_branch2a_relu -> res2b_branch2a (in-place)
I0301 20:57:52.119261  6576 net.cpp:150] Setting up res2b_branch2a_relu
I0301 20:57:52.119268  6576 net.cpp:157] Top shape: 8 64 56 56 (1605632)
I0301 20:57:52.119271  6576 net.cpp:165] Memory required for data: 475267104
I0301 20:57:52.119276  6576 layer_factory.hpp:77] Creating layer res2b_branch2b
I0301 20:57:52.119282  6576 net.cpp:100] Creating Layer res2b_branch2b
I0301 20:57:52.119287  6576 net.cpp:434] res2b_branch2b <- res2b_branch2a
I0301 20:57:52.119292  6576 net.cpp:408] res2b_branch2b -> res2b_branch2b
I0301 20:57:52.120100  6576 net.cpp:150] Setting up res2b_branch2b
I0301 20:57:52.120115  6576 net.cpp:157] Top shape: 8 64 56 56 (1605632)
I0301 20:57:52.120118  6576 net.cpp:165] Memory required for data: 481689632
I0301 20:57:52.120126  6576 layer_factory.hpp:77] Creating layer bn2b_branch2b
I0301 20:57:52.120131  6576 net.cpp:100] Creating Layer bn2b_branch2b
I0301 20:57:52.120136  6576 net.cpp:434] bn2b_branch2b <- res2b_branch2b
I0301 20:57:52.120141  6576 net.cpp:395] bn2b_branch2b -> res2b_branch2b (in-place)
I0301 20:57:52.120290  6576 net.cpp:150] Setting up bn2b_branch2b
I0301 20:57:52.120297  6576 net.cpp:157] Top shape: 8 64 56 56 (1605632)
I0301 20:57:52.120301  6576 net.cpp:165] Memory required for data: 488112160
I0301 20:57:52.120308  6576 layer_factory.hpp:77] Creating layer scale2b_branch2b
I0301 20:57:52.120316  6576 net.cpp:100] Creating Layer scale2b_branch2b
I0301 20:57:52.120318  6576 net.cpp:434] scale2b_branch2b <- res2b_branch2b
I0301 20:57:52.120323  6576 net.cpp:395] scale2b_branch2b -> res2b_branch2b (in-place)
I0301 20:57:52.120355  6576 layer_factory.hpp:77] Creating layer scale2b_branch2b
I0301 20:57:52.120443  6576 net.cpp:150] Setting up scale2b_branch2b
I0301 20:57:52.120450  6576 net.cpp:157] Top shape: 8 64 56 56 (1605632)
I0301 20:57:52.120455  6576 net.cpp:165] Memory required for data: 494534688
I0301 20:57:52.120460  6576 layer_factory.hpp:77] Creating layer res2b_branch2b_relu
I0301 20:57:52.120470  6576 net.cpp:100] Creating Layer res2b_branch2b_relu
I0301 20:57:52.120473  6576 net.cpp:434] res2b_branch2b_relu <- res2b_branch2b
I0301 20:57:52.120478  6576 net.cpp:395] res2b_branch2b_relu -> res2b_branch2b (in-place)
I0301 20:57:52.120968  6576 net.cpp:150] Setting up res2b_branch2b_relu
I0301 20:57:52.120983  6576 net.cpp:157] Top shape: 8 64 56 56 (1605632)
I0301 20:57:52.120987  6576 net.cpp:165] Memory required for data: 500957216
I0301 20:57:52.120998  6576 layer_factory.hpp:77] Creating layer res2b_branch2c
I0301 20:57:52.121007  6576 net.cpp:100] Creating Layer res2b_branch2c
I0301 20:57:52.121011  6576 net.cpp:434] res2b_branch2c <- res2b_branch2b
I0301 20:57:52.121018  6576 net.cpp:408] res2b_branch2c -> res2b_branch2c
I0301 20:57:52.121876  6576 net.cpp:150] Setting up res2b_branch2c
I0301 20:57:52.121888  6576 net.cpp:157] Top shape: 8 256 56 56 (6422528)
I0301 20:57:52.121893  6576 net.cpp:165] Memory required for data: 526647328
I0301 20:57:52.121899  6576 layer_factory.hpp:77] Creating layer bn2b_branch2c
I0301 20:57:52.121906  6576 net.cpp:100] Creating Layer bn2b_branch2c
I0301 20:57:52.121909  6576 net.cpp:434] bn2b_branch2c <- res2b_branch2c
I0301 20:57:52.121915  6576 net.cpp:395] bn2b_branch2c -> res2b_branch2c (in-place)
I0301 20:57:52.122056  6576 net.cpp:150] Setting up bn2b_branch2c
I0301 20:57:52.122062  6576 net.cpp:157] Top shape: 8 256 56 56 (6422528)
I0301 20:57:52.122066  6576 net.cpp:165] Memory required for data: 552337440
I0301 20:57:52.122073  6576 layer_factory.hpp:77] Creating layer scale2b_branch2c
I0301 20:57:52.122081  6576 net.cpp:100] Creating Layer scale2b_branch2c
I0301 20:57:52.122084  6576 net.cpp:434] scale2b_branch2c <- res2b_branch2c
I0301 20:57:52.122089  6576 net.cpp:395] scale2b_branch2c -> res2b_branch2c (in-place)
I0301 20:57:52.122120  6576 layer_factory.hpp:77] Creating layer scale2b_branch2c
I0301 20:57:52.122201  6576 net.cpp:150] Setting up scale2b_branch2c
I0301 20:57:52.122208  6576 net.cpp:157] Top shape: 8 256 56 56 (6422528)
I0301 20:57:52.122212  6576 net.cpp:165] Memory required for data: 578027552
I0301 20:57:52.122218  6576 layer_factory.hpp:77] Creating layer res2b
I0301 20:57:52.122225  6576 net.cpp:100] Creating Layer res2b
I0301 20:57:52.122227  6576 net.cpp:434] res2b <- res2a_res2a_relu_0_split_1
I0301 20:57:52.122232  6576 net.cpp:434] res2b <- res2b_branch2c
I0301 20:57:52.122237  6576 net.cpp:408] res2b -> res2b
I0301 20:57:52.122256  6576 net.cpp:150] Setting up res2b
I0301 20:57:52.122262  6576 net.cpp:157] Top shape: 8 256 56 56 (6422528)
I0301 20:57:52.122265  6576 net.cpp:165] Memory required for data: 603717664
I0301 20:57:52.122269  6576 layer_factory.hpp:77] Creating layer res2b_relu
I0301 20:57:52.122274  6576 net.cpp:100] Creating Layer res2b_relu
I0301 20:57:52.122277  6576 net.cpp:434] res2b_relu <- res2b
I0301 20:57:52.122282  6576 net.cpp:395] res2b_relu -> res2b (in-place)
I0301 20:57:52.122419  6576 net.cpp:150] Setting up res2b_relu
I0301 20:57:52.122428  6576 net.cpp:157] Top shape: 8 256 56 56 (6422528)
I0301 20:57:52.122431  6576 net.cpp:165] Memory required for data: 629407776
I0301 20:57:52.122436  6576 layer_factory.hpp:77] Creating layer res2b_res2b_relu_0_split
I0301 20:57:52.122442  6576 net.cpp:100] Creating Layer res2b_res2b_relu_0_split
I0301 20:57:52.122444  6576 net.cpp:434] res2b_res2b_relu_0_split <- res2b
I0301 20:57:52.122449  6576 net.cpp:408] res2b_res2b_relu_0_split -> res2b_res2b_relu_0_split_0
I0301 20:57:52.122455  6576 net.cpp:408] res2b_res2b_relu_0_split -> res2b_res2b_relu_0_split_1
I0301 20:57:52.122486  6576 net.cpp:150] Setting up res2b_res2b_relu_0_split
I0301 20:57:52.122493  6576 net.cpp:157] Top shape: 8 256 56 56 (6422528)
I0301 20:57:52.122496  6576 net.cpp:157] Top shape: 8 256 56 56 (6422528)
I0301 20:57:52.122499  6576 net.cpp:165] Memory required for data: 680788000
I0301 20:57:52.122503  6576 layer_factory.hpp:77] Creating layer res2c_branch2a
I0301 20:57:52.122510  6576 net.cpp:100] Creating Layer res2c_branch2a
I0301 20:57:52.122514  6576 net.cpp:434] res2c_branch2a <- res2b_res2b_relu_0_split_0
I0301 20:57:52.122519  6576 net.cpp:408] res2c_branch2a -> res2c_branch2a
I0301 20:57:52.123320  6576 net.cpp:150] Setting up res2c_branch2a
I0301 20:57:52.123333  6576 net.cpp:157] Top shape: 8 64 56 56 (1605632)
I0301 20:57:52.123337  6576 net.cpp:165] Memory required for data: 687210528
I0301 20:57:52.123342  6576 layer_factory.hpp:77] Creating layer bn2c_branch2a
I0301 20:57:52.123349  6576 net.cpp:100] Creating Layer bn2c_branch2a
I0301 20:57:52.123358  6576 net.cpp:434] bn2c_branch2a <- res2c_branch2a
I0301 20:57:52.123363  6576 net.cpp:395] bn2c_branch2a -> res2c_branch2a (in-place)
I0301 20:57:52.123514  6576 net.cpp:150] Setting up bn2c_branch2a
I0301 20:57:52.123522  6576 net.cpp:157] Top shape: 8 64 56 56 (1605632)
I0301 20:57:52.123524  6576 net.cpp:165] Memory required for data: 693633056
I0301 20:57:52.123533  6576 layer_factory.hpp:77] Creating layer scale2c_branch2a
I0301 20:57:52.123538  6576 net.cpp:100] Creating Layer scale2c_branch2a
I0301 20:57:52.123543  6576 net.cpp:434] scale2c_branch2a <- res2c_branch2a
I0301 20:57:52.123548  6576 net.cpp:395] scale2c_branch2a -> res2c_branch2a (in-place)
I0301 20:57:52.123580  6576 layer_factory.hpp:77] Creating layer scale2c_branch2a
I0301 20:57:52.123669  6576 net.cpp:150] Setting up scale2c_branch2a
I0301 20:57:52.123677  6576 net.cpp:157] Top shape: 8 64 56 56 (1605632)
I0301 20:57:52.123679  6576 net.cpp:165] Memory required for data: 700055584
I0301 20:57:52.123687  6576 layer_factory.hpp:77] Creating layer res2c_branch2a_relu
I0301 20:57:52.123692  6576 net.cpp:100] Creating Layer res2c_branch2a_relu
I0301 20:57:52.123695  6576 net.cpp:434] res2c_branch2a_relu <- res2c_branch2a
I0301 20:57:52.123700  6576 net.cpp:395] res2c_branch2a_relu -> res2c_branch2a (in-place)
I0301 20:57:52.123836  6576 net.cpp:150] Setting up res2c_branch2a_relu
I0301 20:57:52.123844  6576 net.cpp:157] Top shape: 8 64 56 56 (1605632)
I0301 20:57:52.123848  6576 net.cpp:165] Memory required for data: 706478112
I0301 20:57:52.123852  6576 layer_factory.hpp:77] Creating layer res2c_branch2b
I0301 20:57:52.123858  6576 net.cpp:100] Creating Layer res2c_branch2b
I0301 20:57:52.123862  6576 net.cpp:434] res2c_branch2b <- res2c_branch2a
I0301 20:57:52.123868  6576 net.cpp:408] res2c_branch2b -> res2c_branch2b
I0301 20:57:52.124913  6576 net.cpp:150] Setting up res2c_branch2b
I0301 20:57:52.124927  6576 net.cpp:157] Top shape: 8 64 56 56 (1605632)
I0301 20:57:52.124930  6576 net.cpp:165] Memory required for data: 712900640
I0301 20:57:52.124960  6576 layer_factory.hpp:77] Creating layer bn2c_branch2b
I0301 20:57:52.124969  6576 net.cpp:100] Creating Layer bn2c_branch2b
I0301 20:57:52.124974  6576 net.cpp:434] bn2c_branch2b <- res2c_branch2b
I0301 20:57:52.124979  6576 net.cpp:395] bn2c_branch2b -> res2c_branch2b (in-place)
I0301 20:57:52.125149  6576 net.cpp:150] Setting up bn2c_branch2b
I0301 20:57:52.125157  6576 net.cpp:157] Top shape: 8 64 56 56 (1605632)
I0301 20:57:52.125160  6576 net.cpp:165] Memory required for data: 719323168
I0301 20:57:52.125169  6576 layer_factory.hpp:77] Creating layer scale2c_branch2b
I0301 20:57:52.125176  6576 net.cpp:100] Creating Layer scale2c_branch2b
I0301 20:57:52.125180  6576 net.cpp:434] scale2c_branch2b <- res2c_branch2b
I0301 20:57:52.125185  6576 net.cpp:395] scale2c_branch2b -> res2c_branch2b (in-place)
I0301 20:57:52.125221  6576 layer_factory.hpp:77] Creating layer scale2c_branch2b
I0301 20:57:52.125349  6576 net.cpp:150] Setting up scale2c_branch2b
I0301 20:57:52.125357  6576 net.cpp:157] Top shape: 8 64 56 56 (1605632)
I0301 20:57:52.125360  6576 net.cpp:165] Memory required for data: 725745696
I0301 20:57:52.125367  6576 layer_factory.hpp:77] Creating layer res2c_branch2b_relu
I0301 20:57:52.125372  6576 net.cpp:100] Creating Layer res2c_branch2b_relu
I0301 20:57:52.125376  6576 net.cpp:434] res2c_branch2b_relu <- res2c_branch2b
I0301 20:57:52.125380  6576 net.cpp:395] res2c_branch2b_relu -> res2c_branch2b (in-place)
I0301 20:57:52.125528  6576 net.cpp:150] Setting up res2c_branch2b_relu
I0301 20:57:52.125537  6576 net.cpp:157] Top shape: 8 64 56 56 (1605632)
I0301 20:57:52.125540  6576 net.cpp:165] Memory required for data: 732168224
I0301 20:57:52.125545  6576 layer_factory.hpp:77] Creating layer res2c_branch2c
I0301 20:57:52.125552  6576 net.cpp:100] Creating Layer res2c_branch2c
I0301 20:57:52.125556  6576 net.cpp:434] res2c_branch2c <- res2c_branch2b
I0301 20:57:52.125561  6576 net.cpp:408] res2c_branch2c -> res2c_branch2c
I0301 20:57:52.126395  6576 net.cpp:150] Setting up res2c_branch2c
I0301 20:57:52.126410  6576 net.cpp:157] Top shape: 8 256 56 56 (6422528)
I0301 20:57:52.126413  6576 net.cpp:165] Memory required for data: 757858336
I0301 20:57:52.126420  6576 layer_factory.hpp:77] Creating layer bn2c_branch2c
I0301 20:57:52.126425  6576 net.cpp:100] Creating Layer bn2c_branch2c
I0301 20:57:52.126430  6576 net.cpp:434] bn2c_branch2c <- res2c_branch2c
I0301 20:57:52.126435  6576 net.cpp:395] bn2c_branch2c -> res2c_branch2c (in-place)
I0301 20:57:52.126585  6576 net.cpp:150] Setting up bn2c_branch2c
I0301 20:57:52.126591  6576 net.cpp:157] Top shape: 8 256 56 56 (6422528)
I0301 20:57:52.126595  6576 net.cpp:165] Memory required for data: 783548448
I0301 20:57:52.126610  6576 layer_factory.hpp:77] Creating layer scale2c_branch2c
I0301 20:57:52.126616  6576 net.cpp:100] Creating Layer scale2c_branch2c
I0301 20:57:52.126621  6576 net.cpp:434] scale2c_branch2c <- res2c_branch2c
I0301 20:57:52.126626  6576 net.cpp:395] scale2c_branch2c -> res2c_branch2c (in-place)
I0301 20:57:52.126659  6576 layer_factory.hpp:77] Creating layer scale2c_branch2c
I0301 20:57:52.126749  6576 net.cpp:150] Setting up scale2c_branch2c
I0301 20:57:52.126755  6576 net.cpp:157] Top shape: 8 256 56 56 (6422528)
I0301 20:57:52.126760  6576 net.cpp:165] Memory required for data: 809238560
I0301 20:57:52.126766  6576 layer_factory.hpp:77] Creating layer res2c
I0301 20:57:52.126771  6576 net.cpp:100] Creating Layer res2c
I0301 20:57:52.126775  6576 net.cpp:434] res2c <- res2b_res2b_relu_0_split_1
I0301 20:57:52.126780  6576 net.cpp:434] res2c <- res2c_branch2c
I0301 20:57:52.126785  6576 net.cpp:408] res2c -> res2c
I0301 20:57:52.126804  6576 net.cpp:150] Setting up res2c
I0301 20:57:52.126811  6576 net.cpp:157] Top shape: 8 256 56 56 (6422528)
I0301 20:57:52.126813  6576 net.cpp:165] Memory required for data: 834928672
I0301 20:57:52.126817  6576 layer_factory.hpp:77] Creating layer res2c_relu
I0301 20:57:52.126822  6576 net.cpp:100] Creating Layer res2c_relu
I0301 20:57:52.126826  6576 net.cpp:434] res2c_relu <- res2c
I0301 20:57:52.126830  6576 net.cpp:395] res2c_relu -> res2c (in-place)
I0301 20:57:52.127008  6576 net.cpp:150] Setting up res2c_relu
I0301 20:57:52.127017  6576 net.cpp:157] Top shape: 8 256 56 56 (6422528)
I0301 20:57:52.127022  6576 net.cpp:165] Memory required for data: 860618784
I0301 20:57:52.127024  6576 layer_factory.hpp:77] Creating layer res2c_res2c_relu_0_split
I0301 20:57:52.127032  6576 net.cpp:100] Creating Layer res2c_res2c_relu_0_split
I0301 20:57:52.127035  6576 net.cpp:434] res2c_res2c_relu_0_split <- res2c
I0301 20:57:52.127041  6576 net.cpp:408] res2c_res2c_relu_0_split -> res2c_res2c_relu_0_split_0
I0301 20:57:52.127048  6576 net.cpp:408] res2c_res2c_relu_0_split -> res2c_res2c_relu_0_split_1
I0301 20:57:52.127084  6576 net.cpp:150] Setting up res2c_res2c_relu_0_split
I0301 20:57:52.127089  6576 net.cpp:157] Top shape: 8 256 56 56 (6422528)
I0301 20:57:52.127094  6576 net.cpp:157] Top shape: 8 256 56 56 (6422528)
I0301 20:57:52.127097  6576 net.cpp:165] Memory required for data: 911999008
I0301 20:57:52.127101  6576 layer_factory.hpp:77] Creating layer res3a_branch1
I0301 20:57:52.127110  6576 net.cpp:100] Creating Layer res3a_branch1
I0301 20:57:52.127115  6576 net.cpp:434] res3a_branch1 <- res2c_res2c_relu_0_split_0
I0301 20:57:52.127120  6576 net.cpp:408] res3a_branch1 -> res3a_branch1
I0301 20:57:52.128806  6576 net.cpp:150] Setting up res3a_branch1
I0301 20:57:52.128820  6576 net.cpp:157] Top shape: 8 512 28 28 (3211264)
I0301 20:57:52.128824  6576 net.cpp:165] Memory required for data: 924844064
I0301 20:57:52.128830  6576 layer_factory.hpp:77] Creating layer bn3a_branch1
I0301 20:57:52.128837  6576 net.cpp:100] Creating Layer bn3a_branch1
I0301 20:57:52.128841  6576 net.cpp:434] bn3a_branch1 <- res3a_branch1
I0301 20:57:52.128846  6576 net.cpp:395] bn3a_branch1 -> res3a_branch1 (in-place)
I0301 20:57:52.129818  6576 net.cpp:150] Setting up bn3a_branch1
I0301 20:57:52.129832  6576 net.cpp:157] Top shape: 8 512 28 28 (3211264)
I0301 20:57:52.129840  6576 net.cpp:165] Memory required for data: 937689120
I0301 20:57:52.129848  6576 layer_factory.hpp:77] Creating layer scale3a_branch1
I0301 20:57:52.129856  6576 net.cpp:100] Creating Layer scale3a_branch1
I0301 20:57:52.129860  6576 net.cpp:434] scale3a_branch1 <- res3a_branch1
I0301 20:57:52.129865  6576 net.cpp:395] scale3a_branch1 -> res3a_branch1 (in-place)
I0301 20:57:52.129902  6576 layer_factory.hpp:77] Creating layer scale3a_branch1
I0301 20:57:52.129986  6576 net.cpp:150] Setting up scale3a_branch1
I0301 20:57:52.129993  6576 net.cpp:157] Top shape: 8 512 28 28 (3211264)
I0301 20:57:52.129997  6576 net.cpp:165] Memory required for data: 950534176
I0301 20:57:52.130003  6576 layer_factory.hpp:77] Creating layer res3a_branch2a
I0301 20:57:52.130012  6576 net.cpp:100] Creating Layer res3a_branch2a
I0301 20:57:52.130015  6576 net.cpp:434] res3a_branch2a <- res2c_res2c_relu_0_split_1
I0301 20:57:52.130022  6576 net.cpp:408] res3a_branch2a -> res3a_branch2a
I0301 20:57:52.130882  6576 net.cpp:150] Setting up res3a_branch2a
I0301 20:57:52.130895  6576 net.cpp:157] Top shape: 8 128 28 28 (802816)
I0301 20:57:52.130899  6576 net.cpp:165] Memory required for data: 953745440
I0301 20:57:52.130905  6576 layer_factory.hpp:77] Creating layer bn3a_branch2a
I0301 20:57:52.130913  6576 net.cpp:100] Creating Layer bn3a_branch2a
I0301 20:57:52.130916  6576 net.cpp:434] bn3a_branch2a <- res3a_branch2a
I0301 20:57:52.130923  6576 net.cpp:395] bn3a_branch2a -> res3a_branch2a (in-place)
I0301 20:57:52.131072  6576 net.cpp:150] Setting up bn3a_branch2a
I0301 20:57:52.131078  6576 net.cpp:157] Top shape: 8 128 28 28 (802816)
I0301 20:57:52.131081  6576 net.cpp:165] Memory required for data: 956956704
I0301 20:57:52.131089  6576 layer_factory.hpp:77] Creating layer scale3a_branch2a
I0301 20:57:52.131096  6576 net.cpp:100] Creating Layer scale3a_branch2a
I0301 20:57:52.131099  6576 net.cpp:434] scale3a_branch2a <- res3a_branch2a
I0301 20:57:52.131105  6576 net.cpp:395] scale3a_branch2a -> res3a_branch2a (in-place)
I0301 20:57:52.131137  6576 layer_factory.hpp:77] Creating layer scale3a_branch2a
I0301 20:57:52.131223  6576 net.cpp:150] Setting up scale3a_branch2a
I0301 20:57:52.131230  6576 net.cpp:157] Top shape: 8 128 28 28 (802816)
I0301 20:57:52.131234  6576 net.cpp:165] Memory required for data: 960167968
I0301 20:57:52.131242  6576 layer_factory.hpp:77] Creating layer res3a_branch2a_relu
I0301 20:57:52.131247  6576 net.cpp:100] Creating Layer res3a_branch2a_relu
I0301 20:57:52.131249  6576 net.cpp:434] res3a_branch2a_relu <- res3a_branch2a
I0301 20:57:52.131254  6576 net.cpp:395] res3a_branch2a_relu -> res3a_branch2a (in-place)
I0301 20:57:52.131395  6576 net.cpp:150] Setting up res3a_branch2a_relu
I0301 20:57:52.131403  6576 net.cpp:157] Top shape: 8 128 28 28 (802816)
I0301 20:57:52.131407  6576 net.cpp:165] Memory required for data: 963379232
I0301 20:57:52.131410  6576 layer_factory.hpp:77] Creating layer res3a_branch2b
I0301 20:57:52.131418  6576 net.cpp:100] Creating Layer res3a_branch2b
I0301 20:57:52.131422  6576 net.cpp:434] res3a_branch2b <- res3a_branch2a
I0301 20:57:52.131428  6576 net.cpp:408] res3a_branch2b -> res3a_branch2b
I0301 20:57:52.132602  6576 net.cpp:150] Setting up res3a_branch2b
I0301 20:57:52.132617  6576 net.cpp:157] Top shape: 8 128 28 28 (802816)
I0301 20:57:52.132622  6576 net.cpp:165] Memory required for data: 966590496
I0301 20:57:52.132628  6576 layer_factory.hpp:77] Creating layer bn3a_branch2b
I0301 20:57:52.132634  6576 net.cpp:100] Creating Layer bn3a_branch2b
I0301 20:57:52.132639  6576 net.cpp:434] bn3a_branch2b <- res3a_branch2b
I0301 20:57:52.132644  6576 net.cpp:395] bn3a_branch2b -> res3a_branch2b (in-place)
I0301 20:57:52.132812  6576 net.cpp:150] Setting up bn3a_branch2b
I0301 20:57:52.132820  6576 net.cpp:157] Top shape: 8 128 28 28 (802816)
I0301 20:57:52.132825  6576 net.cpp:165] Memory required for data: 969801760
I0301 20:57:52.132833  6576 layer_factory.hpp:77] Creating layer scale3a_branch2b
I0301 20:57:52.132839  6576 net.cpp:100] Creating Layer scale3a_branch2b
I0301 20:57:52.132848  6576 net.cpp:434] scale3a_branch2b <- res3a_branch2b
I0301 20:57:52.132855  6576 net.cpp:395] scale3a_branch2b -> res3a_branch2b (in-place)
I0301 20:57:52.132905  6576 layer_factory.hpp:77] Creating layer scale3a_branch2b
I0301 20:57:52.133023  6576 net.cpp:150] Setting up scale3a_branch2b
I0301 20:57:52.133033  6576 net.cpp:157] Top shape: 8 128 28 28 (802816)
I0301 20:57:52.133038  6576 net.cpp:165] Memory required for data: 973013024
I0301 20:57:52.133044  6576 layer_factory.hpp:77] Creating layer res3a_branch2b_relu
I0301 20:57:52.133050  6576 net.cpp:100] Creating Layer res3a_branch2b_relu
I0301 20:57:52.133054  6576 net.cpp:434] res3a_branch2b_relu <- res3a_branch2b
I0301 20:57:52.133059  6576 net.cpp:395] res3a_branch2b_relu -> res3a_branch2b (in-place)
I0301 20:57:52.133497  6576 net.cpp:150] Setting up res3a_branch2b_relu
I0301 20:57:52.133510  6576 net.cpp:157] Top shape: 8 128 28 28 (802816)
I0301 20:57:52.133513  6576 net.cpp:165] Memory required for data: 976224288
I0301 20:57:52.133518  6576 layer_factory.hpp:77] Creating layer res3a_branch2c
I0301 20:57:52.133532  6576 net.cpp:100] Creating Layer res3a_branch2c
I0301 20:57:52.133535  6576 net.cpp:434] res3a_branch2c <- res3a_branch2b
I0301 20:57:52.133541  6576 net.cpp:408] res3a_branch2c -> res3a_branch2c
I0301 20:57:52.134191  6576 net.cpp:150] Setting up res3a_branch2c
I0301 20:57:52.134202  6576 net.cpp:157] Top shape: 8 512 28 28 (3211264)
I0301 20:57:52.134207  6576 net.cpp:165] Memory required for data: 989069344
I0301 20:57:52.134212  6576 layer_factory.hpp:77] Creating layer bn3a_branch2c
I0301 20:57:52.134218  6576 net.cpp:100] Creating Layer bn3a_branch2c
I0301 20:57:52.134222  6576 net.cpp:434] bn3a_branch2c <- res3a_branch2c
I0301 20:57:52.134227  6576 net.cpp:395] bn3a_branch2c -> res3a_branch2c (in-place)
I0301 20:57:52.134380  6576 net.cpp:150] Setting up bn3a_branch2c
I0301 20:57:52.134388  6576 net.cpp:157] Top shape: 8 512 28 28 (3211264)
I0301 20:57:52.134392  6576 net.cpp:165] Memory required for data: 1001914400
I0301 20:57:52.134398  6576 layer_factory.hpp:77] Creating layer scale3a_branch2c
I0301 20:57:52.134404  6576 net.cpp:100] Creating Layer scale3a_branch2c
I0301 20:57:52.134408  6576 net.cpp:434] scale3a_branch2c <- res3a_branch2c
I0301 20:57:52.134413  6576 net.cpp:395] scale3a_branch2c -> res3a_branch2c (in-place)
I0301 20:57:52.134449  6576 layer_factory.hpp:77] Creating layer scale3a_branch2c
I0301 20:57:52.134536  6576 net.cpp:150] Setting up scale3a_branch2c
I0301 20:57:52.134543  6576 net.cpp:157] Top shape: 8 512 28 28 (3211264)
I0301 20:57:52.134546  6576 net.cpp:165] Memory required for data: 1014759456
I0301 20:57:52.134553  6576 layer_factory.hpp:77] Creating layer res3a
I0301 20:57:52.134558  6576 net.cpp:100] Creating Layer res3a
I0301 20:57:52.134562  6576 net.cpp:434] res3a <- res3a_branch1
I0301 20:57:52.134567  6576 net.cpp:434] res3a <- res3a_branch2c
I0301 20:57:52.134572  6576 net.cpp:408] res3a -> res3a
I0301 20:57:52.134593  6576 net.cpp:150] Setting up res3a
I0301 20:57:52.134598  6576 net.cpp:157] Top shape: 8 512 28 28 (3211264)
I0301 20:57:52.134603  6576 net.cpp:165] Memory required for data: 1027604512
I0301 20:57:52.134605  6576 layer_factory.hpp:77] Creating layer res3a_relu
I0301 20:57:52.134610  6576 net.cpp:100] Creating Layer res3a_relu
I0301 20:57:52.134614  6576 net.cpp:434] res3a_relu <- res3a
I0301 20:57:52.134619  6576 net.cpp:395] res3a_relu -> res3a (in-place)
I0301 20:57:52.135026  6576 net.cpp:150] Setting up res3a_relu
I0301 20:57:52.135040  6576 net.cpp:157] Top shape: 8 512 28 28 (3211264)
I0301 20:57:52.135043  6576 net.cpp:165] Memory required for data: 1040449568
I0301 20:57:52.135047  6576 layer_factory.hpp:77] Creating layer res3a_res3a_relu_0_split
I0301 20:57:52.135053  6576 net.cpp:100] Creating Layer res3a_res3a_relu_0_split
I0301 20:57:52.135057  6576 net.cpp:434] res3a_res3a_relu_0_split <- res3a
I0301 20:57:52.135063  6576 net.cpp:408] res3a_res3a_relu_0_split -> res3a_res3a_relu_0_split_0
I0301 20:57:52.135073  6576 net.cpp:408] res3a_res3a_relu_0_split -> res3a_res3a_relu_0_split_1
I0301 20:57:52.135113  6576 net.cpp:150] Setting up res3a_res3a_relu_0_split
I0301 20:57:52.135120  6576 net.cpp:157] Top shape: 8 512 28 28 (3211264)
I0301 20:57:52.135125  6576 net.cpp:157] Top shape: 8 512 28 28 (3211264)
I0301 20:57:52.135128  6576 net.cpp:165] Memory required for data: 1066139680
I0301 20:57:52.135131  6576 layer_factory.hpp:77] Creating layer res3b_branch2a
I0301 20:57:52.135139  6576 net.cpp:100] Creating Layer res3b_branch2a
I0301 20:57:52.135143  6576 net.cpp:434] res3b_branch2a <- res3a_res3a_relu_0_split_0
I0301 20:57:52.135149  6576 net.cpp:408] res3b_branch2a -> res3b_branch2a
I0301 20:57:52.136250  6576 net.cpp:150] Setting up res3b_branch2a
I0301 20:57:52.136263  6576 net.cpp:157] Top shape: 8 128 28 28 (802816)
I0301 20:57:52.136268  6576 net.cpp:165] Memory required for data: 1069350944
I0301 20:57:52.136274  6576 layer_factory.hpp:77] Creating layer bn3b_branch2a
I0301 20:57:52.136281  6576 net.cpp:100] Creating Layer bn3b_branch2a
I0301 20:57:52.136284  6576 net.cpp:434] bn3b_branch2a <- res3b_branch2a
I0301 20:57:52.136291  6576 net.cpp:395] bn3b_branch2a -> res3b_branch2a (in-place)
I0301 20:57:52.136448  6576 net.cpp:150] Setting up bn3b_branch2a
I0301 20:57:52.136456  6576 net.cpp:157] Top shape: 8 128 28 28 (802816)
I0301 20:57:52.136459  6576 net.cpp:165] Memory required for data: 1072562208
I0301 20:57:52.136466  6576 layer_factory.hpp:77] Creating layer scale3b_branch2a
I0301 20:57:52.136472  6576 net.cpp:100] Creating Layer scale3b_branch2a
I0301 20:57:52.136476  6576 net.cpp:434] scale3b_branch2a <- res3b_branch2a
I0301 20:57:52.136482  6576 net.cpp:395] scale3b_branch2a -> res3b_branch2a (in-place)
I0301 20:57:52.136515  6576 layer_factory.hpp:77] Creating layer scale3b_branch2a
I0301 20:57:52.136605  6576 net.cpp:150] Setting up scale3b_branch2a
I0301 20:57:52.136611  6576 net.cpp:157] Top shape: 8 128 28 28 (802816)
I0301 20:57:52.136615  6576 net.cpp:165] Memory required for data: 1075773472
I0301 20:57:52.136622  6576 layer_factory.hpp:77] Creating layer res3b_branch2a_relu
I0301 20:57:52.136627  6576 net.cpp:100] Creating Layer res3b_branch2a_relu
I0301 20:57:52.136631  6576 net.cpp:434] res3b_branch2a_relu <- res3b_branch2a
I0301 20:57:52.136636  6576 net.cpp:395] res3b_branch2a_relu -> res3b_branch2a (in-place)
I0301 20:57:52.136786  6576 net.cpp:150] Setting up res3b_branch2a_relu
I0301 20:57:52.136795  6576 net.cpp:157] Top shape: 8 128 28 28 (802816)
I0301 20:57:52.136798  6576 net.cpp:165] Memory required for data: 1078984736
I0301 20:57:52.136802  6576 layer_factory.hpp:77] Creating layer res3b_branch2b
I0301 20:57:52.136809  6576 net.cpp:100] Creating Layer res3b_branch2b
I0301 20:57:52.136813  6576 net.cpp:434] res3b_branch2b <- res3b_branch2a
I0301 20:57:52.136819  6576 net.cpp:408] res3b_branch2b -> res3b_branch2b
I0301 20:57:52.138303  6576 net.cpp:150] Setting up res3b_branch2b
I0301 20:57:52.138319  6576 net.cpp:157] Top shape: 8 128 28 28 (802816)
I0301 20:57:52.138322  6576 net.cpp:165] Memory required for data: 1082196000
I0301 20:57:52.138329  6576 layer_factory.hpp:77] Creating layer bn3b_branch2b
I0301 20:57:52.138335  6576 net.cpp:100] Creating Layer bn3b_branch2b
I0301 20:57:52.138339  6576 net.cpp:434] bn3b_branch2b <- res3b_branch2b
I0301 20:57:52.138345  6576 net.cpp:395] bn3b_branch2b -> res3b_branch2b (in-place)
I0301 20:57:52.138504  6576 net.cpp:150] Setting up bn3b_branch2b
I0301 20:57:52.138510  6576 net.cpp:157] Top shape: 8 128 28 28 (802816)
I0301 20:57:52.138514  6576 net.cpp:165] Memory required for data: 1085407264
I0301 20:57:52.138521  6576 layer_factory.hpp:77] Creating layer scale3b_branch2b
I0301 20:57:52.138527  6576 net.cpp:100] Creating Layer scale3b_branch2b
I0301 20:57:52.138531  6576 net.cpp:434] scale3b_branch2b <- res3b_branch2b
I0301 20:57:52.138537  6576 net.cpp:395] scale3b_branch2b -> res3b_branch2b (in-place)
I0301 20:57:52.138571  6576 layer_factory.hpp:77] Creating layer scale3b_branch2b
I0301 20:57:52.138661  6576 net.cpp:150] Setting up scale3b_branch2b
I0301 20:57:52.138669  6576 net.cpp:157] Top shape: 8 128 28 28 (802816)
I0301 20:57:52.138677  6576 net.cpp:165] Memory required for data: 1088618528
I0301 20:57:52.138684  6576 layer_factory.hpp:77] Creating layer res3b_branch2b_relu
I0301 20:57:52.138690  6576 net.cpp:100] Creating Layer res3b_branch2b_relu
I0301 20:57:52.138694  6576 net.cpp:434] res3b_branch2b_relu <- res3b_branch2b
I0301 20:57:52.138698  6576 net.cpp:395] res3b_branch2b_relu -> res3b_branch2b (in-place)
I0301 20:57:52.138851  6576 net.cpp:150] Setting up res3b_branch2b_relu
I0301 20:57:52.138860  6576 net.cpp:157] Top shape: 8 128 28 28 (802816)
I0301 20:57:52.138864  6576 net.cpp:165] Memory required for data: 1091829792
I0301 20:57:52.138867  6576 layer_factory.hpp:77] Creating layer res3b_branch2c
I0301 20:57:52.138875  6576 net.cpp:100] Creating Layer res3b_branch2c
I0301 20:57:52.138878  6576 net.cpp:434] res3b_branch2c <- res3b_branch2b
I0301 20:57:52.138885  6576 net.cpp:408] res3b_branch2c -> res3b_branch2c
I0301 20:57:52.139776  6576 net.cpp:150] Setting up res3b_branch2c
I0301 20:57:52.139791  6576 net.cpp:157] Top shape: 8 512 28 28 (3211264)
I0301 20:57:52.139793  6576 net.cpp:165] Memory required for data: 1104674848
I0301 20:57:52.139801  6576 layer_factory.hpp:77] Creating layer bn3b_branch2c
I0301 20:57:52.139806  6576 net.cpp:100] Creating Layer bn3b_branch2c
I0301 20:57:52.139811  6576 net.cpp:434] bn3b_branch2c <- res3b_branch2c
I0301 20:57:52.139816  6576 net.cpp:395] bn3b_branch2c -> res3b_branch2c (in-place)
I0301 20:57:52.139973  6576 net.cpp:150] Setting up bn3b_branch2c
I0301 20:57:52.139981  6576 net.cpp:157] Top shape: 8 512 28 28 (3211264)
I0301 20:57:52.139984  6576 net.cpp:165] Memory required for data: 1117519904
I0301 20:57:52.139991  6576 layer_factory.hpp:77] Creating layer scale3b_branch2c
I0301 20:57:52.139997  6576 net.cpp:100] Creating Layer scale3b_branch2c
I0301 20:57:52.140002  6576 net.cpp:434] scale3b_branch2c <- res3b_branch2c
I0301 20:57:52.140007  6576 net.cpp:395] scale3b_branch2c -> res3b_branch2c (in-place)
I0301 20:57:52.140043  6576 layer_factory.hpp:77] Creating layer scale3b_branch2c
I0301 20:57:52.140132  6576 net.cpp:150] Setting up scale3b_branch2c
I0301 20:57:52.140139  6576 net.cpp:157] Top shape: 8 512 28 28 (3211264)
I0301 20:57:52.140143  6576 net.cpp:165] Memory required for data: 1130364960
I0301 20:57:52.140149  6576 layer_factory.hpp:77] Creating layer res3b
I0301 20:57:52.140156  6576 net.cpp:100] Creating Layer res3b
I0301 20:57:52.140159  6576 net.cpp:434] res3b <- res3a_res3a_relu_0_split_1
I0301 20:57:52.140163  6576 net.cpp:434] res3b <- res3b_branch2c
I0301 20:57:52.140168  6576 net.cpp:408] res3b -> res3b
I0301 20:57:52.140189  6576 net.cpp:150] Setting up res3b
I0301 20:57:52.140195  6576 net.cpp:157] Top shape: 8 512 28 28 (3211264)
I0301 20:57:52.140199  6576 net.cpp:165] Memory required for data: 1143210016
I0301 20:57:52.140202  6576 layer_factory.hpp:77] Creating layer res3b_relu
I0301 20:57:52.140208  6576 net.cpp:100] Creating Layer res3b_relu
I0301 20:57:52.140211  6576 net.cpp:434] res3b_relu <- res3b
I0301 20:57:52.140216  6576 net.cpp:395] res3b_relu -> res3b (in-place)
I0301 20:57:52.140359  6576 net.cpp:150] Setting up res3b_relu
I0301 20:57:52.140368  6576 net.cpp:157] Top shape: 8 512 28 28 (3211264)
I0301 20:57:52.140372  6576 net.cpp:165] Memory required for data: 1156055072
I0301 20:57:52.140375  6576 layer_factory.hpp:77] Creating layer res3b_res3b_relu_0_split
I0301 20:57:52.140381  6576 net.cpp:100] Creating Layer res3b_res3b_relu_0_split
I0301 20:57:52.140384  6576 net.cpp:434] res3b_res3b_relu_0_split <- res3b
I0301 20:57:52.140390  6576 net.cpp:408] res3b_res3b_relu_0_split -> res3b_res3b_relu_0_split_0
I0301 20:57:52.140396  6576 net.cpp:408] res3b_res3b_relu_0_split -> res3b_res3b_relu_0_split_1
I0301 20:57:52.140430  6576 net.cpp:150] Setting up res3b_res3b_relu_0_split
I0301 20:57:52.140436  6576 net.cpp:157] Top shape: 8 512 28 28 (3211264)
I0301 20:57:52.140441  6576 net.cpp:157] Top shape: 8 512 28 28 (3211264)
I0301 20:57:52.140444  6576 net.cpp:165] Memory required for data: 1181745184
I0301 20:57:52.140452  6576 layer_factory.hpp:77] Creating layer res3c_branch2a
I0301 20:57:52.140460  6576 net.cpp:100] Creating Layer res3c_branch2a
I0301 20:57:52.140463  6576 net.cpp:434] res3c_branch2a <- res3b_res3b_relu_0_split_0
I0301 20:57:52.140470  6576 net.cpp:408] res3c_branch2a -> res3c_branch2a
I0301 20:57:52.141474  6576 net.cpp:150] Setting up res3c_branch2a
I0301 20:57:52.141489  6576 net.cpp:157] Top shape: 8 128 28 28 (802816)
I0301 20:57:52.141494  6576 net.cpp:165] Memory required for data: 1184956448
I0301 20:57:52.141500  6576 layer_factory.hpp:77] Creating layer bn3c_branch2a
I0301 20:57:52.141506  6576 net.cpp:100] Creating Layer bn3c_branch2a
I0301 20:57:52.141525  6576 net.cpp:434] bn3c_branch2a <- res3c_branch2a
I0301 20:57:52.141546  6576 net.cpp:395] bn3c_branch2a -> res3c_branch2a (in-place)
I0301 20:57:52.141706  6576 net.cpp:150] Setting up bn3c_branch2a
I0301 20:57:52.141713  6576 net.cpp:157] Top shape: 8 128 28 28 (802816)
I0301 20:57:52.141716  6576 net.cpp:165] Memory required for data: 1188167712
I0301 20:57:52.141723  6576 layer_factory.hpp:77] Creating layer scale3c_branch2a
I0301 20:57:52.141731  6576 net.cpp:100] Creating Layer scale3c_branch2a
I0301 20:57:52.141733  6576 net.cpp:434] scale3c_branch2a <- res3c_branch2a
I0301 20:57:52.141738  6576 net.cpp:395] scale3c_branch2a -> res3c_branch2a (in-place)
I0301 20:57:52.141772  6576 layer_factory.hpp:77] Creating layer scale3c_branch2a
I0301 20:57:52.141863  6576 net.cpp:150] Setting up scale3c_branch2a
I0301 20:57:52.141870  6576 net.cpp:157] Top shape: 8 128 28 28 (802816)
I0301 20:57:52.141875  6576 net.cpp:165] Memory required for data: 1191378976
I0301 20:57:52.141881  6576 layer_factory.hpp:77] Creating layer res3c_branch2a_relu
I0301 20:57:52.141886  6576 net.cpp:100] Creating Layer res3c_branch2a_relu
I0301 20:57:52.141891  6576 net.cpp:434] res3c_branch2a_relu <- res3c_branch2a
I0301 20:57:52.141896  6576 net.cpp:395] res3c_branch2a_relu -> res3c_branch2a (in-place)
I0301 20:57:52.142040  6576 net.cpp:150] Setting up res3c_branch2a_relu
I0301 20:57:52.142047  6576 net.cpp:157] Top shape: 8 128 28 28 (802816)
I0301 20:57:52.142051  6576 net.cpp:165] Memory required for data: 1194590240
I0301 20:57:52.142055  6576 layer_factory.hpp:77] Creating layer res3c_branch2b
I0301 20:57:52.142062  6576 net.cpp:100] Creating Layer res3c_branch2b
I0301 20:57:52.142066  6576 net.cpp:434] res3c_branch2b <- res3c_branch2a
I0301 20:57:52.142072  6576 net.cpp:408] res3c_branch2b -> res3c_branch2b
I0301 20:57:52.143980  6576 net.cpp:150] Setting up res3c_branch2b
I0301 20:57:52.143993  6576 net.cpp:157] Top shape: 8 128 28 28 (802816)
I0301 20:57:52.143997  6576 net.cpp:165] Memory required for data: 1197801504
I0301 20:57:52.144004  6576 layer_factory.hpp:77] Creating layer bn3c_branch2b
I0301 20:57:52.144011  6576 net.cpp:100] Creating Layer bn3c_branch2b
I0301 20:57:52.144014  6576 net.cpp:434] bn3c_branch2b <- res3c_branch2b
I0301 20:57:52.144021  6576 net.cpp:395] bn3c_branch2b -> res3c_branch2b (in-place)
I0301 20:57:52.144184  6576 net.cpp:150] Setting up bn3c_branch2b
I0301 20:57:52.144192  6576 net.cpp:157] Top shape: 8 128 28 28 (802816)
I0301 20:57:52.144196  6576 net.cpp:165] Memory required for data: 1201012768
I0301 20:57:52.144203  6576 layer_factory.hpp:77] Creating layer scale3c_branch2b
I0301 20:57:52.144212  6576 net.cpp:100] Creating Layer scale3c_branch2b
I0301 20:57:52.144215  6576 net.cpp:434] scale3c_branch2b <- res3c_branch2b
I0301 20:57:52.144220  6576 net.cpp:395] scale3c_branch2b -> res3c_branch2b (in-place)
I0301 20:57:52.144258  6576 layer_factory.hpp:77] Creating layer scale3c_branch2b
I0301 20:57:52.144354  6576 net.cpp:150] Setting up scale3c_branch2b
I0301 20:57:52.144361  6576 net.cpp:157] Top shape: 8 128 28 28 (802816)
I0301 20:57:52.144366  6576 net.cpp:165] Memory required for data: 1204224032
I0301 20:57:52.144372  6576 layer_factory.hpp:77] Creating layer res3c_branch2b_relu
I0301 20:57:52.144377  6576 net.cpp:100] Creating Layer res3c_branch2b_relu
I0301 20:57:52.144381  6576 net.cpp:434] res3c_branch2b_relu <- res3c_branch2b
I0301 20:57:52.144390  6576 net.cpp:395] res3c_branch2b_relu -> res3c_branch2b (in-place)
I0301 20:57:52.144800  6576 net.cpp:150] Setting up res3c_branch2b_relu
I0301 20:57:52.144814  6576 net.cpp:157] Top shape: 8 128 28 28 (802816)
I0301 20:57:52.144819  6576 net.cpp:165] Memory required for data: 1207435296
I0301 20:57:52.144822  6576 layer_factory.hpp:77] Creating layer res3c_branch2c
I0301 20:57:52.144831  6576 net.cpp:100] Creating Layer res3c_branch2c
I0301 20:57:52.144836  6576 net.cpp:434] res3c_branch2c <- res3c_branch2b
I0301 20:57:52.144842  6576 net.cpp:408] res3c_branch2c -> res3c_branch2c
I0301 20:57:52.145617  6576 net.cpp:150] Setting up res3c_branch2c
I0301 20:57:52.145629  6576 net.cpp:157] Top shape: 8 512 28 28 (3211264)
I0301 20:57:52.145632  6576 net.cpp:165] Memory required for data: 1220280352
I0301 20:57:52.145638  6576 layer_factory.hpp:77] Creating layer bn3c_branch2c
I0301 20:57:52.145648  6576 net.cpp:100] Creating Layer bn3c_branch2c
I0301 20:57:52.145651  6576 net.cpp:434] bn3c_branch2c <- res3c_branch2c
I0301 20:57:52.145656  6576 net.cpp:395] bn3c_branch2c -> res3c_branch2c (in-place)
I0301 20:57:52.145828  6576 net.cpp:150] Setting up bn3c_branch2c
I0301 20:57:52.145836  6576 net.cpp:157] Top shape: 8 512 28 28 (3211264)
I0301 20:57:52.145839  6576 net.cpp:165] Memory required for data: 1233125408
I0301 20:57:52.145846  6576 layer_factory.hpp:77] Creating layer scale3c_branch2c
I0301 20:57:52.145853  6576 net.cpp:100] Creating Layer scale3c_branch2c
I0301 20:57:52.145856  6576 net.cpp:434] scale3c_branch2c <- res3c_branch2c
I0301 20:57:52.145861  6576 net.cpp:395] scale3c_branch2c -> res3c_branch2c (in-place)
I0301 20:57:52.145902  6576 layer_factory.hpp:77] Creating layer scale3c_branch2c
I0301 20:57:52.145999  6576 net.cpp:150] Setting up scale3c_branch2c
I0301 20:57:52.146009  6576 net.cpp:157] Top shape: 8 512 28 28 (3211264)
I0301 20:57:52.146013  6576 net.cpp:165] Memory required for data: 1245970464
I0301 20:57:52.146020  6576 layer_factory.hpp:77] Creating layer res3c
I0301 20:57:52.146025  6576 net.cpp:100] Creating Layer res3c
I0301 20:57:52.146029  6576 net.cpp:434] res3c <- res3b_res3b_relu_0_split_1
I0301 20:57:52.146034  6576 net.cpp:434] res3c <- res3c_branch2c
I0301 20:57:52.146039  6576 net.cpp:408] res3c -> res3c
I0301 20:57:52.146061  6576 net.cpp:150] Setting up res3c
I0301 20:57:52.146069  6576 net.cpp:157] Top shape: 8 512 28 28 (3211264)
I0301 20:57:52.146071  6576 net.cpp:165] Memory required for data: 1258815520
I0301 20:57:52.146075  6576 layer_factory.hpp:77] Creating layer res3c_relu
I0301 20:57:52.146080  6576 net.cpp:100] Creating Layer res3c_relu
I0301 20:57:52.146085  6576 net.cpp:434] res3c_relu <- res3c
I0301 20:57:52.146088  6576 net.cpp:395] res3c_relu -> res3c (in-place)
I0301 20:57:52.146497  6576 net.cpp:150] Setting up res3c_relu
I0301 20:57:52.146509  6576 net.cpp:157] Top shape: 8 512 28 28 (3211264)
I0301 20:57:52.146513  6576 net.cpp:165] Memory required for data: 1271660576
I0301 20:57:52.146517  6576 layer_factory.hpp:77] Creating layer res3c_res3c_relu_0_split
I0301 20:57:52.146523  6576 net.cpp:100] Creating Layer res3c_res3c_relu_0_split
I0301 20:57:52.146528  6576 net.cpp:434] res3c_res3c_relu_0_split <- res3c
I0301 20:57:52.146534  6576 net.cpp:408] res3c_res3c_relu_0_split -> res3c_res3c_relu_0_split_0
I0301 20:57:52.146541  6576 net.cpp:408] res3c_res3c_relu_0_split -> res3c_res3c_relu_0_split_1
I0301 20:57:52.146581  6576 net.cpp:150] Setting up res3c_res3c_relu_0_split
I0301 20:57:52.146587  6576 net.cpp:157] Top shape: 8 512 28 28 (3211264)
I0301 20:57:52.146592  6576 net.cpp:157] Top shape: 8 512 28 28 (3211264)
I0301 20:57:52.146595  6576 net.cpp:165] Memory required for data: 1297350688
I0301 20:57:52.146600  6576 layer_factory.hpp:77] Creating layer res3d_branch2a
I0301 20:57:52.146607  6576 net.cpp:100] Creating Layer res3d_branch2a
I0301 20:57:52.146611  6576 net.cpp:434] res3d_branch2a <- res3c_res3c_relu_0_split_0
I0301 20:57:52.146618  6576 net.cpp:408] res3d_branch2a -> res3d_branch2a
I0301 20:57:52.148329  6576 net.cpp:150] Setting up res3d_branch2a
I0301 20:57:52.148342  6576 net.cpp:157] Top shape: 8 128 28 28 (802816)
I0301 20:57:52.148346  6576 net.cpp:165] Memory required for data: 1300561952
I0301 20:57:52.148352  6576 layer_factory.hpp:77] Creating layer bn3d_branch2a
I0301 20:57:52.148361  6576 net.cpp:100] Creating Layer bn3d_branch2a
I0301 20:57:52.148365  6576 net.cpp:434] bn3d_branch2a <- res3d_branch2a
I0301 20:57:52.148372  6576 net.cpp:395] bn3d_branch2a -> res3d_branch2a (in-place)
I0301 20:57:52.148545  6576 net.cpp:150] Setting up bn3d_branch2a
I0301 20:57:52.148553  6576 net.cpp:157] Top shape: 8 128 28 28 (802816)
I0301 20:57:52.148557  6576 net.cpp:165] Memory required for data: 1303773216
I0301 20:57:52.148581  6576 layer_factory.hpp:77] Creating layer scale3d_branch2a
I0301 20:57:52.148591  6576 net.cpp:100] Creating Layer scale3d_branch2a
I0301 20:57:52.148594  6576 net.cpp:434] scale3d_branch2a <- res3d_branch2a
I0301 20:57:52.148599  6576 net.cpp:395] scale3d_branch2a -> res3d_branch2a (in-place)
I0301 20:57:52.148639  6576 layer_factory.hpp:77] Creating layer scale3d_branch2a
I0301 20:57:52.148739  6576 net.cpp:150] Setting up scale3d_branch2a
I0301 20:57:52.148747  6576 net.cpp:157] Top shape: 8 128 28 28 (802816)
I0301 20:57:52.148751  6576 net.cpp:165] Memory required for data: 1306984480
I0301 20:57:52.148758  6576 layer_factory.hpp:77] Creating layer res3d_branch2a_relu
I0301 20:57:52.148763  6576 net.cpp:100] Creating Layer res3d_branch2a_relu
I0301 20:57:52.148767  6576 net.cpp:434] res3d_branch2a_relu <- res3d_branch2a
I0301 20:57:52.148774  6576 net.cpp:395] res3d_branch2a_relu -> res3d_branch2a (in-place)
I0301 20:57:52.148933  6576 net.cpp:150] Setting up res3d_branch2a_relu
I0301 20:57:52.148968  6576 net.cpp:157] Top shape: 8 128 28 28 (802816)
I0301 20:57:52.148972  6576 net.cpp:165] Memory required for data: 1310195744
I0301 20:57:52.148977  6576 layer_factory.hpp:77] Creating layer res3d_branch2b
I0301 20:57:52.148986  6576 net.cpp:100] Creating Layer res3d_branch2b
I0301 20:57:52.148991  6576 net.cpp:434] res3d_branch2b <- res3d_branch2a
I0301 20:57:52.148998  6576 net.cpp:408] res3d_branch2b -> res3d_branch2b
I0301 20:57:52.150254  6576 net.cpp:150] Setting up res3d_branch2b
I0301 20:57:52.150269  6576 net.cpp:157] Top shape: 8 128 28 28 (802816)
I0301 20:57:52.150272  6576 net.cpp:165] Memory required for data: 1313407008
I0301 20:57:52.150279  6576 layer_factory.hpp:77] Creating layer bn3d_branch2b
I0301 20:57:52.150286  6576 net.cpp:100] Creating Layer bn3d_branch2b
I0301 20:57:52.150290  6576 net.cpp:434] bn3d_branch2b <- res3d_branch2b
I0301 20:57:52.150295  6576 net.cpp:395] bn3d_branch2b -> res3d_branch2b (in-place)
I0301 20:57:52.150472  6576 net.cpp:150] Setting up bn3d_branch2b
I0301 20:57:52.150480  6576 net.cpp:157] Top shape: 8 128 28 28 (802816)
I0301 20:57:52.150485  6576 net.cpp:165] Memory required for data: 1316618272
I0301 20:57:52.150491  6576 layer_factory.hpp:77] Creating layer scale3d_branch2b
I0301 20:57:52.150497  6576 net.cpp:100] Creating Layer scale3d_branch2b
I0301 20:57:52.150501  6576 net.cpp:434] scale3d_branch2b <- res3d_branch2b
I0301 20:57:52.150507  6576 net.cpp:395] scale3d_branch2b -> res3d_branch2b (in-place)
I0301 20:57:52.150544  6576 layer_factory.hpp:77] Creating layer scale3d_branch2b
I0301 20:57:52.150646  6576 net.cpp:150] Setting up scale3d_branch2b
I0301 20:57:52.150655  6576 net.cpp:157] Top shape: 8 128 28 28 (802816)
I0301 20:57:52.150658  6576 net.cpp:165] Memory required for data: 1319829536
I0301 20:57:52.150665  6576 layer_factory.hpp:77] Creating layer res3d_branch2b_relu
I0301 20:57:52.150671  6576 net.cpp:100] Creating Layer res3d_branch2b_relu
I0301 20:57:52.150674  6576 net.cpp:434] res3d_branch2b_relu <- res3d_branch2b
I0301 20:57:52.150681  6576 net.cpp:395] res3d_branch2b_relu -> res3d_branch2b (in-place)
I0301 20:57:52.150846  6576 net.cpp:150] Setting up res3d_branch2b_relu
I0301 20:57:52.150854  6576 net.cpp:157] Top shape: 8 128 28 28 (802816)
I0301 20:57:52.150858  6576 net.cpp:165] Memory required for data: 1323040800
I0301 20:57:52.150867  6576 layer_factory.hpp:77] Creating layer res3d_branch2c
I0301 20:57:52.150877  6576 net.cpp:100] Creating Layer res3d_branch2c
I0301 20:57:52.150882  6576 net.cpp:434] res3d_branch2c <- res3d_branch2b
I0301 20:57:52.150887  6576 net.cpp:408] res3d_branch2c -> res3d_branch2c
I0301 20:57:52.151844  6576 net.cpp:150] Setting up res3d_branch2c
I0301 20:57:52.151857  6576 net.cpp:157] Top shape: 8 512 28 28 (3211264)
I0301 20:57:52.151861  6576 net.cpp:165] Memory required for data: 1335885856
I0301 20:57:52.151867  6576 layer_factory.hpp:77] Creating layer bn3d_branch2c
I0301 20:57:52.151875  6576 net.cpp:100] Creating Layer bn3d_branch2c
I0301 20:57:52.151880  6576 net.cpp:434] bn3d_branch2c <- res3d_branch2c
I0301 20:57:52.151885  6576 net.cpp:395] bn3d_branch2c -> res3d_branch2c (in-place)
I0301 20:57:52.152060  6576 net.cpp:150] Setting up bn3d_branch2c
I0301 20:57:52.152066  6576 net.cpp:157] Top shape: 8 512 28 28 (3211264)
I0301 20:57:52.152070  6576 net.cpp:165] Memory required for data: 1348730912
I0301 20:57:52.152077  6576 layer_factory.hpp:77] Creating layer scale3d_branch2c
I0301 20:57:52.152086  6576 net.cpp:100] Creating Layer scale3d_branch2c
I0301 20:57:52.152091  6576 net.cpp:434] scale3d_branch2c <- res3d_branch2c
I0301 20:57:52.152096  6576 net.cpp:395] scale3d_branch2c -> res3d_branch2c (in-place)
I0301 20:57:52.152135  6576 layer_factory.hpp:77] Creating layer scale3d_branch2c
I0301 20:57:52.152235  6576 net.cpp:150] Setting up scale3d_branch2c
I0301 20:57:52.152243  6576 net.cpp:157] Top shape: 8 512 28 28 (3211264)
I0301 20:57:52.152247  6576 net.cpp:165] Memory required for data: 1361575968
I0301 20:57:52.152253  6576 layer_factory.hpp:77] Creating layer res3d
I0301 20:57:52.152261  6576 net.cpp:100] Creating Layer res3d
I0301 20:57:52.152266  6576 net.cpp:434] res3d <- res3c_res3c_relu_0_split_1
I0301 20:57:52.152269  6576 net.cpp:434] res3d <- res3d_branch2c
I0301 20:57:52.152274  6576 net.cpp:408] res3d -> res3d
I0301 20:57:52.152298  6576 net.cpp:150] Setting up res3d
I0301 20:57:52.152304  6576 net.cpp:157] Top shape: 8 512 28 28 (3211264)
I0301 20:57:52.152308  6576 net.cpp:165] Memory required for data: 1374421024
I0301 20:57:52.152312  6576 layer_factory.hpp:77] Creating layer res3d_relu
I0301 20:57:52.152317  6576 net.cpp:100] Creating Layer res3d_relu
I0301 20:57:52.152320  6576 net.cpp:434] res3d_relu <- res3d
I0301 20:57:52.152326  6576 net.cpp:395] res3d_relu -> res3d (in-place)
I0301 20:57:52.152480  6576 net.cpp:150] Setting up res3d_relu
I0301 20:57:52.152489  6576 net.cpp:157] Top shape: 8 512 28 28 (3211264)
I0301 20:57:52.152493  6576 net.cpp:165] Memory required for data: 1387266080
I0301 20:57:52.152496  6576 layer_factory.hpp:77] Creating layer res3d_res3d_relu_0_split
I0301 20:57:52.152503  6576 net.cpp:100] Creating Layer res3d_res3d_relu_0_split
I0301 20:57:52.152508  6576 net.cpp:434] res3d_res3d_relu_0_split <- res3d
I0301 20:57:52.152514  6576 net.cpp:408] res3d_res3d_relu_0_split -> res3d_res3d_relu_0_split_0
I0301 20:57:52.152520  6576 net.cpp:408] res3d_res3d_relu_0_split -> res3d_res3d_relu_0_split_1
I0301 20:57:52.152559  6576 net.cpp:150] Setting up res3d_res3d_relu_0_split
I0301 20:57:52.152565  6576 net.cpp:157] Top shape: 8 512 28 28 (3211264)
I0301 20:57:52.152570  6576 net.cpp:157] Top shape: 8 512 28 28 (3211264)
I0301 20:57:52.152572  6576 net.cpp:165] Memory required for data: 1412956192
I0301 20:57:52.152576  6576 layer_factory.hpp:77] Creating layer res4a_branch1
I0301 20:57:52.152585  6576 net.cpp:100] Creating Layer res4a_branch1
I0301 20:57:52.152588  6576 net.cpp:434] res4a_branch1 <- res3d_res3d_relu_0_split_0
I0301 20:57:52.152595  6576 net.cpp:408] res4a_branch1 -> res4a_branch1
I0301 20:57:52.154703  6576 net.cpp:150] Setting up res4a_branch1
I0301 20:57:52.154719  6576 net.cpp:157] Top shape: 8 1024 14 14 (1605632)
I0301 20:57:52.154724  6576 net.cpp:165] Memory required for data: 1419378720
I0301 20:57:52.154731  6576 layer_factory.hpp:77] Creating layer bn4a_branch1
I0301 20:57:52.154742  6576 net.cpp:100] Creating Layer bn4a_branch1
I0301 20:57:52.154747  6576 net.cpp:434] bn4a_branch1 <- res4a_branch1
I0301 20:57:52.154768  6576 net.cpp:395] bn4a_branch1 -> res4a_branch1 (in-place)
I0301 20:57:52.154953  6576 net.cpp:150] Setting up bn4a_branch1
I0301 20:57:52.154960  6576 net.cpp:157] Top shape: 8 1024 14 14 (1605632)
I0301 20:57:52.154963  6576 net.cpp:165] Memory required for data: 1425801248
I0301 20:57:52.154971  6576 layer_factory.hpp:77] Creating layer scale4a_branch1
I0301 20:57:52.154980  6576 net.cpp:100] Creating Layer scale4a_branch1
I0301 20:57:52.154984  6576 net.cpp:434] scale4a_branch1 <- res4a_branch1
I0301 20:57:52.154989  6576 net.cpp:395] scale4a_branch1 -> res4a_branch1 (in-place)
I0301 20:57:52.155025  6576 layer_factory.hpp:77] Creating layer scale4a_branch1
I0301 20:57:52.155129  6576 net.cpp:150] Setting up scale4a_branch1
I0301 20:57:52.155136  6576 net.cpp:157] Top shape: 8 1024 14 14 (1605632)
I0301 20:57:52.155140  6576 net.cpp:165] Memory required for data: 1432223776
I0301 20:57:52.155148  6576 layer_factory.hpp:77] Creating layer res4a_branch2a
I0301 20:57:52.155156  6576 net.cpp:100] Creating Layer res4a_branch2a
I0301 20:57:52.155160  6576 net.cpp:434] res4a_branch2a <- res3d_res3d_relu_0_split_1
I0301 20:57:52.155166  6576 net.cpp:408] res4a_branch2a -> res4a_branch2a
I0301 20:57:52.156146  6576 net.cpp:150] Setting up res4a_branch2a
I0301 20:57:52.156159  6576 net.cpp:157] Top shape: 8 256 14 14 (401408)
I0301 20:57:52.156163  6576 net.cpp:165] Memory required for data: 1433829408
I0301 20:57:52.156169  6576 layer_factory.hpp:77] Creating layer bn4a_branch2a
I0301 20:57:52.156177  6576 net.cpp:100] Creating Layer bn4a_branch2a
I0301 20:57:52.156181  6576 net.cpp:434] bn4a_branch2a <- res4a_branch2a
I0301 20:57:52.156188  6576 net.cpp:395] bn4a_branch2a -> res4a_branch2a (in-place)
I0301 20:57:52.156357  6576 net.cpp:150] Setting up bn4a_branch2a
I0301 20:57:52.156364  6576 net.cpp:157] Top shape: 8 256 14 14 (401408)
I0301 20:57:52.156368  6576 net.cpp:165] Memory required for data: 1435435040
I0301 20:57:52.156374  6576 layer_factory.hpp:77] Creating layer scale4a_branch2a
I0301 20:57:52.156383  6576 net.cpp:100] Creating Layer scale4a_branch2a
I0301 20:57:52.156386  6576 net.cpp:434] scale4a_branch2a <- res4a_branch2a
I0301 20:57:52.156391  6576 net.cpp:395] scale4a_branch2a -> res4a_branch2a (in-place)
I0301 20:57:52.156430  6576 layer_factory.hpp:77] Creating layer scale4a_branch2a
I0301 20:57:52.156527  6576 net.cpp:150] Setting up scale4a_branch2a
I0301 20:57:52.156534  6576 net.cpp:157] Top shape: 8 256 14 14 (401408)
I0301 20:57:52.156538  6576 net.cpp:165] Memory required for data: 1437040672
I0301 20:57:52.156544  6576 layer_factory.hpp:77] Creating layer res4a_branch2a_relu
I0301 20:57:52.156551  6576 net.cpp:100] Creating Layer res4a_branch2a_relu
I0301 20:57:52.156555  6576 net.cpp:434] res4a_branch2a_relu <- res4a_branch2a
I0301 20:57:52.156560  6576 net.cpp:395] res4a_branch2a_relu -> res4a_branch2a (in-place)
I0301 20:57:52.156713  6576 net.cpp:150] Setting up res4a_branch2a_relu
I0301 20:57:52.156725  6576 net.cpp:157] Top shape: 8 256 14 14 (401408)
I0301 20:57:52.156729  6576 net.cpp:165] Memory required for data: 1438646304
I0301 20:57:52.156733  6576 layer_factory.hpp:77] Creating layer res4a_branch2b
I0301 20:57:52.156739  6576 net.cpp:100] Creating Layer res4a_branch2b
I0301 20:57:52.156744  6576 net.cpp:434] res4a_branch2b <- res4a_branch2a
I0301 20:57:52.156750  6576 net.cpp:408] res4a_branch2b -> res4a_branch2b
I0301 20:57:52.159212  6576 net.cpp:150] Setting up res4a_branch2b
I0301 20:57:52.159227  6576 net.cpp:157] Top shape: 8 256 14 14 (401408)
I0301 20:57:52.159231  6576 net.cpp:165] Memory required for data: 1440251936
I0301 20:57:52.159238  6576 layer_factory.hpp:77] Creating layer bn4a_branch2b
I0301 20:57:52.159246  6576 net.cpp:100] Creating Layer bn4a_branch2b
I0301 20:57:52.159250  6576 net.cpp:434] bn4a_branch2b <- res4a_branch2b
I0301 20:57:52.159256  6576 net.cpp:395] bn4a_branch2b -> res4a_branch2b (in-place)
I0301 20:57:52.159440  6576 net.cpp:150] Setting up bn4a_branch2b
I0301 20:57:52.159447  6576 net.cpp:157] Top shape: 8 256 14 14 (401408)
I0301 20:57:52.159451  6576 net.cpp:165] Memory required for data: 1441857568
I0301 20:57:52.159457  6576 layer_factory.hpp:77] Creating layer scale4a_branch2b
I0301 20:57:52.159464  6576 net.cpp:100] Creating Layer scale4a_branch2b
I0301 20:57:52.159467  6576 net.cpp:434] scale4a_branch2b <- res4a_branch2b
I0301 20:57:52.159472  6576 net.cpp:395] scale4a_branch2b -> res4a_branch2b (in-place)
I0301 20:57:52.159514  6576 layer_factory.hpp:77] Creating layer scale4a_branch2b
I0301 20:57:52.159615  6576 net.cpp:150] Setting up scale4a_branch2b
I0301 20:57:52.159621  6576 net.cpp:157] Top shape: 8 256 14 14 (401408)
I0301 20:57:52.159626  6576 net.cpp:165] Memory required for data: 1443463200
I0301 20:57:52.159632  6576 layer_factory.hpp:77] Creating layer res4a_branch2b_relu
I0301 20:57:52.159638  6576 net.cpp:100] Creating Layer res4a_branch2b_relu
I0301 20:57:52.159641  6576 net.cpp:434] res4a_branch2b_relu <- res4a_branch2b
I0301 20:57:52.159646  6576 net.cpp:395] res4a_branch2b_relu -> res4a_branch2b (in-place)
I0301 20:57:52.159809  6576 net.cpp:150] Setting up res4a_branch2b_relu
I0301 20:57:52.159818  6576 net.cpp:157] Top shape: 8 256 14 14 (401408)
I0301 20:57:52.159822  6576 net.cpp:165] Memory required for data: 1445068832
I0301 20:57:52.159826  6576 layer_factory.hpp:77] Creating layer res4a_branch2c
I0301 20:57:52.159837  6576 net.cpp:100] Creating Layer res4a_branch2c
I0301 20:57:52.159842  6576 net.cpp:434] res4a_branch2c <- res4a_branch2b
I0301 20:57:52.159847  6576 net.cpp:408] res4a_branch2c -> res4a_branch2c
I0301 20:57:52.161733  6576 net.cpp:150] Setting up res4a_branch2c
I0301 20:57:52.161749  6576 net.cpp:157] Top shape: 8 1024 14 14 (1605632)
I0301 20:57:52.161754  6576 net.cpp:165] Memory required for data: 1451491360
I0301 20:57:52.161761  6576 layer_factory.hpp:77] Creating layer bn4a_branch2c
I0301 20:57:52.161767  6576 net.cpp:100] Creating Layer bn4a_branch2c
I0301 20:57:52.161772  6576 net.cpp:434] bn4a_branch2c <- res4a_branch2c
I0301 20:57:52.161778  6576 net.cpp:395] bn4a_branch2c -> res4a_branch2c (in-place)
I0301 20:57:52.161958  6576 net.cpp:150] Setting up bn4a_branch2c
I0301 20:57:52.161967  6576 net.cpp:157] Top shape: 8 1024 14 14 (1605632)
I0301 20:57:52.161970  6576 net.cpp:165] Memory required for data: 1457913888
I0301 20:57:52.161978  6576 layer_factory.hpp:77] Creating layer scale4a_branch2c
I0301 20:57:52.161984  6576 net.cpp:100] Creating Layer scale4a_branch2c
I0301 20:57:52.161988  6576 net.cpp:434] scale4a_branch2c <- res4a_branch2c
I0301 20:57:52.161993  6576 net.cpp:395] scale4a_branch2c -> res4a_branch2c (in-place)
I0301 20:57:52.162032  6576 layer_factory.hpp:77] Creating layer scale4a_branch2c
I0301 20:57:52.162137  6576 net.cpp:150] Setting up scale4a_branch2c
I0301 20:57:52.162144  6576 net.cpp:157] Top shape: 8 1024 14 14 (1605632)
I0301 20:57:52.162147  6576 net.cpp:165] Memory required for data: 1464336416
I0301 20:57:52.162155  6576 layer_factory.hpp:77] Creating layer res4a
I0301 20:57:52.162161  6576 net.cpp:100] Creating Layer res4a
I0301 20:57:52.162165  6576 net.cpp:434] res4a <- res4a_branch1
I0301 20:57:52.162170  6576 net.cpp:434] res4a <- res4a_branch2c
I0301 20:57:52.162175  6576 net.cpp:408] res4a -> res4a
I0301 20:57:52.162200  6576 net.cpp:150] Setting up res4a
I0301 20:57:52.162206  6576 net.cpp:157] Top shape: 8 1024 14 14 (1605632)
I0301 20:57:52.162210  6576 net.cpp:165] Memory required for data: 1470758944
I0301 20:57:52.162214  6576 layer_factory.hpp:77] Creating layer res4a_relu
I0301 20:57:52.162220  6576 net.cpp:100] Creating Layer res4a_relu
I0301 20:57:52.162222  6576 net.cpp:434] res4a_relu <- res4a
I0301 20:57:52.162227  6576 net.cpp:395] res4a_relu -> res4a (in-place)
I0301 20:57:52.162654  6576 net.cpp:150] Setting up res4a_relu
I0301 20:57:52.162667  6576 net.cpp:157] Top shape: 8 1024 14 14 (1605632)
I0301 20:57:52.162670  6576 net.cpp:165] Memory required for data: 1477181472
I0301 20:57:52.162674  6576 layer_factory.hpp:77] Creating layer res4a_res4a_relu_0_split
I0301 20:57:52.162700  6576 net.cpp:100] Creating Layer res4a_res4a_relu_0_split
I0301 20:57:52.162705  6576 net.cpp:434] res4a_res4a_relu_0_split <- res4a
I0301 20:57:52.162712  6576 net.cpp:408] res4a_res4a_relu_0_split -> res4a_res4a_relu_0_split_0
I0301 20:57:52.162719  6576 net.cpp:408] res4a_res4a_relu_0_split -> res4a_res4a_relu_0_split_1
I0301 20:57:52.162758  6576 net.cpp:150] Setting up res4a_res4a_relu_0_split
I0301 20:57:52.162765  6576 net.cpp:157] Top shape: 8 1024 14 14 (1605632)
I0301 20:57:52.162768  6576 net.cpp:157] Top shape: 8 1024 14 14 (1605632)
I0301 20:57:52.162772  6576 net.cpp:165] Memory required for data: 1490026528
I0301 20:57:52.162776  6576 layer_factory.hpp:77] Creating layer res4b_branch2a
I0301 20:57:52.162786  6576 net.cpp:100] Creating Layer res4b_branch2a
I0301 20:57:52.162789  6576 net.cpp:434] res4b_branch2a <- res4a_res4a_relu_0_split_0
I0301 20:57:52.162796  6576 net.cpp:408] res4b_branch2a -> res4b_branch2a
I0301 20:57:52.163588  6576 net.cpp:150] Setting up res4b_branch2a
I0301 20:57:52.163599  6576 net.cpp:157] Top shape: 8 256 14 14 (401408)
I0301 20:57:52.163601  6576 net.cpp:165] Memory required for data: 1491632160
I0301 20:57:52.163607  6576 layer_factory.hpp:77] Creating layer bn4b_branch2a
I0301 20:57:52.163615  6576 net.cpp:100] Creating Layer bn4b_branch2a
I0301 20:57:52.163619  6576 net.cpp:434] bn4b_branch2a <- res4b_branch2a
I0301 20:57:52.163625  6576 net.cpp:395] bn4b_branch2a -> res4b_branch2a (in-place)
I0301 20:57:52.163799  6576 net.cpp:150] Setting up bn4b_branch2a
I0301 20:57:52.163807  6576 net.cpp:157] Top shape: 8 256 14 14 (401408)
I0301 20:57:52.163810  6576 net.cpp:165] Memory required for data: 1493237792
I0301 20:57:52.163817  6576 layer_factory.hpp:77] Creating layer scale4b_branch2a
I0301 20:57:52.163825  6576 net.cpp:100] Creating Layer scale4b_branch2a
I0301 20:57:52.163828  6576 net.cpp:434] scale4b_branch2a <- res4b_branch2a
I0301 20:57:52.163833  6576 net.cpp:395] scale4b_branch2a -> res4b_branch2a (in-place)
I0301 20:57:52.163873  6576 layer_factory.hpp:77] Creating layer scale4b_branch2a
I0301 20:57:52.163972  6576 net.cpp:150] Setting up scale4b_branch2a
I0301 20:57:52.163980  6576 net.cpp:157] Top shape: 8 256 14 14 (401408)
I0301 20:57:52.163983  6576 net.cpp:165] Memory required for data: 1494843424
I0301 20:57:52.163990  6576 layer_factory.hpp:77] Creating layer res4b_branch2a_relu
I0301 20:57:52.163997  6576 net.cpp:100] Creating Layer res4b_branch2a_relu
I0301 20:57:52.164001  6576 net.cpp:434] res4b_branch2a_relu <- res4b_branch2a
I0301 20:57:52.164005  6576 net.cpp:395] res4b_branch2a_relu -> res4b_branch2a (in-place)
I0301 20:57:52.164434  6576 net.cpp:150] Setting up res4b_branch2a_relu
I0301 20:57:52.164448  6576 net.cpp:157] Top shape: 8 256 14 14 (401408)
I0301 20:57:52.164453  6576 net.cpp:165] Memory required for data: 1496449056
I0301 20:57:52.164456  6576 layer_factory.hpp:77] Creating layer res4b_branch2b
I0301 20:57:52.164465  6576 net.cpp:100] Creating Layer res4b_branch2b
I0301 20:57:52.164469  6576 net.cpp:434] res4b_branch2b <- res4b_branch2a
I0301 20:57:52.164476  6576 net.cpp:408] res4b_branch2b -> res4b_branch2b
I0301 20:57:52.166957  6576 net.cpp:150] Setting up res4b_branch2b
I0301 20:57:52.166975  6576 net.cpp:157] Top shape: 8 256 14 14 (401408)
I0301 20:57:52.166978  6576 net.cpp:165] Memory required for data: 1498054688
I0301 20:57:52.166986  6576 layer_factory.hpp:77] Creating layer bn4b_branch2b
I0301 20:57:52.166993  6576 net.cpp:100] Creating Layer bn4b_branch2b
I0301 20:57:52.166998  6576 net.cpp:434] bn4b_branch2b <- res4b_branch2b
I0301 20:57:52.167003  6576 net.cpp:395] bn4b_branch2b -> res4b_branch2b (in-place)
I0301 20:57:52.167230  6576 net.cpp:150] Setting up bn4b_branch2b
I0301 20:57:52.167239  6576 net.cpp:157] Top shape: 8 256 14 14 (401408)
I0301 20:57:52.167243  6576 net.cpp:165] Memory required for data: 1499660320
I0301 20:57:52.167250  6576 layer_factory.hpp:77] Creating layer scale4b_branch2b
I0301 20:57:52.167258  6576 net.cpp:100] Creating Layer scale4b_branch2b
I0301 20:57:52.167266  6576 net.cpp:434] scale4b_branch2b <- res4b_branch2b
I0301 20:57:52.167273  6576 net.cpp:395] scale4b_branch2b -> res4b_branch2b (in-place)
I0301 20:57:52.167315  6576 layer_factory.hpp:77] Creating layer scale4b_branch2b
I0301 20:57:52.167413  6576 net.cpp:150] Setting up scale4b_branch2b
I0301 20:57:52.167420  6576 net.cpp:157] Top shape: 8 256 14 14 (401408)
I0301 20:57:52.167424  6576 net.cpp:165] Memory required for data: 1501265952
I0301 20:57:52.167431  6576 layer_factory.hpp:77] Creating layer res4b_branch2b_relu
I0301 20:57:52.167438  6576 net.cpp:100] Creating Layer res4b_branch2b_relu
I0301 20:57:52.167443  6576 net.cpp:434] res4b_branch2b_relu <- res4b_branch2b
I0301 20:57:52.167448  6576 net.cpp:395] res4b_branch2b_relu -> res4b_branch2b (in-place)
I0301 20:57:52.167613  6576 net.cpp:150] Setting up res4b_branch2b_relu
I0301 20:57:52.167623  6576 net.cpp:157] Top shape: 8 256 14 14 (401408)
I0301 20:57:52.167626  6576 net.cpp:165] Memory required for data: 1502871584
I0301 20:57:52.167629  6576 layer_factory.hpp:77] Creating layer res4b_branch2c
I0301 20:57:52.167639  6576 net.cpp:100] Creating Layer res4b_branch2c
I0301 20:57:52.167642  6576 net.cpp:434] res4b_branch2c <- res4b_branch2b
I0301 20:57:52.167649  6576 net.cpp:408] res4b_branch2c -> res4b_branch2c
I0301 20:57:52.169622  6576 net.cpp:150] Setting up res4b_branch2c
I0301 20:57:52.169636  6576 net.cpp:157] Top shape: 8 1024 14 14 (1605632)
I0301 20:57:52.169641  6576 net.cpp:165] Memory required for data: 1509294112
I0301 20:57:52.169647  6576 layer_factory.hpp:77] Creating layer bn4b_branch2c
I0301 20:57:52.169656  6576 net.cpp:100] Creating Layer bn4b_branch2c
I0301 20:57:52.169659  6576 net.cpp:434] bn4b_branch2c <- res4b_branch2c
I0301 20:57:52.169667  6576 net.cpp:395] bn4b_branch2c -> res4b_branch2c (in-place)
I0301 20:57:52.169849  6576 net.cpp:150] Setting up bn4b_branch2c
I0301 20:57:52.169857  6576 net.cpp:157] Top shape: 8 1024 14 14 (1605632)
I0301 20:57:52.169860  6576 net.cpp:165] Memory required for data: 1515716640
I0301 20:57:52.169868  6576 layer_factory.hpp:77] Creating layer scale4b_branch2c
I0301 20:57:52.169893  6576 net.cpp:100] Creating Layer scale4b_branch2c
I0301 20:57:52.169896  6576 net.cpp:434] scale4b_branch2c <- res4b_branch2c
I0301 20:57:52.169903  6576 net.cpp:395] scale4b_branch2c -> res4b_branch2c (in-place)
I0301 20:57:52.169960  6576 layer_factory.hpp:77] Creating layer scale4b_branch2c
I0301 20:57:52.170080  6576 net.cpp:150] Setting up scale4b_branch2c
I0301 20:57:52.170089  6576 net.cpp:157] Top shape: 8 1024 14 14 (1605632)
I0301 20:57:52.170092  6576 net.cpp:165] Memory required for data: 1522139168
I0301 20:57:52.170100  6576 layer_factory.hpp:77] Creating layer res4b
I0301 20:57:52.170106  6576 net.cpp:100] Creating Layer res4b
I0301 20:57:52.170110  6576 net.cpp:434] res4b <- res4a_res4a_relu_0_split_1
I0301 20:57:52.170115  6576 net.cpp:434] res4b <- res4b_branch2c
I0301 20:57:52.170122  6576 net.cpp:408] res4b -> res4b
I0301 20:57:52.170148  6576 net.cpp:150] Setting up res4b
I0301 20:57:52.170156  6576 net.cpp:157] Top shape: 8 1024 14 14 (1605632)
I0301 20:57:52.170158  6576 net.cpp:165] Memory required for data: 1528561696
I0301 20:57:52.170162  6576 layer_factory.hpp:77] Creating layer res4b_relu
I0301 20:57:52.170171  6576 net.cpp:100] Creating Layer res4b_relu
I0301 20:57:52.170176  6576 net.cpp:434] res4b_relu <- res4b
I0301 20:57:52.170181  6576 net.cpp:395] res4b_relu -> res4b (in-place)
I0301 20:57:52.170370  6576 net.cpp:150] Setting up res4b_relu
I0301 20:57:52.170380  6576 net.cpp:157] Top shape: 8 1024 14 14 (1605632)
I0301 20:57:52.170384  6576 net.cpp:165] Memory required for data: 1534984224
I0301 20:57:52.170387  6576 layer_factory.hpp:77] Creating layer res4b_res4b_relu_0_split
I0301 20:57:52.170393  6576 net.cpp:100] Creating Layer res4b_res4b_relu_0_split
I0301 20:57:52.170397  6576 net.cpp:434] res4b_res4b_relu_0_split <- res4b
I0301 20:57:52.170403  6576 net.cpp:408] res4b_res4b_relu_0_split -> res4b_res4b_relu_0_split_0
I0301 20:57:52.170414  6576 net.cpp:408] res4b_res4b_relu_0_split -> res4b_res4b_relu_0_split_1
I0301 20:57:52.170464  6576 net.cpp:150] Setting up res4b_res4b_relu_0_split
I0301 20:57:52.170470  6576 net.cpp:157] Top shape: 8 1024 14 14 (1605632)
I0301 20:57:52.170475  6576 net.cpp:157] Top shape: 8 1024 14 14 (1605632)
I0301 20:57:52.170478  6576 net.cpp:165] Memory required for data: 1547829280
I0301 20:57:52.170481  6576 layer_factory.hpp:77] Creating layer res4c_branch2a
I0301 20:57:52.170490  6576 net.cpp:100] Creating Layer res4c_branch2a
I0301 20:57:52.170495  6576 net.cpp:434] res4c_branch2a <- res4b_res4b_relu_0_split_0
I0301 20:57:52.170501  6576 net.cpp:408] res4c_branch2a -> res4c_branch2a
I0301 20:57:52.171577  6576 net.cpp:150] Setting up res4c_branch2a
I0301 20:57:52.171591  6576 net.cpp:157] Top shape: 8 256 14 14 (401408)
I0301 20:57:52.171594  6576 net.cpp:165] Memory required for data: 1549434912
I0301 20:57:52.171600  6576 layer_factory.hpp:77] Creating layer bn4c_branch2a
I0301 20:57:52.171608  6576 net.cpp:100] Creating Layer bn4c_branch2a
I0301 20:57:52.171613  6576 net.cpp:434] bn4c_branch2a <- res4c_branch2a
I0301 20:57:52.171618  6576 net.cpp:395] bn4c_branch2a -> res4c_branch2a (in-place)
I0301 20:57:52.171795  6576 net.cpp:150] Setting up bn4c_branch2a
I0301 20:57:52.171803  6576 net.cpp:157] Top shape: 8 256 14 14 (401408)
I0301 20:57:52.171806  6576 net.cpp:165] Memory required for data: 1551040544
I0301 20:57:52.171813  6576 layer_factory.hpp:77] Creating layer scale4c_branch2a
I0301 20:57:52.171819  6576 net.cpp:100] Creating Layer scale4c_branch2a
I0301 20:57:52.171823  6576 net.cpp:434] scale4c_branch2a <- res4c_branch2a
I0301 20:57:52.171830  6576 net.cpp:395] scale4c_branch2a -> res4c_branch2a (in-place)
I0301 20:57:52.171871  6576 layer_factory.hpp:77] Creating layer scale4c_branch2a
I0301 20:57:52.171974  6576 net.cpp:150] Setting up scale4c_branch2a
I0301 20:57:52.171983  6576 net.cpp:157] Top shape: 8 256 14 14 (401408)
I0301 20:57:52.171986  6576 net.cpp:165] Memory required for data: 1552646176
I0301 20:57:52.171993  6576 layer_factory.hpp:77] Creating layer res4c_branch2a_relu
I0301 20:57:52.171998  6576 net.cpp:100] Creating Layer res4c_branch2a_relu
I0301 20:57:52.172003  6576 net.cpp:434] res4c_branch2a_relu <- res4c_branch2a
I0301 20:57:52.172008  6576 net.cpp:395] res4c_branch2a_relu -> res4c_branch2a (in-place)
I0301 20:57:52.172166  6576 net.cpp:150] Setting up res4c_branch2a_relu
I0301 20:57:52.172175  6576 net.cpp:157] Top shape: 8 256 14 14 (401408)
I0301 20:57:52.172178  6576 net.cpp:165] Memory required for data: 1554251808
I0301 20:57:52.172183  6576 layer_factory.hpp:77] Creating layer res4c_branch2b
I0301 20:57:52.172191  6576 net.cpp:100] Creating Layer res4c_branch2b
I0301 20:57:52.172195  6576 net.cpp:434] res4c_branch2b <- res4c_branch2a
I0301 20:57:52.172201  6576 net.cpp:408] res4c_branch2b -> res4c_branch2b
I0301 20:57:52.174846  6576 net.cpp:150] Setting up res4c_branch2b
I0301 20:57:52.174861  6576 net.cpp:157] Top shape: 8 256 14 14 (401408)
I0301 20:57:52.174865  6576 net.cpp:165] Memory required for data: 1555857440
I0301 20:57:52.174871  6576 layer_factory.hpp:77] Creating layer bn4c_branch2b
I0301 20:57:52.174880  6576 net.cpp:100] Creating Layer bn4c_branch2b
I0301 20:57:52.174885  6576 net.cpp:434] bn4c_branch2b <- res4c_branch2b
I0301 20:57:52.174890  6576 net.cpp:395] bn4c_branch2b -> res4c_branch2b (in-place)
I0301 20:57:52.175076  6576 net.cpp:150] Setting up bn4c_branch2b
I0301 20:57:52.175083  6576 net.cpp:157] Top shape: 8 256 14 14 (401408)
I0301 20:57:52.175087  6576 net.cpp:165] Memory required for data: 1557463072
I0301 20:57:52.175094  6576 layer_factory.hpp:77] Creating layer scale4c_branch2b
I0301 20:57:52.175101  6576 net.cpp:100] Creating Layer scale4c_branch2b
I0301 20:57:52.175104  6576 net.cpp:434] scale4c_branch2b <- res4c_branch2b
I0301 20:57:52.175109  6576 net.cpp:395] scale4c_branch2b -> res4c_branch2b (in-place)
I0301 20:57:52.175151  6576 layer_factory.hpp:77] Creating layer scale4c_branch2b
I0301 20:57:52.175253  6576 net.cpp:150] Setting up scale4c_branch2b
I0301 20:57:52.175266  6576 net.cpp:157] Top shape: 8 256 14 14 (401408)
I0301 20:57:52.175271  6576 net.cpp:165] Memory required for data: 1559068704
I0301 20:57:52.175278  6576 layer_factory.hpp:77] Creating layer res4c_branch2b_relu
I0301 20:57:52.175284  6576 net.cpp:100] Creating Layer res4c_branch2b_relu
I0301 20:57:52.175287  6576 net.cpp:434] res4c_branch2b_relu <- res4c_branch2b
I0301 20:57:52.175292  6576 net.cpp:395] res4c_branch2b_relu -> res4c_branch2b (in-place)
I0301 20:57:52.175460  6576 net.cpp:150] Setting up res4c_branch2b_relu
I0301 20:57:52.175470  6576 net.cpp:157] Top shape: 8 256 14 14 (401408)
I0301 20:57:52.175473  6576 net.cpp:165] Memory required for data: 1560674336
I0301 20:57:52.175477  6576 layer_factory.hpp:77] Creating layer res4c_branch2c
I0301 20:57:52.175487  6576 net.cpp:100] Creating Layer res4c_branch2c
I0301 20:57:52.175492  6576 net.cpp:434] res4c_branch2c <- res4c_branch2b
I0301 20:57:52.175498  6576 net.cpp:408] res4c_branch2c -> res4c_branch2c
I0301 20:57:52.177426  6576 net.cpp:150] Setting up res4c_branch2c
I0301 20:57:52.177443  6576 net.cpp:157] Top shape: 8 1024 14 14 (1605632)
I0301 20:57:52.177448  6576 net.cpp:165] Memory required for data: 1567096864
I0301 20:57:52.177454  6576 layer_factory.hpp:77] Creating layer bn4c_branch2c
I0301 20:57:52.177460  6576 net.cpp:100] Creating Layer bn4c_branch2c
I0301 20:57:52.177464  6576 net.cpp:434] bn4c_branch2c <- res4c_branch2c
I0301 20:57:52.177471  6576 net.cpp:395] bn4c_branch2c -> res4c_branch2c (in-place)
I0301 20:57:52.177657  6576 net.cpp:150] Setting up bn4c_branch2c
I0301 20:57:52.177667  6576 net.cpp:157] Top shape: 8 1024 14 14 (1605632)
I0301 20:57:52.177670  6576 net.cpp:165] Memory required for data: 1573519392
I0301 20:57:52.177677  6576 layer_factory.hpp:77] Creating layer scale4c_branch2c
I0301 20:57:52.177685  6576 net.cpp:100] Creating Layer scale4c_branch2c
I0301 20:57:52.177688  6576 net.cpp:434] scale4c_branch2c <- res4c_branch2c
I0301 20:57:52.177693  6576 net.cpp:395] scale4c_branch2c -> res4c_branch2c (in-place)
I0301 20:57:52.177734  6576 layer_factory.hpp:77] Creating layer scale4c_branch2c
I0301 20:57:52.177842  6576 net.cpp:150] Setting up scale4c_branch2c
I0301 20:57:52.177850  6576 net.cpp:157] Top shape: 8 1024 14 14 (1605632)
I0301 20:57:52.177855  6576 net.cpp:165] Memory required for data: 1579941920
I0301 20:57:52.177861  6576 layer_factory.hpp:77] Creating layer res4c
I0301 20:57:52.177868  6576 net.cpp:100] Creating Layer res4c
I0301 20:57:52.177872  6576 net.cpp:434] res4c <- res4b_res4b_relu_0_split_1
I0301 20:57:52.177877  6576 net.cpp:434] res4c <- res4c_branch2c
I0301 20:57:52.177882  6576 net.cpp:408] res4c -> res4c
I0301 20:57:52.177907  6576 net.cpp:150] Setting up res4c
I0301 20:57:52.177914  6576 net.cpp:157] Top shape: 8 1024 14 14 (1605632)
I0301 20:57:52.177917  6576 net.cpp:165] Memory required for data: 1586364448
I0301 20:57:52.177922  6576 layer_factory.hpp:77] Creating layer res4c_relu
I0301 20:57:52.177927  6576 net.cpp:100] Creating Layer res4c_relu
I0301 20:57:52.177929  6576 net.cpp:434] res4c_relu <- res4c
I0301 20:57:52.177934  6576 net.cpp:395] res4c_relu -> res4c (in-place)
I0301 20:57:52.178457  6576 net.cpp:150] Setting up res4c_relu
I0301 20:57:52.178472  6576 net.cpp:157] Top shape: 8 1024 14 14 (1605632)
I0301 20:57:52.178475  6576 net.cpp:165] Memory required for data: 1592786976
I0301 20:57:52.178479  6576 layer_factory.hpp:77] Creating layer res4c_res4c_relu_0_split
I0301 20:57:52.178485  6576 net.cpp:100] Creating Layer res4c_res4c_relu_0_split
I0301 20:57:52.178489  6576 net.cpp:434] res4c_res4c_relu_0_split <- res4c
I0301 20:57:52.178496  6576 net.cpp:408] res4c_res4c_relu_0_split -> res4c_res4c_relu_0_split_0
I0301 20:57:52.178504  6576 net.cpp:408] res4c_res4c_relu_0_split -> res4c_res4c_relu_0_split_1
I0301 20:57:52.178546  6576 net.cpp:150] Setting up res4c_res4c_relu_0_split
I0301 20:57:52.178553  6576 net.cpp:157] Top shape: 8 1024 14 14 (1605632)
I0301 20:57:52.178557  6576 net.cpp:157] Top shape: 8 1024 14 14 (1605632)
I0301 20:57:52.178565  6576 net.cpp:165] Memory required for data: 1605632032
I0301 20:57:52.178570  6576 layer_factory.hpp:77] Creating layer res4d_branch2a
I0301 20:57:52.178577  6576 net.cpp:100] Creating Layer res4d_branch2a
I0301 20:57:52.178581  6576 net.cpp:434] res4d_branch2a <- res4c_res4c_relu_0_split_0
I0301 20:57:52.178588  6576 net.cpp:408] res4d_branch2a -> res4d_branch2a
I0301 20:57:52.179389  6576 net.cpp:150] Setting up res4d_branch2a
I0301 20:57:52.179401  6576 net.cpp:157] Top shape: 8 256 14 14 (401408)
I0301 20:57:52.179404  6576 net.cpp:165] Memory required for data: 1607237664
I0301 20:57:52.179410  6576 layer_factory.hpp:77] Creating layer bn4d_branch2a
I0301 20:57:52.179416  6576 net.cpp:100] Creating Layer bn4d_branch2a
I0301 20:57:52.179420  6576 net.cpp:434] bn4d_branch2a <- res4d_branch2a
I0301 20:57:52.179427  6576 net.cpp:395] bn4d_branch2a -> res4d_branch2a (in-place)
I0301 20:57:52.179607  6576 net.cpp:150] Setting up bn4d_branch2a
I0301 20:57:52.179615  6576 net.cpp:157] Top shape: 8 256 14 14 (401408)
I0301 20:57:52.179618  6576 net.cpp:165] Memory required for data: 1608843296
I0301 20:57:52.179625  6576 layer_factory.hpp:77] Creating layer scale4d_branch2a
I0301 20:57:52.179632  6576 net.cpp:100] Creating Layer scale4d_branch2a
I0301 20:57:52.179636  6576 net.cpp:434] scale4d_branch2a <- res4d_branch2a
I0301 20:57:52.179642  6576 net.cpp:395] scale4d_branch2a -> res4d_branch2a (in-place)
I0301 20:57:52.179684  6576 layer_factory.hpp:77] Creating layer scale4d_branch2a
I0301 20:57:52.179790  6576 net.cpp:150] Setting up scale4d_branch2a
I0301 20:57:52.179797  6576 net.cpp:157] Top shape: 8 256 14 14 (401408)
I0301 20:57:52.179800  6576 net.cpp:165] Memory required for data: 1610448928
I0301 20:57:52.179807  6576 layer_factory.hpp:77] Creating layer res4d_branch2a_relu
I0301 20:57:52.179814  6576 net.cpp:100] Creating Layer res4d_branch2a_relu
I0301 20:57:52.179818  6576 net.cpp:434] res4d_branch2a_relu <- res4d_branch2a
I0301 20:57:52.179822  6576 net.cpp:395] res4d_branch2a_relu -> res4d_branch2a (in-place)
I0301 20:57:52.180243  6576 net.cpp:150] Setting up res4d_branch2a_relu
I0301 20:57:52.180255  6576 net.cpp:157] Top shape: 8 256 14 14 (401408)
I0301 20:57:52.180259  6576 net.cpp:165] Memory required for data: 1612054560
I0301 20:57:52.180263  6576 layer_factory.hpp:77] Creating layer res4d_branch2b
I0301 20:57:52.180272  6576 net.cpp:100] Creating Layer res4d_branch2b
I0301 20:57:52.180276  6576 net.cpp:434] res4d_branch2b <- res4d_branch2a
I0301 20:57:52.180284  6576 net.cpp:408] res4d_branch2b -> res4d_branch2b
I0301 20:57:52.182718  6576 net.cpp:150] Setting up res4d_branch2b
I0301 20:57:52.182734  6576 net.cpp:157] Top shape: 8 256 14 14 (401408)
I0301 20:57:52.182739  6576 net.cpp:165] Memory required for data: 1613660192
I0301 20:57:52.182746  6576 layer_factory.hpp:77] Creating layer bn4d_branch2b
I0301 20:57:52.182752  6576 net.cpp:100] Creating Layer bn4d_branch2b
I0301 20:57:52.182756  6576 net.cpp:434] bn4d_branch2b <- res4d_branch2b
I0301 20:57:52.182763  6576 net.cpp:395] bn4d_branch2b -> res4d_branch2b (in-place)
I0301 20:57:52.182952  6576 net.cpp:150] Setting up bn4d_branch2b
I0301 20:57:52.182960  6576 net.cpp:157] Top shape: 8 256 14 14 (401408)
I0301 20:57:52.182963  6576 net.cpp:165] Memory required for data: 1615265824
I0301 20:57:52.182971  6576 layer_factory.hpp:77] Creating layer scale4d_branch2b
I0301 20:57:52.182977  6576 net.cpp:100] Creating Layer scale4d_branch2b
I0301 20:57:52.182981  6576 net.cpp:434] scale4d_branch2b <- res4d_branch2b
I0301 20:57:52.182987  6576 net.cpp:395] scale4d_branch2b -> res4d_branch2b (in-place)
I0301 20:57:52.183027  6576 layer_factory.hpp:77] Creating layer scale4d_branch2b
I0301 20:57:52.183131  6576 net.cpp:150] Setting up scale4d_branch2b
I0301 20:57:52.183140  6576 net.cpp:157] Top shape: 8 256 14 14 (401408)
I0301 20:57:52.183142  6576 net.cpp:165] Memory required for data: 1616871456
I0301 20:57:52.183151  6576 layer_factory.hpp:77] Creating layer res4d_branch2b_relu
I0301 20:57:52.183156  6576 net.cpp:100] Creating Layer res4d_branch2b_relu
I0301 20:57:52.183166  6576 net.cpp:434] res4d_branch2b_relu <- res4d_branch2b
I0301 20:57:52.183171  6576 net.cpp:395] res4d_branch2b_relu -> res4d_branch2b (in-place)
I0301 20:57:52.183339  6576 net.cpp:150] Setting up res4d_branch2b_relu
I0301 20:57:52.183348  6576 net.cpp:157] Top shape: 8 256 14 14 (401408)
I0301 20:57:52.183352  6576 net.cpp:165] Memory required for data: 1618477088
I0301 20:57:52.183356  6576 layer_factory.hpp:77] Creating layer res4d_branch2c
I0301 20:57:52.183364  6576 net.cpp:100] Creating Layer res4d_branch2c
I0301 20:57:52.183368  6576 net.cpp:434] res4d_branch2c <- res4d_branch2b
I0301 20:57:52.183375  6576 net.cpp:408] res4d_branch2c -> res4d_branch2c
I0301 20:57:52.185310  6576 net.cpp:150] Setting up res4d_branch2c
I0301 20:57:52.185326  6576 net.cpp:157] Top shape: 8 1024 14 14 (1605632)
I0301 20:57:52.185331  6576 net.cpp:165] Memory required for data: 1624899616
I0301 20:57:52.185338  6576 layer_factory.hpp:77] Creating layer bn4d_branch2c
I0301 20:57:52.185344  6576 net.cpp:100] Creating Layer bn4d_branch2c
I0301 20:57:52.185348  6576 net.cpp:434] bn4d_branch2c <- res4d_branch2c
I0301 20:57:52.185355  6576 net.cpp:395] bn4d_branch2c -> res4d_branch2c (in-place)
I0301 20:57:52.185547  6576 net.cpp:150] Setting up bn4d_branch2c
I0301 20:57:52.185555  6576 net.cpp:157] Top shape: 8 1024 14 14 (1605632)
I0301 20:57:52.185559  6576 net.cpp:165] Memory required for data: 1631322144
I0301 20:57:52.185566  6576 layer_factory.hpp:77] Creating layer scale4d_branch2c
I0301 20:57:52.185572  6576 net.cpp:100] Creating Layer scale4d_branch2c
I0301 20:57:52.185576  6576 net.cpp:434] scale4d_branch2c <- res4d_branch2c
I0301 20:57:52.185583  6576 net.cpp:395] scale4d_branch2c -> res4d_branch2c (in-place)
I0301 20:57:52.185621  6576 layer_factory.hpp:77] Creating layer scale4d_branch2c
I0301 20:57:52.185734  6576 net.cpp:150] Setting up scale4d_branch2c
I0301 20:57:52.185741  6576 net.cpp:157] Top shape: 8 1024 14 14 (1605632)
I0301 20:57:52.185745  6576 net.cpp:165] Memory required for data: 1637744672
I0301 20:57:52.185752  6576 layer_factory.hpp:77] Creating layer res4d
I0301 20:57:52.185758  6576 net.cpp:100] Creating Layer res4d
I0301 20:57:52.185762  6576 net.cpp:434] res4d <- res4c_res4c_relu_0_split_1
I0301 20:57:52.185766  6576 net.cpp:434] res4d <- res4d_branch2c
I0301 20:57:52.185773  6576 net.cpp:408] res4d -> res4d
I0301 20:57:52.185797  6576 net.cpp:150] Setting up res4d
I0301 20:57:52.185806  6576 net.cpp:157] Top shape: 8 1024 14 14 (1605632)
I0301 20:57:52.185809  6576 net.cpp:165] Memory required for data: 1644167200
I0301 20:57:52.185813  6576 layer_factory.hpp:77] Creating layer res4d_relu
I0301 20:57:52.185818  6576 net.cpp:100] Creating Layer res4d_relu
I0301 20:57:52.185822  6576 net.cpp:434] res4d_relu <- res4d
I0301 20:57:52.185827  6576 net.cpp:395] res4d_relu -> res4d (in-place)
I0301 20:57:52.185987  6576 net.cpp:150] Setting up res4d_relu
I0301 20:57:52.185997  6576 net.cpp:157] Top shape: 8 1024 14 14 (1605632)
I0301 20:57:52.185999  6576 net.cpp:165] Memory required for data: 1650589728
I0301 20:57:52.186003  6576 layer_factory.hpp:77] Creating layer res4d_res4d_relu_0_split
I0301 20:57:52.186010  6576 net.cpp:100] Creating Layer res4d_res4d_relu_0_split
I0301 20:57:52.186014  6576 net.cpp:434] res4d_res4d_relu_0_split <- res4d
I0301 20:57:52.186022  6576 net.cpp:408] res4d_res4d_relu_0_split -> res4d_res4d_relu_0_split_0
I0301 20:57:52.186028  6576 net.cpp:408] res4d_res4d_relu_0_split -> res4d_res4d_relu_0_split_1
I0301 20:57:52.186067  6576 net.cpp:150] Setting up res4d_res4d_relu_0_split
I0301 20:57:52.186075  6576 net.cpp:157] Top shape: 8 1024 14 14 (1605632)
I0301 20:57:52.186080  6576 net.cpp:157] Top shape: 8 1024 14 14 (1605632)
I0301 20:57:52.186084  6576 net.cpp:165] Memory required for data: 1663434784
I0301 20:57:52.186086  6576 layer_factory.hpp:77] Creating layer res4e_branch2a
I0301 20:57:52.186094  6576 net.cpp:100] Creating Layer res4e_branch2a
I0301 20:57:52.186097  6576 net.cpp:434] res4e_branch2a <- res4d_res4d_relu_0_split_0
I0301 20:57:52.186110  6576 net.cpp:408] res4e_branch2a -> res4e_branch2a
I0301 20:57:52.187211  6576 net.cpp:150] Setting up res4e_branch2a
I0301 20:57:52.187224  6576 net.cpp:157] Top shape: 8 256 14 14 (401408)
I0301 20:57:52.187227  6576 net.cpp:165] Memory required for data: 1665040416
I0301 20:57:52.187234  6576 layer_factory.hpp:77] Creating layer bn4e_branch2a
I0301 20:57:52.187242  6576 net.cpp:100] Creating Layer bn4e_branch2a
I0301 20:57:52.187247  6576 net.cpp:434] bn4e_branch2a <- res4e_branch2a
I0301 20:57:52.187254  6576 net.cpp:395] bn4e_branch2a -> res4e_branch2a (in-place)
I0301 20:57:52.187439  6576 net.cpp:150] Setting up bn4e_branch2a
I0301 20:57:52.187448  6576 net.cpp:157] Top shape: 8 256 14 14 (401408)
I0301 20:57:52.187450  6576 net.cpp:165] Memory required for data: 1666646048
I0301 20:57:52.187458  6576 layer_factory.hpp:77] Creating layer scale4e_branch2a
I0301 20:57:52.187465  6576 net.cpp:100] Creating Layer scale4e_branch2a
I0301 20:57:52.187469  6576 net.cpp:434] scale4e_branch2a <- res4e_branch2a
I0301 20:57:52.187474  6576 net.cpp:395] scale4e_branch2a -> res4e_branch2a (in-place)
I0301 20:57:52.187517  6576 layer_factory.hpp:77] Creating layer scale4e_branch2a
I0301 20:57:52.187623  6576 net.cpp:150] Setting up scale4e_branch2a
I0301 20:57:52.187631  6576 net.cpp:157] Top shape: 8 256 14 14 (401408)
I0301 20:57:52.187635  6576 net.cpp:165] Memory required for data: 1668251680
I0301 20:57:52.187641  6576 layer_factory.hpp:77] Creating layer res4e_branch2a_relu
I0301 20:57:52.187647  6576 net.cpp:100] Creating Layer res4e_branch2a_relu
I0301 20:57:52.187651  6576 net.cpp:434] res4e_branch2a_relu <- res4e_branch2a
I0301 20:57:52.187657  6576 net.cpp:395] res4e_branch2a_relu -> res4e_branch2a (in-place)
I0301 20:57:52.187839  6576 net.cpp:150] Setting up res4e_branch2a_relu
I0301 20:57:52.187849  6576 net.cpp:157] Top shape: 8 256 14 14 (401408)
I0301 20:57:52.187852  6576 net.cpp:165] Memory required for data: 1669857312
I0301 20:57:52.187856  6576 layer_factory.hpp:77] Creating layer res4e_branch2b
I0301 20:57:52.187865  6576 net.cpp:100] Creating Layer res4e_branch2b
I0301 20:57:52.187870  6576 net.cpp:434] res4e_branch2b <- res4e_branch2a
I0301 20:57:52.187877  6576 net.cpp:408] res4e_branch2b -> res4e_branch2b
I0301 20:57:52.190393  6576 net.cpp:150] Setting up res4e_branch2b
I0301 20:57:52.190409  6576 net.cpp:157] Top shape: 8 256 14 14 (401408)
I0301 20:57:52.190414  6576 net.cpp:165] Memory required for data: 1671462944
I0301 20:57:52.190421  6576 layer_factory.hpp:77] Creating layer bn4e_branch2b
I0301 20:57:52.190428  6576 net.cpp:100] Creating Layer bn4e_branch2b
I0301 20:57:52.190431  6576 net.cpp:434] bn4e_branch2b <- res4e_branch2b
I0301 20:57:52.190438  6576 net.cpp:395] bn4e_branch2b -> res4e_branch2b (in-place)
I0301 20:57:52.190629  6576 net.cpp:150] Setting up bn4e_branch2b
I0301 20:57:52.190636  6576 net.cpp:157] Top shape: 8 256 14 14 (401408)
I0301 20:57:52.190640  6576 net.cpp:165] Memory required for data: 1673068576
I0301 20:57:52.190647  6576 layer_factory.hpp:77] Creating layer scale4e_branch2b
I0301 20:57:52.190654  6576 net.cpp:100] Creating Layer scale4e_branch2b
I0301 20:57:52.190657  6576 net.cpp:434] scale4e_branch2b <- res4e_branch2b
I0301 20:57:52.190665  6576 net.cpp:395] scale4e_branch2b -> res4e_branch2b (in-place)
I0301 20:57:52.190704  6576 layer_factory.hpp:77] Creating layer scale4e_branch2b
I0301 20:57:52.190810  6576 net.cpp:150] Setting up scale4e_branch2b
I0301 20:57:52.190819  6576 net.cpp:157] Top shape: 8 256 14 14 (401408)
I0301 20:57:52.190821  6576 net.cpp:165] Memory required for data: 1674674208
I0301 20:57:52.190829  6576 layer_factory.hpp:77] Creating layer res4e_branch2b_relu
I0301 20:57:52.190834  6576 net.cpp:100] Creating Layer res4e_branch2b_relu
I0301 20:57:52.190838  6576 net.cpp:434] res4e_branch2b_relu <- res4e_branch2b
I0301 20:57:52.190845  6576 net.cpp:395] res4e_branch2b_relu -> res4e_branch2b (in-place)
I0301 20:57:52.191012  6576 net.cpp:150] Setting up res4e_branch2b_relu
I0301 20:57:52.191021  6576 net.cpp:157] Top shape: 8 256 14 14 (401408)
I0301 20:57:52.191031  6576 net.cpp:165] Memory required for data: 1676279840
I0301 20:57:52.191035  6576 layer_factory.hpp:77] Creating layer res4e_branch2c
I0301 20:57:52.191045  6576 net.cpp:100] Creating Layer res4e_branch2c
I0301 20:57:52.191048  6576 net.cpp:434] res4e_branch2c <- res4e_branch2b
I0301 20:57:52.191054  6576 net.cpp:408] res4e_branch2c -> res4e_branch2c
I0301 20:57:52.192921  6576 net.cpp:150] Setting up res4e_branch2c
I0301 20:57:52.192935  6576 net.cpp:157] Top shape: 8 1024 14 14 (1605632)
I0301 20:57:52.192961  6576 net.cpp:165] Memory required for data: 1682702368
I0301 20:57:52.192970  6576 layer_factory.hpp:77] Creating layer bn4e_branch2c
I0301 20:57:52.192977  6576 net.cpp:100] Creating Layer bn4e_branch2c
I0301 20:57:52.192982  6576 net.cpp:434] bn4e_branch2c <- res4e_branch2c
I0301 20:57:52.192988  6576 net.cpp:395] bn4e_branch2c -> res4e_branch2c (in-place)
I0301 20:57:52.193223  6576 net.cpp:150] Setting up bn4e_branch2c
I0301 20:57:52.193233  6576 net.cpp:157] Top shape: 8 1024 14 14 (1605632)
I0301 20:57:52.193236  6576 net.cpp:165] Memory required for data: 1689124896
I0301 20:57:52.193259  6576 layer_factory.hpp:77] Creating layer scale4e_branch2c
I0301 20:57:52.193266  6576 net.cpp:100] Creating Layer scale4e_branch2c
I0301 20:57:52.193270  6576 net.cpp:434] scale4e_branch2c <- res4e_branch2c
I0301 20:57:52.193276  6576 net.cpp:395] scale4e_branch2c -> res4e_branch2c (in-place)
I0301 20:57:52.193320  6576 layer_factory.hpp:77] Creating layer scale4e_branch2c
I0301 20:57:52.193459  6576 net.cpp:150] Setting up scale4e_branch2c
I0301 20:57:52.193466  6576 net.cpp:157] Top shape: 8 1024 14 14 (1605632)
I0301 20:57:52.193470  6576 net.cpp:165] Memory required for data: 1695547424
I0301 20:57:52.193478  6576 layer_factory.hpp:77] Creating layer res4e
I0301 20:57:52.193483  6576 net.cpp:100] Creating Layer res4e
I0301 20:57:52.193488  6576 net.cpp:434] res4e <- res4d_res4d_relu_0_split_1
I0301 20:57:52.193492  6576 net.cpp:434] res4e <- res4e_branch2c
I0301 20:57:52.193498  6576 net.cpp:408] res4e -> res4e
I0301 20:57:52.193539  6576 net.cpp:150] Setting up res4e
I0301 20:57:52.193547  6576 net.cpp:157] Top shape: 8 1024 14 14 (1605632)
I0301 20:57:52.193549  6576 net.cpp:165] Memory required for data: 1701969952
I0301 20:57:52.193553  6576 layer_factory.hpp:77] Creating layer res4e_relu
I0301 20:57:52.193559  6576 net.cpp:100] Creating Layer res4e_relu
I0301 20:57:52.193563  6576 net.cpp:434] res4e_relu <- res4e
I0301 20:57:52.193567  6576 net.cpp:395] res4e_relu -> res4e (in-place)
I0301 20:57:52.194034  6576 net.cpp:150] Setting up res4e_relu
I0301 20:57:52.194047  6576 net.cpp:157] Top shape: 8 1024 14 14 (1605632)
I0301 20:57:52.194051  6576 net.cpp:165] Memory required for data: 1708392480
I0301 20:57:52.194056  6576 layer_factory.hpp:77] Creating layer res4e_res4e_relu_0_split
I0301 20:57:52.194063  6576 net.cpp:100] Creating Layer res4e_res4e_relu_0_split
I0301 20:57:52.194068  6576 net.cpp:434] res4e_res4e_relu_0_split <- res4e
I0301 20:57:52.194074  6576 net.cpp:408] res4e_res4e_relu_0_split -> res4e_res4e_relu_0_split_0
I0301 20:57:52.194082  6576 net.cpp:408] res4e_res4e_relu_0_split -> res4e_res4e_relu_0_split_1
I0301 20:57:52.194128  6576 net.cpp:150] Setting up res4e_res4e_relu_0_split
I0301 20:57:52.194135  6576 net.cpp:157] Top shape: 8 1024 14 14 (1605632)
I0301 20:57:52.194140  6576 net.cpp:157] Top shape: 8 1024 14 14 (1605632)
I0301 20:57:52.194144  6576 net.cpp:165] Memory required for data: 1721237536
I0301 20:57:52.194147  6576 layer_factory.hpp:77] Creating layer res4f_branch2a
I0301 20:57:52.194156  6576 net.cpp:100] Creating Layer res4f_branch2a
I0301 20:57:52.194161  6576 net.cpp:434] res4f_branch2a <- res4e_res4e_relu_0_split_0
I0301 20:57:52.194169  6576 net.cpp:408] res4f_branch2a -> res4f_branch2a
I0301 20:57:52.194995  6576 net.cpp:150] Setting up res4f_branch2a
I0301 20:57:52.195006  6576 net.cpp:157] Top shape: 8 256 14 14 (401408)
I0301 20:57:52.195010  6576 net.cpp:165] Memory required for data: 1722843168
I0301 20:57:52.195020  6576 layer_factory.hpp:77] Creating layer bn4f_branch2a
I0301 20:57:52.195029  6576 net.cpp:100] Creating Layer bn4f_branch2a
I0301 20:57:52.195032  6576 net.cpp:434] bn4f_branch2a <- res4f_branch2a
I0301 20:57:52.195037  6576 net.cpp:395] bn4f_branch2a -> res4f_branch2a (in-place)
I0301 20:57:52.195225  6576 net.cpp:150] Setting up bn4f_branch2a
I0301 20:57:52.195232  6576 net.cpp:157] Top shape: 8 256 14 14 (401408)
I0301 20:57:52.195235  6576 net.cpp:165] Memory required for data: 1724448800
I0301 20:57:52.195242  6576 layer_factory.hpp:77] Creating layer scale4f_branch2a
I0301 20:57:52.195250  6576 net.cpp:100] Creating Layer scale4f_branch2a
I0301 20:57:52.195255  6576 net.cpp:434] scale4f_branch2a <- res4f_branch2a
I0301 20:57:52.195260  6576 net.cpp:395] scale4f_branch2a -> res4f_branch2a (in-place)
I0301 20:57:52.195299  6576 layer_factory.hpp:77] Creating layer scale4f_branch2a
I0301 20:57:52.195408  6576 net.cpp:150] Setting up scale4f_branch2a
I0301 20:57:52.195416  6576 net.cpp:157] Top shape: 8 256 14 14 (401408)
I0301 20:57:52.195420  6576 net.cpp:165] Memory required for data: 1726054432
I0301 20:57:52.195426  6576 layer_factory.hpp:77] Creating layer res4f_branch2a_relu
I0301 20:57:52.195433  6576 net.cpp:100] Creating Layer res4f_branch2a_relu
I0301 20:57:52.195437  6576 net.cpp:434] res4f_branch2a_relu <- res4f_branch2a
I0301 20:57:52.195441  6576 net.cpp:395] res4f_branch2a_relu -> res4f_branch2a (in-place)
I0301 20:57:52.195879  6576 net.cpp:150] Setting up res4f_branch2a_relu
I0301 20:57:52.195891  6576 net.cpp:157] Top shape: 8 256 14 14 (401408)
I0301 20:57:52.195895  6576 net.cpp:165] Memory required for data: 1727660064
I0301 20:57:52.195899  6576 layer_factory.hpp:77] Creating layer res4f_branch2b
I0301 20:57:52.195909  6576 net.cpp:100] Creating Layer res4f_branch2b
I0301 20:57:52.195914  6576 net.cpp:434] res4f_branch2b <- res4f_branch2a
I0301 20:57:52.195920  6576 net.cpp:408] res4f_branch2b -> res4f_branch2b
I0301 20:57:52.198426  6576 net.cpp:150] Setting up res4f_branch2b
I0301 20:57:52.198441  6576 net.cpp:157] Top shape: 8 256 14 14 (401408)
I0301 20:57:52.198444  6576 net.cpp:165] Memory required for data: 1729265696
I0301 20:57:52.198451  6576 layer_factory.hpp:77] Creating layer bn4f_branch2b
I0301 20:57:52.198457  6576 net.cpp:100] Creating Layer bn4f_branch2b
I0301 20:57:52.198462  6576 net.cpp:434] bn4f_branch2b <- res4f_branch2b
I0301 20:57:52.198467  6576 net.cpp:395] bn4f_branch2b -> res4f_branch2b (in-place)
I0301 20:57:52.198662  6576 net.cpp:150] Setting up bn4f_branch2b
I0301 20:57:52.198670  6576 net.cpp:157] Top shape: 8 256 14 14 (401408)
I0301 20:57:52.198674  6576 net.cpp:165] Memory required for data: 1730871328
I0301 20:57:52.198681  6576 layer_factory.hpp:77] Creating layer scale4f_branch2b
I0301 20:57:52.198690  6576 net.cpp:100] Creating Layer scale4f_branch2b
I0301 20:57:52.198694  6576 net.cpp:434] scale4f_branch2b <- res4f_branch2b
I0301 20:57:52.198700  6576 net.cpp:395] scale4f_branch2b -> res4f_branch2b (in-place)
I0301 20:57:52.198742  6576 layer_factory.hpp:77] Creating layer scale4f_branch2b
I0301 20:57:52.198851  6576 net.cpp:150] Setting up scale4f_branch2b
I0301 20:57:52.198859  6576 net.cpp:157] Top shape: 8 256 14 14 (401408)
I0301 20:57:52.198863  6576 net.cpp:165] Memory required for data: 1732476960
I0301 20:57:52.198869  6576 layer_factory.hpp:77] Creating layer res4f_branch2b_relu
I0301 20:57:52.198878  6576 net.cpp:100] Creating Layer res4f_branch2b_relu
I0301 20:57:52.198881  6576 net.cpp:434] res4f_branch2b_relu <- res4f_branch2b
I0301 20:57:52.198885  6576 net.cpp:395] res4f_branch2b_relu -> res4f_branch2b (in-place)
I0301 20:57:52.199054  6576 net.cpp:150] Setting up res4f_branch2b_relu
I0301 20:57:52.199064  6576 net.cpp:157] Top shape: 8 256 14 14 (401408)
I0301 20:57:52.199067  6576 net.cpp:165] Memory required for data: 1734082592
I0301 20:57:52.199071  6576 layer_factory.hpp:77] Creating layer res4f_branch2c
I0301 20:57:52.199079  6576 net.cpp:100] Creating Layer res4f_branch2c
I0301 20:57:52.199082  6576 net.cpp:434] res4f_branch2c <- res4f_branch2b
I0301 20:57:52.199095  6576 net.cpp:408] res4f_branch2c -> res4f_branch2c
I0301 20:57:52.201025  6576 net.cpp:150] Setting up res4f_branch2c
I0301 20:57:52.201041  6576 net.cpp:157] Top shape: 8 1024 14 14 (1605632)
I0301 20:57:52.201046  6576 net.cpp:165] Memory required for data: 1740505120
I0301 20:57:52.201053  6576 layer_factory.hpp:77] Creating layer bn4f_branch2c
I0301 20:57:52.201061  6576 net.cpp:100] Creating Layer bn4f_branch2c
I0301 20:57:52.201066  6576 net.cpp:434] bn4f_branch2c <- res4f_branch2c
I0301 20:57:52.201073  6576 net.cpp:395] bn4f_branch2c -> res4f_branch2c (in-place)
I0301 20:57:52.201319  6576 net.cpp:150] Setting up bn4f_branch2c
I0301 20:57:52.201328  6576 net.cpp:157] Top shape: 8 1024 14 14 (1605632)
I0301 20:57:52.201330  6576 net.cpp:165] Memory required for data: 1746927648
I0301 20:57:52.201372  6576 layer_factory.hpp:77] Creating layer scale4f_branch2c
I0301 20:57:52.201380  6576 net.cpp:100] Creating Layer scale4f_branch2c
I0301 20:57:52.201385  6576 net.cpp:434] scale4f_branch2c <- res4f_branch2c
I0301 20:57:52.201390  6576 net.cpp:395] scale4f_branch2c -> res4f_branch2c (in-place)
I0301 20:57:52.201429  6576 layer_factory.hpp:77] Creating layer scale4f_branch2c
I0301 20:57:52.201545  6576 net.cpp:150] Setting up scale4f_branch2c
I0301 20:57:52.201552  6576 net.cpp:157] Top shape: 8 1024 14 14 (1605632)
I0301 20:57:52.201556  6576 net.cpp:165] Memory required for data: 1753350176
I0301 20:57:52.201563  6576 layer_factory.hpp:77] Creating layer res4f
I0301 20:57:52.201570  6576 net.cpp:100] Creating Layer res4f
I0301 20:57:52.201575  6576 net.cpp:434] res4f <- res4e_res4e_relu_0_split_1
I0301 20:57:52.201580  6576 net.cpp:434] res4f <- res4f_branch2c
I0301 20:57:52.201584  6576 net.cpp:408] res4f -> res4f
I0301 20:57:52.201611  6576 net.cpp:150] Setting up res4f
I0301 20:57:52.201617  6576 net.cpp:157] Top shape: 8 1024 14 14 (1605632)
I0301 20:57:52.201620  6576 net.cpp:165] Memory required for data: 1759772704
I0301 20:57:52.201624  6576 layer_factory.hpp:77] Creating layer res4f_relu
I0301 20:57:52.201629  6576 net.cpp:100] Creating Layer res4f_relu
I0301 20:57:52.201633  6576 net.cpp:434] res4f_relu <- res4f
I0301 20:57:52.201639  6576 net.cpp:395] res4f_relu -> res4f (in-place)
I0301 20:57:52.201802  6576 net.cpp:150] Setting up res4f_relu
I0301 20:57:52.201812  6576 net.cpp:157] Top shape: 8 1024 14 14 (1605632)
I0301 20:57:52.201814  6576 net.cpp:165] Memory required for data: 1766195232
I0301 20:57:52.201818  6576 layer_factory.hpp:77] Creating layer res4f_res4f_relu_0_split
I0301 20:57:52.201824  6576 net.cpp:100] Creating Layer res4f_res4f_relu_0_split
I0301 20:57:52.201828  6576 net.cpp:434] res4f_res4f_relu_0_split <- res4f
I0301 20:57:52.201834  6576 net.cpp:408] res4f_res4f_relu_0_split -> res4f_res4f_relu_0_split_0
I0301 20:57:52.201841  6576 net.cpp:408] res4f_res4f_relu_0_split -> res4f_res4f_relu_0_split_1
I0301 20:57:52.201884  6576 net.cpp:150] Setting up res4f_res4f_relu_0_split
I0301 20:57:52.201889  6576 net.cpp:157] Top shape: 8 1024 14 14 (1605632)
I0301 20:57:52.201894  6576 net.cpp:157] Top shape: 8 1024 14 14 (1605632)
I0301 20:57:52.201897  6576 net.cpp:165] Memory required for data: 1779040288
I0301 20:57:52.201900  6576 layer_factory.hpp:77] Creating layer res5a_branch1
I0301 20:57:52.201910  6576 net.cpp:100] Creating Layer res5a_branch1
I0301 20:57:52.201913  6576 net.cpp:434] res5a_branch1 <- res4f_res4f_relu_0_split_0
I0301 20:57:52.201920  6576 net.cpp:408] res5a_branch1 -> res5a_branch1
I0301 20:57:52.206389  6576 net.cpp:150] Setting up res5a_branch1
I0301 20:57:52.206406  6576 net.cpp:157] Top shape: 8 2048 7 7 (802816)
I0301 20:57:52.206410  6576 net.cpp:165] Memory required for data: 1782251552
I0301 20:57:52.206416  6576 layer_factory.hpp:77] Creating layer bn5a_branch1
I0301 20:57:52.206425  6576 net.cpp:100] Creating Layer bn5a_branch1
I0301 20:57:52.206430  6576 net.cpp:434] bn5a_branch1 <- res5a_branch1
I0301 20:57:52.206435  6576 net.cpp:395] bn5a_branch1 -> res5a_branch1 (in-place)
I0301 20:57:52.206650  6576 net.cpp:150] Setting up bn5a_branch1
I0301 20:57:52.206662  6576 net.cpp:157] Top shape: 8 2048 7 7 (802816)
I0301 20:57:52.206666  6576 net.cpp:165] Memory required for data: 1785462816
I0301 20:57:52.206674  6576 layer_factory.hpp:77] Creating layer scale5a_branch1
I0301 20:57:52.206681  6576 net.cpp:100] Creating Layer scale5a_branch1
I0301 20:57:52.206686  6576 net.cpp:434] scale5a_branch1 <- res5a_branch1
I0301 20:57:52.206691  6576 net.cpp:395] scale5a_branch1 -> res5a_branch1 (in-place)
I0301 20:57:52.206733  6576 layer_factory.hpp:77] Creating layer scale5a_branch1
I0301 20:57:52.206849  6576 net.cpp:150] Setting up scale5a_branch1
I0301 20:57:52.206857  6576 net.cpp:157] Top shape: 8 2048 7 7 (802816)
I0301 20:57:52.206861  6576 net.cpp:165] Memory required for data: 1788674080
I0301 20:57:52.206868  6576 layer_factory.hpp:77] Creating layer res5a_branch2a
I0301 20:57:52.206878  6576 net.cpp:100] Creating Layer res5a_branch2a
I0301 20:57:52.206882  6576 net.cpp:434] res5a_branch2a <- res4f_res4f_relu_0_split_1
I0301 20:57:52.206888  6576 net.cpp:408] res5a_branch2a -> res5a_branch2a
I0301 20:57:52.208933  6576 net.cpp:150] Setting up res5a_branch2a
I0301 20:57:52.208976  6576 net.cpp:157] Top shape: 8 512 7 7 (200704)
I0301 20:57:52.208981  6576 net.cpp:165] Memory required for data: 1789476896
I0301 20:57:52.208988  6576 layer_factory.hpp:77] Creating layer bn5a_branch2a
I0301 20:57:52.208997  6576 net.cpp:100] Creating Layer bn5a_branch2a
I0301 20:57:52.209002  6576 net.cpp:434] bn5a_branch2a <- res5a_branch2a
I0301 20:57:52.209008  6576 net.cpp:395] bn5a_branch2a -> res5a_branch2a (in-place)
I0301 20:57:52.209228  6576 net.cpp:150] Setting up bn5a_branch2a
I0301 20:57:52.209237  6576 net.cpp:157] Top shape: 8 512 7 7 (200704)
I0301 20:57:52.209256  6576 net.cpp:165] Memory required for data: 1790279712
I0301 20:57:52.209264  6576 layer_factory.hpp:77] Creating layer scale5a_branch2a
I0301 20:57:52.209285  6576 net.cpp:100] Creating Layer scale5a_branch2a
I0301 20:57:52.209290  6576 net.cpp:434] scale5a_branch2a <- res5a_branch2a
I0301 20:57:52.209295  6576 net.cpp:395] scale5a_branch2a -> res5a_branch2a (in-place)
I0301 20:57:52.209337  6576 layer_factory.hpp:77] Creating layer scale5a_branch2a
I0301 20:57:52.209452  6576 net.cpp:150] Setting up scale5a_branch2a
I0301 20:57:52.209462  6576 net.cpp:157] Top shape: 8 512 7 7 (200704)
I0301 20:57:52.209465  6576 net.cpp:165] Memory required for data: 1791082528
I0301 20:57:52.209472  6576 layer_factory.hpp:77] Creating layer res5a_branch2a_relu
I0301 20:57:52.209478  6576 net.cpp:100] Creating Layer res5a_branch2a_relu
I0301 20:57:52.209482  6576 net.cpp:434] res5a_branch2a_relu <- res5a_branch2a
I0301 20:57:52.209486  6576 net.cpp:395] res5a_branch2a_relu -> res5a_branch2a (in-place)
I0301 20:57:52.209651  6576 net.cpp:150] Setting up res5a_branch2a_relu
I0301 20:57:52.209659  6576 net.cpp:157] Top shape: 8 512 7 7 (200704)
I0301 20:57:52.209663  6576 net.cpp:165] Memory required for data: 1791885344
I0301 20:57:52.209666  6576 layer_factory.hpp:77] Creating layer res5a_branch2b
I0301 20:57:52.209676  6576 net.cpp:100] Creating Layer res5a_branch2b
I0301 20:57:52.209679  6576 net.cpp:434] res5a_branch2b <- res5a_branch2a
I0301 20:57:52.209686  6576 net.cpp:408] res5a_branch2b -> res5a_branch2b
I0301 20:57:52.214560  6576 net.cpp:150] Setting up res5a_branch2b
I0301 20:57:52.214578  6576 net.cpp:157] Top shape: 8 512 7 7 (200704)
I0301 20:57:52.214582  6576 net.cpp:165] Memory required for data: 1792688160
I0301 20:57:52.214589  6576 layer_factory.hpp:77] Creating layer bn5a_branch2b
I0301 20:57:52.214599  6576 net.cpp:100] Creating Layer bn5a_branch2b
I0301 20:57:52.214604  6576 net.cpp:434] bn5a_branch2b <- res5a_branch2b
I0301 20:57:52.214610  6576 net.cpp:395] bn5a_branch2b -> res5a_branch2b (in-place)
I0301 20:57:52.214812  6576 net.cpp:150] Setting up bn5a_branch2b
I0301 20:57:52.214821  6576 net.cpp:157] Top shape: 8 512 7 7 (200704)
I0301 20:57:52.214824  6576 net.cpp:165] Memory required for data: 1793490976
I0301 20:57:52.214833  6576 layer_factory.hpp:77] Creating layer scale5a_branch2b
I0301 20:57:52.214843  6576 net.cpp:100] Creating Layer scale5a_branch2b
I0301 20:57:52.214848  6576 net.cpp:434] scale5a_branch2b <- res5a_branch2b
I0301 20:57:52.214854  6576 net.cpp:395] scale5a_branch2b -> res5a_branch2b (in-place)
I0301 20:57:52.214896  6576 layer_factory.hpp:77] Creating layer scale5a_branch2b
I0301 20:57:52.215013  6576 net.cpp:150] Setting up scale5a_branch2b
I0301 20:57:52.215020  6576 net.cpp:157] Top shape: 8 512 7 7 (200704)
I0301 20:57:52.215023  6576 net.cpp:165] Memory required for data: 1794293792
I0301 20:57:52.215031  6576 layer_factory.hpp:77] Creating layer res5a_branch2b_relu
I0301 20:57:52.215039  6576 net.cpp:100] Creating Layer res5a_branch2b_relu
I0301 20:57:52.215044  6576 net.cpp:434] res5a_branch2b_relu <- res5a_branch2b
I0301 20:57:52.215049  6576 net.cpp:395] res5a_branch2b_relu -> res5a_branch2b (in-place)
I0301 20:57:52.215219  6576 net.cpp:150] Setting up res5a_branch2b_relu
I0301 20:57:52.215227  6576 net.cpp:157] Top shape: 8 512 7 7 (200704)
I0301 20:57:52.215231  6576 net.cpp:165] Memory required for data: 1795096608
I0301 20:57:52.215235  6576 layer_factory.hpp:77] Creating layer res5a_branch2c
I0301 20:57:52.215243  6576 net.cpp:100] Creating Layer res5a_branch2c
I0301 20:57:52.215247  6576 net.cpp:434] res5a_branch2c <- res5a_branch2b
I0301 20:57:52.215253  6576 net.cpp:408] res5a_branch2c -> res5a_branch2c
I0301 20:57:52.218152  6576 net.cpp:150] Setting up res5a_branch2c
I0301 20:57:52.218168  6576 net.cpp:157] Top shape: 8 2048 7 7 (802816)
I0301 20:57:52.218171  6576 net.cpp:165] Memory required for data: 1798307872
I0301 20:57:52.218178  6576 layer_factory.hpp:77] Creating layer bn5a_branch2c
I0301 20:57:52.218186  6576 net.cpp:100] Creating Layer bn5a_branch2c
I0301 20:57:52.218191  6576 net.cpp:434] bn5a_branch2c <- res5a_branch2c
I0301 20:57:52.218197  6576 net.cpp:395] bn5a_branch2c -> res5a_branch2c (in-place)
I0301 20:57:52.218401  6576 net.cpp:150] Setting up bn5a_branch2c
I0301 20:57:52.218410  6576 net.cpp:157] Top shape: 8 2048 7 7 (802816)
I0301 20:57:52.218412  6576 net.cpp:165] Memory required for data: 1801519136
I0301 20:57:52.218420  6576 layer_factory.hpp:77] Creating layer scale5a_branch2c
I0301 20:57:52.218428  6576 net.cpp:100] Creating Layer scale5a_branch2c
I0301 20:57:52.218432  6576 net.cpp:434] scale5a_branch2c <- res5a_branch2c
I0301 20:57:52.218438  6576 net.cpp:395] scale5a_branch2c -> res5a_branch2c (in-place)
I0301 20:57:52.218480  6576 layer_factory.hpp:77] Creating layer scale5a_branch2c
I0301 20:57:52.218602  6576 net.cpp:150] Setting up scale5a_branch2c
I0301 20:57:52.218611  6576 net.cpp:157] Top shape: 8 2048 7 7 (802816)
I0301 20:57:52.218613  6576 net.cpp:165] Memory required for data: 1804730400
I0301 20:57:52.218621  6576 layer_factory.hpp:77] Creating layer res5a
I0301 20:57:52.218626  6576 net.cpp:100] Creating Layer res5a
I0301 20:57:52.218631  6576 net.cpp:434] res5a <- res5a_branch1
I0301 20:57:52.218634  6576 net.cpp:434] res5a <- res5a_branch2c
I0301 20:57:52.218641  6576 net.cpp:408] res5a -> res5a
I0301 20:57:52.218667  6576 net.cpp:150] Setting up res5a
I0301 20:57:52.218673  6576 net.cpp:157] Top shape: 8 2048 7 7 (802816)
…
I0301 20:57:52.347332  6576 net.cpp:493] Sharing parameters 'res4e_branch2a_w' owned by layer 'res4e_branch2a', param index 0
I0301 20:57:52.347337  6576 layer_factory.hpp:77] Creating layer bn4e_branch2a_p
I0301 20:57:52.347344  6576 net.cpp:100] Creating Layer bn4e_branch2a_p
I0301 20:57:52.347349  6576 net.cpp:434] bn4e_branch2a_p <- res4e_branch2a_p
I0301 20:57:52.347354  6576 net.cpp:395] bn4e_branch2a_p -> res4e_branch2a_p (in-place)
I0301 20:57:52.347590  6576 net.cpp:150] Setting up bn4e_branch2a_p
I0301 20:57:52.347599  6576 net.cpp:157] Top shape: 8 256 14 14 (401408)
I0301 20:57:52.347601  6576 net.cpp:165] Memory required for data: 3516465184
I0301 20:57:52.347609  6576 layer_factory.hpp:77] Creating layer scale4e_branch2a_p
I0301 20:57:52.347615  6576 net.cpp:100] Creating Layer scale4e_branch2a_p
I0301 20:57:52.347620  6576 net.cpp:434] scale4e_branch2a_p <- res4e_branch2a_p
I0301 20:57:52.347630  6576 net.cpp:395] scale4e_branch2a_p -> res4e_branch2a_p (in-place)
I0301 20:57:52.347681  6576 layer_factory.hpp:77] Creating layer scale4e_branch2a_p
I0301 20:57:52.347817  6576 net.cpp:150] Setting up scale4e_branch2a_p
I0301 20:57:52.347826  6576 net.cpp:157] Top shape: 8 256 14 14 (401408)
I0301 20:57:52.347829  6576 net.cpp:165] Memory required for data: 3518070816
I0301 20:57:52.347834  6576 net.cpp:493] Sharing parameters 'scale4e_branch2a_alpha' owned by layer 'scale4e_branch2a', param index 0
I0301 20:57:52.347839  6576 net.cpp:493] Sharing parameters 'scale4e_branch2a_beta' owned by layer 'scale4e_branch2a', param index 1
I0301 20:57:52.347843  6576 layer_factory.hpp:77] Creating layer res4e_branch2a_relu_p
I0301 20:57:52.347849  6576 net.cpp:100] Creating Layer res4e_branch2a_relu_p
I0301 20:57:52.347853  6576 net.cpp:434] res4e_branch2a_relu_p <- res4e_branch2a_p
I0301 20:57:52.347857  6576 net.cpp:395] res4e_branch2a_relu_p -> res4e_branch2a_p (in-place)
I0301 20:57:52.348366  6576 net.cpp:150] Setting up res4e_branch2a_relu_p
I0301 20:57:52.348381  6576 net.cpp:157] Top shape: 8 256 14 14 (401408)
I0301 20:57:52.348384  6576 net.cpp:165] Memory required for data: 3519676448
I0301 20:57:52.348388  6576 layer_factory.hpp:77] Creating layer res4e_branch2b_p
I0301 20:57:52.348397  6576 net.cpp:100] Creating Layer res4e_branch2b_p
I0301 20:57:52.348402  6576 net.cpp:434] res4e_branch2b_p <- res4e_branch2a_p
I0301 20:57:52.348408  6576 net.cpp:408] res4e_branch2b_p -> res4e_branch2b_p
I0301 20:57:52.350790  6576 net.cpp:150] Setting up res4e_branch2b_p
I0301 20:57:52.350805  6576 net.cpp:157] Top shape: 8 256 14 14 (401408)
I0301 20:57:52.350809  6576 net.cpp:165] Memory required for data: 3521282080
I0301 20:57:52.350816  6576 net.cpp:493] Sharing parameters 'res4e_branch2b_w' owned by layer 'res4e_branch2b', param index 0
I0301 20:57:52.350821  6576 layer_factory.hpp:77] Creating layer bn4e_branch2b_p
I0301 20:57:52.350828  6576 net.cpp:100] Creating Layer bn4e_branch2b_p
I0301 20:57:52.350832  6576 net.cpp:434] bn4e_branch2b_p <- res4e_branch2b_p
I0301 20:57:52.350838  6576 net.cpp:395] bn4e_branch2b_p -> res4e_branch2b_p (in-place)
I0301 20:57:52.351083  6576 net.cpp:150] Setting up bn4e_branch2b_p
I0301 20:57:52.351091  6576 net.cpp:157] Top shape: 8 256 14 14 (401408)
I0301 20:57:52.351094  6576 net.cpp:165] Memory required for data: 3522887712
I0301 20:57:52.351101  6576 layer_factory.hpp:77] Creating layer scale4e_branch2b_p
I0301 20:57:52.351111  6576 net.cpp:100] Creating Layer scale4e_branch2b_p
I0301 20:57:52.351115  6576 net.cpp:434] scale4e_branch2b_p <- res4e_branch2b_p
I0301 20:57:52.351120  6576 net.cpp:395] scale4e_branch2b_p -> res4e_branch2b_p (in-place)
I0301 20:57:52.351171  6576 layer_factory.hpp:77] Creating layer scale4e_branch2b_p
I0301 20:57:52.351310  6576 net.cpp:150] Setting up scale4e_branch2b_p
I0301 20:57:52.351318  6576 net.cpp:157] Top shape: 8 256 14 14 (401408)
I0301 20:57:52.351321  6576 net.cpp:165] Memory required for data: 3524493344
I0301 20:57:52.351327  6576 net.cpp:493] Sharing parameters 'scale4e_branch2b_alpha' owned by layer 'scale4e_branch2b', param index 0
I0301 20:57:52.351332  6576 net.cpp:493] Sharing parameters 'scale4e_branch2b_beta' owned by layer 'scale4e_branch2b', param index 1
I0301 20:57:52.351336  6576 layer_factory.hpp:77] Creating layer res4e_branch2b_relu_p
I0301 20:57:52.351342  6576 net.cpp:100] Creating Layer res4e_branch2b_relu_p
I0301 20:57:52.351346  6576 net.cpp:434] res4e_branch2b_relu_p <- res4e_branch2b_p
I0301 20:57:52.351352  6576 net.cpp:395] res4e_branch2b_relu_p -> res4e_branch2b_p (in-place)
I0301 20:57:52.351857  6576 net.cpp:150] Setting up res4e_branch2b_relu_p
I0301 20:57:52.351871  6576 net.cpp:157] Top shape: 8 256 14 14 (401408)
I0301 20:57:52.351873  6576 net.cpp:165] Memory required for data: 3526098976
I0301 20:57:52.351877  6576 layer_factory.hpp:77] Creating layer res4e_branch2c_p
I0301 20:57:52.351888  6576 net.cpp:100] Creating Layer res4e_branch2c_p
I0301 20:57:52.351897  6576 net.cpp:434] res4e_branch2c_p <- res4e_branch2b_p
I0301 20:57:52.351904  6576 net.cpp:408] res4e_branch2c_p -> res4e_branch2c_p
I0301 20:57:52.354085  6576 net.cpp:150] Setting up res4e_branch2c_p
I0301 20:57:52.354101  6576 net.cpp:157] Top shape: 8 1024 14 14 (1605632)
I0301 20:57:52.354104  6576 net.cpp:165] Memory required for data: 3532521504
I0301 20:57:52.354110  6576 net.cpp:493] Sharing parameters 'res4e_branch2c_w' owned by layer 'res4e_branch2c', param index 0
I0301 20:57:52.354115  6576 layer_factory.hpp:77] Creating layer bn4e_branch2c_p
I0301 20:57:52.354123  6576 net.cpp:100] Creating Layer bn4e_branch2c_p
I0301 20:57:52.354128  6576 net.cpp:434] bn4e_branch2c_p <- res4e_branch2c_p
I0301 20:57:52.354133  6576 net.cpp:395] bn4e_branch2c_p -> res4e_branch2c_p (in-place)
I0301 20:57:52.354382  6576 net.cpp:150] Setting up bn4e_branch2c_p
I0301 20:57:52.354391  6576 net.cpp:157] Top shape: 8 1024 14 14 (1605632)
I0301 20:57:52.354394  6576 net.cpp:165] Memory required for data: 3538944032
I0301 20:57:52.354403  6576 layer_factory.hpp:77] Creating layer scale4e_branch2c_p
I0301 20:57:52.354409  6576 net.cpp:100] Creating Layer scale4e_branch2c_p
I0301 20:57:52.354413  6576 net.cpp:434] scale4e_branch2c_p <- res4e_branch2c_p
I0301 20:57:52.354418  6576 net.cpp:395] scale4e_branch2c_p -> res4e_branch2c_p (in-place)
I0301 20:57:52.354470  6576 layer_factory.hpp:77] Creating layer scale4e_branch2c_p
I0301 20:57:52.354614  6576 net.cpp:150] Setting up scale4e_branch2c_p
I0301 20:57:52.354624  6576 net.cpp:157] Top shape: 8 1024 14 14 (1605632)
I0301 20:57:52.354626  6576 net.cpp:165] Memory required for data: 3545366560
I0301 20:57:52.354631  6576 net.cpp:493] Sharing parameters 'scale4e_branch2c_alpha' owned by layer 'scale4e_branch2c', param index 0
I0301 20:57:52.354637  6576 net.cpp:493] Sharing parameters 'scale4e_branch2c_beta' owned by layer 'scale4e_branch2c', param index 1
I0301 20:57:52.354642  6576 layer_factory.hpp:77] Creating layer res4e_p
I0301 20:57:52.354647  6576 net.cpp:100] Creating Layer res4e_p
I0301 20:57:52.354651  6576 net.cpp:434] res4e_p <- res4d_p_res4d_relu_p_0_split_1
I0301 20:57:52.354656  6576 net.cpp:434] res4e_p <- res4e_branch2c_p
I0301 20:57:52.354661  6576 net.cpp:408] res4e_p -> res4e_p
I0301 20:57:52.354694  6576 net.cpp:150] Setting up res4e_p
I0301 20:57:52.354701  6576 net.cpp:157] Top shape: 8 1024 14 14 (1605632)
I0301 20:57:52.354704  6576 net.cpp:165] Memory required for data: 3551789088
I0301 20:57:52.354708  6576 layer_factory.hpp:77] Creating layer res4e_relu_p
I0301 20:57:52.354713  6576 net.cpp:100] Creating Layer res4e_relu_p
I0301 20:57:52.354717  6576 net.cpp:434] res4e_relu_p <- res4e_p
I0301 20:57:52.354722  6576 net.cpp:395] res4e_relu_p -> res4e_p (in-place)
I0301 20:57:52.354902  6576 net.cpp:150] Setting up res4e_relu_p
I0301 20:57:52.354910  6576 net.cpp:157] Top shape: 8 1024 14 14 (1605632)
I0301 20:57:52.354914  6576 net.cpp:165] Memory required for data: 3558211616
I0301 20:57:52.354918  6576 layer_factory.hpp:77] Creating layer res4e_p_res4e_relu_p_0_split
I0301 20:57:52.354924  6576 net.cpp:100] Creating Layer res4e_p_res4e_relu_p_0_split
I0301 20:57:52.354928  6576 net.cpp:434] res4e_p_res4e_relu_p_0_split <- res4e_p
I0301 20:57:52.354934  6576 net.cpp:408] res4e_p_res4e_relu_p_0_split -> res4e_p_res4e_relu_p_0_split_0
I0301 20:57:52.354941  6576 net.cpp:408] res4e_p_res4e_relu_p_0_split -> res4e_p_res4e_relu_p_0_split_1
I0301 20:57:52.354993  6576 net.cpp:150] Setting up res4e_p_res4e_relu_p_0_split
I0301 20:57:52.355000  6576 net.cpp:157] Top shape: 8 1024 14 14 (1605632)
I0301 20:57:52.355005  6576 net.cpp:157] Top shape: 8 1024 14 14 (1605632)
I0301 20:57:52.355007  6576 net.cpp:165] Memory required for data: 3571056672
I0301 20:57:52.355011  6576 layer_factory.hpp:77] Creating layer res4f_branch2a_p
I0301 20:57:52.355020  6576 net.cpp:100] Creating Layer res4f_branch2a_p
I0301 20:57:52.355024  6576 net.cpp:434] res4f_branch2a_p <- res4e_p_res4e_relu_p_0_split_0
I0301 20:57:52.355031  6576 net.cpp:408] res4f_branch2a_p -> res4f_branch2a_p
I0301 20:57:52.356356  6576 net.cpp:150] Setting up res4f_branch2a_p
I0301 20:57:52.356370  6576 net.cpp:157] Top shape: 8 256 14 14 (401408)
I0301 20:57:52.356374  6576 net.cpp:165] Memory required for data: 3572662304
I0301 20:57:52.356379  6576 net.cpp:493] Sharing parameters 'res4f_branch2a_w' owned by layer 'res4f_branch2a', param index 0
I0301 20:57:52.356384  6576 layer_factory.hpp:77] Creating layer bn4f_branch2a_p
I0301 20:57:52.356392  6576 net.cpp:100] Creating Layer bn4f_branch2a_p
I0301 20:57:52.356396  6576 net.cpp:434] bn4f_branch2a_p <- res4f_branch2a_p
I0301 20:57:52.356402  6576 net.cpp:395] bn4f_branch2a_p -> res4f_branch2a_p (in-place)
I0301 20:57:52.356647  6576 net.cpp:150] Setting up bn4f_branch2a_p
I0301 20:57:52.356654  6576 net.cpp:157] Top shape: 8 256 14 14 (401408)
I0301 20:57:52.356658  6576 net.cpp:165] Memory required for data: 3574267936
I0301 20:57:52.356665  6576 layer_factory.hpp:77] Creating layer scale4f_branch2a_p
I0301 20:57:52.356673  6576 net.cpp:100] Creating Layer scale4f_branch2a_p
I0301 20:57:52.356678  6576 net.cpp:434] scale4f_branch2a_p <- res4f_branch2a_p
I0301 20:57:52.356683  6576 net.cpp:395] scale4f_branch2a_p -> res4f_branch2a_p (in-place)
I0301 20:57:52.356734  6576 layer_factory.hpp:77] Creating layer scale4f_branch2a_p
I0301 20:57:52.356874  6576 net.cpp:150] Setting up scale4f_branch2a_p
I0301 20:57:52.356883  6576 net.cpp:157] Top shape: 8 256 14 14 (401408)
I0301 20:57:52.356886  6576 net.cpp:165] Memory required for data: 3575873568
I0301 20:57:52.356891  6576 net.cpp:493] Sharing parameters 'scale4f_branch2a_alpha' owned by layer 'scale4f_branch2a', param index 0
I0301 20:57:52.356897  6576 net.cpp:493] Sharing parameters 'scale4f_branch2a_beta' owned by layer 'scale4f_branch2a', param index 1
I0301 20:57:52.356901  6576 layer_factory.hpp:77] Creating layer res4f_branch2a_relu_p
I0301 20:57:52.356909  6576 net.cpp:100] Creating Layer res4f_branch2a_relu_p
I0301 20:57:52.356912  6576 net.cpp:434] res4f_branch2a_relu_p <- res4f_branch2a_p
I0301 20:57:52.356917  6576 net.cpp:395] res4f_branch2a_relu_p -> res4f_branch2a_p (in-place)
I0301 20:57:52.357136  6576 net.cpp:150] Setting up res4f_branch2a_relu_p
I0301 20:57:52.357147  6576 net.cpp:157] Top shape: 8 256 14 14 (401408)
I0301 20:57:52.357152  6576 net.cpp:165] Memory required for data: 3577479200
I0301 20:57:52.357156  6576 layer_factory.hpp:77] Creating layer res4f_branch2b_p
I0301 20:57:52.357165  6576 net.cpp:100] Creating Layer res4f_branch2b_p
I0301 20:57:52.357169  6576 net.cpp:434] res4f_branch2b_p <- res4f_branch2a_p
I0301 20:57:52.357177  6576 net.cpp:408] res4f_branch2b_p -> res4f_branch2b_p
I0301 20:57:52.360229  6576 net.cpp:150] Setting up res4f_branch2b_p
I0301 20:57:52.360244  6576 net.cpp:157] Top shape: 8 256 14 14 (401408)
I0301 20:57:52.360247  6576 net.cpp:165] Memory required for data: 3579084832
I0301 20:57:52.360254  6576 net.cpp:493] Sharing parameters 'res4f_branch2b_w' owned by layer 'res4f_branch2b', param index 0
I0301 20:57:52.360257  6576 layer_factory.hpp:77] Creating layer bn4f_branch2b_p
I0301 20:57:52.360265  6576 net.cpp:100] Creating Layer bn4f_branch2b_p
I0301 20:57:52.360270  6576 net.cpp:434] bn4f_branch2b_p <- res4f_branch2b_p
I0301 20:57:52.360275  6576 net.cpp:395] bn4f_branch2b_p -> res4f_branch2b_p (in-place)
I0301 20:57:52.360524  6576 net.cpp:150] Setting up bn4f_branch2b_p
I0301 20:57:52.360532  6576 net.cpp:157] Top shape: 8 256 14 14 (401408)
I0301 20:57:52.360536  6576 net.cpp:165] Memory required for data: 3580690464
I0301 20:57:52.360543  6576 layer_factory.hpp:77] Creating layer scale4f_branch2b_p
I0301 20:57:52.360553  6576 net.cpp:100] Creating Layer scale4f_branch2b_p
I0301 20:57:52.360558  6576 net.cpp:434] scale4f_branch2b_p <- res4f_branch2b_p
I0301 20:57:52.360563  6576 net.cpp:395] scale4f_branch2b_p -> res4f_branch2b_p (in-place)
I0301 20:57:52.360615  6576 layer_factory.hpp:77] Creating layer scale4f_branch2b_p
I0301 20:57:52.360756  6576 net.cpp:150] Setting up scale4f_branch2b_p
I0301 20:57:52.360764  6576 net.cpp:157] Top shape: 8 256 14 14 (401408)
I0301 20:57:52.360771  6576 net.cpp:165] Memory required for data: 3582296096
I0301 20:57:52.360776  6576 net.cpp:493] Sharing parameters 'scale4f_branch2b_alpha' owned by layer 'scale4f_branch2b', param index 0
I0301 20:57:52.360781  6576 net.cpp:493] Sharing parameters 'scale4f_branch2b_beta' owned by layer 'scale4f_branch2b', param index 1
I0301 20:57:52.360785  6576 layer_factory.hpp:77] Creating layer res4f_branch2b_relu_p
I0301 20:57:52.360792  6576 net.cpp:100] Creating Layer res4f_branch2b_relu_p
I0301 20:57:52.360796  6576 net.cpp:434] res4f_branch2b_relu_p <- res4f_branch2b_p
I0301 20:57:52.360803  6576 net.cpp:395] res4f_branch2b_relu_p -> res4f_branch2b_p (in-place)
I0301 20:57:52.361018  6576 net.cpp:150] Setting up res4f_branch2b_relu_p
I0301 20:57:52.361032  6576 net.cpp:157] Top shape: 8 256 14 14 (401408)
I0301 20:57:52.361035  6576 net.cpp:165] Memory required for data: 3583901728
I0301 20:57:52.361040  6576 layer_factory.hpp:77] Creating layer res4f_branch2c_p
I0301 20:57:52.361050  6576 net.cpp:100] Creating Layer res4f_branch2c_p
I0301 20:57:52.361054  6576 net.cpp:434] res4f_branch2c_p <- res4f_branch2b_p
I0301 20:57:52.361062  6576 net.cpp:408] res4f_branch2c_p -> res4f_branch2c_p
I0301 20:57:52.363253  6576 net.cpp:150] Setting up res4f_branch2c_p
I0301 20:57:52.363268  6576 net.cpp:157] Top shape: 8 1024 14 14 (1605632)
I0301 20:57:52.363271  6576 net.cpp:165] Memory required for data: 3590324256
I0301 20:57:52.363277  6576 net.cpp:493] Sharing parameters 'res4f_branch2c_w' owned by layer 'res4f_branch2c', param index 0
I0301 20:57:52.363282  6576 layer_factory.hpp:77] Creating layer bn4f_branch2c_p
I0301 20:57:52.363291  6576 net.cpp:100] Creating Layer bn4f_branch2c_p
I0301 20:57:52.363294  6576 net.cpp:434] bn4f_branch2c_p <- res4f_branch2c_p
I0301 20:57:52.363301  6576 net.cpp:395] bn4f_branch2c_p -> res4f_branch2c_p (in-place)
I0301 20:57:52.363553  6576 net.cpp:150] Setting up bn4f_branch2c_p
I0301 20:57:52.363560  6576 net.cpp:157] Top shape: 8 1024 14 14 (1605632)
I0301 20:57:52.363564  6576 net.cpp:165] Memory required for data: 3596746784
I0301 20:57:52.363571  6576 layer_factory.hpp:77] Creating layer scale4f_branch2c_p
I0301 20:57:52.363579  6576 net.cpp:100] Creating Layer scale4f_branch2c_p
I0301 20:57:52.363584  6576 net.cpp:434] scale4f_branch2c_p <- res4f_branch2c_p
I0301 20:57:52.363590  6576 net.cpp:395] scale4f_branch2c_p -> res4f_branch2c_p (in-place)
I0301 20:57:52.363639  6576 layer_factory.hpp:77] Creating layer scale4f_branch2c_p
I0301 20:57:52.363786  6576 net.cpp:150] Setting up scale4f_branch2c_p
I0301 20:57:52.363795  6576 net.cpp:157] Top shape: 8 1024 14 14 (1605632)
I0301 20:57:52.363797  6576 net.cpp:165] Memory required for data: 3603169312
I0301 20:57:52.363802  6576 net.cpp:493] Sharing parameters 'scale4f_branch2c_alpha' owned by layer 'scale4f_branch2c', param index 0
I0301 20:57:52.363808  6576 net.cpp:493] Sharing parameters 'scale4f_branch2c_beta' owned by layer 'scale4f_branch2c', param index 1
I0301 20:57:52.363812  6576 layer_factory.hpp:77] Creating layer res4f_p
I0301 20:57:52.363819  6576 net.cpp:100] Creating Layer res4f_p
I0301 20:57:52.363823  6576 net.cpp:434] res4f_p <- res4e_p_res4e_relu_p_0_split_1
I0301 20:57:52.363828  6576 net.cpp:434] res4f_p <- res4f_branch2c_p
I0301 20:57:52.363833  6576 net.cpp:408] res4f_p -> res4f_p
I0301 20:57:52.363867  6576 net.cpp:150] Setting up res4f_p
I0301 20:57:52.363873  6576 net.cpp:157] Top shape: 8 1024 14 14 (1605632)
I0301 20:57:52.363876  6576 net.cpp:165] Memory required for data: 3609591840
I0301 20:57:52.363880  6576 layer_factory.hpp:77] Creating layer res4f_relu_p
I0301 20:57:52.363885  6576 net.cpp:100] Creating Layer res4f_relu_p
I0301 20:57:52.363889  6576 net.cpp:434] res4f_relu_p <- res4f_p
I0301 20:57:52.363896  6576 net.cpp:395] res4f_relu_p -> res4f_p (in-place)
I0301 20:57:52.364069  6576 net.cpp:150] Setting up res4f_relu_p
I0301 20:57:52.364078  6576 net.cpp:157] Top shape: 8 1024 14 14 (1605632)
I0301 20:57:52.364082  6576 net.cpp:165] Memory required for data: 3616014368
I0301 20:57:52.364089  6576 layer_factory.hpp:77] Creating layer res4f_p_res4f_relu_p_0_split
I0301 20:57:52.364096  6576 net.cpp:100] Creating Layer res4f_p_res4f_relu_p_0_split
I0301 20:57:52.364099  6576 net.cpp:434] res4f_p_res4f_relu_p_0_split <- res4f_p
I0301 20:57:52.364106  6576 net.cpp:408] res4f_p_res4f_relu_p_0_split -> res4f_p_res4f_relu_p_0_split_0
I0301 20:57:52.364114  6576 net.cpp:408] res4f_p_res4f_relu_p_0_split -> res4f_p_res4f_relu_p_0_split_1
I0301 20:57:52.364166  6576 net.cpp:150] Setting up res4f_p_res4f_relu_p_0_split
I0301 20:57:52.364173  6576 net.cpp:157] Top shape: 8 1024 14 14 (1605632)
I0301 20:57:52.364178  6576 net.cpp:157] Top shape: 8 1024 14 14 (1605632)
I0301 20:57:52.364181  6576 net.cpp:165] Memory required for data: 3628859424
I0301 20:57:52.364184  6576 layer_factory.hpp:77] Creating layer res5a_branch1_p
I0301 20:57:52.364193  6576 net.cpp:100] Creating Layer res5a_branch1_p
I0301 20:57:52.364197  6576 net.cpp:434] res5a_branch1_p <- res4f_p_res4f_relu_p_0_split_0
I0301 20:57:52.364204  6576 net.cpp:408] res5a_branch1_p -> res5a_branch1_p
I0301 20:57:52.368767  6576 net.cpp:150] Setting up res5a_branch1_p
I0301 20:57:52.368784  6576 net.cpp:157] Top shape: 8 2048 7 7 (802816)
I0301 20:57:52.368788  6576 net.cpp:165] Memory required for data: 3632070688
I0301 20:57:52.368794  6576 net.cpp:493] Sharing parameters 'res5a_branch1_w' owned by layer 'res5a_branch1', param index 0
I0301 20:57:52.368798  6576 layer_factory.hpp:77] Creating layer bn5a_branch1_p
I0301 20:57:52.368806  6576 net.cpp:100] Creating Layer bn5a_branch1_p
I0301 20:57:52.368811  6576 net.cpp:434] bn5a_branch1_p <- res5a_branch1_p
I0301 20:57:52.368816  6576 net.cpp:395] bn5a_branch1_p -> res5a_branch1_p (in-place)
I0301 20:57:52.369127  6576 net.cpp:150] Setting up bn5a_branch1_p
I0301 20:57:52.369138  6576 net.cpp:157] Top shape: 8 2048 7 7 (802816)
I0301 20:57:52.369141  6576 net.cpp:165] Memory required for data: 3635281952
I0301 20:57:52.369149  6576 layer_factory.hpp:77] Creating layer scale5a_branch1_p
I0301 20:57:52.369159  6576 net.cpp:100] Creating Layer scale5a_branch1_p
I0301 20:57:52.369163  6576 net.cpp:434] scale5a_branch1_p <- res5a_branch1_p
I0301 20:57:52.369169  6576 net.cpp:395] scale5a_branch1_p -> res5a_branch1_p (in-place)
I0301 20:57:52.369225  6576 layer_factory.hpp:77] Creating layer scale5a_branch1_p
I0301 20:57:52.369405  6576 net.cpp:150] Setting up scale5a_branch1_p
I0301 20:57:52.369413  6576 net.cpp:157] Top shape: 8 2048 7 7 (802816)
I0301 20:57:52.369417  6576 net.cpp:165] Memory required for data: 3638493216
I0301 20:57:52.369422  6576 net.cpp:493] Sharing parameters 'scale5a_branch1_alpha' owned by layer 'scale5a_branch1', param index 0
I0301 20:57:52.369427  6576 net.cpp:493] Sharing parameters 'scale5a_branch1_beta' owned by layer 'scale5a_branch1', param index 1
I0301 20:57:52.369431  6576 layer_factory.hpp:77] Creating layer res5a_branch2a_p
I0301 20:57:52.369441  6576 net.cpp:100] Creating Layer res5a_branch2a_p
I0301 20:57:52.369444  6576 net.cpp:434] res5a_branch2a_p <- res4f_p_res4f_relu_p_0_split_1
I0301 20:57:52.369451  6576 net.cpp:408] res5a_branch2a_p -> res5a_branch2a_p
I0301 20:57:52.371697  6576 net.cpp:150] Setting up res5a_branch2a_p
I0301 20:57:52.371711  6576 net.cpp:157] Top shape: 8 512 7 7 (200704)
I0301 20:57:52.371716  6576 net.cpp:165] Memory required for data: 3639296032
I0301 20:57:52.371721  6576 net.cpp:493] Sharing parameters 'res5a_branch2a_w' owned by layer 'res5a_branch2a', param index 0
I0301 20:57:52.371726  6576 layer_factory.hpp:77] Creating layer bn5a_branch2a_p
I0301 20:57:52.371733  6576 net.cpp:100] Creating Layer bn5a_branch2a_p
I0301 20:57:52.371738  6576 net.cpp:434] bn5a_branch2a_p <- res5a_branch2a_p
I0301 20:57:52.371744  6576 net.cpp:395] bn5a_branch2a_p -> res5a_branch2a_p (in-place)
I0301 20:57:52.372002  6576 net.cpp:150] Setting up bn5a_branch2a_p
I0301 20:57:52.372011  6576 net.cpp:157] Top shape: 8 512 7 7 (200704)
I0301 20:57:52.372014  6576 net.cpp:165] Memory required for data: 3640098848
I0301 20:57:52.372026  6576 layer_factory.hpp:77] Creating layer scale5a_branch2a_p
I0301 20:57:52.372033  6576 net.cpp:100] Creating Layer scale5a_branch2a_p
I0301 20:57:52.372037  6576 net.cpp:434] scale5a_branch2a_p <- res5a_branch2a_p
I0301 20:57:52.372045  6576 net.cpp:395] scale5a_branch2a_p -> res5a_branch2a_p (in-place)
I0301 20:57:52.372095  6576 layer_factory.hpp:77] Creating layer scale5a_branch2a_p
I0301 20:57:52.372247  6576 net.cpp:150] Setting up scale5a_branch2a_p
I0301 20:57:52.372256  6576 net.cpp:157] Top shape: 8 512 7 7 (200704)
I0301 20:57:52.372259  6576 net.cpp:165] Memory required for data: 3640901664
I0301 20:57:52.372264  6576 net.cpp:493] Sharing parameters 'scale5a_branch2a_alpha' owned by layer 'scale5a_branch2a', param index 0
I0301 20:57:52.372270  6576 net.cpp:493] Sharing parameters 'scale5a_branch2a_beta' owned by layer 'scale5a_branch2a', param index 1
I0301 20:57:52.372274  6576 layer_factory.hpp:77] Creating layer res5a_branch2a_relu_p
I0301 20:57:52.372280  6576 net.cpp:100] Creating Layer res5a_branch2a_relu_p
I0301 20:57:52.372283  6576 net.cpp:434] res5a_branch2a_relu_p <- res5a_branch2a_p
I0301 20:57:52.372288  6576 net.cpp:395] res5a_branch2a_relu_p -> res5a_branch2a_p (in-place)
I0301 20:57:52.372469  6576 net.cpp:150] Setting up res5a_branch2a_relu_p
I0301 20:57:52.372478  6576 net.cpp:157] Top shape: 8 512 7 7 (200704)
I0301 20:57:52.372483  6576 net.cpp:165] Memory required for data: 3641704480
I0301 20:57:52.372485  6576 layer_factory.hpp:77] Creating layer res5a_branch2b_p
I0301 20:57:52.372496  6576 net.cpp:100] Creating Layer res5a_branch2b_p
I0301 20:57:52.372501  6576 net.cpp:434] res5a_branch2b_p <- res5a_branch2a_p
I0301 20:57:52.372508  6576 net.cpp:408] res5a_branch2b_p -> res5a_branch2b_p
I0301 20:57:52.377543  6576 net.cpp:150] Setting up res5a_branch2b_p
I0301 20:57:52.377560  6576 net.cpp:157] Top shape: 8 512 7 7 (200704)
I0301 20:57:52.377565  6576 net.cpp:165] Memory required for data: 3642507296
I0301 20:57:52.377571  6576 net.cpp:493] Sharing parameters 'res5a_branch2b_w' owned by layer 'res5a_branch2b', param index 0
I0301 20:57:52.377575  6576 layer_factory.hpp:77] Creating layer bn5a_branch2b_p
I0301 20:57:52.377583  6576 net.cpp:100] Creating Layer bn5a_branch2b_p
I0301 20:57:52.377589  6576 net.cpp:434] bn5a_branch2b_p <- res5a_branch2b_p
I0301 20:57:52.377594  6576 net.cpp:395] bn5a_branch2b_p -> res5a_branch2b_p (in-place)
I0301 20:57:52.377856  6576 net.cpp:150] Setting up bn5a_branch2b_p
I0301 20:57:52.377864  6576 net.cpp:157] Top shape: 8 512 7 7 (200704)
I0301 20:57:52.377868  6576 net.cpp:165] Memory required for data: 3643310112
I0301 20:57:52.377876  6576 layer_factory.hpp:77] Creating layer scale5a_branch2b_p
I0301 20:57:52.377882  6576 net.cpp:100] Creating Layer scale5a_branch2b_p
I0301 20:57:52.377885  6576 net.cpp:434] scale5a_branch2b_p <- res5a_branch2b_p
I0301 20:57:52.377892  6576 net.cpp:395] scale5a_branch2b_p -> res5a_branch2b_p (in-place)
I0301 20:57:52.377944  6576 layer_factory.hpp:77] Creating layer scale5a_branch2b_p
I0301 20:57:52.378098  6576 net.cpp:150] Setting up scale5a_branch2b_p
I0301 20:57:52.378105  6576 net.cpp:157] Top shape: 8 512 7 7 (200704)
I0301 20:57:52.378109  6576 net.cpp:165] Memory required for data: 3644112928
I0301 20:57:52.378114  6576 net.cpp:493] Sharing parameters 'scale5a_branch2b_alpha' owned by layer 'scale5a_branch2b', param index 0
I0301 20:57:52.378120  6576 net.cpp:493] Sharing parameters 'scale5a_branch2b_beta' owned by layer 'scale5a_branch2b', param index 1
I0301 20:57:52.378123  6576 layer_factory.hpp:77] Creating layer res5a_branch2b_relu_p
I0301 20:57:52.378129  6576 net.cpp:100] Creating Layer res5a_branch2b_relu_p
I0301 20:57:52.378134  6576 net.cpp:434] res5a_branch2b_relu_p <- res5a_branch2b_p
I0301 20:57:52.378139  6576 net.cpp:395] res5a_branch2b_relu_p -> res5a_branch2b_p (in-place)
I0301 20:57:52.378681  6576 net.cpp:150] Setting up res5a_branch2b_relu_p
I0301 20:57:52.378695  6576 net.cpp:157] Top shape: 8 512 7 7 (200704)
I0301 20:57:52.378700  6576 net.cpp:165] Memory required for data: 3644915744
I0301 20:57:52.378707  6576 layer_factory.hpp:77] Creating layer res5a_branch2c_p
I0301 20:57:52.378716  6576 net.cpp:100] Creating Layer res5a_branch2c_p
I0301 20:57:52.378721  6576 net.cpp:434] res5a_branch2c_p <- res5a_branch2b_p
I0301 20:57:52.378728  6576 net.cpp:408] res5a_branch2c_p -> res5a_branch2c_p
I0301 20:57:52.381816  6576 net.cpp:150] Setting up res5a_branch2c_p
I0301 20:57:52.381832  6576 net.cpp:157] Top shape: 8 2048 7 7 (802816)
I0301 20:57:52.381836  6576 net.cpp:165] Memory required for data: 3648127008
I0301 20:57:52.381842  6576 net.cpp:493] Sharing parameters 'res5a_branch2c_w' owned by layer 'res5a_branch2c', param index 0
I0301 20:57:52.381846  6576 layer_factory.hpp:77] Creating layer bn5a_branch2c_p
I0301 20:57:52.381853  6576 net.cpp:100] Creating Layer bn5a_branch2c_p
I0301 20:57:52.381857  6576 net.cpp:434] bn5a_branch2c_p <- res5a_branch2c_p
I0301 20:57:52.381865  6576 net.cpp:395] bn5a_branch2c_p -> res5a_branch2c_p (in-place)
I0301 20:57:52.382129  6576 net.cpp:150] Setting up bn5a_branch2c_p
I0301 20:57:52.382138  6576 net.cpp:157] Top shape: 8 2048 7 7 (802816)
I0301 20:57:52.382141  6576 net.cpp:165] Memory required for data: 3651338272
I0301 20:57:52.382148  6576 layer_factory.hpp:77] Creating layer scale5a_branch2c_p
I0301 20:57:52.382154  6576 net.cpp:100] Creating Layer scale5a_branch2c_p
I0301 20:57:52.382158  6576 net.cpp:434] scale5a_branch2c_p <- res5a_branch2c_p
I0301 20:57:52.382166  6576 net.cpp:395] scale5a_branch2c_p -> res5a_branch2c_p (in-place)
I0301 20:57:52.382220  6576 layer_factory.hpp:77] Creating layer scale5a_branch2c_p
I0301 20:57:52.382375  6576 net.cpp:150] Setting up scale5a_branch2c_p
I0301 20:57:52.382383  6576 net.cpp:157] Top shape: 8 2048 7 7 (802816)
I0301 20:57:52.382386  6576 net.cpp:165] Memory required for data: 3654549536
I0301 20:57:52.382392  6576 net.cpp:493] Sharing parameters 'scale5a_branch2c_alpha' owned by layer 'scale5a_branch2c', param index 0
I0301 20:57:52.382397  6576 net.cpp:493] Sharing parameters 'scale5a_branch2c_beta' owned by layer 'scale5a_branch2c', param index 1
I0301 20:57:52.382400  6576 layer_factory.hpp:77] Creating layer res5a_p
I0301 20:57:52.382408  6576 net.cpp:100] Creating Layer res5a_p
I0301 20:57:52.382412  6576 net.cpp:434] res5a_p <- res5a_branch1_p
I0301 20:57:52.382417  6576 net.cpp:434] res5a_p <- res5a_branch2c_p
I0301 20:57:52.382422  6576 net.cpp:408] res5a_p -> res5a_p
I0301 20:57:52.382457  6576 net.cpp:150] Setting up res5a_p
I0301 20:57:52.382464  6576 net.cpp:157] Top shape: 8 2048 7 7 (802816)
I0301 20:57:52.382467  6576 net.cpp:165] Memory required for data: 3657760800
I0301 20:57:52.382470  6576 layer_factory.hpp:77] Creating layer res5a_relu_p
I0301 20:57:52.382477  6576 net.cpp:100] Creating Layer res5a_relu_p
I0301 20:57:52.382480  6576 net.cpp:434] res5a_relu_p <- res5a_p
I0301 20:57:52.382486  6576 net.cpp:395] res5a_relu_p -> res5a_p (in-place)
I0301 20:57:52.382664  6576 net.cpp:150] Setting up res5a_relu_p
I0301 20:57:52.382674  6576 net.cpp:157] Top shape: 8 2048 7 7 (802816)
I0301 20:57:52.382678  6576 net.cpp:165] Memory required for data: 3660972064
I0301 20:57:52.382681  6576 layer_factory.hpp:77] Creating layer res5a_p_res5a_relu_p_0_split
I0301 20:57:52.382688  6576 net.cpp:100] Creating Layer res5a_p_res5a_relu_p_0_split
I0301 20:57:52.382691  6576 net.cpp:434] res5a_p_res5a_relu_p_0_split <- res5a_p
I0301 20:57:52.382699  6576 net.cpp:408] res5a_p_res5a_relu_p_0_split -> res5a_p_res5a_relu_p_0_split_0
I0301 20:57:52.382705  6576 net.cpp:408] res5a_p_res5a_relu_p_0_split -> res5a_p_res5a_relu_p_0_split_1
I0301 20:57:52.382760  6576 net.cpp:150] Setting up res5a_p_res5a_relu_p_0_split
I0301 20:57:52.382766  6576 net.cpp:157] Top shape: 8 2048 7 7 (802816)
I0301 20:57:52.382771  6576 net.cpp:157] Top shape: 8 2048 7 7 (802816)
I0301 20:57:52.382774  6576 net.cpp:165] Memory required for data: 3667394592
I0301 20:57:52.382777  6576 layer_factory.hpp:77] Creating layer res5b_branch2a_p
I0301 20:57:52.382787  6576 net.cpp:100] Creating Layer res5b_branch2a_p
I0301 20:57:52.382796  6576 net.cpp:434] res5b_branch2a_p <- res5a_p_res5a_relu_p_0_split_0
I0301 20:57:52.382802  6576 net.cpp:408] res5b_branch2a_p -> res5b_branch2a_p
I0301 20:57:52.385865  6576 net.cpp:150] Setting up res5b_branch2a_p
I0301 20:57:52.385880  6576 net.cpp:157] Top shape: 8 512 7 7 (200704)
I0301 20:57:52.385885  6576 net.cpp:165] Memory required for data: 3668197408
I0301 20:57:52.385890  6576 net.cpp:493] Sharing parameters 'res5b_branch2a_w' owned by layer 'res5b_branch2a', param index 0
I0301 20:57:52.385895  6576 layer_factory.hpp:77] Creating layer bn5b_branch2a_p
I0301 20:57:52.385903  6576 net.cpp:100] Creating Layer bn5b_branch2a_p
I0301 20:57:52.385907  6576 net.cpp:434] bn5b_branch2a_p <- res5b_branch2a_p
I0301 20:57:52.385913  6576 net.cpp:395] bn5b_branch2a_p -> res5b_branch2a_p (in-place)
I0301 20:57:52.386173  6576 net.cpp:150] Setting up bn5b_branch2a_p
I0301 20:57:52.386183  6576 net.cpp:157] Top shape: 8 512 7 7 (200704)
I0301 20:57:52.386185  6576 net.cpp:165] Memory required for data: 3669000224
I0301 20:57:52.386193  6576 layer_factory.hpp:77] Creating layer scale5b_branch2a_p
I0301 20:57:52.386200  6576 net.cpp:100] Creating Layer scale5b_branch2a_p
I0301 20:57:52.386205  6576 net.cpp:434] scale5b_branch2a_p <- res5b_branch2a_p
I0301 20:57:52.386210  6576 net.cpp:395] scale5b_branch2a_p -> res5b_branch2a_p (in-place)
I0301 20:57:52.386261  6576 layer_factory.hpp:77] Creating layer scale5b_branch2a_p
I0301 20:57:52.386420  6576 net.cpp:150] Setting up scale5b_branch2a_p
I0301 20:57:52.386427  6576 net.cpp:157] Top shape: 8 512 7 7 (200704)
I0301 20:57:52.386431  6576 net.cpp:165] Memory required for data: 3669803040
I0301 20:57:52.386436  6576 net.cpp:493] Sharing parameters 'scale5b_branch2a_alpha' owned by layer 'scale5b_branch2a', param index 0
I0301 20:57:52.386441  6576 net.cpp:493] Sharing parameters 'scale5b_branch2a_beta' owned by layer 'scale5b_branch2a', param index 1
I0301 20:57:52.386445  6576 layer_factory.hpp:77] Creating layer res5b_branch2a_relu_p
I0301 20:57:52.386451  6576 net.cpp:100] Creating Layer res5b_branch2a_relu_p
I0301 20:57:52.386456  6576 net.cpp:434] res5b_branch2a_relu_p <- res5b_branch2a_p
I0301 20:57:52.386461  6576 net.cpp:395] res5b_branch2a_relu_p -> res5b_branch2a_p (in-place)
I0301 20:57:52.386652  6576 net.cpp:150] Setting up res5b_branch2a_relu_p
I0301 20:57:52.386662  6576 net.cpp:157] Top shape: 8 512 7 7 (200704)
I0301 20:57:52.386665  6576 net.cpp:165] Memory required for data: 3670605856
I0301 20:57:52.386668  6576 layer_factory.hpp:77] Creating layer res5b_branch2b_p
I0301 20:57:52.386677  6576 net.cpp:100] Creating Layer res5b_branch2b_p
I0301 20:57:52.386680  6576 net.cpp:434] res5b_branch2b_p <- res5b_branch2a_p
I0301 20:57:52.386687  6576 net.cpp:408] res5b_branch2b_p -> res5b_branch2b_p
I0301 20:57:52.391659  6576 net.cpp:150] Setting up res5b_branch2b_p
I0301 20:57:52.391679  6576 net.cpp:157] Top shape: 8 512 7 7 (200704)
I0301 20:57:52.391698  6576 net.cpp:165] Memory required for data: 3671408672
I0301 20:57:52.391705  6576 net.cpp:493] Sharing parameters 'res5b_branch2b_w' owned by layer 'res5b_branch2b', param index 0
I0301 20:57:52.391710  6576 layer_factory.hpp:77] Creating layer bn5b_branch2b_p
I0301 20:57:52.391721  6576 net.cpp:100] Creating Layer bn5b_branch2b_p
I0301 20:57:52.391726  6576 net.cpp:434] bn5b_branch2b_p <- res5b_branch2b_p
I0301 20:57:52.391731  6576 net.cpp:395] bn5b_branch2b_p -> res5b_branch2b_p (in-place)
I0301 20:57:52.392024  6576 net.cpp:150] Setting up bn5b_branch2b_p
I0301 20:57:52.392033  6576 net.cpp:157] Top shape: 8 512 7 7 (200704)
I0301 20:57:52.392036  6576 net.cpp:165] Memory required for data: 3672211488
I0301 20:57:52.392043  6576 layer_factory.hpp:77] Creating layer scale5b_branch2b_p
I0301 20:57:52.392052  6576 net.cpp:100] Creating Layer scale5b_branch2b_p
I0301 20:57:52.392056  6576 net.cpp:434] scale5b_branch2b_p <- res5b_branch2b_p
I0301 20:57:52.392061  6576 net.cpp:395] scale5b_branch2b_p -> res5b_branch2b_p (in-place)
I0301 20:57:52.392114  6576 layer_factory.hpp:77] Creating layer scale5b_branch2b_p
I0301 20:57:52.392276  6576 net.cpp:150] Setting up scale5b_branch2b_p
I0301 20:57:52.392284  6576 net.cpp:157] Top shape: 8 512 7 7 (200704)
I0301 20:57:52.392288  6576 net.cpp:165] Memory required for data: 3673014304
I0301 20:57:52.392293  6576 net.cpp:493] Sharing parameters 'scale5b_branch2b_alpha' owned by layer 'scale5b_branch2b', param index 0
I0301 20:57:52.392300  6576 net.cpp:493] Sharing parameters 'scale5b_branch2b_beta' owned by layer 'scale5b_branch2b', param index 1
I0301 20:57:52.392304  6576 layer_factory.hpp:77] Creating layer res5b_branch2b_relu_p
I0301 20:57:52.392310  6576 net.cpp:100] Creating Layer res5b_branch2b_relu_p
I0301 20:57:52.392314  6576 net.cpp:434] res5b_branch2b_relu_p <- res5b_branch2b_p
I0301 20:57:52.392320  6576 net.cpp:395] res5b_branch2b_relu_p -> res5b_branch2b_p (in-place)
I0301 20:57:52.392501  6576 net.cpp:150] Setting up res5b_branch2b_relu_p
I0301 20:57:52.392511  6576 net.cpp:157] Top shape: 8 512 7 7 (200704)
I0301 20:57:52.392514  6576 net.cpp:165] Memory required for data: 3673817120
I0301 20:57:52.392518  6576 layer_factory.hpp:77] Creating layer res5b_branch2c_p
I0301 20:57:52.392529  6576 net.cpp:100] Creating Layer res5b_branch2c_p
I0301 20:57:52.392532  6576 net.cpp:434] res5b_branch2c_p <- res5b_branch2b_p
I0301 20:57:52.392539  6576 net.cpp:408] res5b_branch2c_p -> res5b_branch2c_p
I0301 20:57:52.395794  6576 net.cpp:150] Setting up res5b_branch2c_p
I0301 20:57:52.395810  6576 net.cpp:157] Top shape: 8 2048 7 7 (802816)
I0301 20:57:52.395814  6576 net.cpp:165] Memory required for data: 3677028384
I0301 20:57:52.395820  6576 net.cpp:493] Sharing parameters 'res5b_branch2c_w' owned by layer 'res5b_branch2c', param index 0
I0301 20:57:52.395825  6576 layer_factory.hpp:77] Creating layer bn5b_branch2c_p
I0301 20:57:52.395833  6576 net.cpp:100] Creating Layer bn5b_branch2c_p
I0301 20:57:52.395838  6576 net.cpp:434] bn5b_branch2c_p <- res5b_branch2c_p
I0301 20:57:52.395843  6576 net.cpp:395] bn5b_branch2c_p -> res5b_branch2c_p (in-place)
I0301 20:57:52.396109  6576 net.cpp:150] Setting up bn5b_branch2c_p
I0301 20:57:52.396118  6576 net.cpp:157] Top shape: 8 2048 7 7 (802816)
I0301 20:57:52.396121  6576 net.cpp:165] Memory required for data: 3680239648
I0301 20:57:52.396128  6576 layer_factory.hpp:77] Creating layer scale5b_branch2c_p
I0301 20:57:52.396136  6576 net.cpp:100] Creating Layer scale5b_branch2c_p
I0301 20:57:52.396142  6576 net.cpp:434] scale5b_branch2c_p <- res5b_branch2c_p
I0301 20:57:52.396147  6576 net.cpp:395] scale5b_branch2c_p -> res5b_branch2c_p (in-place)
I0301 20:57:52.396201  6576 layer_factory.hpp:77] Creating layer scale5b_branch2c_p
I0301 20:57:52.396355  6576 net.cpp:150] Setting up scale5b_branch2c_p
I0301 20:57:52.396364  6576 net.cpp:157] Top shape: 8 2048 7 7 (802816)
I0301 20:57:52.396368  6576 net.cpp:165] Memory required for data: 3683450912
I0301 20:57:52.396373  6576 net.cpp:493] Sharing parameters 'scale5b_branch2c_alpha' owned by layer 'scale5b_branch2c', param index 0
I0301 20:57:52.396378  6576 net.cpp:493] Sharing parameters 'scale5b_branch2c_beta' owned by layer 'scale5b_branch2c', param index 1
I0301 20:57:52.396383  6576 layer_factory.hpp:77] Creating layer res5b_p
I0301 20:57:52.396390  6576 net.cpp:100] Creating Layer res5b_p
I0301 20:57:52.396394  6576 net.cpp:434] res5b_p <- res5a_p_res5a_relu_p_0_split_1
I0301 20:57:52.396399  6576 net.cpp:434] res5b_p <- res5b_branch2c_p
I0301 20:57:52.396404  6576 net.cpp:408] res5b_p -> res5b_p
I0301 20:57:52.396438  6576 net.cpp:150] Setting up res5b_p
I0301 20:57:52.396445  6576 net.cpp:157] Top shape: 8 2048 7 7 (802816)
I0301 20:57:52.396450  6576 net.cpp:165] Memory required for data: 3686662176
I0301 20:57:52.396453  6576 layer_factory.hpp:77] Creating layer res5b_relu_p
I0301 20:57:52.396458  6576 net.cpp:100] Creating Layer res5b_relu_p
I0301 20:57:52.396461  6576 net.cpp:434] res5b_relu_p <- res5b_p
I0301 20:57:52.396467  6576 net.cpp:395] res5b_relu_p -> res5b_p (in-place)
I0301 20:57:52.396646  6576 net.cpp:150] Setting up res5b_relu_p
I0301 20:57:52.396656  6576 net.cpp:157] Top shape: 8 2048 7 7 (802816)
I0301 20:57:52.396664  6576 net.cpp:165] Memory required for data: 3689873440
I0301 20:57:52.396668  6576 layer_factory.hpp:77] Creating layer res5b_p_res5b_relu_p_0_split
I0301 20:57:52.396675  6576 net.cpp:100] Creating Layer res5b_p_res5b_relu_p_0_split
I0301 20:57:52.396678  6576 net.cpp:434] res5b_p_res5b_relu_p_0_split <- res5b_p
I0301 20:57:52.396685  6576 net.cpp:408] res5b_p_res5b_relu_p_0_split -> res5b_p_res5b_relu_p_0_split_0
I0301 20:57:52.396692  6576 net.cpp:408] res5b_p_res5b_relu_p_0_split -> res5b_p_res5b_relu_p_0_split_1
I0301 20:57:52.396749  6576 net.cpp:150] Setting up res5b_p_res5b_relu_p_0_split
I0301 20:57:52.396755  6576 net.cpp:157] Top shape: 8 2048 7 7 (802816)
I0301 20:57:52.396759  6576 net.cpp:157] Top shape: 8 2048 7 7 (802816)
I0301 20:57:52.396764  6576 net.cpp:165] Memory required for data: 3696295968
I0301 20:57:52.396766  6576 layer_factory.hpp:77] Creating layer res5c_branch2a_p
I0301 20:57:52.396775  6576 net.cpp:100] Creating Layer res5c_branch2a_p
I0301 20:57:52.396780  6576 net.cpp:434] res5c_branch2a_p <- res5b_p_res5b_relu_p_0_split_0
I0301 20:57:52.396788  6576 net.cpp:408] res5c_branch2a_p -> res5c_branch2a_p
I0301 20:57:52.399894  6576 net.cpp:150] Setting up res5c_branch2a_p
I0301 20:57:52.399909  6576 net.cpp:157] Top shape: 8 512 7 7 (200704)
I0301 20:57:52.399914  6576 net.cpp:165] Memory required for data: 3697098784
I0301 20:57:52.399919  6576 net.cpp:493] Sharing parameters 'res5c_branch2a_w' owned by layer 'res5c_branch2a', param index 0
I0301 20:57:52.399924  6576 layer_factory.hpp:77] Creating layer bn5c_branch2a_p
I0301 20:57:52.399932  6576 net.cpp:100] Creating Layer bn5c_branch2a_p
I0301 20:57:52.399936  6576 net.cpp:434] bn5c_branch2a_p <- res5c_branch2a_p
I0301 20:57:52.399943  6576 net.cpp:395] bn5c_branch2a_p -> res5c_branch2a_p (in-place)
I0301 20:57:52.400205  6576 net.cpp:150] Setting up bn5c_branch2a_p
I0301 20:57:52.400213  6576 net.cpp:157] Top shape: 8 512 7 7 (200704)
I0301 20:57:52.400218  6576 net.cpp:165] Memory required for data: 3697901600
I0301 20:57:52.400224  6576 layer_factory.hpp:77] Creating layer scale5c_branch2a_p
I0301 20:57:52.400233  6576 net.cpp:100] Creating Layer scale5c_branch2a_p
I0301 20:57:52.400236  6576 net.cpp:434] scale5c_branch2a_p <- res5c_branch2a_p
I0301 20:57:52.400243  6576 net.cpp:395] scale5c_branch2a_p -> res5c_branch2a_p (in-place)
I0301 20:57:52.400295  6576 layer_factory.hpp:77] Creating layer scale5c_branch2a_p
I0301 20:57:52.400452  6576 net.cpp:150] Setting up scale5c_branch2a_p
I0301 20:57:52.400460  6576 net.cpp:157] Top shape: 8 512 7 7 (200704)
I0301 20:57:52.400465  6576 net.cpp:165] Memory required for data: 3698704416
I0301 20:57:52.400470  6576 net.cpp:493] Sharing parameters 'scale5c_branch2a_alpha' owned by layer 'scale5c_branch2a', param index 0
I0301 20:57:52.400475  6576 net.cpp:493] Sharing parameters 'scale5c_branch2a_beta' owned by layer 'scale5c_branch2a', param index 1
I0301 20:57:52.400478  6576 layer_factory.hpp:77] Creating layer res5c_branch2a_relu_p
I0301 20:57:52.400485  6576 net.cpp:100] Creating Layer res5c_branch2a_relu_p
I0301 20:57:52.400487  6576 net.cpp:434] res5c_branch2a_relu_p <- res5c_branch2a_p
I0301 20:57:52.400494  6576 net.cpp:395] res5c_branch2a_relu_p -> res5c_branch2a_p (in-place)
I0301 20:57:52.400674  6576 net.cpp:150] Setting up res5c_branch2a_relu_p
I0301 20:57:52.400683  6576 net.cpp:157] Top shape: 8 512 7 7 (200704)
I0301 20:57:52.400687  6576 net.cpp:165] Memory required for data: 3699507232
I0301 20:57:52.400691  6576 layer_factory.hpp:77] Creating layer res5c_branch2b_p
I0301 20:57:52.400701  6576 net.cpp:100] Creating Layer res5c_branch2b_p
I0301 20:57:52.400704  6576 net.cpp:434] res5c_branch2b_p <- res5c_branch2a_p
I0301 20:57:52.400712  6576 net.cpp:408] res5c_branch2b_p -> res5c_branch2b_p
I0301 20:57:52.406090  6576 net.cpp:150] Setting up res5c_branch2b_p
I0301 20:57:52.406108  6576 net.cpp:157] Top shape: 8 512 7 7 (200704)
I0301 20:57:52.406112  6576 net.cpp:165] Memory required for data: 3700310048
I0301 20:57:52.406124  6576 net.cpp:493] Sharing parameters 'res5c_branch2b_w' owned by layer 'res5c_branch2b', param index 0
I0301 20:57:52.406129  6576 layer_factory.hpp:77] Creating layer bn5c_branch2b_p
I0301 20:57:52.406138  6576 net.cpp:100] Creating Layer bn5c_branch2b_p
I0301 20:57:52.406143  6576 net.cpp:434] bn5c_branch2b_p <- res5c_branch2b_p
I0301 20:57:52.406150  6576 net.cpp:395] bn5c_branch2b_p -> res5c_branch2b_p (in-place)
I0301 20:57:52.406419  6576 net.cpp:150] Setting up bn5c_branch2b_p
I0301 20:57:52.406427  6576 net.cpp:157] Top shape: 8 512 7 7 (200704)
I0301 20:57:52.406430  6576 net.cpp:165] Memory required for data: 3701112864
I0301 20:57:52.406438  6576 layer_factory.hpp:77] Creating layer scale5c_branch2b_p
I0301 20:57:52.406446  6576 net.cpp:100] Creating Layer scale5c_branch2b_p
I0301 20:57:52.406450  6576 net.cpp:434] scale5c_branch2b_p <- res5c_branch2b_p
I0301 20:57:52.406455  6576 net.cpp:395] scale5c_branch2b_p -> res5c_branch2b_p (in-place)
I0301 20:57:52.406508  6576 layer_factory.hpp:77] Creating layer scale5c_branch2b_p
I0301 20:57:52.406667  6576 net.cpp:150] Setting up scale5c_branch2b_p
I0301 20:57:52.406675  6576 net.cpp:157] Top shape: 8 512 7 7 (200704)
I0301 20:57:52.406679  6576 net.cpp:165] Memory required for data: 3701915680
I0301 20:57:52.406684  6576 net.cpp:493] Sharing parameters 'scale5c_branch2b_alpha' owned by layer 'scale5c_branch2b', param index 0
I0301 20:57:52.406690  6576 net.cpp:493] Sharing parameters 'scale5c_branch2b_beta' owned by layer 'scale5c_branch2b', param index 1
I0301 20:57:52.406694  6576 layer_factory.hpp:77] Creating layer res5c_branch2b_relu_p
I0301 20:57:52.406699  6576 net.cpp:100] Creating Layer res5c_branch2b_relu_p
I0301 20:57:52.406703  6576 net.cpp:434] res5c_branch2b_relu_p <- res5c_branch2b_p
I0301 20:57:52.406710  6576 net.cpp:395] res5c_branch2b_relu_p -> res5c_branch2b_p (in-place)
I0301 20:57:52.407255  6576 net.cpp:150] Setting up res5c_branch2b_relu_p
I0301 20:57:52.407269  6576 net.cpp:157] Top shape: 8 512 7 7 (200704)
I0301 20:57:52.407274  6576 net.cpp:165] Memory required for data: 3702718496
I0301 20:57:52.407277  6576 layer_factory.hpp:77] Creating layer res5c_branch2c_p
I0301 20:57:52.407287  6576 net.cpp:100] Creating Layer res5c_branch2c_p
I0301 20:57:52.407292  6576 net.cpp:434] res5c_branch2c_p <- res5c_branch2b_p
I0301 20:57:52.407299  6576 net.cpp:408] res5c_branch2c_p -> res5c_branch2c_p
I0301 20:57:52.410459  6576 net.cpp:150] Setting up res5c_branch2c_p
I0301 20:57:52.410473  6576 net.cpp:157] Top shape: 8 2048 7 7 (802816)
I0301 20:57:52.410477  6576 net.cpp:165] Memory required for data: 3705929760
I0301 20:57:52.410483  6576 net.cpp:493] Sharing parameters 'res5c_branch2c_w' owned by layer 'res5c_branch2c', param index 0
I0301 20:57:52.410488  6576 layer_factory.hpp:77] Creating layer bn5c_branch2c_p
I0301 20:57:52.410496  6576 net.cpp:100] Creating Layer bn5c_branch2c_p
I0301 20:57:52.410501  6576 net.cpp:434] bn5c_branch2c_p <- res5c_branch2c_p
I0301 20:57:52.410506  6576 net.cpp:395] bn5c_branch2c_p -> res5c_branch2c_p (in-place)
I0301 20:57:52.410773  6576 net.cpp:150] Setting up bn5c_branch2c_p
I0301 20:57:52.410781  6576 net.cpp:157] Top shape: 8 2048 7 7 (802816)
I0301 20:57:52.410785  6576 net.cpp:165] Memory required for data: 3709141024
I0301 20:57:52.410792  6576 layer_factory.hpp:77] Creating layer scale5c_branch2c_p
I0301 20:57:52.410799  6576 net.cpp:100] Creating Layer scale5c_branch2c_p
I0301 20:57:52.410802  6576 net.cpp:434] scale5c_branch2c_p <- res5c_branch2c_p
I0301 20:57:52.410809  6576 net.cpp:395] scale5c_branch2c_p -> res5c_branch2c_p (in-place)
I0301 20:57:52.410864  6576 layer_factory.hpp:77] Creating layer scale5c_branch2c_p
I0301 20:57:52.411022  6576 net.cpp:150] Setting up scale5c_branch2c_p
I0301 20:57:52.411031  6576 net.cpp:157] Top shape: 8 2048 7 7 (802816)
I0301 20:57:52.411033  6576 net.cpp:165] Memory required for data: 3712352288
I0301 20:57:52.411038  6576 net.cpp:493] Sharing parameters 'scale5c_branch2c_alpha' owned by layer 'scale5c_branch2c', param index 0
I0301 20:57:52.411049  6576 net.cpp:493] Sharing parameters 'scale5c_branch2c_beta' owned by layer 'scale5c_branch2c', param index 1
I0301 20:57:52.411053  6576 layer_factory.hpp:77] Creating layer res5c_p
I0301 20:57:52.411059  6576 net.cpp:100] Creating Layer res5c_p
I0301 20:57:52.411064  6576 net.cpp:434] res5c_p <- res5b_p_res5b_relu_p_0_split_1
I0301 20:57:52.411069  6576 net.cpp:434] res5c_p <- res5c_branch2c_p
I0301 20:57:52.411074  6576 net.cpp:408] res5c_p -> res5c_p
I0301 20:57:52.411109  6576 net.cpp:150] Setting up res5c_p
I0301 20:57:52.411116  6576 net.cpp:157] Top shape: 8 2048 7 7 (802816)
I0301 20:57:52.411120  6576 net.cpp:165] Memory required for data: 3715563552
I0301 20:57:52.411123  6576 layer_factory.hpp:77] Creating layer res5c_relu_p
I0301 20:57:52.411129  6576 net.cpp:100] Creating Layer res5c_relu_p
I0301 20:57:52.411132  6576 net.cpp:434] res5c_relu_p <- res5c_p
I0301 20:57:52.411137  6576 net.cpp:395] res5c_relu_p -> res5c_p (in-place)
I0301 20:57:52.411324  6576 net.cpp:150] Setting up res5c_relu_p
I0301 20:57:52.411334  6576 net.cpp:157] Top shape: 8 2048 7 7 (802816)
I0301 20:57:52.411336  6576 net.cpp:165] Memory required for data: 3718774816
I0301 20:57:52.411340  6576 layer_factory.hpp:77] Creating layer pool_p
I0301 20:57:52.411347  6576 net.cpp:100] Creating Layer pool_p
I0301 20:57:52.411351  6576 net.cpp:434] pool_p <- res5c_p
I0301 20:57:52.411358  6576 net.cpp:408] pool_p -> pool_p
I0301 20:57:52.411561  6576 net.cpp:150] Setting up pool_p
I0301 20:57:52.411571  6576 net.cpp:157] Top shape: 8 2048 1 1 (16384)
I0301 20:57:52.411574  6576 net.cpp:165] Memory required for data: 3718840352
I0301 20:57:52.411578  6576 layer_factory.hpp:77] Creating layer ip1_p
I0301 20:57:52.411587  6576 net.cpp:100] Creating Layer ip1_p
I0301 20:57:52.411592  6576 net.cpp:434] ip1_p <- pool_p
I0301 20:57:52.411598  6576 net.cpp:408] ip1_p -> ip1_p
I0301 20:57:52.418223  6576 net.cpp:150] Setting up ip1_p
I0301 20:57:52.418238  6576 net.cpp:157] Top shape: 8 512 (4096)
I0301 20:57:52.418242  6576 net.cpp:165] Memory required for data: 3718856736
I0301 20:57:52.418247  6576 net.cpp:493] Sharing parameters 'ip1_w' owned by layer 'ip1', param index 0
I0301 20:57:52.418252  6576 net.cpp:493] Sharing parameters 'ip1_b' owned by layer 'ip1', param index 1
I0301 20:57:52.418256  6576 layer_factory.hpp:77] Creating layer relu1_p
I0301 20:57:52.418262  6576 net.cpp:100] Creating Layer relu1_p
I0301 20:57:52.418267  6576 net.cpp:434] relu1_p <- ip1_p
I0301 20:57:52.418273  6576 net.cpp:395] relu1_p -> ip1_p (in-place)
I0301 20:57:52.418467  6576 net.cpp:150] Setting up relu1_p
I0301 20:57:52.418475  6576 net.cpp:157] Top shape: 8 512 (4096)
I0301 20:57:52.418478  6576 net.cpp:165] Memory required for data: 3718873120
I0301 20:57:52.418483  6576 layer_factory.hpp:77] Creating layer ip2_p
I0301 20:57:52.418490  6576 net.cpp:100] Creating Layer ip2_p
I0301 20:57:52.418494  6576 net.cpp:434] ip2_p <- ip1_p
I0301 20:57:52.418500  6576 net.cpp:408] ip2_p -> ip2_p
I0301 20:57:52.419921  6576 net.cpp:150] Setting up ip2_p
I0301 20:57:52.419930  6576 net.cpp:157] Top shape: 8 512 (4096)
I0301 20:57:52.419934  6576 net.cpp:165] Memory required for data: 3718889504
I0301 20:57:52.419939  6576 net.cpp:493] Sharing parameters 'ip2_w' owned by layer 'ip2', param index 0
I0301 20:57:52.419944  6576 net.cpp:493] Sharing parameters 'ip2_b' owned by layer 'ip2', param index 1
I0301 20:57:52.419947  6576 layer_factory.hpp:77] Creating layer feat_p
I0301 20:57:52.419953  6576 net.cpp:100] Creating Layer feat_p
I0301 20:57:52.419956  6576 net.cpp:434] feat_p <- ip2_p
I0301 20:57:52.419966  6576 net.cpp:408] feat_p -> feat_p
I0301 20:57:52.422251  6576 net.cpp:150] Setting up feat_p
I0301 20:57:52.422266  6576 net.cpp:157] Top shape: 8 512 (4096)
I0301 20:57:52.422269  6576 net.cpp:165] Memory required for data: 3718905888
I0301 20:57:52.422273  6576 net.cpp:493] Sharing parameters 'feat_w' owned by layer 'feat', param index 0
I0301 20:57:52.422278  6576 net.cpp:493] Sharing parameters 'feat_b' owned by layer 'feat', param index 1
I0301 20:57:52.422287  6576 layer_factory.hpp:77] Creating layer loss
I0301 20:57:52.422294  6576 net.cpp:100] Creating Layer loss
…
