…
I0302 13:10:14.188345 20068 upgrade_proto.cpp:77] Attempting to upgrade batch norm layers using deprecated params: ../merge_models/res50_train_multiprocess.prototxt
I0302 13:10:14.188369 20068 upgrade_proto.cpp:80] Successfully upgraded batch norm layers using deprecated params.
I0302 13:10:14.190829 20068 net.cpp:58] Initializing net from parameters: 
name: "ResNet-50"
state {
  phase: TRAIN
}
layer {
  name: "data"
  type: "MemoryData"
  top: "pairs"
  top: "label"
  memory_data_param {
    batch_size: 8
    channels: 6
    height: 224
    width: 224
  }
}
layer {
  name: "slice"
  type: "Slice"
  bottom: "pairs"
  top: "data"
  top: "data_p"
  slice_param {
    slice_point: 3
    axis: 1
  }
}
layer {
  name: "conv1"
  type: "Convolution"
  bottom: "data"
  top: "conv1"
  param {
    name: "conv1_w"
    lr_mult: 1
  }
  param {
    name: "conv1_b"
    lr_mult: 2
  }
  convolution_param {
    num_output: 64
    pad: 3
    kernel_size: 7
    stride: 2
  }
}
layer {
  name: "bn_conv1"
  type: "BatchNorm"
  bottom: "conv1"
  top: "conv1"
  batch_norm_param {
    use_global_stats: false
  }
}
layer {
  name: "scale_conv1"
  type: "Scale"
  bottom: "conv1"
  top: "conv1"
  param {
    name: "scale_conv1_alpha"
  }
  param {
    name: "scale_conv1_beta"
  }
  scale_param {
    bias_term: true
  }
}
layer {
  name: "conv1_relu"
  type: "ReLU"
  bottom: "conv1"
  top: "conv1"
}
layer {
  name: "pool1"
  type: "Pooling"
  bottom: "conv1"
  top: "pool1"
  pooling_param {
    pool: MAX
    kernel_size: 3
    stride: 2
  }
}
layer {
  name: "res2a_branch1"
  type: "Convolution"
  bottom: "pool1"
  top: "res2a_branch1"
  param {
    name: "res2a_branch1_w"
    lr_mult: 1
  }
  convolution_param {
    num_output: 256
    bias_term: false
    pad: 0
    kernel_size: 1
    stride: 1
  }
}
layer {
  name: "bn2a_branch1"
  type: "BatchNorm"
  bottom: "res2a_branch1"
  top: "res2a_branch1"
  batch_norm_param {
    use_global_stats: false
  }
}
layer {
  name: "scale2a_branch1"
  type: "Scale"
  bottom: "res2a_branch1"
  top: "res2a_branch1"
  param {
    name: "scale2a_branch1_alpha"
  }
  param {
    name: "scale2a_branch1_beta"
  }
  scale_param {
    bias_term: true
  }
}
layer {
  name: "res2a_branch2a"
  type: "Convolution"
  bottom: "pool1"
  top: "res2a_branch2a"
  param {
    name: "res2a_branch2a_w"
    lr_mult: 1
  }
  convolution_param {
    num_output: 64
    bias_term: false
    pad: 0
    kernel_size: 1
    stride: 1
  }
}
layer {
  name: "bn2a_branch2a"
  type: "BatchNorm"
  bottom: "res2a_branch2a"
  top: "res2a_branch2a"
  batch_norm_param {
    use_global_stats: false
  }
}
layer {
  name: "scale2a_branch2a"
  type: "Scale"
  bottom: "res2a_branch2a"
  top: "res2a_branch2a"
  param {
    name: "scale2a_branch2a_alpha"
  }
  param {
    name: "scale2a_branch2a_beta"
  }
  scale_param {
    bias_term: true
  }
}
layer {
  name: "res2a_branch2a_relu"
  type: "ReLU"
  bottom: "res2a_branch2a"
  top: "res2a_branch2a"
}
layer {
  name: "res2a_branch2b"
  type: "Convolution"
  bottom: "res2a_branch2a"
  top: "res2a_branch2b"
  param {
    name: "res2a_branch2b_w"
    lr_mult: 1
  }
  convolution_param {
    num_output: 64
    bias_term: false
    pad: 1
    kernel_size: 3
    stride: 1
  }
}
layer {
  name: "bn2a_branch2b"
  type: "BatchNorm"
  bottom: "res2a_branch2b"
  top: "res2a_branch2b"
  batch_norm_param {
    use_global_stats: false
  }
}
layer {
  name: "scale2a_branch2b"
  type: "Scale"
  bottom: "res2a_branch2b"
  top: "res2a_branch2b"
  param {
    name: "scale2a_branch2b_alpha"
  }
  param {
    name: "scale2a_branch2b_beta"
  }
  scale_param {
    bias_term: true
  }
}
layer {
  name: "res2a_branch2b_relu"
  type: "ReLU"
  bottom: "res2a_branch2b"
  top: "res2a_branch2b"
}
layer {
  name: "res2a_branch2c"
  type: "Convolution"
  bottom: "res2a_branch2b"
  top: "res2a_branch2c"
  param {
    name: "res2a_branch2c_w"
    lr_mult: 1
  }
  convolution_param {
    num_output: 256
    bias_term: false
    pad: 0
    kernel_size: 1
    stride: 1
  }
}
layer {
  name: "bn2a_branch2c"
  type: "BatchNorm"
  bottom: "res2a_branch2c"
  top: "res2a_branch2c"
  batch_norm_param {
    use_global_stats: false
  }
}
layer {
  name: "scale2a_branch2c"
  type: "Scale"
  bottom: "res2a_branch2c"
  top: "res2a_branch2c"
  param {
    name: "scale2a_branch2c_alpha"
  }
  param {
    name: "scale2a_branch2c_beta"
  }
  scale_param {
    bias_term: true
  }
}
layer {
  name: "res2a"
  type: "Eltwise"
  bottom: "res2a_branch1"
  bottom: "res2a_branch2c"
  top: "res2a"
}
layer {
  name: "res2a_relu"
  type: "ReLU"
  bottom: "res2a"
  top: "res2a"
}
layer {
  name: "res2b_branch2a"
  type: "Convolution"
  bottom: "res2a"
  top: "res2b_branch2a"
  param {
    name: "res2b_branch2a_w"
    lr_mult: 1
  }
  convolution_param {
    num_output: 64
    bias_term: false
    pad: 0
    kernel_size: 1
    stride: 1
  }
}
layer {
  name: "bn2b_branch2a"
  type: "BatchNorm"
  bottom: "res2b_branch2a"
  top: "res2b_branch2a"
  batch_norm_param {
    use_global_stats: false
  }
}
layer {
  name: "scale2b_branch2a"
  type: "Scale"
  bottom: "res2b_branch2a"
  top: "res2b_branch2a"
  param {
    name: "scale2b_branch2a_alpha"
  }
  param {
    name: "scale2b_branch2a_beta"
  }
  scale_param {
    bias_term: true
  }
}
layer {
  name: "res2b_branch2a_relu"
  type: "ReLU"
  bottom: "res2b_branch2a"
  top: "res2b_branch2a"
}
layer {
  name: "res2b_branch2b"
  type: "Convolution"
  bottom: "res2b_branch2a"
  top: "res2b_branch2b"
  param {
    name: "res2b_branch2b_w"
    lr_mult: 1
  }
  convolution_param {
    num_output: 64
    bias_term: false
    pad: 1
    kernel_size: 3
    stride: 1
  }
}
layer {
  name: "bn2b_branch2b"
  type: "BatchNorm"
  bottom: "res2b_branch2b"
  top: "res2b_branch2b"
  batch_norm_param {
    use_global_stats: false
  }
}
layer {
  name: "scale2b_branch2b"
  type: "Scale"
  bottom: "res2b_branch2b"
  top: "res2b_branch2b"
  param {
    name: "scale2b_branch2b_alpha"
  }
  param {
    name: "scale2b_branch2b_beta"
  }
  scale_param {
    bias_term: true
  }
}
layer {
  name: "res2b_branch2b_relu"
  type: "ReLU"
  bottom: "res2b_branch2b"
  top: "res2b_branch2b"
}
layer {
  name: "res2b_branch2c"
  type: "Convolution"
  bottom: "res2b_branch2b"
  top: "res2b_branch2c"
  param {
    name: "res2b_branch2c_w"
    lr_mult: 1
  }
  convolution_param {
    num_output: 256
    bias_term: false
    pad: 0
    kernel_size: 1
    stride: 1
  }
}
layer {
  name: "bn2b_branch2c"
  type: "BatchNorm"
  bottom: "res2b_branch2c"
  top: "res2b_branch2c"
  batch_norm_param {
    use_global_stats: false
  }
}
layer {
  name: "scale2b_branch2c"
  type: "Scale"
  bottom: "res2b_branch2c"
  top: "res2b_branch2c"
  param {
    name: "scale2b_branch2c_alpha"
  }
  param {
    name: "scale2b_branch2c_beta"
  }
  scale_param {
    bias_term: true
  }
}
layer {
  name: "res2b"
  type: "Eltwise"
  bottom: "res2a"
  bottom: "res2b_branch2c"
  top: "res2b"
}
layer {
  name: "res2b_relu"
  type: "ReLU"
  bottom: "res2b"
  top: "res2b"
}
layer {
  name: "res2c_branch2a"
  type: "Convolution"
  bottom: "res2b"
  top: "res2c_branch2a"
  param {
    name: "res2c_branch2a_w"
    lr_mult: 1
  }
  convolution_param {
    num_output: 64
    bias_term: false
    pad: 0
    kernel_size: 1
    stride: 1
  }
}
layer {
  name: "bn2c_branch2a"
  type: "BatchNorm"
  bottom: "res2c_branch2a"
  top: "res2c_branch2a"
  batch_norm_param {
    use_global_stats: false
  }
}
layer {
  name: "scale2c_branch2a"
  type: "Scale"
  bottom: "res2c_branch2a"
  top: "res2c_branch2a"
  param {
    name: "scale2c_branch2a_alpha"
  }
  param {
    name: "scale2c_branch2a_beta"
  }
  scale_param {
    bias_term: true
  }
}
layer {
  name: "res2c_branch2a_relu"
  type: "ReLU"
  bottom: "res2c_branch2a"
  top: "res2c_branch2a"
}
layer {
  name: "res2c_branch2b"
  type: "Convolution"
  bottom: "res2c_branch2a"
  top: "res2c_branch2b"
  param {
    name: "res2c_branch2b_w"
    lr_mult: 1
  }
  convolution_param {
    num_output: 64
    bias_term: false
    pad: 1
    kernel_size: 3
    stride: 1
  }
}
layer {
  name: "bn2c_branch2b"
  type: "BatchNorm"
  bottom: "res2c_branch2b"
  top: "res2c_branch2b"
  batch_norm_param {
    use_global_stats: false
  }
}
layer {
  name: "scale2c_branch2b"
  type: "Scale"
  bottom: "res2c_branch2b"
  top: "res2c_branch2b"
  param {
    name: "scale2c_branch2b_alpha"
  }
  param {
    name: "scale2c_branch2b_beta"
  }
  scale_param {
    bias_term: true
  }
}
layer {
  name: "res2c_branch2b_relu"
  type: "ReLU"
  bottom: "res2c_branch2b"
  top: "res2c_branch2b"
}
layer {
  name: "res2c_branch2c"
  type: "Convolution"
  bottom: "res2c_branch2b"
  top: "res2c_branch2c"
  param {
    name: "res2c_branch2c_w"
    lr_mult: 1
  }
  convolution_param {
    num_output: 256
    bias_term: false
    pad: 0
    kernel_size: 1
    stride: 1
  }
}
layer {
  name: "bn2c_branch2c"
  type: "BatchNorm"
  bottom: "res2c_branch2c"
  top: "res2c_branch2c"
  batch_norm_param {
    use_global_stats: false
  }
}
layer {
  name: "scale2c_branch2c"
  type: "Scale"
  bottom: "res2c_branch2c"
  top: "res2c_branch2c"
  param {
    name: "scale2c_branch2c_alpha"
  }
  param {
    name: "scale2c_branch2c_beta"
  }
  scale_param {
    bias_term: true
  }
}
layer {
  name: "res2c"
  type: "Eltwise"
  bottom: "res2b"
  bottom: "res2c_branch2c"
  top: "res2c"
}
layer {
  name: "res2c_relu"
  type: "ReLU"
  bottom: "res2c"
  top: "res2c"
}
layer {
  name: "res3a_branch1"
  type: "Convolution"
  bottom: "res2c"
  top: "res3a_branch1"
  param {
    name: "res3a_branch1_w"
    lr_mult: 1
  }
  convolution_param {
    num_output: 512
    bias_term: false
    pad: 0
    kernel_size: 1
    stride: 2
  }
}
layer {
  name: "bn3a_branch1"
  type: "BatchNorm"
  bottom: "res3a_branch1"
  top: "res3a_branch1"
  batch_norm_param {
    use_global_stats: false
  }
}
layer {
  name: "scale3a_branch1"
  type: "Scale"
  bottom: "res3a_branch1"
  top: "res3a_branch1"
  param {
    name: "scale3a_branch1_alpha"
  }
  param {
    name: "scale3a_branch1_beta"
  }
  scale_param {
    bias_term: true
  }
}
layer {
  name: "res3a_branch2a"
  type: "Convolution"
  bottom: "res2c"
  top: "res3a_branch2a"
  param {
    name: "res3a_branch2a_w"
    lr_mult: 1
  }
  convolution_param {
    num_output: 128
    bias_term: false
    pad: 0
    kernel_size: 1
    stride: 2
  }
}
layer {
  name: "bn3a_branch2a"
  type: "BatchNorm"
  bottom: "res3a_branch2a"
  top: "res3a_branch2a"
  batch_norm_param {
    use_global_stats: false
  }
}
layer {
  name: "scale3a_branch2a"
  type: "Scale"
  bottom: "res3a_branch2a"
  top: "res3a_branch2a"
  param {
    name: "scale3a_branch2a_alpha"
  }
  param {
    name: "scale3a_branch2a_beta"
  }
  scale_param {
    bias_term: true
  }
}
layer {
  name: "res3a_branch2a_relu"
  type: "ReLU"
  bottom: "res3a_branch2a"
  top: "res3a_branch2a"
}
layer {
  name: "res3a_branch2b"
  type: "Convolution"
  bottom: "res3a_branch2a"
  top: "res3a_branch2b"
  param {
    name: "res3a_branch2b_w"
    lr_mult: 1
  }
  convolution_param {
    num_output: 128
    bias_term: false
    pad: 1
    kernel_size: 3
    stride: 1
  }
}
layer {
  name: "bn3a_branch2b"
  type: "BatchNorm"
  bottom: "res3a_branch2b"
  top: "res3a_branch2b"
  batch_norm_param {
    use_global_stats: false
  }
}
layer {
  name: "scale3a_branch2b"
  type: "Scale"
  bottom: "res3a_branch2b"
  top: "res3a_branch2b"
  param {
    name: "scale3a_branch2b_alpha"
  }
  param {
    name: "scale3a_branch2b_beta"
  }
  scale_param {
    bias_term: true
  }
}
layer {
  name: "res3a_branch2b_relu"
  type: "ReLU"
  bottom: "res3a_branch2b"
  top: "res3a_branch2b"
}
layer {
  name: "res3a_branch2c"
  type: "Convolution"
  bottom: "res3a_branch2b"
  top: "res3a_branch2c"
  param {
    name: "res3a_branch2c_w"
    lr_mult: 1
  }
  convolution_param {
    num_output: 512
    bias_term: false
    pad: 0
    kernel_size: 1
    stride: 1
  }
}
layer {
  name: "bn3a_branch2c"
  type: "BatchNorm"
  bottom: "res3a_branch2c"
  top: "res3a_branch2c"
  batch_norm_param {
    use_global_stats: false
  }
}
layer {
  name: "scale3a_branch2c"
  type: "Scale"
  bottom: "res3a_branch2c"
  top: "res3a_branch2c"
  param {
    name: "scale3a_branch2c_alpha"
  }
  param {
    name: "scale3a_branch2c_beta"
  }
  scale_param {
    bias_term: true
  }
}
layer {
  name: "res3a"
  type: "Eltwise"
  bottom: "res3a_branch1"
  bottom: "res3a_branch2c"
  top: "res3a"
}
layer {
  name: "res3a_relu"
  type: "ReLU"
  bottom: "res3a"
  top: "res3a"
}
layer {
  name: "res3b_branch2a"
  type: "Convolution"
  bottom: "res3a"
  top: "res3b_branch2a"
  param {
    name: "res3b_branch2a_w"
    lr_mult: 1
  }
  convolution_param {
    num_output: 128
    bias_term: false
    pad: 0
    kernel_size: 1
    stride: 1
  }
}
layer {
  name: "bn3b_branch2a"
  type: "BatchNorm"
  bottom: "res3b_branch2a"
  top: "res3b_branch2a"
  batch_norm_param {
    use_global_stats: false
  }
}
layer {
  name: "scale3b_branch2a"
  type: "Scale"
  bottom: "res3b_branch2a"
  top: "res3b_branch2a"
  param {
    name: "scale3b_branch2a_alpha"
  }
  param {
    name: "scale3b_branch2a_beta"
  }
  scale_param {
    bias_term: true
  }
}
layer {
  name: "res3b_branch2a_relu"
  type: "ReLU"
  bottom: "res3b_branch2a"
  top: "res3b_branch2a"
}
layer {
  name: "res3b_branch2b"
  type: "Convolution"
  bottom: "res3b_branch2a"
  top: "res3b_branch2b"
  param {
    name: "res3b_branch2b_w"
    lr_mult: 1
  }
  convolution_param {
    num_output: 128
    bias_term: false
    pad: 1
    kernel_size: 3
    stride: 1
  }
}
layer {
  name: "bn3b_branch2b"
  type: "BatchNorm"
  bottom: "res3b_branch2b"
  top: "res3b_branch2b"
  batch_norm_param {
    use_global_stats: false
  }
}
layer {
  name: "scale3b_branch2b"
  type: "Scale"
  bottom: "res3b_branch2b"
  top: "res3b_branch2b"
  param {
    name: "scale3b_branch2b_alpha"
  }
  param {
    name: "scale3b_branch2b_beta"
  }
  scale_param {
    bias_term: true
  }
}
layer {
  name: "res3b_branch2b_relu"
  type: "ReLU"
  bottom: "res3b_branch2b"
  top: "res3b_branch2b"
}
layer {
  name: "res3b_branch2c"
  type: "Convolution"
  bottom: "res3b_branch2b"
  top: "res3b_branch2c"
  param {
    name: "res3b_branch2c_w"
    lr_mult: 1
  }
  convolution_param {
    num_output: 512
    bias_term: false
    pad: 0
    kernel_size: 1
    stride: 1
  }
}
layer {
  name: "bn3b_branch2c"
  type: "BatchNorm"
  bottom: "res3b_branch2c"
  top: "res3b_branch2c"
  batch_norm_param {
    use_global_stats: false
  }
}
layer {
  name: "scale3b_branch2c"
  type: "Scale"
  bottom: "res3b_branch2c"
  top: "res3b_branch2c"
  param {
    name: "scale3b_branch2c_alpha"
  }
  param {
    name: "scale3b_branch2c_beta"
  }
  scale_param {
    bias_term: true
  }
}
layer {
  name: "res3b"
  type: "Eltwise"
  bottom: "res3a"
  bottom: "res3b_branch2c"
  top: "res3b"
}
layer {
  name: "res3b_relu"
  type: "ReLU"
  bottom: "res3b"
  top: "res3b"
}
layer {
  name: "res3c_branch2a"
  type: "Convolution"
  bottom: "res3b"
  top: "res3c_branch2a"
  param {
    name: "res3c_branch2a_w"
    lr_mult: 1
  }
  convolution_param {
    num_output: 128
    bias_term: false
    pad: 0
    kernel_size: 1
    stride: 1
  }
}
layer {
  name: "bn3c_branch2a"
  type: "BatchNorm"
  bottom: "res3c_branch2a"
  top: "res3c_branch2a"
  batch_norm_param {
    use_global_stats: false
  }
}
layer {
  name: "scale3c_branch2a"
  type: "Scale"
  bottom: "res3c_branch2a"
  top: "res3c_branch2a"
  param {
    name: "scale3c_branch2a_alpha"
  }
  param {
    name: "scale3c_branch2a_beta"
  }
  scale_param {
    bias_term: true
  }
}
layer {
  name: "res3c_branch2a_relu"
  type: "ReLU"
  bottom: "res3c_branch2a"
  top: "res3c_branch2a"
}
layer {
  name: "res3c_branch2b"
  type: "Convolution"
  bottom: "res3c_branch2a"
  top: "res3c_branch2b"
  param {
    name: "res3c_branch2b_w"
    lr_mult: 1
  }
  convolution_param {
    num_output: 128
    bias_term: false
    pad: 1
    kernel_size: 3
    stride: 1
  }
}
layer {
  name: "bn3c_branch2b"
  type: "BatchNorm"
  bottom: "res3c_branch2b"
  top: "res3c_branch2b"
  batch_norm_param {
    use_global_stats: false
  }
}
layer {
  name: "scale3c_branch2b"
  type: "Scale"
  bottom: "res3c_branch2b"
  top: "res3c_branch2b"
  param {
    name: "scale3c_branch2b_alpha"
  }
  param {
    name: "scale3c_branch2b_beta"
  }
  scale_param {
    bias_term: true
  }
}
layer {
  name: "res3c_branch2b_relu"
  type: "ReLU"
  bottom: "res3c_branch2b"
  top: "res3c_branch2b"
}
layer {
  name: "res3c_branch2c"
  type: "Convolution"
  bottom: "res3c_branch2b"
  top: "res3c_branch2c"
  param {
    name: "res3c_branch2c_w"
    lr_mult: 1
  }
  convolution_param {
    num_output: 512
    bias_term: false
    pad: 0
    kernel_size: 1
    stride: 1
  }
}
layer {
  name: "bn3c_branch2c"
  type: "BatchNorm"
  bottom: "res3c_branch2c"
  top: "res3c_branch2c"
  batch_norm_param {
    use_global_stats: false
  }
}
layer {
  name: "scale3c_branch2c"
  type: "Scale"
  bottom: "res3c_branch2c"
  top: "res3c_branch2c"
  param {
    name: "scale3c_branch2c_alpha"
  }
  param {
    name: "scale3c_branch2c_beta"
  }
  scale_param {
    bias_term: true
  }
}
layer {
  name: "res3c"
  type: "Eltwise"
  bottom: "res3b"
  bottom: "res3c_branch2c"
  top: "res3c"
}
layer {
  name: "res3c_relu"
  type: "ReLU"
  bottom: "res3c"
  top: "res3c"
}
layer {
  name: "res3d_branch2a"
  type: "Convolution"
  bottom: "res3c"
  top: "res3d_branch2a"
  param {
    name: "res3d_branch2a_w"
    lr_mult: 1
  }
  convolution_param {
    num_output: 128
    bias_term: false
    pad: 0
    kernel_size: 1
    stride: 1
  }
}
layer {
  name: "bn3d_branch2a"
  type: "BatchNorm"
  bottom: "res3d_branch2a"
  top: "res3d_branch2a"
  batch_norm_param {
    use_global_stats: false
  }
}
layer {
  name: "scale3d_branch2a"
  type: "Scale"
  bottom: "res3d_branch2a"
  top: "res3d_branch2a"
  param {
    name: "scale3d_branch2a_alpha"
  }
  param {
    name: "scale3d_branch2a_beta"
  }
  scale_param {
    bias_term: true
  }
}
layer {
  name: "res3d_branch2a_relu"
  type: "ReLU"
  bottom: "res3d_branch2a"
  top: "res3d_branch2a"
}
layer {
  name: "res3d_branch2b"
  type: "Convolution"
  bottom: "res3d_branch2a"
  top: "res3d_branch2b"
  param {
    name: "res3d_branch2b_w"
    lr_mult: 1
  }
  convolution_param {
    num_output: 128
    bias_term: false
    pad: 1
    kernel_size: 3
    stride: 1
  }
}
layer {
  name: "bn3d_branch2b"
  type: "BatchNorm"
  bottom: "res3d_branch2b"
  top: "res3d_branch2b"
  batch_norm_param {
    use_global_stats: false
  }
}
layer {
  name: "scale3d_branch2b"
  type: "Scale"
  bottom: "res3d_branch2b"
  top: "res3d_branch2b"
  param {
    name: "scale3d_branch2b_alpha"
  }
  param {
    name: "scale3d_branch2b_beta"
  }
  scale_param {
    bias_term: true
  }
}
layer {
  name: "res3d_branch2b_relu"
  type: "ReLU"
  bottom: "res3d_branch2b"
  top: "res3d_branch2b"
}
layer {
  name: "res3d_branch2c"
  type: "Convolution"
  bottom: "res3d_branch2b"
  top: "res3d_branch2c"
  param {
    name: "res3d_branch2c_w"
    lr_mult: 1
  }
  convolution_param {
    num_output: 512
    bias_term: false
    pad: 0
    kernel_size: 1
    stride: 1
  }
}
layer {
  name: "bn3d_branch2c"
  type: "BatchNorm"
  bottom: "res3d_branch2c"
  top: "res3d_branch2c"
  batch_norm_param {
    use_global_stats: false
  }
}
layer {
  name: "scale3d_branch2c"
  type: "Scale"
  bottom: "res3d_branch2c"
  top: "res3d_branch2c"
  param {
    name: "scale3d_branch2c_alpha"
  }
  param {
    name: "scale3d_branch2c_beta"
  }
  scale_param {
    bias_term: true
  }
}
layer {
  name: "res3d"
  type: "Eltwise"
  bottom: "res3c"
  bottom: "res3d_branch2c"
  top: "res3d"
}
layer {
  name: "res3d_relu"
  type: "ReLU"
  bottom: "res3d"
  top: "res3d"
}
layer {
  name: "res4a_branch1"
  type: "Convolution"
  bottom: "res3d"
  top: "res4a_branch1"
  param {
    name: "res4a_branch1_w"
    lr_mult: 1
  }
  convolution_param {
    num_output: 1024
    bias_term: false
    pad: 0
    kernel_size: 1
    stride: 2
  }
}
layer {
  name: "bn4a_branch1"
  type: "BatchNorm"
  bottom: "res4a_branch1"
  top: "res4a_branch1"
  batch_norm_param {
    use_global_stats: false
  }
}
layer {
  name: "scale4a_branch1"
  type: "Scale"
  bottom: "res4a_branch1"
  top: "res4a_branch1"
  param {
    name: "scale4a_branch1_alpha"
  }
  param {
    name: "scale4a_branch1_beta"
  }
  scale_param {
    bias_term: true
  }
}
layer {
  name: "res4a_branch2a"
  type: "Convolution"
  bottom: "res3d"
  top: "res4a_branch2a"
  param {
    name: "res4a_branch2a_w"
    lr_mult: 1
  }
  convolution_param {
    num_output: 256
    bias_term: false
    pad: 0
    kernel_size: 1
    stride: 2
  }
}
layer {
  name: "bn4a_branch2a"
  type: "BatchNorm"
  bottom: "res4a_branch2a"
  top: "res4a_branch2a"
  batch_norm_param {
    use_global_stats: false
  }
}
layer {
  name: "scale4a_branch2a"
  type: "Scale"
  bottom: "res4a_branch2a"
  top: "res4a_branch2a"
  param {
    name: "scale4a_branch2a_alpha"
  }
  param {
    name: "scale4a_branch2a_beta"
  }
  scale_param {
    bias_term: true
  }
}
layer {
  name: "res4a_branch2a_relu"
  type: "ReLU"
  bottom: "res4a_branch2a"
  top: "res4a_branch2a"
}
layer {
  name: "res4a_branch2b"
  type: "Convolution"
  bottom: "res4a_branch2a"
  top: "res4a_branch2b"
  param {
    name: "res4a_branch2b_w"
    lr_mult: 1
  }
  convolution_param {
    num_output: 256
    bias_term: false
    pad: 1
    kernel_size: 3
    stride: 1
  }
}
layer {
  name: "bn4a_branch2b"
  type: "BatchNorm"
  bottom: "res4a_branch2b"
  top: "res4a_branch2b"
  batch_norm_param {
    use_global_stats: false
  }
}
layer {
  name: "scale4a_branch2b"
  type: "Scale"
  bottom: "res4a_branch2b"
  top: "res4a_branch2b"
  param {
    name: "scale4a_branch2b_alpha"
  }
  param {
    name: "scale4a_branch2b_beta"
  }
  scale_param {
    bias_term: true
  }
}
layer {
  name: "res4a_branch2b_relu"
  type: "ReLU"
  bottom: "res4a_branch2b"
  top: "res4a_branch2b"
}
layer {
  name: "res4a_branch2c"
  type: "Convolution"
  bottom: "res4a_branch2b"
  top: "res4a_branch2c"
  param {
    name: "res4a_branch2c_w"
    lr_mult: 1
  }
  convolution_param {
    num_output: 1024
    bias_term: false
    pad: 0
    kernel_size: 1
    stride: 1
  }
}
layer {
  name: "bn4a_branch2c"
  type: "BatchNorm"
  bottom: "res4a_branch2c"
  top: "res4a_branch2c"
  batch_norm_param {
    use_global_stats: false
  }
}
layer {
  name: "scale4a_branch2c"
  type: "Scale"
  bottom: "res4a_branch2c"
  top: "res4a_branch2c"
  param {
    name: "scale4a_branch2c_alpha"
  }
  param {
    name: "scale4a_branch2c_beta"
  }
  scale_param {
    bias_term: true
  }
}
layer {
  name: "res4a"
  type: "Eltwise"
  bottom: "res4a_branch1"
  bottom: "res4a_branch2c"
  top: "res4a"
}
layer {
  name: "res4a_relu"
  type: "ReLU"
  bottom: "res4a"
  top: "res4a"
}
layer {
  name: "res4b_branch2a"
  type: "Convolution"
  bottom: "res4a"
  top: "res4b_branch2a"
  param {
    name: "res4b_branch2a_w"
    lr_mult: 1
  }
  convolution_param {
    num_output: 256
    bias_term: false
    pad: 0
    kernel_size: 1
    stride: 1
  }
}
layer {
  name: "bn4b_branch2a"
  type: "BatchNorm"
  bottom: "res4b_branch2a"
  top: "res4b_branch2a"
  batch_norm_param {
    use_global_stats: false
  }
}
layer {
  name: "scale4b_branch2a"
  type: "Scale"
  bottom: "res4b_branch2a"
  top: "res4b_branch2a"
  param {
    name: "scale4b_branch2a_alpha"
  }
  param {
    name: "scale4b_branch2a_beta"
  }
  scale_param {
    bias_term: true
  }
}
layer {
  name: "res4b_branch2a_relu"
  type: "ReLU"
  bottom: "res4b_branch2a"
  top: "res4b_branch2a"
}
layer {
  name: "res4b_branch2b"
  type: "Convolution"
  bottom: "res4b_branch2a"
  top: "res4b_branch2b"
  param {
    name: "res4b_branch2b_w"
    lr_mult: 1
  }
  convolution_param {
    num_output: 256
    bias_term: false
    pad: 1
    kernel_size: 3
    stride: 1
  }
}
layer {
  name: "bn4b_branch2b"
  type: "BatchNorm"
  bottom: "res4b_branch2b"
  top: "res4b_branch2b"
  batch_norm_param {
    use_global_stats: false
  }
}
layer {
  name: "scale4b_branch2b"
  type: "Scale"
  bottom: "res4b_branch2b"
  top: "res4b_branch2b"
  param {
    name: "scale4b_branch2b_alpha"
  }
  param {
    name: "scale4b_branch2b_beta"
  }
  scale_param {
    bias_term: true
  }
}
layer {
  name: "res4b_branch2b_relu"
  type: "ReLU"
  bottom: "res4b_branch2b"
  top: "res4b_branch2b"
}
layer {
  name: "res4b_branch2c"
  type: "Convolution"
  bottom: "res4b_branch2b"
  top: "res4b_branch2c"
  param {
    name: "res4b_branch2c_w"
    lr_mult: 1
  }
  convolution_param {
    num_output: 1024
    bias_term: false
    pad: 0
    kernel_size: 1
    stride: 1
  }
}
layer {
  name: "bn4b_branch2c"
  type: "BatchNorm"
  bottom: "res4b_branch2c"
  top: "res4b_branch2c"
  batch_norm_param {
    use_global_stats: false
  }
}
layer {
  name: "scale4b_branch2c"
  type: "Scale"
  bottom: "res4b_branch2c"
  top: "res4b_branch2c"
  param {
    name: "scale4b_branch2c_alpha"
  }
  param {
    name: "scale4b_branch2c_beta"
  }
  scale_param {
    bias_term: true
  }
}
layer {
  name: "res4b"
  type: "Eltwise"
  bottom: "res4a"
  bottom: "res4b_branch2c"
  top: "res4b"
}
layer {
  name: "res4b_relu"
  type: "ReLU"
  bottom: "res4b"
  top: "res4b"
}
layer {
  name: "res4c_branch2a"
  type: "Convolution"
  bottom: "res4b"
  top: "res4c_branch2a"
  param {
    name: "res4c_branch2a_w"
    lr_mult: 1
  }
  convolution_param {
    num_output: 256
    bias_term: false
    pad: 0
    kernel_size: 1
    stride: 1
  }
}
layer {
  name: "bn4c_branch2a"
  type: "BatchNorm"
  bottom: "res4c_branch2a"
  top: "res4c_branch2a"
  batch_norm_param {
    use_global_stats: false
  }
}
layer {
  name: "scale4c_branch2a"
  type: "Scale"
  bottom: "res4c_branch2a"
  top: "res4c_branch2a"
  param {
    name: "scale4c_branch2a_alpha"
  }
  param {
    name: "scale4c_branch2a_beta"
  }
  scale_param {
    bias_term: true
  }
}
layer {
  name: "res4c_branch2a_relu"
  type: "ReLU"
  bottom: "res4c_branch2a"
  top: "res4c_branch2a"
}
layer {
  name: "res4c_branch2b"
  type: "Convolution"
  bottom: "res4c_branch2a"
  top: "res4c_branch2b"
  param {
    name: "res4c_branch2b_w"
    lr_mult: 1
  }
  convolution_param {
    num_output: 256
    bias_term: false
    pad: 1
    kernel_size: 3
    stride: 1
  }
}
layer {
  name: "bn4c_branch2b"
  type: "BatchNorm"
  bottom: "res4c_branch2b"
  top: "res4c_branch2b"
  batch_norm_param {
    use_global_stats: false
  }
}
layer {
  name: "scale4c_branch2b"
  type: "Scale"
  bottom: "res4c_branch2b"
  top: "res4c_branch2b"
  param {
    name: "scale4c_branch2b_alpha"
  }
  param {
    name: "scale4c_branch2b_beta"
  }
  scale_param {
    bias_term: true
  }
}
layer {
  name: "res4c_branch2b_relu"
  type: "ReLU"
  bottom: "res4c_branch2b"
  top: "res4c_branch2b"
}
layer {
  name: "res4c_branch2c"
  type: "Convolution"
  bottom: "res4c_branch2b"
  top: "res4c_branch2c"
  param {
    name: "res4c_branch2c_w"
    lr_mult: 1
  }
  convolution_param {
    num_output: 1024
    bias_term: false
    pad: 0
    kernel_size: 1
    stride: 1
  }
}
layer {
  name: "bn4c_branch2c"
  type: "BatchNorm"
  bottom: "res4c_branch2c"
  top: "res4c_branch2c"
  batch_norm_param {
    use_global_stats: false
  }
}
layer {
  name: "scale4c_branch2c"
  type: "Scale"
  bottom: "res4c_branch2c"
  top: "res4c_branch2c"
  param {
    name: "scale4c_branch2c_alpha"
  }
  param {
    name: "scale4c_branch2c_beta"
  }
  scale_param {
    bias_term: true
  }
}
layer {
  name: "res4c"
  type: "Eltwise"
  bottom: "res4b"
  bottom: "res4c_branch2c"
  top: "res4c"
}
layer {
  name: "res4c_relu"
  type: "ReLU"
  bottom: "res4c"
  top: "res4c"
}
layer {
  name: "res4d_branch2a"
  type: "Convolution"
  bottom: "res4c"
  top: "res4d_branch2a"
  param {
    name: "res4d_branch2a_w"
    lr_mult: 1
  }
  convolution_param {
    num_output: 256
    bias_term: false
    pad: 0
    kernel_size: 1
    stride: 1
  }
}
layer {
  name: "bn4d_branch2a"
  type: "BatchNorm"
  bottom: "res4d_branch2a"
  top: "res4d_branch2a"
  batch_norm_param {
    use_global_stats: false
  }
}
layer {
  name: "scale4d_branch2a"
  type: "Scale"
  bottom: "res4d_branch2a"
  top: "res4d_branch2a"
  param {
    name: "scale4d_branch2a_alpha"
  }
  param {
    name: "scale4d_branch2a_beta"
  }
  scale_param {
    bias_term: true
  }
}
layer {
  name: "res4d_branch2a_relu"
  type: "ReLU"
  bottom: "res4d_branch2a"
  top: "res4d_branch2a"
}
layer {
  name: "res4d_branch2b"
  type: "Convolution"
  bottom: "res4d_branch2a"
  top: "res4d_branch2b"
  param {
    name: "res4d_branch2b_w"
    lr_mult: 1
  }
  convolution_param {
    num_output: 256
    bias_term: false
    pad: 1
    kernel_size: 3
    stride: 1
  }
}
layer {
  name: "bn4d_branch2b"
  type: "BatchNorm"
  bottom: "res4d_branch2b"
  top: "res4d_branch2b"
  batch_norm_param {
    use_global_stats: false
  }
}
layer {
  name: "scale4d_branch2b"
  type: "Scale"
  bottom: "res4d_branch2b"
  top: "res4d_branch2b"
  param {
    name: "scale4d_branch2b_alpha"
  }
  param {
    name: "scale4d_branch2b_beta"
  }
  scale_param {
    bias_term: true
  }
}
layer {
  name: "res4d_branch2b_relu"
  type: "ReLU"
  bottom: "res4d_branch2b"
  top: "res4d_branch2b"
}
layer {
  name: "res4d_branch2c"
  type: "Convolution"
  bottom: "res4d_branch2b"
  top: "res4d_branch2c"
  param {
    name: "res4d_branch2c_w"
    lr_mult: 1
  }
  convolution_param {
    num_output: 1024
    bias_term: false
    pad: 0
    kernel_size: 1
    stride: 1
  }
}
layer {
  name: "bn4d_branch2c"
  type: "BatchNorm"
  bottom: "res4d_branch2c"
  top: "res4d_branch2c"
  batch_norm_param {
    use_global_stats: false
  }
}
layer {
  name: "scale4d_branch2c"
  type: "Scale"
  bottom: "res4d_branch2c"
  top: "res4d_branch2c"
  param {
    name: "scale4d_branch2c_alpha"
  }
  param {
    name: "scale4d_branch2c_beta"
  }
  scale_param {
    bias_term: true
  }
}
layer {
  name: "res4d"
  type: "Eltwise"
  bottom: "res4c"
  bottom: "res4d_branch2c"
  top: "res4d"
}
layer {
  name: "res4d_relu"
  type: "ReLU"
  bottom: "res4d"
  top: "res4d"
}
layer {
  name: "res4e_branch2a"
  type: "Convolution"
  bottom: "res4d"
  top: "res4e_branch2a"
  param {
    name: "res4e_branch2a_w"
    lr_mult: 1
  }
  convolution_param {
    num_output:
I0302 13:10:14.192399 20068 layer_factory.hpp:77] Creating layer data
I0302 13:10:14.192430 20068 net.cpp:100] Creating Layer data
I0302 13:10:14.192435 20068 net.cpp:408] data -> pairs
I0302 13:10:14.192448 20068 net.cpp:408] data -> label
I0302 13:10:14.214220 20068 net.cpp:150] Setting up data
I0302 13:10:14.214262 20068 net.cpp:157] Top shape: 8 6 224 224 (2408448)
I0302 13:10:14.214267 20068 net.cpp:157] Top shape: 8 (8)
I0302 13:10:14.214272 20068 net.cpp:165] Memory required for data: 9633824
I0302 13:10:14.214279 20068 layer_factory.hpp:77] Creating layer slice
I0302 13:10:14.214303 20068 net.cpp:100] Creating Layer slice
I0302 13:10:14.214309 20068 net.cpp:434] slice <- pairs
I0302 13:10:14.214318 20068 net.cpp:408] slice -> data
I0302 13:10:14.214329 20068 net.cpp:408] slice -> data_p
I0302 13:10:14.214387 20068 net.cpp:150] Setting up slice
I0302 13:10:14.214395 20068 net.cpp:157] Top shape: 8 3 224 224 (1204224)
I0302 13:10:14.214399 20068 net.cpp:157] Top shape: 8 3 224 224 (1204224)
I0302 13:10:14.214403 20068 net.cpp:165] Memory required for data: 19267616
I0302 13:10:14.214406 20068 layer_factory.hpp:77] Creating layer conv1
I0302 13:10:14.214417 20068 net.cpp:100] Creating Layer conv1
I0302 13:10:14.214421 20068 net.cpp:434] conv1 <- data
I0302 13:10:14.214427 20068 net.cpp:408] conv1 -> conv1
I0302 13:10:15.415645 20068 net.cpp:150] Setting up conv1
I0302 13:10:15.415688 20068 net.cpp:157] Top shape: 8 64 112 112 (6422528)
I0302 13:10:15.415693 20068 net.cpp:165] Memory required for data: 44957728
I0302 13:10:15.415712 20068 layer_factory.hpp:77] Creating layer bn_conv1
I0302 13:10:15.415733 20068 net.cpp:100] Creating Layer bn_conv1
I0302 13:10:15.415740 20068 net.cpp:434] bn_conv1 <- conv1
I0302 13:10:15.415756 20068 net.cpp:395] bn_conv1 -> conv1 (in-place)
I0302 13:10:15.416115 20068 net.cpp:150] Setting up bn_conv1
I0302 13:10:15.416129 20068 net.cpp:157] Top shape: 8 64 112 112 (6422528)
I0302 13:10:15.416133 20068 net.cpp:165] Memory required for data: 70647840
I0302 13:10:15.416148 20068 layer_factory.hpp:77] Creating layer scale_conv1
I0302 13:10:15.416162 20068 net.cpp:100] Creating Layer scale_conv1
I0302 13:10:15.416167 20068 net.cpp:434] scale_conv1 <- conv1
I0302 13:10:15.416173 20068 net.cpp:395] scale_conv1 -> conv1 (in-place)
I0302 13:10:15.416235 20068 layer_factory.hpp:77] Creating layer scale_conv1
I0302 13:10:15.416438 20068 net.cpp:150] Setting up scale_conv1
I0302 13:10:15.416448 20068 net.cpp:157] Top shape: 8 64 112 112 (6422528)
I0302 13:10:15.416452 20068 net.cpp:165] Memory required for data: 96337952
I0302 13:10:15.416460 20068 layer_factory.hpp:77] Creating layer conv1_relu
I0302 13:10:15.416472 20068 net.cpp:100] Creating Layer conv1_relu
I0302 13:10:15.416477 20068 net.cpp:434] conv1_relu <- conv1
I0302 13:10:15.416483 20068 net.cpp:395] conv1_relu -> conv1 (in-place)
I0302 13:10:15.416718 20068 net.cpp:150] Setting up conv1_relu
I0302 13:10:15.416730 20068 net.cpp:157] Top shape: 8 64 112 112 (6422528)
I0302 13:10:15.416734 20068 net.cpp:165] Memory required for data: 122028064
I0302 13:10:15.416739 20068 layer_factory.hpp:77] Creating layer pool1
I0302 13:10:15.416748 20068 net.cpp:100] Creating Layer pool1
I0302 13:10:15.416752 20068 net.cpp:434] pool1 <- conv1
I0302 13:10:15.416759 20068 net.cpp:408] pool1 -> pool1
I0302 13:10:15.416821 20068 net.cpp:150] Setting up pool1
I0302 13:10:15.416829 20068 net.cpp:157] Top shape: 8 64 56 56 (1605632)
I0302 13:10:15.416834 20068 net.cpp:165] Memory required for data: 128450592
I0302 13:10:15.416838 20068 layer_factory.hpp:77] Creating layer pool1_pool1_0_split
I0302 13:10:15.416846 20068 net.cpp:100] Creating Layer pool1_pool1_0_split
I0302 13:10:15.416851 20068 net.cpp:434] pool1_pool1_0_split <- pool1
I0302 13:10:15.416857 20068 net.cpp:408] pool1_pool1_0_split -> pool1_pool1_0_split_0
I0302 13:10:15.416863 20068 net.cpp:408] pool1_pool1_0_split -> pool1_pool1_0_split_1
I0302 13:10:15.416915 20068 net.cpp:150] Setting up pool1_pool1_0_split
I0302 13:10:15.416923 20068 net.cpp:157] Top shape: 8 64 56 56 (1605632)
I0302 13:10:15.416929 20068 net.cpp:157] Top shape: 8 64 56 56 (1605632)
I0302 13:10:15.416932 20068 net.cpp:165] Memory required for data: 141295648
I0302 13:10:15.416936 20068 layer_factory.hpp:77] Creating layer res2a_branch1
I0302 13:10:15.416966 20068 net.cpp:100] Creating Layer res2a_branch1
I0302 13:10:15.416972 20068 net.cpp:434] res2a_branch1 <- pool1_pool1_0_split_0
I0302 13:10:15.416980 20068 net.cpp:408] res2a_branch1 -> res2a_branch1
I0302 13:10:15.418503 20068 net.cpp:150] Setting up res2a_branch1
I0302 13:10:15.418534 20068 net.cpp:157] Top shape: 8 256 56 56 (6422528)
I0302 13:10:15.418540 20068 net.cpp:165] Memory required for data: 166985760
I0302 13:10:15.418550 20068 layer_factory.hpp:77] Creating layer bn2a_branch1
I0302 13:10:15.418561 20068 net.cpp:100] Creating Layer bn2a_branch1
I0302 13:10:15.418566 20068 net.cpp:434] bn2a_branch1 <- res2a_branch1
I0302 13:10:15.418575 20068 net.cpp:395] bn2a_branch1 -> res2a_branch1 (in-place)
I0302 13:10:15.420341 20068 net.cpp:150] Setting up bn2a_branch1
I0302 13:10:15.420375 20068 net.cpp:157] Top shape: 8 256 56 56 (6422528)
I0302 13:10:15.420380 20068 net.cpp:165] Memory required for data: 192675872
I0302 13:10:15.420402 20068 layer_factory.hpp:77] Creating layer scale2a_branch1
I0302 13:10:15.420415 20068 net.cpp:100] Creating Layer scale2a_branch1
I0302 13:10:15.420421 20068 net.cpp:434] scale2a_branch1 <- res2a_branch1
I0302 13:10:15.420430 20068 net.cpp:395] scale2a_branch1 -> res2a_branch1 (in-place)
I0302 13:10:15.420503 20068 layer_factory.hpp:77] Creating layer scale2a_branch1
I0302 13:10:15.420689 20068 net.cpp:150] Setting up scale2a_branch1
I0302 13:10:15.420698 20068 net.cpp:157] Top shape: 8 256 56 56 (6422528)
I0302 13:10:15.420703 20068 net.cpp:165] Memory required for data: 218365984
I0302 13:10:15.420722 20068 layer_factory.hpp:77] Creating layer res2a_branch2a
I0302 13:10:15.420733 20068 net.cpp:100] Creating Layer res2a_branch2a
I0302 13:10:15.420738 20068 net.cpp:434] res2a_branch2a <- pool1_pool1_0_split_1
I0302 13:10:15.420745 20068 net.cpp:408] res2a_branch2a -> res2a_branch2a
I0302 13:10:15.422277 20068 net.cpp:150] Setting up res2a_branch2a
I0302 13:10:15.422317 20068 net.cpp:157] Top shape: 8 64 56 56 (1605632)
I0302 13:10:15.422322 20068 net.cpp:165] Memory required for data: 224788512
I0302 13:10:15.422333 20068 layer_factory.hpp:77] Creating layer bn2a_branch2a
I0302 13:10:15.422345 20068 net.cpp:100] Creating Layer bn2a_branch2a
I0302 13:10:15.422350 20068 net.cpp:434] bn2a_branch2a <- res2a_branch2a
I0302 13:10:15.422358 20068 net.cpp:395] bn2a_branch2a -> res2a_branch2a (in-place)
I0302 13:10:15.422710 20068 net.cpp:150] Setting up bn2a_branch2a
I0302 13:10:15.422724 20068 net.cpp:157] Top shape: 8 64 56 56 (1605632)
I0302 13:10:15.422727 20068 net.cpp:165] Memory required for data: 231211040
I0302 13:10:15.422746 20068 layer_factory.hpp:77] Creating layer scale2a_branch2a
I0302 13:10:15.422756 20068 net.cpp:100] Creating Layer scale2a_branch2a
I0302 13:10:15.422761 20068 net.cpp:434] scale2a_branch2a <- res2a_branch2a
I0302 13:10:15.422768 20068 net.cpp:395] scale2a_branch2a -> res2a_branch2a (in-place)
I0302 13:10:15.422834 20068 layer_factory.hpp:77] Creating layer scale2a_branch2a
I0302 13:10:15.423040 20068 net.cpp:150] Setting up scale2a_branch2a
I0302 13:10:15.423049 20068 net.cpp:157] Top shape: 8 64 56 56 (1605632)
I0302 13:10:15.423053 20068 net.cpp:165] Memory required for data: 237633568
I0302 13:10:15.423061 20068 layer_factory.hpp:77] Creating layer res2a_branch2a_relu
I0302 13:10:15.423069 20068 net.cpp:100] Creating Layer res2a_branch2a_relu
I0302 13:10:15.423074 20068 net.cpp:434] res2a_branch2a_relu <- res2a_branch2a
I0302 13:10:15.423079 20068 net.cpp:395] res2a_branch2a_relu -> res2a_branch2a (in-place)
I0302 13:10:15.423296 20068 net.cpp:150] Setting up res2a_branch2a_relu
I0302 13:10:15.423306 20068 net.cpp:157] Top shape: 8 64 56 56 (1605632)
I0302 13:10:15.423311 20068 net.cpp:165] Memory required for data: 244056096
I0302 13:10:15.423316 20068 layer_factory.hpp:77] Creating layer res2a_branch2b
I0302 13:10:15.423326 20068 net.cpp:100] Creating Layer res2a_branch2b
I0302 13:10:15.423331 20068 net.cpp:434] res2a_branch2b <- res2a_branch2a
I0302 13:10:15.423338 20068 net.cpp:408] res2a_branch2b -> res2a_branch2b
I0302 13:10:15.426970 20068 net.cpp:150] Setting up res2a_branch2b
I0302 13:10:15.427008 20068 net.cpp:157] Top shape: 8 64 56 56 (1605632)
I0302 13:10:15.427016 20068 net.cpp:165] Memory required for data: 250478624
I0302 13:10:15.427034 20068 layer_factory.hpp:77] Creating layer bn2a_branch2b
I0302 13:10:15.427052 20068 net.cpp:100] Creating Layer bn2a_branch2b
I0302 13:10:15.427058 20068 net.cpp:434] bn2a_branch2b <- res2a_branch2b
I0302 13:10:15.427067 20068 net.cpp:395] bn2a_branch2b -> res2a_branch2b (in-place)
I0302 13:10:15.427448 20068 net.cpp:150] Setting up bn2a_branch2b
I0302 13:10:15.427461 20068 net.cpp:157] Top shape: 8 64 56 56 (1605632)
I0302 13:10:15.427465 20068 net.cpp:165] Memory required for data: 256901152
I0302 13:10:15.427479 20068 layer_factory.hpp:77] Creating layer scale2a_branch2b
I0302 13:10:15.427490 20068 net.cpp:100] Creating Layer scale2a_branch2b
I0302 13:10:15.427495 20068 net.cpp:434] scale2a_branch2b <- res2a_branch2b
I0302 13:10:15.427502 20068 net.cpp:395] scale2a_branch2b -> res2a_branch2b (in-place)
I0302 13:10:15.427570 20068 layer_factory.hpp:77] Creating layer scale2a_branch2b
I0302 13:10:15.427764 20068 net.cpp:150] Setting up scale2a_branch2b
I0302 13:10:15.427773 20068 net.cpp:157] Top shape: 8 64 56 56 (1605632)
I0302 13:10:15.427778 20068 net.cpp:165] Memory required for data: 263323680
I0302 13:10:15.427786 20068 layer_factory.hpp:77] Creating layer res2a_branch2b_relu
I0302 13:10:15.427795 20068 net.cpp:100] Creating Layer res2a_branch2b_relu
I0302 13:10:15.427799 20068 net.cpp:434] res2a_branch2b_relu <- res2a_branch2b
I0302 13:10:15.427816 20068 net.cpp:395] res2a_branch2b_relu -> res2a_branch2b (in-place)
I0302 13:10:15.428066 20068 net.cpp:150] Setting up res2a_branch2b_relu
I0302 13:10:15.428078 20068 net.cpp:157] Top shape: 8 64 56 56 (1605632)
I0302 13:10:15.428082 20068 net.cpp:165] Memory required for data: 269746208
I0302 13:10:15.428086 20068 layer_factory.hpp:77] Creating layer res2a_branch2c
I0302 13:10:15.428099 20068 net.cpp:100] Creating Layer res2a_branch2c
I0302 13:10:15.428104 20068 net.cpp:434] res2a_branch2c <- res2a_branch2b
I0302 13:10:15.428112 20068 net.cpp:408] res2a_branch2c -> res2a_branch2c
I0302 13:10:15.429788 20068 net.cpp:150] Setting up res2a_branch2c
I0302 13:10:15.429849 20068 net.cpp:157] Top shape: 8 256 56 56 (6422528)
I0302 13:10:15.429854 20068 net.cpp:165] Memory required for data: 295436320
I0302 13:10:15.429867 20068 layer_factory.hpp:77] Creating layer bn2a_branch2c
I0302 13:10:15.429879 20068 net.cpp:100] Creating Layer bn2a_branch2c
I0302 13:10:15.429885 20068 net.cpp:434] bn2a_branch2c <- res2a_branch2c
I0302 13:10:15.429893 20068 net.cpp:395] bn2a_branch2c -> res2a_branch2c (in-place)
I0302 13:10:15.430248 20068 net.cpp:150] Setting up bn2a_branch2c
I0302 13:10:15.430259 20068 net.cpp:157] Top shape: 8 256 56 56 (6422528)
I0302 13:10:15.430263 20068 net.cpp:165] Memory required for data: 321126432
I0302 13:10:15.430275 20068 layer_factory.hpp:77] Creating layer scale2a_branch2c
I0302 13:10:15.430284 20068 net.cpp:100] Creating Layer scale2a_branch2c
I0302 13:10:15.430289 20068 net.cpp:434] scale2a_branch2c <- res2a_branch2c
I0302 13:10:15.430296 20068 net.cpp:395] scale2a_branch2c -> res2a_branch2c (in-place)
I0302 13:10:15.430361 20068 layer_factory.hpp:77] Creating layer scale2a_branch2c
I0302 13:10:15.430536 20068 net.cpp:150] Setting up scale2a_branch2c
I0302 13:10:15.430544 20068 net.cpp:157] Top shape: 8 256 56 56 (6422528)
I0302 13:10:15.430548 20068 net.cpp:165] Memory required for data: 346816544
I0302 13:10:15.430557 20068 layer_factory.hpp:77] Creating layer res2a
I0302 13:10:15.430564 20068 net.cpp:100] Creating Layer res2a
I0302 13:10:15.430568 20068 net.cpp:434] res2a <- res2a_branch1
I0302 13:10:15.430573 20068 net.cpp:434] res2a <- res2a_branch2c
I0302 13:10:15.430579 20068 net.cpp:408] res2a -> res2a
I0302 13:10:15.430646 20068 net.cpp:150] Setting up res2a
I0302 13:10:15.430655 20068 net.cpp:157] Top shape: 8 256 56 56 (6422528)
I0302 13:10:15.430660 20068 net.cpp:165] Memory required for data: 372506656
I0302 13:10:15.430663 20068 layer_factory.hpp:77] Creating layer res2a_relu
I0302 13:10:15.430670 20068 net.cpp:100] Creating Layer res2a_relu
I0302 13:10:15.430675 20068 net.cpp:434] res2a_relu <- res2a
I0302 13:10:15.430681 20068 net.cpp:395] res2a_relu -> res2a (in-place)
I0302 13:10:15.430917 20068 net.cpp:150] Setting up res2a_relu
I0302 13:10:15.430943 20068 net.cpp:157] Top shape: 8 256 56 56 (6422528)
I0302 13:10:15.430946 20068 net.cpp:165] Memory required for data: 398196768
I0302 13:10:15.430950 20068 layer_factory.hpp:77] Creating layer res2a_res2a_relu_0_split
I0302 13:10:15.430958 20068 net.cpp:100] Creating Layer res2a_res2a_relu_0_split
I0302 13:10:15.430963 20068 net.cpp:434] res2a_res2a_relu_0_split <- res2a
I0302 13:10:15.430969 20068 net.cpp:408] res2a_res2a_relu_0_split -> res2a_res2a_relu_0_split_0
I0302 13:10:15.430977 20068 net.cpp:408] res2a_res2a_relu_0_split -> res2a_res2a_relu_0_split_1
I0302 13:10:15.431038 20068 net.cpp:150] Setting up res2a_res2a_relu_0_split
I0302 13:10:15.431046 20068 net.cpp:157] Top shape: 8 256 56 56 (6422528)
I0302 13:10:15.431051 20068 net.cpp:157] Top shape: 8 256 56 56 (6422528)
I0302 13:10:15.431054 20068 net.cpp:165] Memory required for data: 449576992
I0302 13:10:15.431058 20068 layer_factory.hpp:77] Creating layer res2b_branch2a
I0302 13:10:15.431069 20068 net.cpp:100] Creating Layer res2b_branch2a
I0302 13:10:15.431073 20068 net.cpp:434] res2b_branch2a <- res2a_res2a_relu_0_split_0
I0302 13:10:15.431080 20068 net.cpp:408] res2b_branch2a -> res2b_branch2a
I0302 13:10:15.438032 20068 net.cpp:150] Setting up res2b_branch2a
I0302 13:10:15.438081 20068 net.cpp:157] Top shape: 8 64 56 56 (1605632)
I0302 13:10:15.438086 20068 net.cpp:165] Memory required for data: 455999520
I0302 13:10:15.438099 20068 layer_factory.hpp:77] Creating layer bn2b_branch2a
I0302 13:10:15.438113 20068 net.cpp:100] Creating Layer bn2b_branch2a
I0302 13:10:15.438119 20068 net.cpp:434] bn2b_branch2a <- res2b_branch2a
I0302 13:10:15.438127 20068 net.cpp:395] bn2b_branch2a -> res2b_branch2a (in-place)
I0302 13:10:15.438498 20068 net.cpp:150] Setting up bn2b_branch2a
I0302 13:10:15.438514 20068 net.cpp:157] Top shape: 8 64 56 56 (1605632)
I0302 13:10:15.438519 20068 net.cpp:165] Memory required for data: 462422048
I0302 13:10:15.438542 20068 layer_factory.hpp:77] Creating layer scale2b_branch2a
I0302 13:10:15.438555 20068 net.cpp:100] Creating Layer scale2b_branch2a
I0302 13:10:15.438560 20068 net.cpp:434] scale2b_branch2a <- res2b_branch2a
I0302 13:10:15.438568 20068 net.cpp:395] scale2b_branch2a -> res2b_branch2a (in-place)
I0302 13:10:15.438642 20068 layer_factory.hpp:77] Creating layer scale2b_branch2a
I0302 13:10:15.438845 20068 net.cpp:150] Setting up scale2b_branch2a
I0302 13:10:15.438855 20068 net.cpp:157] Top shape: 8 64 56 56 (1605632)
I0302 13:10:15.438860 20068 net.cpp:165] Memory required for data: 468844576
I0302 13:10:15.438869 20068 layer_factory.hpp:77] Creating layer res2b_branch2a_relu
I0302 13:10:15.438877 20068 net.cpp:100] Creating Layer res2b_branch2a_relu
I0302 13:10:15.438882 20068 net.cpp:434] res2b_branch2a_relu <- res2b_branch2a
I0302 13:10:15.438889 20068 net.cpp:395] res2b_branch2a_relu -> res2b_branch2a (in-place)
I0302 13:10:15.439131 20068 net.cpp:150] Setting up res2b_branch2a_relu
I0302 13:10:15.439143 20068 net.cpp:157] Top shape: 8 64 56 56 (1605632)
I0302 13:10:15.439148 20068 net.cpp:165] Memory required for data: 475267104
I0302 13:10:15.439152 20068 layer_factory.hpp:77] Creating layer res2b_branch2b
I0302 13:10:15.439165 20068 net.cpp:100] Creating Layer res2b_branch2b
I0302 13:10:15.439170 20068 net.cpp:434] res2b_branch2b <- res2b_branch2a
I0302 13:10:15.439178 20068 net.cpp:408] res2b_branch2b -> res2b_branch2b
I0302 13:10:15.440870 20068 net.cpp:150] Setting up res2b_branch2b
I0302 13:10:15.440914 20068 net.cpp:157] Top shape: 8 64 56 56 (1605632)
I0302 13:10:15.440919 20068 net.cpp:165] Memory required for data: 481689632
I0302 13:10:15.440933 20068 layer_factory.hpp:77] Creating layer bn2b_branch2b
I0302 13:10:15.440970 20068 net.cpp:100] Creating Layer bn2b_branch2b
I0302 13:10:15.440979 20068 net.cpp:434] bn2b_branch2b <- res2b_branch2b
I0302 13:10:15.440987 20068 net.cpp:395] bn2b_branch2b -> res2b_branch2b (in-place)
I0302 13:10:15.441377 20068 net.cpp:150] Setting up bn2b_branch2b
I0302 13:10:15.441395 20068 net.cpp:157] Top shape: 8 64 56 56 (1605632)
I0302 13:10:15.441401 20068 net.cpp:165] Memory required for data: 488112160
I0302 13:10:15.441413 20068 layer_factory.hpp:77] Creating layer scale2b_branch2b
I0302 13:10:15.441426 20068 net.cpp:100] Creating Layer scale2b_branch2b
I0302 13:10:15.441431 20068 net.cpp:434] scale2b_branch2b <- res2b_branch2b
I0302 13:10:15.441438 20068 net.cpp:395] scale2b_branch2b -> res2b_branch2b (in-place)
I0302 13:10:15.441515 20068 layer_factory.hpp:77] Creating layer scale2b_branch2b
I0302 13:10:15.441720 20068 net.cpp:150] Setting up scale2b_branch2b
I0302 13:10:15.441730 20068 net.cpp:157] Top shape: 8 64 56 56 (1605632)
I0302 13:10:15.441735 20068 net.cpp:165] Memory required for data: 494534688
I0302 13:10:15.441743 20068 layer_factory.hpp:77] Creating layer res2b_branch2b_relu
I0302 13:10:15.441759 20068 net.cpp:100] Creating Layer res2b_branch2b_relu
I0302 13:10:15.441763 20068 net.cpp:434] res2b_branch2b_relu <- res2b_branch2b
I0302 13:10:15.441771 20068 net.cpp:395] res2b_branch2b_relu -> res2b_branch2b (in-place)
I0302 13:10:15.443817 20068 net.cpp:150] Setting up res2b_branch2b_relu
I0302 13:10:15.443862 20068 net.cpp:157] Top shape: 8 64 56 56 (1605632)
I0302 13:10:15.443869 20068 net.cpp:165] Memory required for data: 500957216
I0302 13:10:15.443895 20068 layer_factory.hpp:77] Creating layer res2b_branch2c
I0302 13:10:15.443918 20068 net.cpp:100] Creating Layer res2b_branch2c
I0302 13:10:15.443929 20068 net.cpp:434] res2b_branch2c <- res2b_branch2b
I0302 13:10:15.443939 20068 net.cpp:408] res2b_branch2c -> res2b_branch2c
I0302 13:10:15.445960 20068 net.cpp:150] Setting up res2b_branch2c
I0302 13:10:15.446022 20068 net.cpp:157] Top shape: 8 256 56 56 (6422528)
I0302 13:10:15.446029 20068 net.cpp:165] Memory required for data: 526647328
I0302 13:10:15.446041 20068 layer_factory.hpp:77] Creating layer bn2b_branch2c
I0302 13:10:15.446053 20068 net.cpp:100] Creating Layer bn2b_branch2c
I0302 13:10:15.446059 20068 net.cpp:434] bn2b_branch2c <- res2b_branch2c
I0302 13:10:15.446069 20068 net.cpp:395] bn2b_branch2c -> res2b_branch2c (in-place)
I0302 13:10:15.446452 20068 net.cpp:150] Setting up bn2b_branch2c
I0302 13:10:15.446468 20068 net.cpp:157] Top shape: 8 256 56 56 (6422528)
I0302 13:10:15.446473 20068 net.cpp:165] Memory required for data: 552337440
I0302 13:10:15.446488 20068 layer_factory.hpp:77] Creating layer scale2b_branch2c
I0302 13:10:15.446498 20068 net.cpp:100] Creating Layer scale2b_branch2c
I0302 13:10:15.446503 20068 net.cpp:434] scale2b_branch2c <- res2b_branch2c
I0302 13:10:15.446512 20068 net.cpp:395] scale2b_branch2c -> res2b_branch2c (in-place)
I0302 13:10:15.446593 20068 layer_factory.hpp:77] Creating layer scale2b_branch2c
I0302 13:10:15.446813 20068 net.cpp:150] Setting up scale2b_branch2c
I0302 13:10:15.446826 20068 net.cpp:157] Top shape: 8 256 56 56 (6422528)
I0302 13:10:15.446832 20068 net.cpp:165] Memory required for data: 578027552
I0302 13:10:15.446842 20068 layer_factory.hpp:77] Creating layer res2b
I0302 13:10:15.446854 20068 net.cpp:100] Creating Layer res2b
I0302 13:10:15.446859 20068 net.cpp:434] res2b <- res2a_res2a_relu_0_split_1
I0302 13:10:15.446866 20068 net.cpp:434] res2b <- res2b_branch2c
I0302 13:10:15.446877 20068 net.cpp:408] res2b -> res2b
I0302 13:10:15.446924 20068 net.cpp:150] Setting up res2b
I0302 13:10:15.446933 20068 net.cpp:157] Top shape: 8 256 56 56 (6422528)
I0302 13:10:15.446940 20068 net.cpp:165] Memory required for data: 603717664
I0302 13:10:15.446944 20068 layer_factory.hpp:77] Creating layer res2b_relu
I0302 13:10:15.446954 20068 net.cpp:100] Creating Layer res2b_relu
I0302 13:10:15.446957 20068 net.cpp:434] res2b_relu <- res2b
I0302 13:10:15.446964 20068 net.cpp:395] res2b_relu -> res2b (in-place)
I0302 13:10:15.447244 20068 net.cpp:150] Setting up res2b_relu
I0302 13:10:15.447258 20068 net.cpp:157] Top shape: 8 256 56 56 (6422528)
I0302 13:10:15.447263 20068 net.cpp:165] Memory required for data: 629407776
I0302 13:10:15.447269 20068 layer_factory.hpp:77] Creating layer res2b_res2b_relu_0_split
I0302 13:10:15.447278 20068 net.cpp:100] Creating Layer res2b_res2b_relu_0_split
I0302 13:10:15.447283 20068 net.cpp:434] res2b_res2b_relu_0_split <- res2b
I0302 13:10:15.447290 20068 net.cpp:408] res2b_res2b_relu_0_split -> res2b_res2b_relu_0_split_0
I0302 13:10:15.447301 20068 net.cpp:408] res2b_res2b_relu_0_split -> res2b_res2b_relu_0_split_1
I0302 13:10:15.447371 20068 net.cpp:150] Setting up res2b_res2b_relu_0_split
I0302 13:10:15.447378 20068 net.cpp:157] Top shape: 8 256 56 56 (6422528)
I0302 13:10:15.447383 20068 net.cpp:157] Top shape: 8 256 56 56 (6422528)
I0302 13:10:15.447388 20068 net.cpp:165] Memory required for data: 680788000
I0302 13:10:15.447392 20068 layer_factory.hpp:77] Creating layer res2c_branch2a
I0302 13:10:15.447405 20068 net.cpp:100] Creating Layer res2c_branch2a
I0302 13:10:15.447410 20068 net.cpp:434] res2c_branch2a <- res2b_res2b_relu_0_split_0
I0302 13:10:15.447417 20068 net.cpp:408] res2c_branch2a -> res2c_branch2a
I0302 13:10:15.449158 20068 net.cpp:150] Setting up res2c_branch2a
I0302 13:10:15.449218 20068 net.cpp:157] Top shape: 8 64 56 56 (1605632)
I0302 13:10:15.449223 20068 net.cpp:165] Memory required for data: 687210528
I0302 13:10:15.449235 20068 layer_factory.hpp:77] Creating layer bn2c_branch2a
I0302 13:10:15.449249 20068 net.cpp:100] Creating Layer bn2c_branch2a
I0302 13:10:15.449267 20068 net.cpp:434] bn2c_branch2a <- res2c_branch2a
I0302 13:10:15.449280 20068 net.cpp:395] bn2c_branch2a -> res2c_branch2a (in-place)
I0302 13:10:15.449702 20068 net.cpp:150] Setting up bn2c_branch2a
I0302 13:10:15.449731 20068 net.cpp:157] Top shape: 8 64 56 56 (1605632)
I0302 13:10:15.449744 20068 net.cpp:165] Memory required for data: 693633056
I0302 13:10:15.449777 20068 layer_factory.hpp:77] Creating layer scale2c_branch2a
I0302 13:10:15.449807 20068 net.cpp:100] Creating Layer scale2c_branch2a
I0302 13:10:15.449820 20068 net.cpp:434] scale2c_branch2a <- res2c_branch2a
I0302 13:10:15.449839 20068 net.cpp:395] scale2c_branch2a -> res2c_branch2a (in-place)
I0302 13:10:15.449940 20068 layer_factory.hpp:77] Creating layer scale2c_branch2a
I0302 13:10:15.450179 20068 net.cpp:150] Setting up scale2c_branch2a
I0302 13:10:15.450192 20068 net.cpp:157] Top shape: 8 64 56 56 (1605632)
I0302 13:10:15.450196 20068 net.cpp:165] Memory required for data: 700055584
I0302 13:10:15.450206 20068 layer_factory.hpp:77] Creating layer res2c_branch2a_relu
I0302 13:10:15.450217 20068 net.cpp:100] Creating Layer res2c_branch2a_relu
I0302 13:10:15.450223 20068 net.cpp:434] res2c_branch2a_relu <- res2c_branch2a
I0302 13:10:15.450230 20068 net.cpp:395] res2c_branch2a_relu -> res2c_branch2a (in-place)
I0302 13:10:15.450538 20068 net.cpp:150] Setting up res2c_branch2a_relu
I0302 13:10:15.450552 20068 net.cpp:157] Top shape: 8 64 56 56 (1605632)
I0302 13:10:15.450556 20068 net.cpp:165] Memory required for data: 706478112
I0302 13:10:15.450564 20068 layer_factory.hpp:77] Creating layer res2c_branch2b
I0302 13:10:15.450580 20068 net.cpp:100] Creating Layer res2c_branch2b
I0302 13:10:15.450585 20068 net.cpp:434] res2c_branch2b <- res2c_branch2a
I0302 13:10:15.450593 20068 net.cpp:408] res2c_branch2b -> res2c_branch2b
I0302 13:10:15.453290 20068 net.cpp:150] Setting up res2c_branch2b
I0302 13:10:15.453330 20068 net.cpp:157] Top shape: 8 64 56 56 (1605632)
I0302 13:10:15.453335 20068 net.cpp:165] Memory required for data: 712900640
I0302 13:10:15.453348 20068 layer_factory.hpp:77] Creating layer bn2c_branch2b
I0302 13:10:15.453361 20068 net.cpp:100] Creating Layer bn2c_branch2b
I0302 13:10:15.453367 20068 net.cpp:434] bn2c_branch2b <- res2c_branch2b
I0302 13:10:15.453375 20068 net.cpp:395] bn2c_branch2b -> res2c_branch2b (in-place)
I0302 13:10:15.453793 20068 net.cpp:150] Setting up bn2c_branch2b
I0302 13:10:15.453807 20068 net.cpp:157] Top shape: 8 64 56 56 (1605632)
I0302 13:10:15.453811 20068 net.cpp:165] Memory required for data: 719323168
I0302 13:10:15.453824 20068 layer_factory.hpp:77] Creating layer scale2c_branch2b
I0302 13:10:15.453835 20068 net.cpp:100] Creating Layer scale2c_branch2b
I0302 13:10:15.453840 20068 net.cpp:434] scale2c_branch2b <- res2c_branch2b
I0302 13:10:15.453847 20068 net.cpp:395] scale2c_branch2b -> res2c_branch2b (in-place)
I0302 13:10:15.453923 20068 layer_factory.hpp:77] Creating layer scale2c_branch2b
I0302 13:10:15.454128 20068 net.cpp:150] Setting up scale2c_branch2b
I0302 13:10:15.454138 20068 net.cpp:157] Top shape: 8 64 56 56 (1605632)
I0302 13:10:15.454141 20068 net.cpp:165] Memory required for data: 725745696
I0302 13:10:15.454150 20068 layer_factory.hpp:77] Creating layer res2c_branch2b_relu
I0302 13:10:15.454159 20068 net.cpp:100] Creating Layer res2c_branch2b_relu
I0302 13:10:15.454162 20068 net.cpp:434] res2c_branch2b_relu <- res2c_branch2b
I0302 13:10:15.454169 20068 net.cpp:395] res2c_branch2b_relu -> res2c_branch2b (in-place)
I0302 13:10:15.454417 20068 net.cpp:150] Setting up res2c_branch2b_relu
I0302 13:10:15.454428 20068 net.cpp:157] Top shape: 8 64 56 56 (1605632)
I0302 13:10:15.454432 20068 net.cpp:165] Memory required for data: 732168224
I0302 13:10:15.454437 20068 layer_factory.hpp:77] Creating layer res2c_branch2c
I0302 13:10:15.454447 20068 net.cpp:100] Creating Layer res2c_branch2c
I0302 13:10:15.454452 20068 net.cpp:434] res2c_branch2c <- res2c_branch2b
I0302 13:10:15.454459 20068 net.cpp:408] res2c_branch2c -> res2c_branch2c
I0302 13:10:15.456148 20068 net.cpp:150] Setting up res2c_branch2c
I0302 13:10:15.456185 20068 net.cpp:157] Top shape: 8 256 56 56 (6422528)
I0302 13:10:15.456190 20068 net.cpp:165] Memory required for data: 757858336
I0302 13:10:15.456202 20068 layer_factory.hpp:77] Creating layer bn2c_branch2c
I0302 13:10:15.456215 20068 net.cpp:100] Creating Layer bn2c_branch2c
I0302 13:10:15.456220 20068 net.cpp:434] bn2c_branch2c <- res2c_branch2c
I0302 13:10:15.456229 20068 net.cpp:395] bn2c_branch2c -> res2c_branch2c (in-place)
I0302 13:10:15.456598 20068 net.cpp:150] Setting up bn2c_branch2c
I0302 13:10:15.456612 20068 net.cpp:157] Top shape: 8 256 56 56 (6422528)
I0302 13:10:15.456616 20068 net.cpp:165] Memory required for data: 783548448
I0302 13:10:15.456645 20068 layer_factory.hpp:77] Creating layer scale2c_branch2c
I0302 13:10:15.456658 20068 net.cpp:100] Creating Layer scale2c_branch2c
I0302 13:10:15.456663 20068 net.cpp:434] scale2c_branch2c <- res2c_branch2c
I0302 13:10:15.456670 20068 net.cpp:395] scale2c_branch2c -> res2c_branch2c (in-place)
I0302 13:10:15.456746 20068 layer_factory.hpp:77] Creating layer scale2c_branch2c
I0302 13:10:15.456955 20068 net.cpp:150] Setting up scale2c_branch2c
I0302 13:10:15.456970 20068 net.cpp:157] Top shape: 8 256 56 56 (6422528)
I0302 13:10:15.456975 20068 net.cpp:165] Memory required for data: 809238560
I0302 13:10:15.456985 20068 layer_factory.hpp:77] Creating layer res2c
I0302 13:10:15.456992 20068 net.cpp:100] Creating Layer res2c
I0302 13:10:15.456998 20068 net.cpp:434] res2c <- res2b_res2b_relu_0_split_1
I0302 13:10:15.457005 20068 net.cpp:434] res2c <- res2c_branch2c
I0302 13:10:15.457012 20068 net.cpp:408] res2c -> res2c
I0302 13:10:15.457053 20068 net.cpp:150] Setting up res2c
I0302 13:10:15.457062 20068 net.cpp:157] Top shape: 8 256 56 56 (6422528)
I0302 13:10:15.457065 20068 net.cpp:165] Memory required for data: 834928672
I0302 13:10:15.457070 20068 layer_factory.hpp:77] Creating layer res2c_relu
I0302 13:10:15.457079 20068 net.cpp:100] Creating Layer res2c_relu
I0302 13:10:15.457083 20068 net.cpp:434] res2c_relu <- res2c
I0302 13:10:15.457089 20068 net.cpp:395] res2c_relu -> res2c (in-place)
I0302 13:10:15.457351 20068 net.cpp:150] Setting up res2c_relu
I0302 13:10:15.457362 20068 net.cpp:157] Top shape: 8 256 56 56 (6422528)
I0302 13:10:15.457366 20068 net.cpp:165] Memory required for data: 860618784
I0302 13:10:15.457371 20068 layer_factory.hpp:77] Creating layer res2c_res2c_relu_0_split
I0302 13:10:15.457381 20068 net.cpp:100] Creating Layer res2c_res2c_relu_0_split
I0302 13:10:15.457386 20068 net.cpp:434] res2c_res2c_relu_0_split <- res2c
I0302 13:10:15.457392 20068 net.cpp:408] res2c_res2c_relu_0_split -> res2c_res2c_relu_0_split_0
I0302 13:10:15.457402 20068 net.cpp:408] res2c_res2c_relu_0_split -> res2c_res2c_relu_0_split_1
I0302 13:10:15.457470 20068 net.cpp:150] Setting up res2c_res2c_relu_0_split
I0302 13:10:15.457478 20068 net.cpp:157] Top shape: 8 256 56 56 (6422528)
I0302 13:10:15.457484 20068 net.cpp:157] Top shape: 8 256 56 56 (6422528)
I0302 13:10:15.457487 20068 net.cpp:165] Memory required for data: 911999008
I0302 13:10:15.457492 20068 layer_factory.hpp:77] Creating layer res3a_branch1
I0302 13:10:15.457505 20068 net.cpp:100] Creating Layer res3a_branch1
I0302 13:10:15.457510 20068 net.cpp:434] res3a_branch1 <- res2c_res2c_relu_0_split_0
I0302 13:10:15.457516 20068 net.cpp:408] res3a_branch1 -> res3a_branch1
I0302 13:10:15.462465 20068 net.cpp:150] Setting up res3a_branch1
I0302 13:10:15.462505 20068 net.cpp:157] Top shape: 8 512 28 28 (3211264)
I0302 13:10:15.462510 20068 net.cpp:165] Memory required for data: 924844064
I0302 13:10:15.462522 20068 layer_factory.hpp:77] Creating layer bn3a_branch1
I0302 13:10:15.462534 20068 net.cpp:100] Creating Layer bn3a_branch1
I0302 13:10:15.462540 20068 net.cpp:434] bn3a_branch1 <- res3a_branch1
I0302 13:10:15.462549 20068 net.cpp:395] bn3a_branch1 -> res3a_branch1 (in-place)
I0302 13:10:15.464637 20068 net.cpp:150] Setting up bn3a_branch1
I0302 13:10:15.464687 20068 net.cpp:157] Top shape: 8 512 28 28 (3211264)
I0302 13:10:15.464706 20068 net.cpp:165] Memory required for data: 937689120
I0302 13:10:15.464726 20068 layer_factory.hpp:77] Creating layer scale3a_branch1
I0302 13:10:15.464745 20068 net.cpp:100] Creating Layer scale3a_branch1
I0302 13:10:15.464754 20068 net.cpp:434] scale3a_branch1 <- res3a_branch1
I0302 13:10:15.464769 20068 net.cpp:395] scale3a_branch1 -> res3a_branch1 (in-place)
I0302 13:10:15.464887 20068 layer_factory.hpp:77] Creating layer scale3a_branch1
I0302 13:10:15.465188 20068 net.cpp:150] Setting up scale3a_branch1
I0302 13:10:15.465205 20068 net.cpp:157] Top shape: 8 512 28 28 (3211264)
I0302 13:10:15.465212 20068 net.cpp:165] Memory required for data: 950534176
I0302 13:10:15.465226 20068 layer_factory.hpp:77] Creating layer res3a_branch2a
I0302 13:10:15.465245 20068 net.cpp:100] Creating Layer res3a_branch2a
I0302 13:10:15.465252 20068 net.cpp:434] res3a_branch2a <- res2c_res2c_relu_0_split_1
I0302 13:10:15.465263 20068 net.cpp:408] res3a_branch2a -> res3a_branch2a
I0302 13:10:15.467643 20068 net.cpp:150] Setting up res3a_branch2a
I0302 13:10:15.467689 20068 net.cpp:157] Top shape: 8 128 28 28 (802816)
I0302 13:10:15.467698 20068 net.cpp:165] Memory required for data: 953745440
I0302 13:10:15.467715 20068 layer_factory.hpp:77] Creating layer bn3a_branch2a
I0302 13:10:15.467730 20068 net.cpp:100] Creating Layer bn3a_branch2a
I0302 13:10:15.467738 20068 net.cpp:434] bn3a_branch2a <- res3a_branch2a
I0302 13:10:15.467753 20068 net.cpp:395] bn3a_branch2a -> res3a_branch2a (in-place)
I0302 13:10:15.468245 20068 net.cpp:150] Setting up bn3a_branch2a
I0302 13:10:15.468264 20068 net.cpp:157] Top shape: 8 128 28 28 (802816)
I0302 13:10:15.468271 20068 net.cpp:165] Memory required for data: 956956704
I0302 13:10:15.468289 20068 layer_factory.hpp:77] Creating layer scale3a_branch2a
I0302 13:10:15.468307 20068 net.cpp:100] Creating Layer scale3a_branch2a
I0302 13:10:15.468313 20068 net.cpp:434] scale3a_branch2a <- res3a_branch2a
I0302 13:10:15.468324 20068 net.cpp:395] scale3a_branch2a -> res3a_branch2a (in-place)
I0302 13:10:15.468428 20068 layer_factory.hpp:77] Creating layer scale3a_branch2a
I0302 13:10:15.468725 20068 net.cpp:150] Setting up scale3a_branch2a
I0302 13:10:15.468746 20068 net.cpp:157] Top shape: 8 128 28 28 (802816)
I0302 13:10:15.468756 20068 net.cpp:165] Memory required for data: 960167968
I0302 13:10:15.468771 20068 layer_factory.hpp:77] Creating layer res3a_branch2a_relu
I0302 13:10:15.468786 20068 net.cpp:100] Creating Layer res3a_branch2a_relu
I0302 13:10:15.468799 20068 net.cpp:434] res3a_branch2a_relu <- res3a_branch2a
I0302 13:10:15.468808 20068 net.cpp:395] res3a_branch2a_relu -> res3a_branch2a (in-place)
I0302 13:10:15.469214 20068 net.cpp:150] Setting up res3a_branch2a_relu
I0302 13:10:15.469254 20068 net.cpp:157] Top shape: 8 128 28 28 (802816)
I0302 13:10:15.469261 20068 net.cpp:165] Memory required for data: 963379232
I0302 13:10:15.469269 20068 layer_factory.hpp:77] Creating layer res3a_branch2b
I0302 13:10:15.469291 20068 net.cpp:100] Creating Layer res3a_branch2b
I0302 13:10:15.469305 20068 net.cpp:434] res3a_branch2b <- res3a_branch2a
I0302 13:10:15.469321 20068 net.cpp:408] res3a_branch2b -> res3a_branch2b
I0302 13:10:15.473639 20068 net.cpp:150] Setting up res3a_branch2b
I0302 13:10:15.473703 20068 net.cpp:157] Top shape: 8 128 28 28 (802816)
I0302 13:10:15.473716 20068 net.cpp:165] Memory required for data: 966590496
I0302 13:10:15.473738 20068 layer_factory.hpp:77] Creating layer bn3a_branch2b
I0302 13:10:15.473767 20068 net.cpp:100] Creating Layer bn3a_branch2b
I0302 13:10:15.473780 20068 net.cpp:434] bn3a_branch2b <- res3a_branch2b
I0302 13:10:15.473796 20068 net.cpp:395] bn3a_branch2b -> res3a_branch2b (in-place)
I0302 13:10:15.474563 20068 net.cpp:150] Setting up bn3a_branch2b
I0302 13:10:15.474587 20068 net.cpp:157] Top shape: 8 128 28 28 (802816)
I0302 13:10:15.474596 20068 net.cpp:165] Memory required for data: 969801760
I0302 13:10:15.474622 20068 layer_factory.hpp:77] Creating layer scale3a_branch2b
I0302 13:10:15.474650 20068 net.cpp:100] Creating Layer scale3a_branch2b
I0302 13:10:15.474680 20068 net.cpp:434] scale3a_branch2b <- res3a_branch2b
I0302 13:10:15.474700 20068 net.cpp:395] scale3a_branch2b -> res3a_branch2b (in-place)
I0302 13:10:15.474836 20068 layer_factory.hpp:77] Creating layer scale3a_branch2b
I0302 13:10:15.475334 20068 net.cpp:150] Setting up scale3a_branch2b
I0302 13:10:15.475354 20068 net.cpp:157] Top shape: 8 128 28 28 (802816)
I0302 13:10:15.475366 20068 net.cpp:165] Memory required for data: 973013024
I0302 13:10:15.475386 20068 layer_factory.hpp:77] Creating layer res3a_branch2b_relu
I0302 13:10:15.475404 20068 net.cpp:100] Creating Layer res3a_branch2b_relu
I0302 13:10:15.475412 20068 net.cpp:434] res3a_branch2b_relu <- res3a_branch2b
I0302 13:10:15.475425 20068 net.cpp:395] res3a_branch2b_relu -> res3a_branch2b (in-place)
I0302 13:10:15.476917 20068 net.cpp:150] Setting up res3a_branch2b_relu
I0302 13:10:15.476984 20068 net.cpp:157] Top shape: 8 128 28 28 (802816)
I0302 13:10:15.476994 20068 net.cpp:165] Memory required for data: 976224288
I0302 13:10:15.477006 20068 layer_factory.hpp:77] Creating layer res3a_branch2c
I0302 13:10:15.477062 20068 net.cpp:100] Creating Layer res3a_branch2c
I0302 13:10:15.477075 20068 net.cpp:434] res3a_branch2c <- res3a_branch2b
I0302 13:10:15.477097 20068 net.cpp:408] res3a_branch2c -> res3a_branch2c
I0302 13:10:15.479501 20068 net.cpp:150] Setting up res3a_branch2c
I0302 13:10:15.479554 20068 net.cpp:157] Top shape: 8 512 28 28 (3211264)
I0302 13:10:15.479568 20068 net.cpp:165] Memory required for data: 989069344
I0302 13:10:15.479591 20068 layer_factory.hpp:77] Creating layer bn3a_branch2c
I0302 13:10:15.479615 20068 net.cpp:100] Creating Layer bn3a_branch2c
I0302 13:10:15.479629 20068 net.cpp:434] bn3a_branch2c <- res3a_branch2c
I0302 13:10:15.479646 20068 net.cpp:395] bn3a_branch2c -> res3a_branch2c (in-place)
I0302 13:10:15.480430 20068 net.cpp:150] Setting up bn3a_branch2c
I0302 13:10:15.480458 20068 net.cpp:157] Top shape: 8 512 28 28 (3211264)
I0302 13:10:15.480469 20068 net.cpp:165] Memory required for data: 1001914400
I0302 13:10:15.480496 20068 layer_factory.hpp:77] Creating layer scale3a_branch2c
I0302 13:10:15.480525 20068 net.cpp:100] Creating Layer scale3a_branch2c
I0302 13:10:15.480540 20068 net.cpp:434] scale3a_branch2c <- res3a_branch2c
I0302 13:10:15.480556 20068 net.cpp:395] scale3a_branch2c -> res3a_branch2c (in-place)
I0302 13:10:15.480700 20068 layer_factory.hpp:77] Creating layer scale3a_branch2c
I0302 13:10:15.481083 20068 net.cpp:150] Setting up scale3a_branch2c
I0302 13:10:15.481103 20068 net.cpp:157] Top shape: 8 512 28 28 (3211264)
I0302 13:10:15.481112 20068 net.cpp:165] Memory required for data: 1014759456
I0302 13:10:15.481128 20068 layer_factory.hpp:77] Creating layer res3a
I0302 13:10:15.481143 20068 net.cpp:100] Creating Layer res3a
I0302 13:10:15.481153 20068 net.cpp:434] res3a <- res3a_branch1
I0302 13:10:15.481163 20068 net.cpp:434] res3a <- res3a_branch2c
I0302 13:10:15.481174 20068 net.cpp:408] res3a -> res3a
I0302 13:10:15.481233 20068 net.cpp:150] Setting up res3a
I0302 13:10:15.481248 20068 net.cpp:157] Top shape: 8 512 28 28 (3211264)
I0302 13:10:15.481256 20068 net.cpp:165] Memory required for data: 1027604512
I0302 13:10:15.481262 20068 layer_factory.hpp:77] Creating layer res3a_relu
I0302 13:10:15.481273 20068 net.cpp:100] Creating Layer res3a_relu
I0302 13:10:15.481282 20068 net.cpp:434] res3a_relu <- res3a
I0302 13:10:15.481294 20068 net.cpp:395] res3a_relu -> res3a (in-place)
I0302 13:10:15.482569 20068 net.cpp:150] Setting up res3a_relu
I0302 13:10:15.482621 20068 net.cpp:157] Top shape: 8 512 28 28 (3211264)
I0302 13:10:15.482633 20068 net.cpp:165] Memory required for data: 1040449568
I0302 13:10:15.482643 20068 layer_factory.hpp:77] Creating layer res3a_res3a_relu_0_split
I0302 13:10:15.482661 20068 net.cpp:100] Creating Layer res3a_res3a_relu_0_split
I0302 13:10:15.482671 20068 net.cpp:434] res3a_res3a_relu_0_split <- res3a
I0302 13:10:15.482691 20068 net.cpp:408] res3a_res3a_relu_0_split -> res3a_res3a_relu_0_split_0
I0302 13:10:15.482719 20068 net.cpp:408] res3a_res3a_relu_0_split -> res3a_res3a_relu_0_split_1
I0302 13:10:15.482899 20068 net.cpp:150] Setting up res3a_res3a_relu_0_split
I0302 13:10:15.482916 20068 net.cpp:157] Top shape: 8 512 28 28 (3211264)
I0302 13:10:15.482928 20068 net.cpp:157] Top shape: 8 512 28 28 (3211264)
I0302 13:10:15.482934 20068 net.cpp:165] Memory required for data: 1066139680
I0302 13:10:15.482942 20068 layer_factory.hpp:77] Creating layer res3b_branch2a
I0302 13:10:15.482964 20068 net.cpp:100] Creating Layer res3b_branch2a
I0302 13:10:15.482975 20068 net.cpp:434] res3b_branch2a <- res3a_res3a_relu_0_split_0
I0302 13:10:15.482987 20068 net.cpp:408] res3b_branch2a -> res3b_branch2a
I0302 13:10:15.486958 20068 net.cpp:150] Setting up res3b_branch2a
I0302 13:10:15.487020 20068 net.cpp:157] Top shape: 8 128 28 28 (802816)
I0302 13:10:15.487032 20068 net.cpp:165] Memory required for data: 1069350944
I0302 13:10:15.487058 20068 layer_factory.hpp:77] Creating layer bn3b_branch2a
I0302 13:10:15.487083 20068 net.cpp:100] Creating Layer bn3b_branch2a
I0302 13:10:15.487095 20068 net.cpp:434] bn3b_branch2a <- res3b_branch2a
I0302 13:10:15.487112 20068 net.cpp:395] bn3b_branch2a -> res3b_branch2a (in-place)
I0302 13:10:15.487969 20068 net.cpp:150] Setting up bn3b_branch2a
I0302 13:10:15.488013 20068 net.cpp:157] Top shape: 8 128 28 28 (802816)
I0302 13:10:15.488032 20068 net.cpp:165] Memory required for data: 1072562208
I0302 13:10:15.488077 20068 layer_factory.hpp:77] Creating layer scale3b_branch2a
I0302 13:10:15.488114 20068 net.cpp:100] Creating Layer scale3b_branch2a
I0302 13:10:15.488134 20068 net.cpp:434] scale3b_branch2a <- res3b_branch2a
I0302 13:10:15.488160 20068 net.cpp:395] scale3b_branch2a -> res3b_branch2a (in-place)
I0302 13:10:15.488337 20068 layer_factory.hpp:77] Creating layer scale3b_branch2a
I0302 13:10:15.488837 20068 net.cpp:150] Setting up scale3b_branch2a
I0302 13:10:15.488860 20068 net.cpp:157] Top shape: 8 128 28 28 (802816)
I0302 13:10:15.488873 20068 net.cpp:165] Memory required for data: 1075773472
I0302 13:10:15.488893 20068 layer_factory.hpp:77] Creating layer res3b_branch2a_relu
I0302 13:10:15.488919 20068 net.cpp:100] Creating Layer res3b_branch2a_relu
I0302 13:10:15.488930 20068 net.cpp:434] res3b_branch2a_relu <- res3b_branch2a
I0302 13:10:15.488957 20068 net.cpp:395] res3b_branch2a_relu -> res3b_branch2a (in-place)
I0302 13:10:15.489456 20068 net.cpp:150] Setting up res3b_branch2a_relu
I0302 13:10:15.489477 20068 net.cpp:157] Top shape: 8 128 28 28 (802816)
I0302 13:10:15.489485 20068 net.cpp:165] Memory required for data: 1078984736
I0302 13:10:15.489496 20068 layer_factory.hpp:77] Creating layer res3b_branch2b
I0302 13:10:15.489517 20068 net.cpp:100] Creating Layer res3b_branch2b
I0302 13:10:15.489527 20068 net.cpp:434] res3b_branch2b <- res3b_branch2a
I0302 13:10:15.489545 20068 net.cpp:408] res3b_branch2b -> res3b_branch2b
I0302 13:10:15.495373 20068 net.cpp:150] Setting up res3b_branch2b
I0302 13:10:15.495438 20068 net.cpp:157] Top shape: 8 128 28 28 (802816)
I0302 13:10:15.495452 20068 net.cpp:165] Memory required for data: 1082196000
I0302 13:10:15.495474 20068 layer_factory.hpp:77] Creating layer bn3b_branch2b
I0302 13:10:15.495502 20068 net.cpp:100] Creating Layer bn3b_branch2b
I0302 13:10:15.495514 20068 net.cpp:434] bn3b_branch2b <- res3b_branch2b
I0302 13:10:15.495533 20068 net.cpp:395] bn3b_branch2b -> res3b_branch2b (in-place)
I0302 13:10:15.496579 20068 net.cpp:150] Setting up bn3b_branch2b
I0302 13:10:15.496631 20068 net.cpp:157] Top shape: 8 128 28 28 (802816)
I0302 13:10:15.496644 20068 net.cpp:165] Memory required for data: 1085407264
I0302 13:10:15.496670 20068 layer_factory.hpp:77] Creating layer scale3b_branch2b
I0302 13:10:15.496698 20068 net.cpp:100] Creating Layer scale3b_branch2b
I0302 13:10:15.496709 20068 net.cpp:434] scale3b_branch2b <- res3b_branch2b
I0302 13:10:15.496732 20068 net.cpp:395] scale3b_branch2b -> res3b_branch2b (in-place)
I0302 13:10:15.496949 20068 layer_factory.hpp:77] Creating layer scale3b_branch2b
I0302 13:10:15.497515 20068 net.cpp:150] Setting up scale3b_branch2b
I0302 13:10:15.497544 20068 net.cpp:157] Top shape: 8 128 28 28 (802816)
I0302 13:10:15.497571 20068 net.cpp:165] Memory required for data: 1088618528
I0302 13:10:15.497601 20068 layer_factory.hpp:77] Creating layer res3b_branch2b_relu
I0302 13:10:15.497627 20068 net.cpp:100] Creating Layer res3b_branch2b_relu
I0302 13:10:15.497642 20068 net.cpp:434] res3b_branch2b_relu <- res3b_branch2b
I0302 13:10:15.497663 20068 net.cpp:395] res3b_branch2b_relu -> res3b_branch2b (in-place)
I0302 13:10:15.498180 20068 net.cpp:150] Setting up res3b_branch2b_relu
I0302 13:10:15.498210 20068 net.cpp:157] Top shape: 8 128 28 28 (802816)
I0302 13:10:15.498222 20068 net.cpp:165] Memory required for data: 1091829792
I0302 13:10:15.498231 20068 layer_factory.hpp:77] Creating layer res3b_branch2c
I0302 13:10:15.498255 20068 net.cpp:100] Creating Layer res3b_branch2c
I0302 13:10:15.498265 20068 net.cpp:434] res3b_branch2c <- res3b_branch2b
I0302 13:10:15.498286 20068 net.cpp:408] res3b_branch2c -> res3b_branch2c
I0302 13:10:15.501626 20068 net.cpp:150] Setting up res3b_branch2c
I0302 13:10:15.501693 20068 net.cpp:157] Top shape: 8 512 28 28 (3211264)
I0302 13:10:15.501704 20068 net.cpp:165] Memory required for data: 1104674848
I0302 13:10:15.501724 20068 layer_factory.hpp:77] Creating layer bn3b_branch2c
I0302 13:10:15.501746 20068 net.cpp:100] Creating Layer bn3b_branch2c
I0302 13:10:15.501758 20068 net.cpp:434] bn3b_branch2c <- res3b_branch2c
I0302 13:10:15.501777 20068 net.cpp:395] bn3b_branch2c -> res3b_branch2c (in-place)
I0302 13:10:15.502476 20068 net.cpp:150] Setting up bn3b_branch2c
I0302 13:10:15.502506 20068 net.cpp:157] Top shape: 8 512 28 28 (3211264)
I0302 13:10:15.502514 20068 net.cpp:165] Memory required for data: 1117519904
I0302 13:10:15.502534 20068 layer_factory.hpp:77] Creating layer scale3b_branch2c
I0302 13:10:15.502554 20068 net.cpp:100] Creating Layer scale3b_branch2c
I0302 13:10:15.502565 20068 net.cpp:434] scale3b_branch2c <- res3b_branch2c
I0302 13:10:15.502581 20068 net.cpp:395] scale3b_branch2c -> res3b_branch2c (in-place)
I0302 13:10:15.502724 20068 layer_factory.hpp:77] Creating layer scale3b_branch2c
I0302 13:10:15.503087 20068 net.cpp:150] Setting up scale3b_branch2c
I0302 13:10:15.503106 20068 net.cpp:157] Top shape: 8 512 28 28 (3211264)
I0302 13:10:15.503115 20068 net.cpp:165] Memory required for data: 1130364960
I0302 13:10:15.503134 20068 layer_factory.hpp:77] Creating layer res3b
I0302 13:10:15.503149 20068 net.cpp:100] Creating Layer res3b
I0302 13:10:15.503159 20068 net.cpp:434] res3b <- res3a_res3a_relu_0_split_1
I0302 13:10:15.503170 20068 net.cpp:434] res3b <- res3b_branch2c
I0302 13:10:15.503190 20068 net.cpp:408] res3b -> res3b
I0302 13:10:15.503259 20068 net.cpp:150] Setting up res3b
I0302 13:10:15.503275 20068 net.cpp:157] Top shape: 8 512 28 28 (3211264)
I0302 13:10:15.503283 20068 net.cpp:165] Memory required for data: 1143210016
I0302 13:10:15.503290 20068 layer_factory.hpp:77] Creating layer res3b_relu
I0302 13:10:15.503302 20068 net.cpp:100] Creating Layer res3b_relu
I0302 13:10:15.503311 20068 net.cpp:434] res3b_relu <- res3b
I0302 13:10:15.503321 20068 net.cpp:395] res3b_relu -> res3b (in-place)
I0302 13:10:15.503734 20068 net.cpp:150] Setting up res3b_relu
I0302 13:10:15.503756 20068 net.cpp:157] Top shape: 8 512 28 28 (3211264)
I0302 13:10:15.503764 20068 net.cpp:165] Memory required for data: 1156055072
I0302 13:10:15.503772 20068 layer_factory.hpp:77] Creating layer res3b_res3b_relu_0_split
I0302 13:10:15.503787 20068 net.cpp:100] Creating Layer res3b_res3b_relu_0_split
I0302 13:10:15.503796 20068 net.cpp:434] res3b_res3b_relu_0_split <- res3b
I0302 13:10:15.503808 20068 net.cpp:408] res3b_res3b_relu_0_split -> res3b_res3b_relu_0_split_0
I0302 13:10:15.503823 20068 net.cpp:408] res3b_res3b_relu_0_split -> res3b_res3b_relu_0_split_1
I0302 13:10:15.503968 20068 net.cpp:150] Setting up res3b_res3b_relu_0_split
I0302 13:10:15.503983 20068 net.cpp:157] Top shape: 8 512 28 28 (3211264)
I0302 13:10:15.503993 20068 net.cpp:157] Top shape: 8 512 28 28 (3211264)
I0302 13:10:15.503999 20068 net.cpp:165] Memory required for data: 1181745184
I0302 13:10:15.504024 20068 layer_factory.hpp:77] Creating layer res3c_branch2a
I0302 13:10:15.504050 20068 net.cpp:100] Creating Layer res3c_branch2a
I0302 13:10:15.504062 20068 net.cpp:434] res3c_branch2a <- res3b_res3b_relu_0_split_0
I0302 13:10:15.504076 20068 net.cpp:408] res3c_branch2a -> res3c_branch2a
I0302 13:10:15.507050 20068 net.cpp:150] Setting up res3c_branch2a
I0302 13:10:15.507107 20068 net.cpp:157] Top shape: 8 128 28 28 (802816)
I0302 13:10:15.507118 20068 net.cpp:165] Memory required for data: 1184956448
I0302 13:10:15.507138 20068 layer_factory.hpp:77] Creating layer bn3c_branch2a
I0302 13:10:15.507160 20068 net.cpp:100] Creating Layer bn3c_branch2a
I0302 13:10:15.507171 20068 net.cpp:434] bn3c_branch2a <- res3c_branch2a
I0302 13:10:15.507187 20068 net.cpp:395] bn3c_branch2a -> res3c_branch2a (in-place)
I0302 13:10:15.507836 20068 net.cpp:150] Setting up bn3c_branch2a
I0302 13:10:15.507859 20068 net.cpp:157] Top shape: 8 128 28 28 (802816)
I0302 13:10:15.507867 20068 net.cpp:165] Memory required for data: 1188167712
I0302 13:10:15.507887 20068 layer_factory.hpp:77] Creating layer scale3c_branch2a
I0302 13:10:15.507907 20068 net.cpp:100] Creating Layer scale3c_branch2a
I0302 13:10:15.507918 20068 net.cpp:434] scale3c_branch2a <- res3c_branch2a
I0302 13:10:15.507933 20068 net.cpp:395] scale3c_branch2a -> res3c_branch2a (in-place)
I0302 13:10:15.508059 20068 layer_factory.hpp:77] Creating layer scale3c_branch2a
I0302 13:10:15.508396 20068 net.cpp:150] Setting up scale3c_branch2a
I0302 13:10:15.508415 20068 net.cpp:157] Top shape: 8 128 28 28 (802816)
I0302 13:10:15.508424 20068 net.cpp:165] Memory required for data: 1191378976
I0302 13:10:15.508440 20068 layer_factory.hpp:77] Creating layer res3c_branch2a_relu
I0302 13:10:15.508455 20068 net.cpp:100] Creating Layer res3c_branch2a_relu
I0302 13:10:15.508463 20068 net.cpp:434] res3c_branch2a_relu <- res3c_branch2a
I0302 13:10:15.508477 20068 net.cpp:395] res3c_branch2a_relu -> res3c_branch2a (in-place)
I0302 13:10:15.508853 20068 net.cpp:150] Setting up res3c_branch2a_relu
I0302 13:10:15.508873 20068 net.cpp:157] Top shape: 8 128 28 28 (802816)
I0302 13:10:15.508882 20068 net.cpp:165] Memory required for data: 1194590240
I0302 13:10:15.508889 20068 layer_factory.hpp:77] Creating layer res3c_branch2b
I0302 13:10:15.508913 20068 net.cpp:100] Creating Layer res3c_branch2b
I0302 13:10:15.508924 20068 net.cpp:434] res3c_branch2b <- res3c_branch2a
I0302 13:10:15.508963 20068 net.cpp:408] res3c_branch2b -> res3c_branch2b
I0302 13:10:15.513438 20068 net.cpp:150] Setting up res3c_branch2b
I0302 13:10:15.513476 20068 net.cpp:157] Top shape: 8 128 28 28 (802816)
I0302 13:10:15.513481 20068 net.cpp:165] Memory required for data: 1197801504
I0302 13:10:15.513495 20068 layer_factory.hpp:77] Creating layer bn3c_branch2b
I0302 13:10:15.513510 20068 net.cpp:100] Creating Layer bn3c_branch2b
I0302 13:10:15.513517 20068 net.cpp:434] bn3c_branch2b <- res3c_branch2b
I0302 13:10:15.513526 20068 net.cpp:395] bn3c_branch2b -> res3c_branch2b (in-place)
I0302 13:10:15.513950 20068 net.cpp:150] Setting up bn3c_branch2b
I0302 13:10:15.513967 20068 net.cpp:157] Top shape: 8 128 28 28 (802816)
I0302 13:10:15.513972 20068 net.cpp:165] Memory required for data: 1201012768
I0302 13:10:15.513985 20068 layer_factory.hpp:77] Creating layer scale3c_branch2b
I0302 13:10:15.514000 20068 net.cpp:100] Creating Layer scale3c_branch2b
I0302 13:10:15.514005 20068 net.cpp:434] scale3c_branch2b <- res3c_branch2b
I0302 13:10:15.514014 20068 net.cpp:395] scale3c_branch2b -> res3c_branch2b (in-place)
I0302 13:10:15.514099 20068 layer_factory.hpp:77] Creating layer scale3c_branch2b
I0302 13:10:15.514307 20068 net.cpp:150] Setting up scale3c_branch2b
I0302 13:10:15.514320 20068 net.cpp:157] Top shape: 8 128 28 28 (802816)
I0302 13:10:15.514324 20068 net.cpp:165] Memory required for data: 1204224032
I0302 13:10:15.514335 20068 layer_factory.hpp:77] Creating layer res3c_branch2b_relu
I0302 13:10:15.514344 20068 net.cpp:100] Creating Layer res3c_branch2b_relu
I0302 13:10:15.514348 20068 net.cpp:434] res3c_branch2b_relu <- res3c_branch2b
I0302 13:10:15.514364 20068 net.cpp:395] res3c_branch2b_relu -> res3c_branch2b (in-place)
I0302 13:10:15.515290 20068 net.cpp:150] Setting up res3c_branch2b_relu
I0302 13:10:15.515327 20068 net.cpp:157] Top shape: 8 128 28 28 (802816)
I0302 13:10:15.515332 20068 net.cpp:165] Memory required for data: 1207435296
I0302 13:10:15.515339 20068 layer_factory.hpp:77] Creating layer res3c_branch2c
I0302 13:10:15.515357 20068 net.cpp:100] Creating Layer res3c_branch2c
I0302 13:10:15.515363 20068 net.cpp:434] res3c_branch2c <- res3c_branch2b
I0302 13:10:15.515374 20068 net.cpp:408] res3c_branch2c -> res3c_branch2c
I0302 13:10:15.516641 20068 net.cpp:150] Setting up res3c_branch2c
I0302 13:10:15.516677 20068 net.cpp:157] Top shape: 8 512 28 28 (3211264)
I0302 13:10:15.516682 20068 net.cpp:165] Memory required for data: 1220280352
I0302 13:10:15.516695 20068 layer_factory.hpp:77] Creating layer bn3c_branch2c
I0302 13:10:15.516710 20068 net.cpp:100] Creating Layer bn3c_branch2c
I0302 13:10:15.516715 20068 net.cpp:434] bn3c_branch2c <- res3c_branch2c
I0302 13:10:15.516724 20068 net.cpp:395] bn3c_branch2c -> res3c_branch2c (in-place)
I0302 13:10:15.517154 20068 net.cpp:150] Setting up bn3c_branch2c
I0302 13:10:15.517169 20068 net.cpp:157] Top shape: 8 512 28 28 (3211264)
I0302 13:10:15.517175 20068 net.cpp:165] Memory required for data: 1233125408
I0302 13:10:15.517187 20068 layer_factory.hpp:77] Creating layer scale3c_branch2c
I0302 13:10:15.517197 20068 net.cpp:100] Creating Layer scale3c_branch2c
I0302 13:10:15.517202 20068 net.cpp:434] scale3c_branch2c <- res3c_branch2c
I0302 13:10:15.517211 20068 net.cpp:395] scale3c_branch2c -> res3c_branch2c (in-place)
I0302 13:10:15.517299 20068 layer_factory.hpp:77] Creating layer scale3c_branch2c
I0302 13:10:15.517508 20068 net.cpp:150] Setting up scale3c_branch2c
I0302 13:10:15.517518 20068 net.cpp:157] Top shape: 8 512 28 28 (3211264)
I0302 13:10:15.517523 20068 net.cpp:165] Memory required for data: 1245970464
I0302 13:10:15.517532 20068 layer_factory.hpp:77] Creating layer res3c
I0302 13:10:15.517540 20068 net.cpp:100] Creating Layer res3c
I0302 13:10:15.517546 20068 net.cpp:434] res3c <- res3b_res3b_relu_0_split_1
I0302 13:10:15.517551 20068 net.cpp:434] res3c <- res3c_branch2c
I0302 13:10:15.517560 20068 net.cpp:408] res3c -> res3c
I0302 13:10:15.517599 20068 net.cpp:150] Setting up res3c
I0302 13:10:15.517608 20068 net.cpp:157] Top shape: 8 512 28 28 (3211264)
I0302 13:10:15.517612 20068 net.cpp:165] Memory required for data: 1258815520
I0302 13:10:15.517616 20068 layer_factory.hpp:77] Creating layer res3c_relu
I0302 13:10:15.517623 20068 net.cpp:100] Creating Layer res3c_relu
I0302 13:10:15.517628 20068 net.cpp:434] res3c_relu <- res3c
I0302 13:10:15.517637 20068 net.cpp:395] res3c_relu -> res3c (in-place)
I0302 13:10:15.518537 20068 net.cpp:150] Setting up res3c_relu
I0302 13:10:15.518569 20068 net.cpp:157] Top shape: 8 512 28 28 (3211264)
I0302 13:10:15.518574 20068 net.cpp:165] Memory required for data: 1271660576
I0302 13:10:15.518579 20068 layer_factory.hpp:77] Creating layer res3c_res3c_relu_0_split
I0302 13:10:15.518590 20068 net.cpp:100] Creating Layer res3c_res3c_relu_0_split
I0302 13:10:15.518595 20068 net.cpp:434] res3c_res3c_relu_0_split <- res3c
I0302 13:10:15.518606 20068 net.cpp:408] res3c_res3c_relu_0_split -> res3c_res3c_relu_0_split_0
I0302 13:10:15.518616 20068 net.cpp:408] res3c_res3c_relu_0_split -> res3c_res3c_relu_0_split_1
I0302 13:10:15.518726 20068 net.cpp:150] Setting up res3c_res3c_relu_0_split
I0302 13:10:15.518735 20068 net.cpp:157] Top shape: 8 512 28 28 (3211264)
I0302 13:10:15.518740 20068 net.cpp:157] Top shape: 8 512 28 28 (3211264)
I0302 13:10:15.518744 20068 net.cpp:165] Memory required for data: 1297350688
I0302 13:10:15.518748 20068 layer_factory.hpp:77] Creating layer res3d_branch2a
I0302 13:10:15.518762 20068 net.cpp:100] Creating Layer res3d_branch2a
I0302 13:10:15.518767 20068 net.cpp:434] res3d_branch2a <- res3c_res3c_relu_0_split_0
I0302 13:10:15.518776 20068 net.cpp:408] res3d_branch2a -> res3d_branch2a
I0302 13:10:15.522837 20068 net.cpp:150] Setting up res3d_branch2a
I0302 13:10:15.522892 20068 net.cpp:157] Top shape: 8 128 28 28 (802816)
I0302 13:10:15.522898 20068 net.cpp:165] Memory required for data: 1300561952
I0302 13:10:15.522914 20068 layer_factory.hpp:77] Creating layer bn3d_branch2a
I0302 13:10:15.522931 20068 net.cpp:100] Creating Layer bn3d_branch2a
I0302 13:10:15.522938 20068 net.cpp:434] bn3d_branch2a <- res3d_branch2a
I0302 13:10:15.522951 20068 net.cpp:395] bn3d_branch2a -> res3d_branch2a (in-place)
I0302 13:10:15.523382 20068 net.cpp:150] Setting up bn3d_branch2a
I0302 13:10:15.523406 20068 net.cpp:157] Top shape: 8 128 28 28 (802816)
I0302 13:10:15.523411 20068 net.cpp:165] Memory required for data: 1303773216
I0302 13:10:15.523458 20068 layer_factory.hpp:77] Creating layer scale3d_branch2a
I0302 13:10:15.523475 20068 net.cpp:100] Creating Layer scale3d_branch2a
I0302 13:10:15.523480 20068 net.cpp:434] scale3d_branch2a <- res3d_branch2a
I0302 13:10:15.523488 20068 net.cpp:395] scale3d_branch2a -> res3d_branch2a (in-place)
I0302 13:10:15.523581 20068 layer_factory.hpp:77] Creating layer scale3d_branch2a
I0302 13:10:15.523802 20068 net.cpp:150] Setting up scale3d_branch2a
I0302 13:10:15.523815 20068 net.cpp:157] Top shape: 8 128 28 28 (802816)
I0302 13:10:15.523819 20068 net.cpp:165] Memory required for data: 1306984480
I0302 13:10:15.523831 20068 layer_factory.hpp:77] Creating layer res3d_branch2a_relu
I0302 13:10:15.523840 20068 net.cpp:100] Creating Layer res3d_branch2a_relu
I0302 13:10:15.523844 20068 net.cpp:434] res3d_branch2a_relu <- res3d_branch2a
I0302 13:10:15.523851 20068 net.cpp:395] res3d_branch2a_relu -> res3d_branch2a (in-place)
I0302 13:10:15.524143 20068 net.cpp:150] Setting up res3d_branch2a_relu
I0302 13:10:15.524159 20068 net.cpp:157] Top shape: 8 128 28 28 (802816)
I0302 13:10:15.524163 20068 net.cpp:165] Memory required for data: 1310195744
I0302 13:10:15.524168 20068 layer_factory.hpp:77] Creating layer res3d_branch2b
I0302 13:10:15.524185 20068 net.cpp:100] Creating Layer res3d_branch2b
I0302 13:10:15.524191 20068 net.cpp:434] res3d_branch2b <- res3d_branch2a
I0302 13:10:15.524201 20068 net.cpp:408] res3d_branch2b -> res3d_branch2b
I0302 13:10:15.526792 20068 net.cpp:150] Setting up res3d_branch2b
I0302 13:10:15.526834 20068 net.cpp:157] Top shape: 8 128 28 28 (802816)
I0302 13:10:15.526839 20068 net.cpp:165] Memory required for data: 1313407008
I0302 13:10:15.526854 20068 layer_factory.hpp:77] Creating layer bn3d_branch2b
I0302 13:10:15.526868 20068 net.cpp:100] Creating Layer bn3d_branch2b
I0302 13:10:15.526875 20068 net.cpp:434] bn3d_branch2b <- res3d_branch2b
I0302 13:10:15.526885 20068 net.cpp:395] bn3d_branch2b -> res3d_branch2b (in-place)
I0302 13:10:15.527355 20068 net.cpp:150] Setting up bn3d_branch2b
I0302 13:10:15.527370 20068 net.cpp:157] Top shape: 8 128 28 28 (802816)
I0302 13:10:15.527375 20068 net.cpp:165] Memory required for data: 1316618272
I0302 13:10:15.527386 20068 layer_factory.hpp:77] Creating layer scale3d_branch2b
I0302 13:10:15.527400 20068 net.cpp:100] Creating Layer scale3d_branch2b
I0302 13:10:15.527405 20068 net.cpp:434] scale3d_branch2b <- res3d_branch2b
I0302 13:10:15.527411 20068 net.cpp:395] scale3d_branch2b -> res3d_branch2b (in-place)
I0302 13:10:15.527495 20068 layer_factory.hpp:77] Creating layer scale3d_branch2b
I0302 13:10:15.527707 20068 net.cpp:150] Setting up scale3d_branch2b
I0302 13:10:15.527717 20068 net.cpp:157] Top shape: 8 128 28 28 (802816)
I0302 13:10:15.527722 20068 net.cpp:165] Memory required for data: 1319829536
I0302 13:10:15.527732 20068 layer_factory.hpp:77] Creating layer res3d_branch2b_relu
I0302 13:10:15.527745 20068 net.cpp:100] Creating Layer res3d_branch2b_relu
I0302 13:10:15.527748 20068 net.cpp:434] res3d_branch2b_relu <- res3d_branch2b
I0302 13:10:15.527755 20068 net.cpp:395] res3d_branch2b_relu -> res3d_branch2b (in-place)
I0302 13:10:15.528045 20068 net.cpp:150] Setting up res3d_branch2b_relu
I0302 13:10:15.528059 20068 net.cpp:157] Top shape: 8 128 28 28 (802816)
I0302 13:10:15.528062 20068 net.cpp:165] Memory required for data: 1323040800
I0302 13:10:15.528079 20068 layer_factory.hpp:77] Creating layer res3d_branch2c
I0302 13:10:15.528093 20068 net.cpp:100] Creating Layer res3d_branch2c
I0302 13:10:15.528098 20068 net.cpp:434] res3d_branch2c <- res3d_branch2b
I0302 13:10:15.528106 20068 net.cpp:408] res3d_branch2c -> res3d_branch2c
I0302 13:10:15.529974 20068 net.cpp:150] Setting up res3d_branch2c
I0302 13:10:15.530014 20068 net.cpp:157] Top shape: 8 512 28 28 (3211264)
I0302 13:10:15.530019 20068 net.cpp:165] Memory required for data: 1335885856
I0302 13:10:15.530032 20068 layer_factory.hpp:77] Creating layer bn3d_branch2c
I0302 13:10:15.530046 20068 net.cpp:100] Creating Layer bn3d_branch2c
I0302 13:10:15.530052 20068 net.cpp:434] bn3d_branch2c <- res3d_branch2c
I0302 13:10:15.530061 20068 net.cpp:395] bn3d_branch2c -> res3d_branch2c (in-place)
I0302 13:10:15.530462 20068 net.cpp:150] Setting up bn3d_branch2c
I0302 13:10:15.530473 20068 net.cpp:157] Top shape: 8 512 28 28 (3211264)
I0302 13:10:15.530478 20068 net.cpp:165] Memory required for data: 1348730912
I0302 13:10:15.530488 20068 layer_factory.hpp:77] Creating layer scale3d_branch2c
I0302 13:10:15.530501 20068 net.cpp:100] Creating Layer scale3d_branch2c
I0302 13:10:15.530506 20068 net.cpp:434] scale3d_branch2c <- res3d_branch2c
I0302 13:10:15.530514 20068 net.cpp:395] scale3d_branch2c -> res3d_branch2c (in-place)
I0302 13:10:15.530601 20068 layer_factory.hpp:77] Creating layer scale3d_branch2c
I0302 13:10:15.530812 20068 net.cpp:150] Setting up scale3d_branch2c
I0302 13:10:15.530822 20068 net.cpp:157] Top shape: 8 512 28 28 (3211264)
I0302 13:10:15.530825 20068 net.cpp:165] Memory required for data: 1361575968
I0302 13:10:15.530835 20068 layer_factory.hpp:77] Creating layer res3d
I0302 13:10:15.530845 20068 net.cpp:100] Creating Layer res3d
I0302 13:10:15.530850 20068 net.cpp:434] res3d <- res3c_res3c_relu_0_split_1
I0302 13:10:15.530856 20068 net.cpp:434] res3d <- res3d_branch2c
I0302 13:10:15.530863 20068 net.cpp:408] res3d -> res3d
I0302 13:10:15.530905 20068 net.cpp:150] Setting up res3d
I0302 13:10:15.530913 20068 net.cpp:157] Top shape: 8 512 28 28 (3211264)
I0302 13:10:15.530918 20068 net.cpp:165] Memory required for data: 1374421024
I0302 13:10:15.530922 20068 layer_factory.hpp:77] Creating layer res3d_relu
I0302 13:10:15.530930 20068 net.cpp:100] Creating Layer res3d_relu
I0302 13:10:15.530935 20068 net.cpp:434] res3d_relu <- res3d
I0302 13:10:15.530941 20068 net.cpp:395] res3d_relu -> res3d (in-place)
I0302 13:10:15.531210 20068 net.cpp:150] Setting up res3d_relu
I0302 13:10:15.531222 20068 net.cpp:157] Top shape: 8 512 28 28 (3211264)
I0302 13:10:15.531227 20068 net.cpp:165] Memory required for data: 1387266080
I0302 13:10:15.531231 20068 layer_factory.hpp:77] Creating layer res3d_res3d_relu_0_split
I0302 13:10:15.531239 20068 net.cpp:100] Creating Layer res3d_res3d_relu_0_split
I0302 13:10:15.531244 20068 net.cpp:434] res3d_res3d_relu_0_split <- res3d
I0302 13:10:15.531252 20068 net.cpp:408] res3d_res3d_relu_0_split -> res3d_res3d_relu_0_split_0
I0302 13:10:15.531260 20068 net.cpp:408] res3d_res3d_relu_0_split -> res3d_res3d_relu_0_split_1
I0302 13:10:15.531337 20068 net.cpp:150] Setting up res3d_res3d_relu_0_split
I0302 13:10:15.531345 20068 net.cpp:157] Top shape: 8 512 28 28 (3211264)
I0302 13:10:15.531352 20068 net.cpp:157] Top shape: 8 512 28 28 (3211264)
I0302 13:10:15.531355 20068 net.cpp:165] Memory required for data: 1412956192
I0302 13:10:15.531359 20068 layer_factory.hpp:77] Creating layer res4a_branch1
I0302 13:10:15.531373 20068 net.cpp:100] Creating Layer res4a_branch1
I0302 13:10:15.531378 20068 net.cpp:434] res4a_branch1 <- res3d_res3d_relu_0_split_0
I0302 13:10:15.531386 20068 net.cpp:408] res4a_branch1 -> res4a_branch1
I0302 13:10:15.535837 20068 net.cpp:150] Setting up res4a_branch1
I0302 13:10:15.535897 20068 net.cpp:157] Top shape: 8 1024 14 14 (1605632)
I0302 13:10:15.535903 20068 net.cpp:165] Memory required for data: 1419378720
I0302 13:10:15.535925 20068 layer_factory.hpp:77] Creating layer bn4a_branch1
I0302 13:10:15.535948 20068 net.cpp:100] Creating Layer bn4a_branch1
I0302 13:10:15.535956 20068 net.cpp:434] bn4a_branch1 <- res4a_branch1
I0302 13:10:15.535969 20068 net.cpp:395] bn4a_branch1 -> res4a_branch1 (in-place)
I0302 13:10:15.536471 20068 net.cpp:150] Setting up bn4a_branch1
I0302 13:10:15.536485 20068 net.cpp:157] Top shape: 8 1024 14 14 (1605632)
I0302 13:10:15.536489 20068 net.cpp:165] Memory required for data: 1425801248
I0302 13:10:15.536501 20068 layer_factory.hpp:77] Creating layer scale4a_branch1
I0302 13:10:15.536511 20068 net.cpp:100] Creating Layer scale4a_branch1
I0302 13:10:15.536515 20068 net.cpp:434] scale4a_branch1 <- res4a_branch1
I0302 13:10:15.536525 20068 net.cpp:395] scale4a_branch1 -> res4a_branch1 (in-place)
I0302 13:10:15.536609 20068 layer_factory.hpp:77] Creating layer scale4a_branch1
I0302 13:10:15.536840 20068 net.cpp:150] Setting up scale4a_branch1
I0302 13:10:15.536849 20068 net.cpp:157] Top shape: 8 1024 14 14 (1605632)
I0302 13:10:15.536854 20068 net.cpp:165] Memory required for data: 1432223776
I0302 13:10:15.536864 20068 layer_factory.hpp:77] Creating layer res4a_branch2a
I0302 13:10:15.536877 20068 net.cpp:100] Creating Layer res4a_branch2a
I0302 13:10:15.536885 20068 net.cpp:434] res4a_branch2a <- res3d_res3d_relu_0_split_1
I0302 13:10:15.536891 20068 net.cpp:408] res4a_branch2a -> res4a_branch2a
I0302 13:10:15.538898 20068 net.cpp:150] Setting up res4a_branch2a
I0302 13:10:15.538940 20068 net.cpp:157] Top shape: 8 256 14 14 (401408)
I0302 13:10:15.538944 20068 net.cpp:165] Memory required for data: 1433829408
I0302 13:10:15.538957 20068 layer_factory.hpp:77] Creating layer bn4a_branch2a
I0302 13:10:15.538970 20068 net.cpp:100] Creating Layer bn4a_branch2a
I0302 13:10:15.538977 20068 net.cpp:434] bn4a_branch2a <- res4a_branch2a
I0302 13:10:15.538987 20068 net.cpp:395] bn4a_branch2a -> res4a_branch2a (in-place)
I0302 13:10:15.539428 20068 net.cpp:150] Setting up bn4a_branch2a
I0302 13:10:15.539444 20068 net.cpp:157] Top shape: 8 256 14 14 (401408)
I0302 13:10:15.539448 20068 net.cpp:165] Memory required for data: 1435435040
I0302 13:10:15.539463 20068 layer_factory.hpp:77] Creating layer scale4a_branch2a
I0302 13:10:15.539474 20068 net.cpp:100] Creating Layer scale4a_branch2a
I0302 13:10:15.539480 20068 net.cpp:434] scale4a_branch2a <- res4a_branch2a
I0302 13:10:15.539486 20068 net.cpp:395] scale4a_branch2a -> res4a_branch2a (in-place)
I0302 13:10:15.539588 20068 layer_factory.hpp:77] Creating layer scale4a_branch2a
I0302 13:10:15.539815 20068 net.cpp:150] Setting up scale4a_branch2a
I0302 13:10:15.539825 20068 net.cpp:157] Top shape: 8 256 14 14 (401408)
I0302 13:10:15.539829 20068 net.cpp:165] Memory required for data: 1437040672
I0302 13:10:15.539840 20068 layer_factory.hpp:77] Creating layer res4a_branch2a_relu
I0302 13:10:15.539854 20068 net.cpp:100] Creating Layer res4a_branch2a_relu
I0302 13:10:15.539858 20068 net.cpp:434] res4a_branch2a_relu <- res4a_branch2a
I0302 13:10:15.539865 20068 net.cpp:395] res4a_branch2a_relu -> res4a_branch2a (in-place)
I0302 13:10:15.540158 20068 net.cpp:150] Setting up res4a_branch2a_relu
I0302 13:10:15.540172 20068 net.cpp:157] Top shape: 8 256 14 14 (401408)
I0302 13:10:15.540177 20068 net.cpp:165] Memory required for data: 1438646304
I0302 13:10:15.540181 20068 layer_factory.hpp:77] Creating layer res4a_branch2b
I0302 13:10:15.540194 20068 net.cpp:100] Creating Layer res4a_branch2b
I0302 13:10:15.540200 20068 net.cpp:434] res4a_branch2b <- res4a_branch2a
I0302 13:10:15.540210 20068 net.cpp:408] res4a_branch2b -> res4a_branch2b
I0302 13:10:15.545229 20068 net.cpp:150] Setting up res4a_branch2b
I0302 13:10:15.545274 20068 net.cpp:157] Top shape: 8 256 14 14 (401408)
I0302 13:10:15.545279 20068 net.cpp:165] Memory required for data: 1440251936
I0302 13:10:15.545297 20068 layer_factory.hpp:77] Creating layer bn4a_branch2b
I0302 13:10:15.545315 20068 net.cpp:100] Creating Layer bn4a_branch2b
I0302 13:10:15.545321 20068 net.cpp:434] bn4a_branch2b <- res4a_branch2b
I0302 13:10:15.545331 20068 net.cpp:395] bn4a_branch2b -> res4a_branch2b (in-place)
I0302 13:10:15.545933 20068 net.cpp:150] Setting up bn4a_branch2b
I0302 13:10:15.545961 20068 net.cpp:157] Top shape: 8 256 14 14 (401408)
I0302 13:10:15.545966 20068 net.cpp:165] Memory required for data: 1441857568
I0302 13:10:15.545979 20068 layer_factory.hpp:77] Creating layer scale4a_branch2b
I0302 13:10:15.545994 20068 net.cpp:100] Creating Layer scale4a_branch2b
I0302 13:10:15.546000 20068 net.cpp:434] scale4a_branch2b <- res4a_branch2b
I0302 13:10:15.546011 20068 net.cpp:395] scale4a_branch2b -> res4a_branch2b (in-place)
I0302 13:10:15.546131 20068 layer_factory.hpp:77] Creating layer scale4a_branch2b
I0302 13:10:15.546373 20068 net.cpp:150] Setting up scale4a_branch2b
I0302 13:10:15.546387 20068 net.cpp:157] Top shape: 8 256 14 14 (401408)
I0302 13:10:15.546391 20068 net.cpp:165] Memory required for data: 1443463200
I0302 13:10:15.546404 20068 layer_factory.hpp:77] Creating layer res4a_branch2b_relu
I0302 13:10:15.546416 20068 net.cpp:100] Creating Layer res4a_branch2b_relu
I0302 13:10:15.546422 20068 net.cpp:434] res4a_branch2b_relu <- res4a_branch2b
I0302 13:10:15.546427 20068 net.cpp:395] res4a_branch2b_relu -> res4a_branch2b (in-place)
I0302 13:10:15.546768 20068 net.cpp:150] Setting up res4a_branch2b_relu
I0302 13:10:15.546785 20068 net.cpp:157] Top shape: 8 256 14 14 (401408)
I0302 13:10:15.546790 20068 net.cpp:165] Memory required for data: 1445068832
I0302 13:10:15.546795 20068 layer_factory.hpp:77] Creating layer res4a_branch2c
I0302 13:10:15.546808 20068 net.cpp:100] Creating Layer res4a_branch2c
I0302 13:10:15.546813 20068 net.cpp:434] res4a_branch2c <- res4a_branch2b
I0302 13:10:15.546841 20068 net.cpp:408] res4a_branch2c -> res4a_branch2c
I0302 13:10:15.551210 20068 net.cpp:150] Setting up res4a_branch2c
I0302 13:10:15.551265 20068 net.cpp:157] Top shape: 8 1024 14 14 (1605632)
I0302 13:10:15.551270 20068 net.cpp:165] Memory required for data: 1451491360
I0302 13:10:15.551290 20068 layer_factory.hpp:77] Creating layer bn4a_branch2c
I0302 13:10:15.551304 20068 net.cpp:100] Creating Layer bn4a_branch2c
I0302 13:10:15.551316 20068 net.cpp:434] bn4a_branch2c <- res4a_branch2c
I0302 13:10:15.551327 20068 net.cpp:395] bn4a_branch2c -> res4a_branch2c (in-place)
I0302 13:10:15.551841 20068 net.cpp:150] Setting up bn4a_branch2c
I0302 13:10:15.551862 20068 net.cpp:157] Top shape: 8 1024 14 14 (1605632)
I0302 13:10:15.551867 20068 net.cpp:165] Memory required for data: 1457913888
I0302 13:10:15.551879 20068 layer_factory.hpp:77] Creating layer scale4a_branch2c
I0302 13:10:15.551892 20068 net.cpp:100] Creating Layer scale4a_branch2c
I0302 13:10:15.551897 20068 net.cpp:434] scale4a_branch2c <- res4a_branch2c
I0302 13:10:15.551906 20068 net.cpp:395] scale4a_branch2c -> res4a_branch2c (in-place)
I0302 13:10:15.552006 20068 layer_factory.hpp:77] Creating layer scale4a_branch2c
I0302 13:10:15.552237 20068 net.cpp:150] Setting up scale4a_branch2c
I0302 13:10:15.552249 20068 net.cpp:157] Top shape: 8 1024 14 14 (1605632)
I0302 13:10:15.552253 20068 net.cpp:165] Memory required for data: 1464336416
I0302 13:10:15.552264 20068 layer_factory.hpp:77] Creating layer res4a
I0302 13:10:15.552273 20068 net.cpp:100] Creating Layer res4a
I0302 13:10:15.552278 20068 net.cpp:434] res4a <- res4a_branch1
I0302 13:10:15.552285 20068 net.cpp:434] res4a <- res4a_branch2c
I0302 13:10:15.552292 20068 net.cpp:408] res4a -> res4a
I0302 13:10:15.552340 20068 net.cpp:150] Setting up res4a
I0302 13:10:15.552350 20068 net.cpp:157] Top shape: 8 1024 14 14 (1605632)
I0302 13:10:15.552353 20068 net.cpp:165] Memory required for data: 1470758944
I0302 13:10:15.552361 20068 layer_factory.hpp:77] Creating layer res4a_relu
I0302 13:10:15.552367 20068 net.cpp:100] Creating Layer res4a_relu
I0302 13:10:15.552372 20068 net.cpp:434] res4a_relu <- res4a
I0302 13:10:15.552378 20068 net.cpp:395] res4a_relu -> res4a (in-place)
I0302 13:10:15.553447 20068 net.cpp:150] Setting up res4a_relu
I0302 13:10:15.553494 20068 net.cpp:157] Top shape: 8 1024 14 14 (1605632)
I0302 13:10:15.553499 20068 net.cpp:165] Memory required for data: 1477181472
I0302 13:10:15.553508 20068 layer_factory.hpp:77] Creating layer res4a_res4a_relu_0_split
I0302 13:10:15.553567 20068 net.cpp:100] Creating Layer res4a_res4a_relu_0_split
I0302 13:10:15.553580 20068 net.cpp:434] res4a_res4a_relu_0_split <- res4a
I0302 13:10:15.553591 20068 net.cpp:408] res4a_res4a_relu_0_split -> res4a_res4a_relu_0_split_0
I0302 13:10:15.553611 20068 net.cpp:408] res4a_res4a_relu_0_split -> res4a_res4a_relu_0_split_1
I0302 13:10:15.553817 20068 net.cpp:150] Setting up res4a_res4a_relu_0_split
I0302 13:10:15.553828 20068 net.cpp:157] Top shape: 8 1024 14 14 (1605632)
I0302 13:10:15.553833 20068 net.cpp:157] Top shape: 8 1024 14 14 (1605632)
I0302 13:10:15.553838 20068 net.cpp:165] Memory required for data: 1490026528
I0302 13:10:15.553843 20068 layer_factory.hpp:77] Creating layer res4b_branch2a
I0302 13:10:15.553860 20068 net.cpp:100] Creating Layer res4b_branch2a
I0302 13:10:15.553865 20068 net.cpp:434] res4b_branch2a <- res4a_res4a_relu_0_split_0
I0302 13:10:15.553874 20068 net.cpp:408] res4b_branch2a -> res4b_branch2a
I0302 13:10:15.555707 20068 net.cpp:150] Setting up res4b_branch2a
I0302 13:10:15.555754 20068 net.cpp:157] Top shape: 8 256 14 14 (401408)
I0302 13:10:15.555759 20068 net.cpp:165] Memory required for data: 1491632160
I0302 13:10:15.555779 20068 layer_factory.hpp:77] Creating layer bn4b_branch2a
I0302 13:10:15.555795 20068 net.cpp:100] Creating Layer bn4b_branch2a
I0302 13:10:15.555802 20068 net.cpp:434] bn4b_branch2a <- res4b_branch2a
I0302 13:10:15.555814 20068 net.cpp:395] bn4b_branch2a -> res4b_branch2a (in-place)
I0302 13:10:15.556596 20068 net.cpp:150] Setting up bn4b_branch2a
I0302 13:10:15.556635 20068 net.cpp:157] Top shape: 8 256 14 14 (401408)
I0302 13:10:15.556648 20068 net.cpp:165] Memory required for data: 1493237792
I0302 13:10:15.556675 20068 layer_factory.hpp:77] Creating layer scale4b_branch2a
I0302 13:10:15.556695 20068 net.cpp:100] Creating Layer scale4b_branch2a
I0302 13:10:15.556708 20068 net.cpp:434] scale4b_branch2a <- res4b_branch2a
I0302 13:10:15.556728 20068 net.cpp:395] scale4b_branch2a -> res4b_branch2a (in-place)
I0302 13:10:15.556862 20068 layer_factory.hpp:77] Creating layer scale4b_branch2a
I0302 13:10:15.557170 20068 net.cpp:150] Setting up scale4b_branch2a
I0302 13:10:15.557188 20068 net.cpp:157] Top shape: 8 256 14 14 (401408)
I0302 13:10:15.557194 20068 net.cpp:165] Memory required for data: 1494843424
I0302 13:10:15.557207 20068 layer_factory.hpp:77] Creating layer res4b_branch2a_relu
I0302 13:10:15.557222 20068 net.cpp:100] Creating Layer res4b_branch2a_relu
I0302 13:10:15.557229 20068 net.cpp:434] res4b_branch2a_relu <- res4b_branch2a
I0302 13:10:15.557236 20068 net.cpp:395] res4b_branch2a_relu -> res4b_branch2a (in-place)
I0302 13:10:15.558423 20068 net.cpp:150] Setting up res4b_branch2a_relu
I0302 13:10:15.558465 20068 net.cpp:157] Top shape: 8 256 14 14 (401408)
I0302 13:10:15.558472 20068 net.cpp:165] Memory required for data: 1496449056
I0302 13:10:15.558480 20068 layer_factory.hpp:77] Creating layer res4b_branch2b
I0302 13:10:15.558504 20068 net.cpp:100] Creating Layer res4b_branch2b
I0302 13:10:15.558516 20068 net.cpp:434] res4b_branch2b <- res4b_branch2a
I0302 13:10:15.558528 20068 net.cpp:408] res4b_branch2b -> res4b_branch2b
I0302 13:10:15.568823 20068 net.cpp:150] Setting up res4b_branch2b
I0302 13:10:15.568883 20068 net.cpp:157] Top shape: 8 256 14 14 (401408)
I0302 13:10:15.568892 20068 net.cpp:165] Memory required for data: 1498054688
I0302 13:10:15.568914 20068 layer_factory.hpp:77] Creating layer bn4b_branch2b
I0302 13:10:15.568930 20068 net.cpp:100] Creating Layer bn4b_branch2b
I0302 13:10:15.568954 20068 net.cpp:434] bn4b_branch2b <- res4b_branch2b
I0302 13:10:15.568972 20068 net.cpp:395] bn4b_branch2b -> res4b_branch2b (in-place)
I0302 13:10:15.569553 20068 net.cpp:150] Setting up bn4b_branch2b
I0302 13:10:15.569578 20068 net.cpp:157] Top shape: 8 256 14 14 (401408)
I0302 13:10:15.569582 20068 net.cpp:165] Memory required for data: 1499660320
I0302 13:10:15.569602 20068 layer_factory.hpp:77] Creating layer scale4b_branch2b
I0302 13:10:15.569615 20068 net.cpp:100] Creating Layer scale4b_branch2b
I0302 13:10:15.569635 20068 net.cpp:434] scale4b_branch2b <- res4b_branch2b
I0302 13:10:15.569646 20068 net.cpp:395] scale4b_branch2b -> res4b_branch2b (in-place)
I0302 13:10:15.569761 20068 layer_factory.hpp:77] Creating layer scale4b_branch2b
I0302 13:10:15.570011 20068 net.cpp:150] Setting up scale4b_branch2b
I0302 13:10:15.570025 20068 net.cpp:157] Top shape: 8 256 14 14 (401408)
I0302 13:10:15.570030 20068 net.cpp:165] Memory required for data: 1501265952
I0302 13:10:15.570041 20068 layer_factory.hpp:77] Creating layer res4b_branch2b_relu
I0302 13:10:15.570050 20068 net.cpp:100] Creating Layer res4b_branch2b_relu
I0302 13:10:15.570060 20068 net.cpp:434] res4b_branch2b_relu <- res4b_branch2b
I0302 13:10:15.570066 20068 net.cpp:395] res4b_branch2b_relu -> res4b_branch2b (in-place)
I0302 13:10:15.570420 20068 net.cpp:150] Setting up res4b_branch2b_relu
I0302 13:10:15.570435 20068 net.cpp:157] Top shape: 8 256 14 14 (401408)
I0302 13:10:15.570441 20068 net.cpp:165] Memory required for data: 1502871584
I0302 13:10:15.570448 20068 layer_factory.hpp:77] Creating layer res4b_branch2c
I0302 13:10:15.570466 20068 net.cpp:100] Creating Layer res4b_branch2c
I0302 13:10:15.570473 20068 net.cpp:434] res4b_branch2c <- res4b_branch2b
I0302 13:10:15.570485 20068 net.cpp:408] res4b_branch2c -> res4b_branch2c
I0302 13:10:15.575222 20068 net.cpp:150] Setting up res4b_branch2c
I0302 13:10:15.575285 20068 net.cpp:157] Top shape: 8 1024 14 14 (1605632)
I0302 13:10:15.575291 20068 net.cpp:165] Memory required for data: 1509294112
I0302 13:10:15.575309 20068 layer_factory.hpp:77] Creating layer bn4b_branch2c
I0302 13:10:15.575330 20068 net.cpp:100] Creating Layer bn4b_branch2c
I0302 13:10:15.575338 20068 net.cpp:434] bn4b_branch2c <- res4b_branch2c
I0302 13:10:15.575350 20068 net.cpp:395] bn4b_branch2c -> res4b_branch2c (in-place)
I0302 13:10:15.575939 20068 net.cpp:150] Setting up bn4b_branch2c
I0302 13:10:15.575974 20068 net.cpp:157] Top shape: 8 1024 14 14 (1605632)
I0302 13:10:15.575978 20068 net.cpp:165] Memory required for data: 1515716640
I0302 13:10:15.576002 20068 layer_factory.hpp:77] Creating layer scale4b_branch2c
I0302 13:10:15.576019 20068 net.cpp:100] Creating Layer scale4b_branch2c
I0302 13:10:15.576025 20068 net.cpp:434] scale4b_branch2c <- res4b_branch2c
I0302 13:10:15.576033 20068 net.cpp:395] scale4b_branch2c -> res4b_branch2c (in-place)
I0302 13:10:15.576179 20068 layer_factory.hpp:77] Creating layer scale4b_branch2c
I0302 13:10:15.576545 20068 net.cpp:150] Setting up scale4b_branch2c
I0302 13:10:15.576565 20068 net.cpp:157] Top shape: 8 1024 14 14 (1605632)
I0302 13:10:15.576570 20068 net.cpp:165] Memory required for data: 1522139168
I0302 13:10:15.576586 20068 layer_factory.hpp:77] Creating layer res4b
I0302 13:10:15.576599 20068 net.cpp:100] Creating Layer res4b
I0302 13:10:15.576607 20068 net.cpp:434] res4b <- res4a_res4a_relu_0_split_1
I0302 13:10:15.576618 20068 net.cpp:434] res4b <- res4b_branch2c
I0302 13:10:15.576627 20068 net.cpp:408] res4b -> res4b
I0302 13:10:15.576704 20068 net.cpp:150] Setting up res4b
I0302 13:10:15.576719 20068 net.cpp:157] Top shape: 8 1024 14 14 (1605632)
I0302 13:10:15.576725 20068 net.cpp:165] Memory required for data: 1528561696
I0302 13:10:15.576731 20068 layer_factory.hpp:77] Creating layer res4b_relu
I0302 13:10:15.576740 20068 net.cpp:100] Creating Layer res4b_relu
I0302 13:10:15.576748 20068 net.cpp:434] res4b_relu <- res4b
I0302 13:10:15.576758 20068 net.cpp:395] res4b_relu -> res4b (in-place)
I0302 13:10:15.577244 20068 net.cpp:150] Setting up res4b_relu
I0302 13:10:15.577286 20068 net.cpp:157] Top shape: 8 1024 14 14 (1605632)
I0302 13:10:15.577292 20068 net.cpp:165] Memory required for data: 1534984224
I0302 13:10:15.577303 20068 layer_factory.hpp:77] Creating layer res4b_res4b_relu_0_split
I0302 13:10:15.577325 20068 net.cpp:100] Creating Layer res4b_res4b_relu_0_split
I0302 13:10:15.577332 20068 net.cpp:434] res4b_res4b_relu_0_split <- res4b
I0302 13:10:15.577343 20068 net.cpp:408] res4b_res4b_relu_0_split -> res4b_res4b_relu_0_split_0
I0302 13:10:15.577376 20068 net.cpp:408] res4b_res4b_relu_0_split -> res4b_res4b_relu_0_split_1
I0302 13:10:15.577587 20068 net.cpp:150] Setting up res4b_res4b_relu_0_split
I0302 13:10:15.577603 20068 net.cpp:157] Top shape: 8 1024 14 14 (1605632)
I0302 13:10:15.577620 20068 net.cpp:157] Top shape: 8 1024 14 14 (1605632)
I0302 13:10:15.577625 20068 net.cpp:165] Memory required for data: 1547829280
I0302 13:10:15.577630 20068 layer_factory.hpp:77] Creating layer res4c_branch2a
I0302 13:10:15.577654 20068 net.cpp:100] Creating Layer res4c_branch2a
I0302 13:10:15.577661 20068 net.cpp:434] res4c_branch2a <- res4b_res4b_relu_0_split_0
I0302 13:10:15.577672 20068 net.cpp:408] res4c_branch2a -> res4c_branch2a
I0302 13:10:15.586800 20068 net.cpp:150] Setting up res4c_branch2a
I0302 13:10:15.586874 20068 net.cpp:157] Top shape: 8 256 14 14 (401408)
I0302 13:10:15.586880 20068 net.cpp:165] Memory required for data: 1549434912
I0302 13:10:15.586920 20068 layer_factory.hpp:77] Creating layer bn4c_branch2a
I0302 13:10:15.586941 20068 net.cpp:100] Creating Layer bn4c_branch2a
I0302 13:10:15.586948 20068 net.cpp:434] bn4c_branch2a <- res4c_branch2a
I0302 13:10:15.586961 20068 net.cpp:395] bn4c_branch2a -> res4c_branch2a (in-place)
I0302 13:10:15.587652 20068 net.cpp:150] Setting up bn4c_branch2a
I0302 13:10:15.587685 20068 net.cpp:157] Top shape: 8 256 14 14 (401408)
I0302 13:10:15.587690 20068 net.cpp:165] Memory required for data: 1551040544
I0302 13:10:15.587705 20068 layer_factory.hpp:77] Creating layer scale4c_branch2a
I0302 13:10:15.587720 20068 net.cpp:100] Creating Layer scale4c_branch2a
I0302 13:10:15.587731 20068 net.cpp:434] scale4c_branch2a <- res4c_branch2a
I0302 13:10:15.587744 20068 net.cpp:395] scale4c_branch2a -> res4c_branch2a (in-place)
I0302 13:10:15.587925 20068 layer_factory.hpp:77] Creating layer scale4c_branch2a
I0302 13:10:15.588342 20068 net.cpp:150] Setting up scale4c_branch2a
I0302 13:10:15.588366 20068 net.cpp:157] Top shape: 8 256 14 14 (401408)
I0302 13:10:15.588371 20068 net.cpp:165] Memory required for data: 1552646176
I0302 13:10:15.588402 20068 layer_factory.hpp:77] Creating layer res4c_branch2a_relu
I0302 13:10:15.588413 20068 net.cpp:100] Creating Layer res4c_branch2a_relu
I0302 13:10:15.588420 20068 net.cpp:434] res4c_branch2a_relu <- res4c_branch2a
I0302 13:10:15.588433 20068 net.cpp:395] res4c_branch2a_relu -> res4c_branch2a (in-place)
I0302 13:10:15.589083 20068 net.cpp:150] Setting up res4c_branch2a_relu
I0302 13:10:15.589152 20068 net.cpp:157] Top shape: 8 256 14 14 (401408)
I0302 13:10:15.589157 20068 net.cpp:165] Memory required for data: 1554251808
I0302 13:10:15.589170 20068 layer_factory.hpp:77] Creating layer res4c_branch2b
I0302 13:10:15.589220 20068 net.cpp:100] Creating Layer res4c_branch2b
I0302 13:10:15.589226 20068 net.cpp:434] res4c_branch2b <- res4c_branch2a
I0302 13:10:15.589262 20068 net.cpp:408] res4c_branch2b -> res4c_branch2b
I0302 13:10:15.596742 20068 net.cpp:150] Setting up res4c_branch2b
I0302 13:10:15.596801 20068 net.cpp:157] Top shape: 8 256 14 14 (401408)
I0302 13:10:15.596807 20068 net.cpp:165] Memory required for data: 1555857440
I0302 13:10:15.596825 20068 layer_factory.hpp:77] Creating layer bn4c_branch2b
I0302 13:10:15.596843 20068 net.cpp:100] Creating Layer bn4c_branch2b
I0302 13:10:15.596851 20068 net.cpp:434] bn4c_branch2b <- res4c_branch2b
I0302 13:10:15.596864 20068 net.cpp:395] bn4c_branch2b -> res4c_branch2b (in-place)
I0302 13:10:15.597543 20068 net.cpp:150] Setting up bn4c_branch2b
I0302 13:10:15.597578 20068 net.cpp:157] Top shape: 8 256 14 14 (401408)
I0302 13:10:15.597582 20068 net.cpp:165] Memory required for data: 1557463072
I0302 13:10:15.597599 20068 layer_factory.hpp:77] Creating layer scale4c_branch2b
I0302 13:10:15.597617 20068 net.cpp:100] Creating Layer scale4c_branch2b
I0302 13:10:15.597623 20068 net.cpp:434] scale4c_branch2b <- res4c_branch2b
I0302 13:10:15.597637 20068 net.cpp:395] scale4c_branch2b -> res4c_branch2b (in-place)
I0302 13:10:15.597790 20068 layer_factory.hpp:77] Creating layer scale4c_branch2b
I0302 13:10:15.598031 20068 net.cpp:150] Setting up scale4c_branch2b
I0302 13:10:15.598055 20068 net.cpp:157] Top shape: 8 256 14 14 (401408)
I0302 13:10:15.598059 20068 net.cpp:165] Memory required for data: 1559068704
I0302 13:10:15.598070 20068 layer_factory.hpp:77] Creating layer res4c_branch2b_relu
I0302 13:10:15.598078 20068 net.cpp:100] Creating Layer res4c_branch2b_relu
I0302 13:10:15.598083 20068 net.cpp:434] res4c_branch2b_relu <- res4c_branch2b
I0302 13:10:15.598093 20068 net.cpp:395] res4c_branch2b_relu -> res4c_branch2b (in-place)
I0302 13:10:15.598404 20068 net.cpp:150] Setting up res4c_branch2b_relu
I0302 13:10:15.598417 20068 net.cpp:157] Top shape: 8 256 14 14 (401408)
I0302 13:10:15.598423 20068 net.cpp:165] Memory required for data: 1560674336
I0302 13:10:15.598426 20068 layer_factory.hpp:77] Creating layer res4c_branch2c
I0302 13:10:15.598439 20068 net.cpp:100] Creating Layer res4c_branch2c
I0302 13:10:15.598444 20068 net.cpp:434] res4c_branch2c <- res4c_branch2b
I0302 13:10:15.598455 20068 net.cpp:408] res4c_branch2c -> res4c_branch2c
I0302 13:10:15.603869 20068 net.cpp:150] Setting up res4c_branch2c
I0302 13:10:15.603930 20068 net.cpp:157] Top shape: 8 1024 14 14 (1605632)
I0302 13:10:15.603940 20068 net.cpp:165] Memory required for data: 1567096864
I0302 13:10:15.603955 20068 layer_factory.hpp:77] Creating layer bn4c_branch2c
I0302 13:10:15.603971 20068 net.cpp:100] Creating Layer bn4c_branch2c
I0302 13:10:15.603981 20068 net.cpp:434] bn4c_branch2c <- res4c_branch2c
I0302 13:10:15.603991 20068 net.cpp:395] bn4c_branch2c -> res4c_branch2c (in-place)
I0302 13:10:15.604516 20068 net.cpp:150] Setting up bn4c_branch2c
I0302 13:10:15.604542 20068 net.cpp:157] Top shape: 8 1024 14 14 (1605632)
I0302 13:10:15.604548 20068 net.cpp:165] Memory required for data: 1573519392
I0302 13:10:15.604563 20068 layer_factory.hpp:77] Creating layer scale4c_branch2c
I0302 13:10:15.604575 20068 net.cpp:100] Creating Layer scale4c_branch2c
I0302 13:10:15.604583 20068 net.cpp:434] scale4c_branch2c <- res4c_branch2c
I0302 13:10:15.604594 20068 net.cpp:395] scale4c_branch2c -> res4c_branch2c (in-place)
I0302 13:10:15.604720 20068 layer_factory.hpp:77] Creating layer scale4c_branch2c
I0302 13:10:15.605054 20068 net.cpp:150] Setting up scale4c_branch2c
I0302 13:10:15.605074 20068 net.cpp:157] Top shape: 8 1024 14 14 (1605632)
I0302 13:10:15.605078 20068 net.cpp:165] Memory required for data: 1579941920
I0302 13:10:15.605093 20068 layer_factory.hpp:77] Creating layer res4c
I0302 13:10:15.605105 20068 net.cpp:100] Creating Layer res4c
I0302 13:10:15.605111 20068 net.cpp:434] res4c <- res4b_res4b_relu_0_split_1
I0302 13:10:15.605121 20068 net.cpp:434] res4c <- res4c_branch2c
I0302 13:10:15.605129 20068 net.cpp:408] res4c -> res4c
I0302 13:10:15.605187 20068 net.cpp:150] Setting up res4c
I0302 13:10:15.605199 20068 net.cpp:157] Top shape: 8 1024 14 14 (1605632)
I0302 13:10:15.605203 20068 net.cpp:165] Memory required for data: 1586364448
I0302 13:10:15.605207 20068 layer_factory.hpp:77] Creating layer res4c_relu
I0302 13:10:15.605219 20068 net.cpp:100] Creating Layer res4c_relu
I0302 13:10:15.605224 20068 net.cpp:434] res4c_relu <- res4c
I0302 13:10:15.605232 20068 net.cpp:395] res4c_relu -> res4c (in-place)
I0302 13:10:15.606389 20068 net.cpp:150] Setting up res4c_relu
I0302 13:10:15.606438 20068 net.cpp:157] Top shape: 8 1024 14 14 (1605632)
I0302 13:10:15.606443 20068 net.cpp:165] Memory required for data: 1592786976
I0302 13:10:15.606451 20068 layer_factory.hpp:77] Creating layer res4c_res4c_relu_0_split
I0302 13:10:15.606465 20068 net.cpp:100] Creating Layer res4c_res4c_relu_0_split
I0302 13:10:15.606472 20068 net.cpp:434] res4c_res4c_relu_0_split <- res4c
I0302 13:10:15.606485 20068 net.cpp:408] res4c_res4c_relu_0_split -> res4c_res4c_relu_0_split_0
I0302 13:10:15.606498 20068 net.cpp:408] res4c_res4c_relu_0_split -> res4c_res4c_relu_0_split_1
I0302 13:10:15.606647 20068 net.cpp:150] Setting up res4c_res4c_relu_0_split
I0302 13:10:15.606658 20068 net.cpp:157] Top shape: 8 1024 14 14 (1605632)
I0302 13:10:15.606667 20068 net.cpp:157] Top shape: 8 1024 14 14 (1605632)
I0302 13:10:15.606688 20068 net.cpp:165] Memory required for data: 1605632032
I0302 13:10:15.606694 20068 layer_factory.hpp:77] Creating layer res4d_branch2a
I0302 13:10:15.606712 20068 net.cpp:100] Creating Layer res4d_branch2a
I0302 13:10:15.606719 20068 net.cpp:434] res4d_branch2a <- res4c_res4c_relu_0_split_0
I0302 13:10:15.606729 20068 net.cpp:408] res4d_branch2a -> res4d_branch2a
I0302 13:10:15.608736 20068 net.cpp:150] Setting up res4d_branch2a
I0302 13:10:15.608785 20068 net.cpp:157] Top shape: 8 256 14 14 (401408)
I0302 13:10:15.608790 20068 net.cpp:165] Memory required for data: 1607237664
I0302 13:10:15.608803 20068 layer_factory.hpp:77] Creating layer bn4d_branch2a
I0302 13:10:15.608819 20068 net.cpp:100] Creating Layer bn4d_branch2a
I0302 13:10:15.608826 20068 net.cpp:434] bn4d_branch2a <- res4d_branch2a
I0302 13:10:15.608851 20068 net.cpp:395] bn4d_branch2a -> res4d_branch2a (in-place)
I0302 13:10:15.609545 20068 net.cpp:150] Setting up bn4d_branch2a
I0302 13:10:15.609575 20068 net.cpp:157] Top shape: 8 256 14 14 (401408)
I0302 13:10:15.609580 20068 net.cpp:165] Memory required for data: 1608843296
I0302 13:10:15.609596 20068 layer_factory.hpp:77] Creating layer scale4d_branch2a
I0302 13:10:15.609611 20068 net.cpp:100] Creating Layer scale4d_branch2a
I0302 13:10:15.609621 20068 net.cpp:434] scale4d_branch2a <- res4d_branch2a
I0302 13:10:15.609630 20068 net.cpp:395] scale4d_branch2a -> res4d_branch2a (in-place)
I0302 13:10:15.609757 20068 layer_factory.hpp:77] Creating layer scale4d_branch2a
I0302 13:10:15.610116 20068 net.cpp:150] Setting up scale4d_branch2a
I0302 13:10:15.610131 20068 net.cpp:157] Top shape: 8 256 14 14 (401408)
I0302 13:10:15.610138 20068 net.cpp:165] Memory required for data: 1610448928
I0302 13:10:15.610172 20068 layer_factory.hpp:77] Creating layer res4d_branch2a_relu
I0302 13:10:15.610183 20068 net.cpp:100] Creating Layer res4d_branch2a_relu
I0302 13:10:15.610193 20068 net.cpp:434] res4d_branch2a_relu <- res4d_branch2a
I0302 13:10:15.610205 20068 net.cpp:395] res4d_branch2a_relu -> res4d_branch2a (in-place)
I0302 13:10:15.611819 20068 net.cpp:150] Setting up res4d_branch2a_relu
I0302 13:10:15.611897 20068 net.cpp:157] Top shape: 8 256 14 14 (401408)
I0302 13:10:15.611903 20068 net.cpp:165] Memory required for data: 1612054560
I0302 13:10:15.611920 20068 layer_factory.hpp:77] Creating layer res4d_branch2b
I0302 13:10:15.611956 20068 net.cpp:100] Creating Layer res4d_branch2b
I0302 13:10:15.611966 20068 net.cpp:434] res4d_branch2b <- res4d_branch2a
I0302 13:10:15.611986 20068 net.cpp:408] res4d_branch2b -> res4d_branch2b
I0302 13:10:15.619179 20068 net.cpp:150] Setting up res4d_branch2b
I0302 13:10:15.619236 20068 net.cpp:157] Top shape: 8 256 14 14 (401408)
I0302 13:10:15.619247 20068 net.cpp:165] Memory required for data: 1613660192
I0302 13:10:15.619272 20068 layer_factory.hpp:77] Creating layer bn4d_branch2b
I0302 13:10:15.619294 20068 net.cpp:100] Creating Layer bn4d_branch2b
I0302 13:10:15.619305 20068 net.cpp:434] bn4d_branch2b <- res4d_branch2b
I0302 13:10:15.619318 20068 net.cpp:395] bn4d_branch2b -> res4d_branch2b (in-place)
I0302 13:10:15.619994 20068 net.cpp:150] Setting up bn4d_branch2b
I0302 13:10:15.620026 20068 net.cpp:157] Top shape: 8 256 14 14 (401408)
I0302 13:10:15.620031 20068 net.cpp:165] Memory required for data: 1615265824
I0302 13:10:15.620048 20068 layer_factory.hpp:77] Creating layer scale4d_branch2b
I0302 13:10:15.620067 20068 net.cpp:100] Creating Layer scale4d_branch2b
I0302 13:10:15.620077 20068 net.cpp:434] scale4d_branch2b <- res4d_branch2b
I0302 13:10:15.620086 20068 net.cpp:395] scale4d_branch2b -> res4d_branch2b (in-place)
I0302 13:10:15.620215 20068 layer_factory.hpp:77] Creating layer scale4d_branch2b
I0302 13:10:15.620513 20068 net.cpp:150] Setting up scale4d_branch2b
I0302 13:10:15.620530 20068 net.cpp:157] Top shape: 8 256 14 14 (401408)
I0302 13:10:15.620537 20068 net.cpp:165] Memory required for data: 1616871456
I0302 13:10:15.620553 20068 layer_factory.hpp:77] Creating layer res4d_branch2b_relu
I0302 13:10:15.620564 20068 net.cpp:100] Creating Layer res4d_branch2b_relu
I0302 13:10:15.620594 20068 net.cpp:434] res4d_branch2b_relu <- res4d_branch2b
I0302 13:10:15.620604 20068 net.cpp:395] res4d_branch2b_relu -> res4d_branch2b (in-place)
I0302 13:10:15.621053 20068 net.cpp:150] Setting up res4d_branch2b_relu
I0302 13:10:15.621081 20068 net.cpp:157] Top shape: 8 256 14 14 (401408)
I0302 13:10:15.621085 20068 net.cpp:165] Memory required for data: 1618477088
I0302 13:10:15.621091 20068 layer_factory.hpp:77] Creating layer res4d_branch2c
I0302 13:10:15.621111 20068 net.cpp:100] Creating Layer res4d_branch2c
I0302 13:10:15.621117 20068 net.cpp:434] res4d_branch2c <- res4d_branch2b
I0302 13:10:15.621130 20068 net.cpp:408] res4d_branch2c -> res4d_branch2c
I0302 13:10:15.626644 20068 net.cpp:150] Setting up res4d_branch2c
I0302 13:10:15.626708 20068 net.cpp:157] Top shape: 8 1024 14 14 (1605632)
I0302 13:10:15.626715 20068 net.cpp:165] Memory required for data: 1624899616
I0302 13:10:15.626739 20068 layer_factory.hpp:77] Creating layer bn4d_branch2c
I0302 13:10:15.626762 20068 net.cpp:100] Creating Layer bn4d_branch2c
I0302 13:10:15.626773 20068 net.cpp:434] bn4d_branch2c <- res4d_branch2c
I0302 13:10:15.626783 20068 net.cpp:395] bn4d_branch2c -> res4d_branch2c (in-place)
I0302 13:10:15.627701 20068 net.cpp:150] Setting up bn4d_branch2c
I0302 13:10:15.627748 20068 net.cpp:157] Top shape: 8 1024 14 14 (1605632)
I0302 13:10:15.627755 20068 net.cpp:165] Memory required for data: 1631322144
I0302 13:10:15.627779 20068 layer_factory.hpp:77] Creating layer scale4d_branch2c
I0302 13:10:15.627797 20068 net.cpp:100] Creating Layer scale4d_branch2c
I0302 13:10:15.627806 20068 net.cpp:434] scale4d_branch2c <- res4d_branch2c
I0302 13:10:15.627826 20068 net.cpp:395] scale4d_branch2c -> res4d_branch2c (in-place)
I0302 13:10:15.628046 20068 layer_factory.hpp:77] Creating layer scale4d_branch2c
I0302 13:10:15.628370 20068 net.cpp:150] Setting up scale4d_branch2c
I0302 13:10:15.628389 20068 net.cpp:157] Top shape: 8 1024 14 14 (1605632)
I0302 13:10:15.628393 20068 net.cpp:165] Memory required for data: 1637744672
I0302 13:10:15.628409 20068 layer_factory.hpp:77] Creating layer res4d
I0302 13:10:15.628418 20068 net.cpp:100] Creating Layer res4d
I0302 13:10:15.628424 20068 net.cpp:434] res4d <- res4c_res4c_relu_0_split_1
I0302 13:10:15.628430 20068 net.cpp:434] res4d <- res4d_branch2c
I0302 13:10:15.628444 20068 net.cpp:408] res4d -> res4d
I0302 13:10:15.628500 20068 net.cpp:150] Setting up res4d
I0302 13:10:15.628512 20068 net.cpp:157] Top shape: 8 1024 14 14 (1605632)
I0302 13:10:15.628517 20068 net.cpp:165] Memory required for data: 1644167200
I0302 13:10:15.628522 20068 layer_factory.hpp:77] Creating layer res4d_relu
I0302 13:10:15.628530 20068 net.cpp:100] Creating Layer res4d_relu
I0302 13:10:15.628535 20068 net.cpp:434] res4d_relu <- res4d
I0302 13:10:15.628547 20068 net.cpp:395] res4d_relu -> res4d (in-place)
I0302 13:10:15.628902 20068 net.cpp:150] Setting up res4d_relu
I0302 13:10:15.628922 20068 net.cpp:157] Top shape: 8 1024 14 14 (1605632)
I0302 13:10:15.628926 20068 net.cpp:165] Memory required for data: 1650589728
I0302 13:10:15.628931 20068 layer_factory.hpp:77] Creating layer res4d_res4d_relu_0_split
I0302 13:10:15.628954 20068 net.cpp:100] Creating Layer res4d_res4d_relu_0_split
I0302 13:10:15.628968 20068 net.cpp:434] res4d_res4d_relu_0_split <- res4d
I0302 13:10:15.628988 20068 net.cpp:408] res4d_res4d_relu_0_split -> res4d_res4d_relu_0_split_0
I0302 13:10:15.628998 20068 net.cpp:408] res4d_res4d_relu_0_split -> res4d_res4d_relu_0_split_1
I0302 13:10:15.629122 20068 net.cpp:150] Setting up res4d_res4d_relu_0_split
I0302 13:10:15.629138 20068 net.cpp:157] Top shape: 8 1024 14 14 (1605632)
I0302 13:10:15.629148 20068 net.cpp:157] Top shape: 8 1024 14 14 (1605632)
I0302 13:10:15.629156 20068 net.cpp:165] Memory required for data: 1663434784
I0302 13:10:15.629161 20068 layer_factory.hpp:77] Creating layer res4e_branch2a
I0302 13:10:15.629173 20068 net.cpp:100] Creating Layer res4e_branch2a
I0302 13:10:15.629178 20068 net.cpp:434] res4e_branch2a <- res4d_res4d_relu_0_split_0
I0302 13:10:15.629205 20068 net.cpp:408] res4e_branch2a -> res4e_branch2a
I0302 13:10:15.632362 20068 net.cpp:150] Setting up res4e_branch2a
I0302 13:10:15.632405 20068 net.cpp:157] Top shape: 8 256 14 14 (401408)
I0302 13:10:15.632410 20068 net.cpp:165] Memory required for data: 1665040416
I0302 13:10:15.632422 20068 layer_factory.hpp:77] Creating layer bn4e_branch2a
I0302 13:10:15.632441 20068 net.cpp:100] Creating Layer bn4e_branch2a
I0302 13:10:15.632447 20068 net.cpp:434] bn4e_branch2a <- res4e_branch2a
I0302 13:10:15.632455 20068 net.cpp:395] bn4e_branch2a -> res4e_branch2a (in-place)
I0302 13:10:15.632962 20068 net.cpp:150] Setting up bn4e_branch2a
I0302 13:10:15.632984 20068 net.cpp:157] Top shape: 8 256 14 14 (401408)
I0302 13:10:15.632989 20068 net.cpp:165] Memory required for data: 1666646048
I0302 13:10:15.633000 20068 layer_factory.hpp:77] Creating layer scale4e_branch2a
I0302 13:10:15.633018 20068 net.cpp:100] Creating Layer scale4e_branch2a
I0302 13:10:15.633023 20068 net.cpp:434] scale4e_branch2a <- res4e_branch2a
I0302 13:10:15.633029 20068 net.cpp:395] scale4e_branch2a -> res4e_branch2a (in-place)
I0302 13:10:15.633153 20068 layer_factory.hpp:77] Creating layer scale4e_branch2a
I0302 13:10:15.633426 20068 net.cpp:150] Setting up scale4e_branch2a
I0302 13:10:15.633436 20068 net.cpp:157] Top shape: 8 256 14 14 (401408)
I0302 13:10:15.633440 20068 net.cpp:165] Memory required for data: 1668251680
I0302 13:10:15.633453 20068 layer_factory.hpp:77] Creating layer res4e_branch2a_relu
I0302 13:10:15.633468 20068 net.cpp:100] Creating Layer res4e_branch2a_relu
I0302 13:10:15.633473 20068 net.cpp:434] res4e_branch2a_relu <- res4e_branch2a
I0302 13:10:15.633479 20068 net.cpp:395] res4e_branch2a_relu -> res4e_branch2a (in-place)
I0302 13:10:15.633775 20068 net.cpp:150] Setting up res4e_branch2a_relu
I0302 13:10:15.633790 20068 net.cpp:157] Top shape: 8 256 14 14 (401408)
I0302 13:10:15.633793 20068 net.cpp:165] Memory required for data: 1669857312
I0302 13:10:15.633798 20068 layer_factory.hpp:77] Creating layer res4e_branch2b
I0302 13:10:15.633813 20068 net.cpp:100] Creating Layer res4e_branch2b
I0302 13:10:15.633818 20068 net.cpp:434] res4e_branch2b <- res4e_branch2a
I0302 13:10:15.633828 20068 net.cpp:408] res4e_branch2b -> res4e_branch2b
I0302 13:10:15.639251 20068 net.cpp:150] Setting up res4e_branch2b
I0302 13:10:15.639313 20068 net.cpp:157] Top shape: 8 256 14 14 (401408)
I0302 13:10:15.639322 20068 net.cpp:165] Memory required for data: 1671462944
I0302 13:10:15.639340 20068 layer_factory.hpp:77] Creating layer bn4e_branch2b
I0302 13:10:15.639369 20068 net.cpp:100] Creating Layer bn4e_branch2b
I0302 13:10:15.639377 20068 net.cpp:434] bn4e_branch2b <- res4e_branch2b
I0302 13:10:15.639389 20068 net.cpp:395] bn4e_branch2b -> res4e_branch2b (in-place)
I0302 13:10:15.640082 20068 net.cpp:150] Setting up bn4e_branch2b
I0302 13:10:15.640105 20068 net.cpp:157] Top shape: 8 256 14 14 (401408)
I0302 13:10:15.640110 20068 net.cpp:165] Memory required for data: 1673068576
I0302 13:10:15.640125 20068 layer_factory.hpp:77] Creating layer scale4e_branch2b
I0302 13:10:15.640139 20068 net.cpp:100] Creating Layer scale4e_branch2b
I0302 13:10:15.640143 20068 net.cpp:434] scale4e_branch2b <- res4e_branch2b
I0302 13:10:15.640154 20068 net.cpp:395] scale4e_branch2b -> res4e_branch2b (in-place)
I0302 13:10:15.640302 20068 layer_factory.hpp:77] Creating layer scale4e_branch2b
I0302 13:10:15.640666 20068 net.cpp:150] Setting up scale4e_branch2b
I0302 13:10:15.640681 20068 net.cpp:157] Top shape: 8 256 14 14 (401408)
I0302 13:10:15.640684 20068 net.cpp:165] Memory required for data: 1674674208
I0302 13:10:15.640700 20068 layer_factory.hpp:77] Creating layer res4e_branch2b_relu
I0302 13:10:15.640712 20068 net.cpp:100] Creating Layer res4e_branch2b_relu
I0302 13:10:15.640719 20068 net.cpp:434] res4e_branch2b_relu <- res4e_branch2b
I0302 13:10:15.640729 20068 net.cpp:395] res4e_branch2b_relu -> res4e_branch2b (in-place)
I0302 13:10:15.641278 20068 net.cpp:150] Setting up res4e_branch2b_relu
I0302 13:10:15.641317 20068 net.cpp:157] Top shape: 8 256 14 14 (401408)
I0302 13:10:15.641348 20068 net.cpp:165] Memory required for data: 1676279840
I0302 13:10:15.641363 20068 layer_factory.hpp:77] Creating layer res4e_branch2c
I0302 13:10:15.641397 20068 net.cpp:100] Creating Layer res4e_branch2c
I0302 13:10:15.641412 20068 net.cpp:434] res4e_branch2c <- res4e_branch2b
I0302 13:10:15.641430 20068 net.cpp:408] res4e_branch2c -> res4e_branch2c
I0302 13:10:15.646473 20068 net.cpp:150] Setting up res4e_branch2c
I0302 13:10:15.646533 20068 net.cpp:157] Top shape: 8 1024 14 14 (1605632)
I0302 13:10:15.646540 20068 net.cpp:165] Memory required for data: 1682702368
I0302 13:10:15.646560 20068 layer_factory.hpp:77] Creating layer bn4e_branch2c
I0302 13:10:15.646585 20068 net.cpp:100] Creating Layer bn4e_branch2c
I0302 13:10:15.646597 20068 net.cpp:434] bn4e_branch2c <- res4e_branch2c
I0302 13:10:15.646610 20068 net.cpp:395] bn4e_branch2c -> res4e_branch2c (in-place)
I0302 13:10:15.647356 20068 net.cpp:150] Setting up bn4e_branch2c
I0302 13:10:15.647387 20068 net.cpp:157] Top shape: 8 1024 14 14 (1605632)
I0302 13:10:15.647394 20068 net.cpp:165] Memory required for data: 1689124896
I0302 13:10:15.647418 20068 layer_factory.hpp:77] Creating layer scale4e_branch2c
I0302 13:10:15.647439 20068 net.cpp:100] Creating Layer scale4e_branch2c
I0302 13:10:15.647449 20068 net.cpp:434] scale4e_branch2c <- res4e_branch2c
I0302 13:10:15.647461 20068 net.cpp:395] scale4e_branch2c -> res4e_branch2c (in-place)
I0302 13:10:15.647614 20068 layer_factory.hpp:77] Creating layer scale4e_branch2c
I0302 13:10:15.648123 20068 net.cpp:150] Setting up scale4e_branch2c
I0302 13:10:15.648144 20068 net.cpp:157] Top shape: 8 1024 14 14 (1605632)
I0302 13:10:15.648151 20068 net.cpp:165] Memory required for data: 1695547424
I0302 13:10:15.648169 20068 layer_factory.hpp:77] Creating layer res4e
I0302 13:10:15.648186 20068 net.cpp:100] Creating Layer res4e
I0302 13:10:15.648198 20068 net.cpp:434] res4e <- res4d_res4d_relu_0_split_1
I0302 13:10:15.648211 20068 net.cpp:434] res4e <- res4e_branch2c
I0302 13:10:15.648226 20068 net.cpp:408] res4e -> res4e
I0302 13:10:15.648313 20068 net.cpp:150] Setting up res4e
I0302 13:10:15.648331 20068 net.cpp:157] Top shape: 8 1024 14 14 (1605632)
I0302 13:10:15.648339 20068 net.cpp:165] Memory required for data: 1701969952
I0302 13:10:15.648350 20068 layer_factory.hpp:77] Creating layer res4e_relu
I0302 13:10:15.648368 20068 net.cpp:100] Creating Layer res4e_relu
I0302 13:10:15.648378 20068 net.cpp:434] res4e_relu <- res4e
I0302 13:10:15.648392 20068 net.cpp:395] res4e_relu -> res4e (in-place)
I0302 13:10:15.649927 20068 net.cpp:150] Setting up res4e_relu
I0302 13:10:15.649981 20068 net.cpp:157] Top shape: 8 1024 14 14 (1605632)
I0302 13:10:15.649987 20068 net.cpp:165] Memory required for data: 1708392480
I0302 13:10:15.649997 20068 layer_factory.hpp:77] Creating layer res4e_res4e_relu_0_split
I0302 13:10:15.650015 20068 net.cpp:100] Creating Layer res4e_res4e_relu_0_split
I0302 13:10:15.650025 20068 net.cpp:434] res4e_res4e_relu_0_split <- res4e
I0302 13:10:15.650043 20068 net.cpp:408] res4e_res4e_relu_0_split -> res4e_res4e_relu_0_split_0
I0302 13:10:15.650058 20068 net.cpp:408] res4e_res4e_relu_0_split -> res4e_res4e_relu_0_split_1
I0302 13:10:15.650225 20068 net.cpp:150] Setting up res4e_res4e_relu_0_split
I0302 13:10:15.650240 20068 net.cpp:157] Top shape: 8 1024 14 14 (1605632)
I0302 13:10:15.650249 20068 net.cpp:157] Top shape: 8 1024 14 14 (1605632)
I0302 13:10:15.650256 20068 net.cpp:165] Memory required for data: 1721237536
I0302 13:10:15.650264 20068 layer_factory.hpp:77] Creating layer res4f_branch2a
I0302 13:10:15.650283 20068 net.cpp:100] Creating Layer res4f_branch2a
I0302 13:10:15.650291 20068 net.cpp:434] res4f_branch2a <- res4e_res4e_relu_0_split_0
I0302 13:10:15.650302 20068 net.cpp:408] res4f_branch2a -> res4f_branch2a
I0302 13:10:15.652438 20068 net.cpp:150] Setting up res4f_branch2a
I0302 13:10:15.652494 20068 net.cpp:157] Top shape: 8 256 14 14 (401408)
I0302 13:10:15.652504 20068 net.cpp:165] Memory required for data: 1722843168
I0302 13:10:15.652539 20068 layer_factory.hpp:77] Creating layer bn4f_branch2a
I0302 13:10:15.652564 20068 net.cpp:100] Creating Layer bn4f_branch2a
I0302 13:10:15.652575 20068 net.cpp:434] bn4f_branch2a <- res4f_branch2a
I0302 13:10:15.652588 20068 net.cpp:395] bn4f_branch2a -> res4f_branch2a (in-place)
I0302 13:10:15.653323 20068 net.cpp:150] Setting up bn4f_branch2a
I0302 13:10:15.653350 20068 net.cpp:157] Top shape: 8 256 14 14 (401408)
I0302 13:10:15.653357 20068 net.cpp:165] Memory required for data: 1724448800
I0302 13:10:15.653381 20068 layer_factory.hpp:77] Creating layer scale4f_branch2a
I0302 13:10:15.653399 20068 net.cpp:100] Creating Layer scale4f_branch2a
I0302 13:10:15.653414 20068 net.cpp:434] scale4f_branch2a <- res4f_branch2a
I0302 13:10:15.653426 20068 net.cpp:395] scale4f_branch2a -> res4f_branch2a (in-place)
I0302 13:10:15.653584 20068 layer_factory.hpp:77] Creating layer scale4f_branch2a
I0302 13:10:15.653921 20068 net.cpp:150] Setting up scale4f_branch2a
I0302 13:10:15.653937 20068 net.cpp:157] Top shape: 8 256 14 14 (401408)
I0302 13:10:15.653944 20068 net.cpp:165] Memory required for data: 1726054432
I0302 13:10:15.653962 20068 layer_factory.hpp:77] Creating layer res4f_branch2a_relu
I0302 13:10:15.653975 20068 net.cpp:100] Creating Layer res4f_branch2a_relu
I0302 13:10:15.653985 20068 net.cpp:434] res4f_branch2a_relu <- res4f_branch2a
I0302 13:10:15.653993 20068 net.cpp:395] res4f_branch2a_relu -> res4f_branch2a (in-place)
I0302 13:10:15.655401 20068 net.cpp:150] Setting up res4f_branch2a_relu
I0302 13:10:15.655449 20068 net.cpp:157] Top shape: 8 256 14 14 (401408)
I0302 13:10:15.655457 20068 net.cpp:165] Memory required for data: 1727660064
I0302 13:10:15.655467 20068 layer_factory.hpp:77] Creating layer res4f_branch2b
I0302 13:10:15.655491 20068 net.cpp:100] Creating Layer res4f_branch2b
I0302 13:10:15.655501 20068 net.cpp:434] res4f_branch2b <- res4f_branch2a
I0302 13:10:15.655516 20068 net.cpp:408] res4f_branch2b -> res4f_branch2b
I0302 13:10:15.666483 20068 net.cpp:150] Setting up res4f_branch2b
I0302 13:10:15.666553 20068 net.cpp:157] Top shape: 8 256 14 14 (401408)
I0302 13:10:15.666560 20068 net.cpp:165] Memory required for data: 1729265696
I0302 13:10:15.666587 20068 layer_factory.hpp:77] Creating layer bn4f_branch2b
I0302 13:10:15.666606 20068 net.cpp:100] Creating Layer bn4f_branch2b
I0302 13:10:15.666616 20068 net.cpp:434] bn4f_branch2b <- res4f_branch2b
I0302 13:10:15.666633 20068 net.cpp:395] bn4f_branch2b -> res4f_branch2b (in-place)
I0302 13:10:15.667479 20068 net.cpp:150] Setting up bn4f_branch2b
I0302 13:10:15.667517 20068 net.cpp:157] Top shape: 8 256 14 14 (401408)
I0302 13:10:15.667526 20068 net.cpp:165] Memory required for data: 1730871328
I0302 13:10:15.667552 20068 layer_factory.hpp:77] Creating layer scale4f_branch2b
I0302 13:10:15.667579 20068 net.cpp:100] Creating Layer scale4f_branch2b
I0302 13:10:15.667590 20068 net.cpp:434] scale4f_branch2b <- res4f_branch2b
I0302 13:10:15.667613 20068 net.cpp:395] scale4f_branch2b -> res4f_branch2b (in-place)
I0302 13:10:15.667817 20068 layer_factory.hpp:77] Creating layer scale4f_branch2b
I0302 13:10:15.668146 20068 net.cpp:150] Setting up scale4f_branch2b
I0302 13:10:15.668165 20068 net.cpp:157] Top shape: 8 256 14 14 (401408)
I0302 13:10:15.668171 20068 net.cpp:165] Memory required for data: 1732476960
I0302 13:10:15.668189 20068 layer_factory.hpp:77] Creating layer res4f_branch2b_relu
I0302 13:10:15.668203 20068 net.cpp:100] Creating Layer res4f_branch2b_relu
I0302 13:10:15.668211 20068 net.cpp:434] res4f_branch2b_relu <- res4f_branch2b
I0302 13:10:15.668226 20068 net.cpp:395] res4f_branch2b_relu -> res4f_branch2b (in-place)
I0302 13:10:15.668753 20068 net.cpp:150] Setting up res4f_branch2b_relu
I0302 13:10:15.668792 20068 net.cpp:157] Top shape: 8 256 14 14 (401408)
I0302 13:10:15.668800 20068 net.cpp:165] Memory required for data: 1734082592
I0302 13:10:15.668809 20068 layer_factory.hpp:77] Creating layer res4f_branch2c
I0302 13:10:15.668838 20068 net.cpp:100] Creating Layer res4f_branch2c
I0302 13:10:15.668849 20068 net.cpp:434] res4f_branch2c <- res4f_branch2b
I0302 13:10:15.668884 20068 net.cpp:408] res4f_branch2c -> res4f_branch2c
I0302 13:10:15.675828 20068 net.cpp:150] Setting up res4f_branch2c
I0302 13:10:15.675917 20068 net.cpp:157] Top shape: 8 1024 14 14 (1605632)
I0302 13:10:15.675930 20068 net.cpp:165] Memory required for data: 1740505120
I0302 13:10:15.675961 20068 layer_factory.hpp:77] Creating layer bn4f_branch2c
I0302 13:10:15.675987 20068 net.cpp:100] Creating Layer bn4f_branch2c
I0302 13:10:15.676007 20068 net.cpp:434] bn4f_branch2c <- res4f_branch2c
I0302 13:10:15.676023 20068 net.cpp:395] bn4f_branch2c -> res4f_branch2c (in-place)
I0302 13:10:15.677026 20068 net.cpp:150] Setting up bn4f_branch2c
I0302 13:10:15.677081 20068 net.cpp:157] Top shape: 8 1024 14 14 (1605632)
I0302 13:10:15.677093 20068 net.cpp:165] Memory required for data: 1746927648
I0302 13:10:15.677222 20068 layer_factory.hpp:77] Creating layer scale4f_branch2c
I0302 13:10:15.677253 20068 net.cpp:100] Creating Layer scale4f_branch2c
I0302 13:10:15.677266 20068 net.cpp:434] scale4f_branch2c <- res4f_branch2c
I0302 13:10:15.677284 20068 net.cpp:395] scale4f_branch2c -> res4f_branch2c (in-place)
I0302 13:10:15.677475 20068 layer_factory.hpp:77] Creating layer scale4f_branch2c
I0302 13:10:15.677932 20068 net.cpp:150] Setting up scale4f_branch2c
I0302 13:10:15.677951 20068 net.cpp:157] Top shape: 8 1024 14 14 (1605632)
I0302 13:10:15.677958 20068 net.cpp:165] Memory required for data: 1753350176
I0302 13:10:15.677974 20068 layer_factory.hpp:77] Creating layer res4f
I0302 13:10:15.677986 20068 net.cpp:100] Creating Layer res4f
I0302 13:10:15.677996 20068 net.cpp:434] res4f <- res4e_res4e_relu_0_split_1
I0302 13:10:15.678005 20068 net.cpp:434] res4f <- res4f_branch2c
I0302 13:10:15.678019 20068 net.cpp:408] res4f -> res4f
I0302 13:10:15.678093 20068 net.cpp:150] Setting up res4f
I0302 13:10:15.678112 20068 net.cpp:157] Top shape: 8 1024 14 14 (1605632)
I0302 13:10:15.678120 20068 net.cpp:165] Memory required for data: 1759772704
I0302 13:10:15.678131 20068 layer_factory.hpp:77] Creating layer res4f_relu
I0302 13:10:15.678148 20068 net.cpp:100] Creating Layer res4f_relu
I0302 13:10:15.678158 20068 net.cpp:434] res4f_relu <- res4f
I0302 13:10:15.678174 20068 net.cpp:395] res4f_relu -> res4f (in-place)
I0302 13:10:15.678617 20068 net.cpp:150] Setting up res4f_relu
I0302 13:10:15.678637 20068 net.cpp:157] Top shape: 8 1024 14 14 (1605632)
I0302 13:10:15.678644 20068 net.cpp:165] Memory required for data: 1766195232
I0302 13:10:15.678652 20068 layer_factory.hpp:77] Creating layer res4f_res4f_relu_0_split
I0302 13:10:15.678665 20068 net.cpp:100] Creating Layer res4f_res4f_relu_0_split
I0302 13:10:15.678674 20068 net.cpp:434] res4f_res4f_relu_0_split <- res4f
I0302 13:10:15.678689 20068 net.cpp:408] res4f_res4f_relu_0_split -> res4f_res4f_relu_0_split_0
I0302 13:10:15.678704 20068 net.cpp:408] res4f_res4f_relu_0_split -> res4f_res4f_relu_0_split_1
I0302 13:10:15.678858 20068 net.cpp:150] Setting up res4f_res4f_relu_0_split
I0302 13:10:15.678879 20068 net.cpp:157] Top shape: 8 1024 14 14 (1605632)
I0302 13:10:15.678891 20068 net.cpp:157] Top shape: 8 1024 14 14 (1605632)
I0302 13:10:15.678899 20068 net.cpp:165] Memory required for data: 1779040288
I0302 13:10:15.678906 20068 layer_factory.hpp:77] Creating layer res5a_branch1
I0302 13:10:15.678927 20068 net.cpp:100] Creating Layer res5a_branch1
I0302 13:10:15.678937 20068 net.cpp:434] res5a_branch1 <- res4f_res4f_relu_0_split_0
I0302 13:10:15.678951 20068 net.cpp:408] res5a_branch1 -> res5a_branch1
I0302 13:10:15.691622 20068 net.cpp:150] Setting up res5a_branch1
I0302 13:10:15.691701 20068 net.cpp:157] Top shape: 8 2048 7 7 (802816)
I0302 13:10:15.691720 20068 net.cpp:165] Memory required for data: 1782251552
I0302 13:10:15.691748 20068 layer_factory.hpp:77] Creating layer bn5a_branch1
I0302 13:10:15.691774 20068 net.cpp:100] Creating Layer bn5a_branch1
I0302 13:10:15.691787 20068 net.cpp:434] bn5a_branch1 <- res5a_branch1
I0302 13:10:15.691799 20068 net.cpp:395] bn5a_branch1 -> res5a_branch1 (in-place)
I0302 13:10:15.692661 20068 net.cpp:150] Setting up bn5a_branch1
I0302 13:10:15.692694 20068 net.cpp:157] Top shape: 8 2048 7 7 (802816)
I0302 13:10:15.692704 20068 net.cpp:165] Memory required for data: 1785462816
I0302 13:10:15.692724 20068 layer_factory.hpp:77] Creating layer scale5a_branch1
I0302 13:10:15.692746 20068 net.cpp:100] Creating Layer scale5a_branch1
I0302 13:10:15.692759 20068 net.cpp:434] scale5a_branch1 <- res5a_branch1
I0302 13:10:15.692775 20068 net.cpp:395] scale5a_branch1 -> res5a_branch1 (in-place)
I0302 13:10:15.692929 20068 layer_factory.hpp:77] Creating layer scale5a_branch1
I0302 13:10:15.693388 20068 net.cpp:150] Setting up scale5a_branch1
I0302 13:10:15.693408 20068 net.cpp:157] Top shape: 8 2048 7 7 (802816)
I0302 13:10:15.693416 20068 net.cpp:165] Memory required for data: 1788674080
I0302 13:10:15.693434 20068 layer_factory.hpp:77] Creating layer res5a_branch2a
I0302 13:10:15.693455 20068 net.cpp:100] Creating Layer res5a_branch2a
I0302 13:10:15.693467 20068 net.cpp:434] res5a_branch2a <- res4f_res4f_relu_0_split_1
I0302 13:10:15.693481 20068 net.cpp:408] res5a_branch2a -> res5a_branch2a
I0302 13:10:15.699749 20068 net.cpp:150] Setting up res5a_branch2a
I0302 13:10:15.699816 20068 net.cpp:157] Top shape: 8 512 7 7 (200704)
I0302 13:10:15.699832 20068 net.cpp:165] Memory required for data: 1789476896
I0302 13:10:15.699869 20068 layer_factory.hpp:77] Creating layer bn5a_branch2a
I0302 13:10:15.699894 20068 net.cpp:100] Creating Layer bn5a_branch2a
I0302 13:10:15.699908 20068 net.cpp:434] bn5a_branch2a <- res5a_branch2a
I0302 13:10:15.699925 20068 net.cpp:395] bn5a_branch2a -> res5a_branch2a (in-place)
I0302 13:10:15.701140 20068 net.cpp:150] Setting up bn5a_branch2a
I0302 13:10:15.701196 20068 net.cpp:157] Top shape: 8 512 7 7 (200704)
I0302 13:10:15.701213 20068 net.cpp:165] Memory required for data: 1790279712
I0302 13:10:15.701251 20068 layer_factory.hpp:77] Creating layer scale5a_branch2a
I0302 13:10:15.701285 20068 net.cpp:100] Creating Layer scale5a_branch2a
I0302 13:10:15.701310 20068 net.cpp:434] scale5a_branch2a <- res5a_branch2a
I0302 13:10:15.701356 20068 net.cpp:395] scale5a_branch2a -> res5a_branch2a (in-place)
I0302 13:10:15.701704 20068 layer_factory.hpp:77] Creating layer scale5a_branch2a
I0302 13:10:15.702540 20068 net.cpp:150] Setting up scale5a_branch2a
I0302 13:10:15.702595 20068 net.cpp:157] Top shape: 8 512 7 7 (200704)
I0302 13:10:15.702618 20068 net.cpp:165] Memory required for data: 1791082528
I0302 13:10:15.702663 20068 layer_factory.hpp:77] Creating layer res5a_branch2a_relu
I0302 13:10:15.702702 20068 net.cpp:100] Creating Layer res5a_branch2a_relu
I0302 13:10:15.702728 20068 net.cpp:434] res5a_branch2a_relu <- res5a_branch2a
I0302 13:10:15.702765 20068 net.cpp:395] res5a_branch2a_relu -> res5a_branch2a (in-place)
I0302 13:10:15.703394 20068 net.cpp:150] Setting up res5a_branch2a_relu
I0302 13:10:15.703418 20068 net.cpp:157] Top shape: 8 512 7 7 (200704)
I0302 13:10:15.703428 20068 net.cpp:165] Memory required for data: 1791885344
I0302 13:10:15.703438 20068 layer_factory.hpp:77] Creating layer res5a_branch2b
I0302 13:10:15.703460 20068 net.cpp:100] Creating Layer res5a_branch2b
I0302 13:10:15.703472 20068 net.cpp:434] res5a_branch2b <- res5a_branch2a
I0302 13:10:15.703490 20068 net.cpp:408] res5a_branch2b -> res5a_branch2b
I0302 13:10:15.716714 20068 net.cpp:150] Setting up res5a_branch2b
I0302 13:10:15.716784 20068 net.cpp:157] Top shape: 8 512 7 7 (200704)
I0302 13:10:15.716796 20068 net.cpp:165] Memory required for data: 1792688160
I0302 13:10:15.716822 20068 layer_factory.hpp:77] Creating layer bn5a_branch2b
I0302 13:10:15.716850 20068 net.cpp:100] Creating Layer bn5a_branch2b
I0302 13:10:15.716864 20068 net.cpp:434] bn5a_branch2b <- res5a_branch2b
I0302 13:10:15.716881 20068 net.cpp:395] bn5a_branch2b -> res5a_branch2b (in-place)
I0302 13:10:15.717808 20068 net.cpp:150] Setting up bn5a_branch2b
I0302 13:10:15.717846 20068 net.cpp:157] Top shape: 8 512 7 7 (200704)
I0302 13:10:15.717856 20068 net.cpp:165] Memory required for data: 1793490976
I0302 13:10:15.717878 20068 layer_factory.hpp:77] Creating layer scale5a_branch2b
I0302 13:10:15.717922 20068 net.cpp:100] Creating Layer scale5a_branch2b
I0302 13:10:15.717937 20068 net.cpp:434] scale5a_branch2b <- res5a_branch2b
I0302 13:10:15.717962 20068 net.cpp:395] scale5a_branch2b -> res5a_branch2b (in-place)
I0302 13:10:15.718123 20068 layer_factory.hpp:77] Creating layer scale5a_branch2b
I0302 13:10:15.718595 20068 net.cpp:150] Setting up scale5a_branch2b
I0302 13:10:15.718614 20068 net.cpp:157] Top shape: 8 512 7 7 (200704)
I0302 13:10:15.718623 20068 net.cpp:165] Memory required for data: 1794293792
I0302 13:10:15.718642 20068 layer_factory.hpp:77] Creating layer res5a_branch2b_relu
I0302 13:10:15.718660 20068 net.cpp:100] Creating Layer res5a_branch2b_relu
I0302 13:10:15.718670 20068 net.cpp:434] res5a_branch2b_relu <- res5a_branch2b
I0302 13:10:15.718683 20068 net.cpp:395] res5a_branch2b_relu -> res5a_branch2b (in-place)
I0302 13:10:15.719182 20068 net.cpp:150] Setting up res5a_branch2b_relu
I0302 13:10:15.719203 20068 net.cpp:157] Top shape: 8 512 7 7 (200704)
I0302 13:10:15.719213 20068 net.cpp:165] Memory required for data: 1795096608
I0302 13:10:15.719220 20068 layer_factory.hpp:77] Creating layer res5a_branch2c
I0302 13:10:15.719238 20068 net.cpp:100] Creating Layer res5a_branch2c
I0302 13:10:15.719249 20068 net.cpp:434] res5a_branch2c <- res5a_branch2b
I0302 13:10:15.719264 20068 net.cpp:408] res5a_branch2c -> res5a_branch2c
I0302 13:10:15.730053 20068 net.cpp:150] Setting up res5a_branch2c
I0302 13:10:15.730154 20068 net.cpp:157] Top shape: 8 2048 7 7 (802816)
I0302 13:10:15.730178 20068 net.cpp:165] Memory required for data: 1798307872
I0302 13:10:15.730217 20068 layer_factory.hpp:77] Creating layer bn5a_branch2c
I0302 13:10:15.730255 20068 net.cpp:100] Creating Layer bn5a_branch2c
I0302 13:10:15.730274 20068 net.cpp:434] bn5a_branch2c <- res5a_branch2c
I0302 13:10:15.730306 20068 net.cpp:395] bn5a_branch2c -> res5a_branch2c (in-place)
I0302 13:10:15.731346 20068 net.cpp:150] Setting up bn5a_branch2c
I0302 13:10:15.731407 20068 net.cpp:157] Top shape: 8 2048 7 7 (802816)
I0302 13:10:15.731417 20068 net.cpp:165] Memory required for data: 1801519136
I0302 13:10:15.731458 20068 layer_factory.hpp:77] Creating layer scale5a_branch2c
I0302 13:10:15.731495 20068 net.cpp:100] Creating Layer scale5a_branch2c
I0302 13:10:15.731513 20068 net.cpp:434] scale5a_branch2c <- res5a_branch2c
I0302 13:10:15.731544 20068 net.cpp:395] scale5a_branch2c -> res5a_branch2c (in-place)
I0302 13:10:15.731791 20068 layer_factory.hpp:77] Creating layer scale5a_branch2c
I0302 13:10:15.732444 20068 net.cpp:150] Setting up scale5a_branch2c
I0302 13:10:15.732466 20068 net.cpp:157] Top shape: 8 2048 7 7 (802816)
I0302 13:10:15.732475 20068 net.cpp:165] Memory required for data: 1804730400
I0302 13:10:15.732501 20068 layer_factory.hpp:77] Creating layer res5a
I0302 13:10:15.732514 20068 net.cpp:100] Creating Layer res5a
I0302 13:10:15.732523 20068 net.cpp:434] res5a <- res5a_branch1
I0302 13:10:15.732532 20068 net.cpp:434] res5a <- res5a_branch2c
I0302 13:10:15.732542 20068 net.cpp:408] res5a -> res5a
I0302 13:10:15.732623 20068 net.cpp:150] Setting up res5a
I0302 13:10:15.732640 20068 net.cpp:157] Top shape: 8 2048 7 7 (802816)
…
I0302 13:10:16.167796 20068 net.cpp:493] Sharing parameters 'res4e_branch2a_w' owned by layer 'res4e_branch2a', param index 0
I0302 13:10:16.167809 20068 layer_factory.hpp:77] Creating layer bn4e_branch2a_p
I0302 13:10:16.167829 20068 net.cpp:100] Creating Layer bn4e_branch2a_p
I0302 13:10:16.167840 20068 net.cpp:434] bn4e_branch2a_p <- res4e_branch2a_p
I0302 13:10:16.167853 20068 net.cpp:395] bn4e_branch2a_p -> res4e_branch2a_p (in-place)
I0302 13:10:16.168797 20068 net.cpp:150] Setting up bn4e_branch2a_p
I0302 13:10:16.168815 20068 net.cpp:157] Top shape: 8 256 14 14 (401408)
I0302 13:10:16.168824 20068 net.cpp:165] Memory required for data: 3516465184
I0302 13:10:16.168843 20068 layer_factory.hpp:77] Creating layer scale4e_branch2a_p
I0302 13:10:16.168864 20068 net.cpp:100] Creating Layer scale4e_branch2a_p
I0302 13:10:16.168872 20068 net.cpp:434] scale4e_branch2a_p <- res4e_branch2a_p
I0302 13:10:16.168902 20068 net.cpp:395] scale4e_branch2a_p -> res4e_branch2a_p (in-place)
I0302 13:10:16.169091 20068 layer_factory.hpp:77] Creating layer scale4e_branch2a_p
I0302 13:10:16.169618 20068 net.cpp:150] Setting up scale4e_branch2a_p
I0302 13:10:16.169636 20068 net.cpp:157] Top shape: 8 256 14 14 (401408)
I0302 13:10:16.169643 20068 net.cpp:165] Memory required for data: 3518070816
I0302 13:10:16.169654 20068 net.cpp:493] Sharing parameters 'scale4e_branch2a_alpha' owned by layer 'scale4e_branch2a', param index 0
I0302 13:10:16.169667 20068 net.cpp:493] Sharing parameters 'scale4e_branch2a_beta' owned by layer 'scale4e_branch2a', param index 1
I0302 13:10:16.169678 20068 layer_factory.hpp:77] Creating layer res4e_branch2a_relu_p
I0302 13:10:16.169692 20068 net.cpp:100] Creating Layer res4e_branch2a_relu_p
I0302 13:10:16.169704 20068 net.cpp:434] res4e_branch2a_relu_p <- res4e_branch2a_p
I0302 13:10:16.169718 20068 net.cpp:395] res4e_branch2a_relu_p -> res4e_branch2a_p (in-place)
I0302 13:10:16.171239 20068 net.cpp:150] Setting up res4e_branch2a_relu_p
I0302 13:10:16.171273 20068 net.cpp:157] Top shape: 8 256 14 14 (401408)
I0302 13:10:16.171285 20068 net.cpp:165] Memory required for data: 3519676448
I0302 13:10:16.171295 20068 layer_factory.hpp:77] Creating layer res4e_branch2b_p
I0302 13:10:16.171317 20068 net.cpp:100] Creating Layer res4e_branch2b_p
I0302 13:10:16.171332 20068 net.cpp:434] res4e_branch2b_p <- res4e_branch2a_p
I0302 13:10:16.171350 20068 net.cpp:408] res4e_branch2b_p -> res4e_branch2b_p
I0302 13:10:16.177800 20068 net.cpp:150] Setting up res4e_branch2b_p
I0302 13:10:16.177855 20068 net.cpp:157] Top shape: 8 256 14 14 (401408)
I0302 13:10:16.177863 20068 net.cpp:165] Memory required for data: 3521282080
I0302 13:10:16.177878 20068 net.cpp:493] Sharing parameters 'res4e_branch2b_w' owned by layer 'res4e_branch2b', param index 0
I0302 13:10:16.177891 20068 layer_factory.hpp:77] Creating layer bn4e_branch2b_p
I0302 13:10:16.177911 20068 net.cpp:100] Creating Layer bn4e_branch2b_p
I0302 13:10:16.177922 20068 net.cpp:434] bn4e_branch2b_p <- res4e_branch2b_p
I0302 13:10:16.177935 20068 net.cpp:395] bn4e_branch2b_p -> res4e_branch2b_p (in-place)
I0302 13:10:16.178764 20068 net.cpp:150] Setting up bn4e_branch2b_p
I0302 13:10:16.178799 20068 net.cpp:157] Top shape: 8 256 14 14 (401408)
I0302 13:10:16.178805 20068 net.cpp:165] Memory required for data: 3522887712
I0302 13:10:16.178824 20068 layer_factory.hpp:77] Creating layer scale4e_branch2b_p
I0302 13:10:16.178845 20068 net.cpp:100] Creating Layer scale4e_branch2b_p
I0302 13:10:16.178853 20068 net.cpp:434] scale4e_branch2b_p <- res4e_branch2b_p
I0302 13:10:16.178865 20068 net.cpp:395] scale4e_branch2b_p -> res4e_branch2b_p (in-place)
I0302 13:10:16.179023 20068 layer_factory.hpp:77] Creating layer scale4e_branch2b_p
I0302 13:10:16.179402 20068 net.cpp:150] Setting up scale4e_branch2b_p
I0302 13:10:16.179419 20068 net.cpp:157] Top shape: 8 256 14 14 (401408)
I0302 13:10:16.179426 20068 net.cpp:165] Memory required for data: 3524493344
I0302 13:10:16.179436 20068 net.cpp:493] Sharing parameters 'scale4e_branch2b_alpha' owned by layer 'scale4e_branch2b', param index 0
I0302 13:10:16.179445 20068 net.cpp:493] Sharing parameters 'scale4e_branch2b_beta' owned by layer 'scale4e_branch2b', param index 1
I0302 13:10:16.179452 20068 layer_factory.hpp:77] Creating layer res4e_branch2b_relu_p
I0302 13:10:16.179466 20068 net.cpp:100] Creating Layer res4e_branch2b_relu_p
I0302 13:10:16.179472 20068 net.cpp:434] res4e_branch2b_relu_p <- res4e_branch2b_p
I0302 13:10:16.179483 20068 net.cpp:395] res4e_branch2b_relu_p -> res4e_branch2b_p (in-place)
I0302 13:10:16.181102 20068 net.cpp:150] Setting up res4e_branch2b_relu_p
I0302 13:10:16.181151 20068 net.cpp:157] Top shape: 8 256 14 14 (401408)
I0302 13:10:16.181159 20068 net.cpp:165] Memory required for data: 3526098976
I0302 13:10:16.181166 20068 layer_factory.hpp:77] Creating layer res4e_branch2c_p
I0302 13:10:16.181190 20068 net.cpp:100] Creating Layer res4e_branch2c_p
I0302 13:10:16.181232 20068 net.cpp:434] res4e_branch2c_p <- res4e_branch2b_p
I0302 13:10:16.181249 20068 net.cpp:408] res4e_branch2c_p -> res4e_branch2c_p
I0302 13:10:16.187366 20068 net.cpp:150] Setting up res4e_branch2c_p
I0302 13:10:16.187423 20068 net.cpp:157] Top shape: 8 1024 14 14 (1605632)
I0302 13:10:16.187435 20068 net.cpp:165] Memory required for data: 3532521504
I0302 13:10:16.187451 20068 net.cpp:493] Sharing parameters 'res4e_branch2c_w' owned by layer 'res4e_branch2c', param index 0
I0302 13:10:16.187463 20068 layer_factory.hpp:77] Creating layer bn4e_branch2c_p
I0302 13:10:16.187486 20068 net.cpp:100] Creating Layer bn4e_branch2c_p
I0302 13:10:16.187500 20068 net.cpp:434] bn4e_branch2c_p <- res4e_branch2c_p
I0302 13:10:16.187518 20068 net.cpp:395] bn4e_branch2c_p -> res4e_branch2c_p (in-place)
I0302 13:10:16.188524 20068 net.cpp:150] Setting up bn4e_branch2c_p
I0302 13:10:16.188549 20068 net.cpp:157] Top shape: 8 1024 14 14 (1605632)
I0302 13:10:16.188561 20068 net.cpp:165] Memory required for data: 3538944032
I0302 13:10:16.188581 20068 layer_factory.hpp:77] Creating layer scale4e_branch2c_p
I0302 13:10:16.188601 20068 net.cpp:100] Creating Layer scale4e_branch2c_p
I0302 13:10:16.188611 20068 net.cpp:434] scale4e_branch2c_p <- res4e_branch2c_p
I0302 13:10:16.188627 20068 net.cpp:395] scale4e_branch2c_p -> res4e_branch2c_p (in-place)
I0302 13:10:16.188801 20068 layer_factory.hpp:77] Creating layer scale4e_branch2c_p
I0302 13:10:16.189338 20068 net.cpp:150] Setting up scale4e_branch2c_p
I0302 13:10:16.189360 20068 net.cpp:157] Top shape: 8 1024 14 14 (1605632)
I0302 13:10:16.189369 20068 net.cpp:165] Memory required for data: 3545366560
I0302 13:10:16.189380 20068 net.cpp:493] Sharing parameters 'scale4e_branch2c_alpha' owned by layer 'scale4e_branch2c', param index 0
I0302 13:10:16.189394 20068 net.cpp:493] Sharing parameters 'scale4e_branch2c_beta' owned by layer 'scale4e_branch2c', param index 1
I0302 13:10:16.189404 20068 layer_factory.hpp:77] Creating layer res4e_p
I0302 13:10:16.189416 20068 net.cpp:100] Creating Layer res4e_p
I0302 13:10:16.189426 20068 net.cpp:434] res4e_p <- res4d_p_res4d_relu_p_0_split_1
I0302 13:10:16.189437 20068 net.cpp:434] res4e_p <- res4e_branch2c_p
I0302 13:10:16.189451 20068 net.cpp:408] res4e_p -> res4e_p
I0302 13:10:16.189535 20068 net.cpp:150] Setting up res4e_p
I0302 13:10:16.189550 20068 net.cpp:157] Top shape: 8 1024 14 14 (1605632)
I0302 13:10:16.189558 20068 net.cpp:165] Memory required for data: 3551789088
I0302 13:10:16.189565 20068 layer_factory.hpp:77] Creating layer res4e_relu_p
I0302 13:10:16.189577 20068 net.cpp:100] Creating Layer res4e_relu_p
I0302 13:10:16.189585 20068 net.cpp:434] res4e_relu_p <- res4e_p
I0302 13:10:16.189599 20068 net.cpp:395] res4e_relu_p -> res4e_p (in-place)
I0302 13:10:16.190052 20068 net.cpp:150] Setting up res4e_relu_p
I0302 13:10:16.190075 20068 net.cpp:157] Top shape: 8 1024 14 14 (1605632)
I0302 13:10:16.190088 20068 net.cpp:165] Memory required for data: 3558211616
I0302 13:10:16.190095 20068 layer_factory.hpp:77] Creating layer res4e_p_res4e_relu_p_0_split
I0302 13:10:16.190109 20068 net.cpp:100] Creating Layer res4e_p_res4e_relu_p_0_split
I0302 13:10:16.190120 20068 net.cpp:434] res4e_p_res4e_relu_p_0_split <- res4e_p
I0302 13:10:16.190131 20068 net.cpp:408] res4e_p_res4e_relu_p_0_split -> res4e_p_res4e_relu_p_0_split_0
I0302 13:10:16.190146 20068 net.cpp:408] res4e_p_res4e_relu_p_0_split -> res4e_p_res4e_relu_p_0_split_1
I0302 13:10:16.190305 20068 net.cpp:150] Setting up res4e_p_res4e_relu_p_0_split
I0302 13:10:16.190320 20068 net.cpp:157] Top shape: 8 1024 14 14 (1605632)
I0302 13:10:16.190330 20068 net.cpp:157] Top shape: 8 1024 14 14 (1605632)
I0302 13:10:16.190337 20068 net.cpp:165] Memory required for data: 3571056672
I0302 13:10:16.190345 20068 layer_factory.hpp:77] Creating layer res4f_branch2a_p
I0302 13:10:16.190363 20068 net.cpp:100] Creating Layer res4f_branch2a_p
I0302 13:10:16.190373 20068 net.cpp:434] res4f_branch2a_p <- res4e_p_res4e_relu_p_0_split_0
I0302 13:10:16.190389 20068 net.cpp:408] res4f_branch2a_p -> res4f_branch2a_p
I0302 13:10:16.194314 20068 net.cpp:150] Setting up res4f_branch2a_p
I0302 13:10:16.194370 20068 net.cpp:157] Top shape: 8 256 14 14 (401408)
I0302 13:10:16.194381 20068 net.cpp:165] Memory required for data: 3572662304
I0302 13:10:16.194398 20068 net.cpp:493] Sharing parameters 'res4f_branch2a_w' owned by layer 'res4f_branch2a', param index 0
I0302 13:10:16.194411 20068 layer_factory.hpp:77] Creating layer bn4f_branch2a_p
I0302 13:10:16.194432 20068 net.cpp:100] Creating Layer bn4f_branch2a_p
I0302 13:10:16.194443 20068 net.cpp:434] bn4f_branch2a_p <- res4f_branch2a_p
I0302 13:10:16.194458 20068 net.cpp:395] bn4f_branch2a_p -> res4f_branch2a_p (in-place)
I0302 13:10:16.195420 20068 net.cpp:150] Setting up bn4f_branch2a_p
I0302 13:10:16.195444 20068 net.cpp:157] Top shape: 8 256 14 14 (401408)
I0302 13:10:16.195453 20068 net.cpp:165] Memory required for data: 3574267936
I0302 13:10:16.195478 20068 layer_factory.hpp:77] Creating layer scale4f_branch2a_p
I0302 13:10:16.195502 20068 net.cpp:100] Creating Layer scale4f_branch2a_p
I0302 13:10:16.195513 20068 net.cpp:434] scale4f_branch2a_p <- res4f_branch2a_p
I0302 13:10:16.195526 20068 net.cpp:395] scale4f_branch2a_p -> res4f_branch2a_p (in-place)
I0302 13:10:16.195705 20068 layer_factory.hpp:77] Creating layer scale4f_branch2a_p
I0302 13:10:16.196250 20068 net.cpp:150] Setting up scale4f_branch2a_p
I0302 13:10:16.196270 20068 net.cpp:157] Top shape: 8 256 14 14 (401408)
I0302 13:10:16.196280 20068 net.cpp:165] Memory required for data: 3575873568
I0302 13:10:16.196291 20068 net.cpp:493] Sharing parameters 'scale4f_branch2a_alpha' owned by layer 'scale4f_branch2a', param index 0
I0302 13:10:16.196303 20068 net.cpp:493] Sharing parameters 'scale4f_branch2a_beta' owned by layer 'scale4f_branch2a', param index 1
I0302 13:10:16.196312 20068 layer_factory.hpp:77] Creating layer res4f_branch2a_relu_p
I0302 13:10:16.196327 20068 net.cpp:100] Creating Layer res4f_branch2a_relu_p
I0302 13:10:16.196338 20068 net.cpp:434] res4f_branch2a_relu_p <- res4f_branch2a_p
I0302 13:10:16.196349 20068 net.cpp:395] res4f_branch2a_relu_p -> res4f_branch2a_p (in-place)
I0302 13:10:16.196816 20068 net.cpp:150] Setting up res4f_branch2a_relu_p
I0302 13:10:16.196836 20068 net.cpp:157] Top shape: 8 256 14 14 (401408)
I0302 13:10:16.196846 20068 net.cpp:165] Memory required for data: 3577479200
I0302 13:10:16.196854 20068 layer_factory.hpp:77] Creating layer res4f_branch2b_p
I0302 13:10:16.196876 20068 net.cpp:100] Creating Layer res4f_branch2b_p
I0302 13:10:16.196887 20068 net.cpp:434] res4f_branch2b_p <- res4f_branch2a_p
I0302 13:10:16.196902 20068 net.cpp:408] res4f_branch2b_p -> res4f_branch2b_p
I0302 13:10:16.206382 20068 net.cpp:150] Setting up res4f_branch2b_p
I0302 13:10:16.206439 20068 net.cpp:157] Top shape: 8 256 14 14 (401408)
I0302 13:10:16.206451 20068 net.cpp:165] Memory required for data: 3579084832
I0302 13:10:16.206467 20068 net.cpp:493] Sharing parameters 'res4f_branch2b_w' owned by layer 'res4f_branch2b', param index 0
I0302 13:10:16.206480 20068 layer_factory.hpp:77] Creating layer bn4f_branch2b_p
I0302 13:10:16.206499 20068 net.cpp:100] Creating Layer bn4f_branch2b_p
I0302 13:10:16.206512 20068 net.cpp:434] bn4f_branch2b_p <- res4f_branch2b_p
I0302 13:10:16.206537 20068 net.cpp:395] bn4f_branch2b_p -> res4f_branch2b_p (in-place)
I0302 13:10:16.207548 20068 net.cpp:150] Setting up bn4f_branch2b_p
I0302 13:10:16.207572 20068 net.cpp:157] Top shape: 8 256 14 14 (401408)
I0302 13:10:16.207582 20068 net.cpp:165] Memory required for data: 3580690464
I0302 13:10:16.207602 20068 layer_factory.hpp:77] Creating layer scale4f_branch2b_p
I0302 13:10:16.207624 20068 net.cpp:100] Creating Layer scale4f_branch2b_p
I0302 13:10:16.207636 20068 net.cpp:434] scale4f_branch2b_p <- res4f_branch2b_p
I0302 13:10:16.207653 20068 net.cpp:395] scale4f_branch2b_p -> res4f_branch2b_p (in-place)
I0302 13:10:16.207828 20068 layer_factory.hpp:77] Creating layer scale4f_branch2b_p
I0302 13:10:16.208358 20068 net.cpp:150] Setting up scale4f_branch2b_p
I0302 13:10:16.208376 20068 net.cpp:157] Top shape: 8 256 14 14 (401408)
I0302 13:10:16.208400 20068 net.cpp:165] Memory required for data: 3582296096
I0302 13:10:16.208413 20068 net.cpp:493] Sharing parameters 'scale4f_branch2b_alpha' owned by layer 'scale4f_branch2b', param index 0
I0302 13:10:16.208425 20068 net.cpp:493] Sharing parameters 'scale4f_branch2b_beta' owned by layer 'scale4f_branch2b', param index 1
I0302 13:10:16.208434 20068 layer_factory.hpp:77] Creating layer res4f_branch2b_relu_p
I0302 13:10:16.208451 20068 net.cpp:100] Creating Layer res4f_branch2b_relu_p
I0302 13:10:16.208461 20068 net.cpp:434] res4f_branch2b_relu_p <- res4f_branch2b_p
I0302 13:10:16.208472 20068 net.cpp:395] res4f_branch2b_relu_p -> res4f_branch2b_p (in-place)
I0302 13:10:16.209018 20068 net.cpp:150] Setting up res4f_branch2b_relu_p
I0302 13:10:16.209043 20068 net.cpp:157] Top shape: 8 256 14 14 (401408)
I0302 13:10:16.209053 20068 net.cpp:165] Memory required for data: 3583901728
I0302 13:10:16.209065 20068 layer_factory.hpp:77] Creating layer res4f_branch2c_p
I0302 13:10:16.209089 20068 net.cpp:100] Creating Layer res4f_branch2c_p
I0302 13:10:16.209100 20068 net.cpp:434] res4f_branch2c_p <- res4f_branch2b_p
I0302 13:10:16.209115 20068 net.cpp:408] res4f_branch2c_p -> res4f_branch2c_p
I0302 13:10:16.215251 20068 net.cpp:150] Setting up res4f_branch2c_p
I0302 13:10:16.215311 20068 net.cpp:157] Top shape: 8 1024 14 14 (1605632)
I0302 13:10:16.215322 20068 net.cpp:165] Memory required for data: 3590324256
I0302 13:10:16.215342 20068 net.cpp:493] Sharing parameters 'res4f_branch2c_w' owned by layer 'res4f_branch2c', param index 0
I0302 13:10:16.215354 20068 layer_factory.hpp:77] Creating layer bn4f_branch2c_p
I0302 13:10:16.215376 20068 net.cpp:100] Creating Layer bn4f_branch2c_p
I0302 13:10:16.215391 20068 net.cpp:434] bn4f_branch2c_p <- res4f_branch2c_p
I0302 13:10:16.215406 20068 net.cpp:395] bn4f_branch2c_p -> res4f_branch2c_p (in-place)
I0302 13:10:16.216399 20068 net.cpp:150] Setting up bn4f_branch2c_p
I0302 13:10:16.216425 20068 net.cpp:157] Top shape: 8 1024 14 14 (1605632)
I0302 13:10:16.216434 20068 net.cpp:165] Memory required for data: 3596746784
I0302 13:10:16.216454 20068 layer_factory.hpp:77] Creating layer scale4f_branch2c_p
I0302 13:10:16.216476 20068 net.cpp:100] Creating Layer scale4f_branch2c_p
I0302 13:10:16.216487 20068 net.cpp:434] scale4f_branch2c_p <- res4f_branch2c_p
I0302 13:10:16.216509 20068 net.cpp:395] scale4f_branch2c_p -> res4f_branch2c_p (in-place)
I0302 13:10:16.216696 20068 layer_factory.hpp:77] Creating layer scale4f_branch2c_p
I0302 13:10:16.217249 20068 net.cpp:150] Setting up scale4f_branch2c_p
I0302 13:10:16.217272 20068 net.cpp:157] Top shape: 8 1024 14 14 (1605632)
I0302 13:10:16.217280 20068 net.cpp:165] Memory required for data: 3603169312
I0302 13:10:16.217293 20068 net.cpp:493] Sharing parameters 'scale4f_branch2c_alpha' owned by layer 'scale4f_branch2c', param index 0
I0302 13:10:16.217304 20068 net.cpp:493] Sharing parameters 'scale4f_branch2c_beta' owned by layer 'scale4f_branch2c', param index 1
I0302 13:10:16.217314 20068 layer_factory.hpp:77] Creating layer res4f_p
I0302 13:10:16.217325 20068 net.cpp:100] Creating Layer res4f_p
I0302 13:10:16.217336 20068 net.cpp:434] res4f_p <- res4e_p_res4e_relu_p_0_split_1
I0302 13:10:16.217347 20068 net.cpp:434] res4f_p <- res4f_branch2c_p
I0302 13:10:16.217357 20068 net.cpp:408] res4f_p -> res4f_p
I0302 13:10:16.217452 20068 net.cpp:150] Setting up res4f_p
I0302 13:10:16.217514 20068 net.cpp:157] Top shape: 8 1024 14 14 (1605632)
I0302 13:10:16.217530 20068 net.cpp:165] Memory required for data: 3609591840
I0302 13:10:16.217537 20068 layer_factory.hpp:77] Creating layer res4f_relu_p
I0302 13:10:16.217550 20068 net.cpp:100] Creating Layer res4f_relu_p
I0302 13:10:16.217559 20068 net.cpp:434] res4f_relu_p <- res4f_p
I0302 13:10:16.217576 20068 net.cpp:395] res4f_relu_p -> res4f_p (in-place)
I0302 13:10:16.218065 20068 net.cpp:150] Setting up res4f_relu_p
I0302 13:10:16.218081 20068 net.cpp:157] Top shape: 8 1024 14 14 (1605632)
I0302 13:10:16.218089 20068 net.cpp:165] Memory required for data: 3616014368
I0302 13:10:16.218111 20068 layer_factory.hpp:77] Creating layer res4f_p_res4f_relu_p_0_split
I0302 13:10:16.218129 20068 net.cpp:100] Creating Layer res4f_p_res4f_relu_p_0_split
I0302 13:10:16.218138 20068 net.cpp:434] res4f_p_res4f_relu_p_0_split <- res4f_p
I0302 13:10:16.218153 20068 net.cpp:408] res4f_p_res4f_relu_p_0_split -> res4f_p_res4f_relu_p_0_split_0
I0302 13:10:16.218168 20068 net.cpp:408] res4f_p_res4f_relu_p_0_split -> res4f_p_res4f_relu_p_0_split_1
I0302 13:10:16.218350 20068 net.cpp:150] Setting up res4f_p_res4f_relu_p_0_split
I0302 13:10:16.218365 20068 net.cpp:157] Top shape: 8 1024 14 14 (1605632)
I0302 13:10:16.218375 20068 net.cpp:157] Top shape: 8 1024 14 14 (1605632)
I0302 13:10:16.218382 20068 net.cpp:165] Memory required for data: 3628859424
I0302 13:10:16.218391 20068 layer_factory.hpp:77] Creating layer res5a_branch1_p
I0302 13:10:16.218413 20068 net.cpp:100] Creating Layer res5a_branch1_p
I0302 13:10:16.218426 20068 net.cpp:434] res5a_branch1_p <- res4f_p_res4f_relu_p_0_split_0
I0302 13:10:16.218441 20068 net.cpp:408] res5a_branch1_p -> res5a_branch1_p
I0302 13:10:16.232906 20068 net.cpp:150] Setting up res5a_branch1_p
I0302 13:10:16.233031 20068 net.cpp:157] Top shape: 8 2048 7 7 (802816)
I0302 13:10:16.233057 20068 net.cpp:165] Memory required for data: 3632070688
I0302 13:10:16.233075 20068 net.cpp:493] Sharing parameters 'res5a_branch1_w' owned by layer 'res5a_branch1', param index 0
I0302 13:10:16.233093 20068 layer_factory.hpp:77] Creating layer bn5a_branch1_p
I0302 13:10:16.233114 20068 net.cpp:100] Creating Layer bn5a_branch1_p
I0302 13:10:16.233131 20068 net.cpp:434] bn5a_branch1_p <- res5a_branch1_p
I0302 13:10:16.233150 20068 net.cpp:395] bn5a_branch1_p -> res5a_branch1_p (in-place)
I0302 13:10:16.235131 20068 net.cpp:150] Setting up bn5a_branch1_p
I0302 13:10:16.235198 20068 net.cpp:157] Top shape: 8 2048 7 7 (802816)
I0302 13:10:16.235214 20068 net.cpp:165] Memory required for data: 3635281952
I0302 13:10:16.235242 20068 layer_factory.hpp:77] Creating layer scale5a_branch1_p
I0302 13:10:16.235281 20068 net.cpp:100] Creating Layer scale5a_branch1_p
I0302 13:10:16.235291 20068 net.cpp:434] scale5a_branch1_p <- res5a_branch1_p
I0302 13:10:16.235312 20068 net.cpp:395] scale5a_branch1_p -> res5a_branch1_p (in-place)
I0302 13:10:16.235690 20068 layer_factory.hpp:77] Creating layer scale5a_branch1_p
I0302 13:10:16.237053 20068 net.cpp:150] Setting up scale5a_branch1_p
I0302 13:10:16.237154 20068 net.cpp:157] Top shape: 8 2048 7 7 (802816)
I0302 13:10:16.237185 20068 net.cpp:165] Memory required for data: 3638493216
I0302 13:10:16.237237 20068 net.cpp:493] Sharing parameters 'scale5a_branch1_alpha' owned by layer 'scale5a_branch1', param index 0
I0302 13:10:16.237267 20068 net.cpp:493] Sharing parameters 'scale5a_branch1_beta' owned by layer 'scale5a_branch1', param index 1
I0302 13:10:16.237295 20068 layer_factory.hpp:77] Creating layer res5a_branch2a_p
I0302 13:10:16.237359 20068 net.cpp:100] Creating Layer res5a_branch2a_p
I0302 13:10:16.237385 20068 net.cpp:434] res5a_branch2a_p <- res4f_p_res4f_relu_p_0_split_1
I0302 13:10:16.237403 20068 net.cpp:408] res5a_branch2a_p -> res5a_branch2a_p
I0302 13:10:16.244879 20068 net.cpp:150] Setting up res5a_branch2a_p
I0302 13:10:16.244969 20068 net.cpp:157] Top shape: 8 512 7 7 (200704)
I0302 13:10:16.244983 20068 net.cpp:165] Memory required for data: 3639296032
I0302 13:10:16.245000 20068 net.cpp:493] Sharing parameters 'res5a_branch2a_w' owned by layer 'res5a_branch2a', param index 0
I0302 13:10:16.245012 20068 layer_factory.hpp:77] Creating layer bn5a_branch2a_p
I0302 13:10:16.245033 20068 net.cpp:100] Creating Layer bn5a_branch2a_p
I0302 13:10:16.245048 20068 net.cpp:434] bn5a_branch2a_p <- res5a_branch2a_p
I0302 13:10:16.245064 20068 net.cpp:395] bn5a_branch2a_p -> res5a_branch2a_p (in-place)
I0302 13:10:16.246035 20068 net.cpp:150] Setting up bn5a_branch2a_p
I0302 13:10:16.246063 20068 net.cpp:157] Top shape: 8 512 7 7 (200704)
I0302 13:10:16.246074 20068 net.cpp:165] Memory required for data: 3640098848
I0302 13:10:16.246109 20068 layer_factory.hpp:77] Creating layer scale5a_branch2a_p
I0302 13:10:16.246129 20068 net.cpp:100] Creating Layer scale5a_branch2a_p
I0302 13:10:16.246140 20068 net.cpp:434] scale5a_branch2a_p <- res5a_branch2a_p
I0302 13:10:16.246160 20068 net.cpp:395] scale5a_branch2a_p -> res5a_branch2a_p (in-place)
I0302 13:10:16.246330 20068 layer_factory.hpp:77] Creating layer scale5a_branch2a_p
I0302 13:10:16.246893 20068 net.cpp:150] Setting up scale5a_branch2a_p
I0302 13:10:16.246912 20068 net.cpp:157] Top shape: 8 512 7 7 (200704)
I0302 13:10:16.246920 20068 net.cpp:165] Memory required for data: 3640901664
I0302 13:10:16.246932 20068 net.cpp:493] Sharing parameters 'scale5a_branch2a_alpha' owned by layer 'scale5a_branch2a', param index 0
I0302 13:10:16.246944 20068 net.cpp:493] Sharing parameters 'scale5a_branch2a_beta' owned by layer 'scale5a_branch2a', param index 1
I0302 13:10:16.246953 20068 layer_factory.hpp:77] Creating layer res5a_branch2a_relu_p
I0302 13:10:16.246966 20068 net.cpp:100] Creating Layer res5a_branch2a_relu_p
I0302 13:10:16.246975 20068 net.cpp:434] res5a_branch2a_relu_p <- res5a_branch2a_p
I0302 13:10:16.246990 20068 net.cpp:395] res5a_branch2a_relu_p -> res5a_branch2a_p (in-place)
I0302 13:10:16.247457 20068 net.cpp:150] Setting up res5a_branch2a_relu_p
I0302 13:10:16.247478 20068 net.cpp:157] Top shape: 8 512 7 7 (200704)
I0302 13:10:16.247485 20068 net.cpp:165] Memory required for data: 3641704480
I0302 13:10:16.247493 20068 layer_factory.hpp:77] Creating layer res5a_branch2b_p
I0302 13:10:16.247515 20068 net.cpp:100] Creating Layer res5a_branch2b_p
I0302 13:10:16.247527 20068 net.cpp:434] res5a_branch2b_p <- res5a_branch2a_p
I0302 13:10:16.247544 20068 net.cpp:408] res5a_branch2b_p -> res5a_branch2b_p
I0302 13:10:16.261677 20068 net.cpp:150] Setting up res5a_branch2b_p
I0302 13:10:16.261747 20068 net.cpp:157] Top shape: 8 512 7 7 (200704)
I0302 13:10:16.261759 20068 net.cpp:165] Memory required for data: 3642507296
I0302 13:10:16.261778 20068 net.cpp:493] Sharing parameters 'res5a_branch2b_w' owned by layer 'res5a_branch2b', param index 0
I0302 13:10:16.261791 20068 layer_factory.hpp:77] Creating layer bn5a_branch2b_p
I0302 13:10:16.261816 20068 net.cpp:100] Creating Layer bn5a_branch2b_p
I0302 13:10:16.261828 20068 net.cpp:434] bn5a_branch2b_p <- res5a_branch2b_p
I0302 13:10:16.261844 20068 net.cpp:395] bn5a_branch2b_p -> res5a_branch2b_p (in-place)
I0302 13:10:16.262915 20068 net.cpp:150] Setting up bn5a_branch2b_p
I0302 13:10:16.262950 20068 net.cpp:157] Top shape: 8 512 7 7 (200704)
I0302 13:10:16.262964 20068 net.cpp:165] Memory required for data: 3643310112
I0302 13:10:16.262996 20068 layer_factory.hpp:77] Creating layer scale5a_branch2b_p
I0302 13:10:16.263023 20068 net.cpp:100] Creating Layer scale5a_branch2b_p
I0302 13:10:16.263038 20068 net.cpp:434] scale5a_branch2b_p <- res5a_branch2b_p
I0302 13:10:16.263056 20068 net.cpp:395] scale5a_branch2b_p -> res5a_branch2b_p (in-place)
I0302 13:10:16.263249 20068 layer_factory.hpp:77] Creating layer scale5a_branch2b_p
I0302 13:10:16.263837 20068 net.cpp:150] Setting up scale5a_branch2b_p
I0302 13:10:16.263859 20068 net.cpp:157] Top shape: 8 512 7 7 (200704)
I0302 13:10:16.263869 20068 net.cpp:165] Memory required for data: 3644112928
I0302 13:10:16.263881 20068 net.cpp:493] Sharing parameters 'scale5a_branch2b_alpha' owned by layer 'scale5a_branch2b', param index 0
I0302 13:10:16.263895 20068 net.cpp:493] Sharing parameters 'scale5a_branch2b_beta' owned by layer 'scale5a_branch2b', param index 1
I0302 13:10:16.263903 20068 layer_factory.hpp:77] Creating layer res5a_branch2b_relu_p
I0302 13:10:16.263921 20068 net.cpp:100] Creating Layer res5a_branch2b_relu_p
I0302 13:10:16.263931 20068 net.cpp:434] res5a_branch2b_relu_p <- res5a_branch2b_p
I0302 13:10:16.263943 20068 net.cpp:395] res5a_branch2b_relu_p -> res5a_branch2b_p (in-place)
I0302 13:10:16.265730 20068 net.cpp:150] Setting up res5a_branch2b_relu_p
I0302 13:10:16.265796 20068 net.cpp:157] Top shape: 8 512 7 7 (200704)
I0302 13:10:16.265807 20068 net.cpp:165] Memory required for data: 3644915744
I0302 13:10:16.265833 20068 layer_factory.hpp:77] Creating layer res5a_branch2c_p
I0302 13:10:16.265867 20068 net.cpp:100] Creating Layer res5a_branch2c_p
I0302 13:10:16.265882 20068 net.cpp:434] res5a_branch2c_p <- res5a_branch2b_p
I0302 13:10:16.265899 20068 net.cpp:408] res5a_branch2c_p -> res5a_branch2c_p
I0302 13:10:16.274993 20068 net.cpp:150] Setting up res5a_branch2c_p
I0302 13:10:16.275061 20068 net.cpp:157] Top shape: 8 2048 7 7 (802816)
I0302 13:10:16.275074 20068 net.cpp:165] Memory required for data: 3648127008
I0302 13:10:16.275092 20068 net.cpp:493] Sharing parameters 'res5a_branch2c_w' owned by layer 'res5a_branch2c', param index 0
I0302 13:10:16.275105 20068 layer_factory.hpp:77] Creating layer bn5a_branch2c_p
I0302 13:10:16.275128 20068 net.cpp:100] Creating Layer bn5a_branch2c_p
I0302 13:10:16.275142 20068 net.cpp:434] bn5a_branch2c_p <- res5a_branch2c_p
I0302 13:10:16.275159 20068 net.cpp:395] bn5a_branch2c_p -> res5a_branch2c_p (in-place)
I0302 13:10:16.276242 20068 net.cpp:150] Setting up bn5a_branch2c_p
I0302 13:10:16.276286 20068 net.cpp:157] Top shape: 8 2048 7 7 (802816)
I0302 13:10:16.276304 20068 net.cpp:165] Memory required for data: 3651338272
I0302 13:10:16.276365 20068 layer_factory.hpp:77] Creating layer scale5a_branch2c_p
I0302 13:10:16.276399 20068 net.cpp:100] Creating Layer scale5a_branch2c_p
I0302 13:10:16.276420 20068 net.cpp:434] scale5a_branch2c_p <- res5a_branch2c_p
I0302 13:10:16.276448 20068 net.cpp:395] scale5a_branch2c_p -> res5a_branch2c_p (in-place)
I0302 13:10:16.276765 20068 layer_factory.hpp:77] Creating layer scale5a_branch2c_p
I0302 13:10:16.277426 20068 net.cpp:150] Setting up scale5a_branch2c_p
I0302 13:10:16.277454 20068 net.cpp:157] Top shape: 8 2048 7 7 (802816)
I0302 13:10:16.277465 20068 net.cpp:165] Memory required for data: 3654549536
I0302 13:10:16.277479 20068 net.cpp:493] Sharing parameters 'scale5a_branch2c_alpha' owned by layer 'scale5a_branch2c', param index 0
I0302 13:10:16.277493 20068 net.cpp:493] Sharing parameters 'scale5a_branch2c_beta' owned by layer 'scale5a_branch2c', param index 1
I0302 13:10:16.277501 20068 layer_factory.hpp:77] Creating layer res5a_p
I0302 13:10:16.277518 20068 net.cpp:100] Creating Layer res5a_p
I0302 13:10:16.277528 20068 net.cpp:434] res5a_p <- res5a_branch1_p
I0302 13:10:16.277540 20068 net.cpp:434] res5a_p <- res5a_branch2c_p
I0302 13:10:16.277555 20068 net.cpp:408] res5a_p -> res5a_p
I0302 13:10:16.277655 20068 net.cpp:150] Setting up res5a_p
I0302 13:10:16.277670 20068 net.cpp:157] Top shape: 8 2048 7 7 (802816)
I0302 13:10:16.277678 20068 net.cpp:165] Memory required for data: 3657760800
I0302 13:10:16.277685 20068 layer_factory.hpp:77] Creating layer res5a_relu_p
I0302 13:10:16.277698 20068 net.cpp:100] Creating Layer res5a_relu_p
I0302 13:10:16.277709 20068 net.cpp:434] res5a_relu_p <- res5a_p
I0302 13:10:16.277721 20068 net.cpp:395] res5a_relu_p -> res5a_p (in-place)
I0302 13:10:16.278215 20068 net.cpp:150] Setting up res5a_relu_p
I0302 13:10:16.278237 20068 net.cpp:157] Top shape: 8 2048 7 7 (802816)
I0302 13:10:16.278245 20068 net.cpp:165] Memory required for data: 3660972064
I0302 13:10:16.278254 20068 layer_factory.hpp:77] Creating layer res5a_p_res5a_relu_p_0_split
I0302 13:10:16.278270 20068 net.cpp:100] Creating Layer res5a_p_res5a_relu_p_0_split
I0302 13:10:16.278280 20068 net.cpp:434] res5a_p_res5a_relu_p_0_split <- res5a_p
I0302 13:10:16.278291 20068 net.cpp:408] res5a_p_res5a_relu_p_0_split -> res5a_p_res5a_relu_p_0_split_0
I0302 13:10:16.278307 20068 net.cpp:408] res5a_p_res5a_relu_p_0_split -> res5a_p_res5a_relu_p_0_split_1
I0302 13:10:16.278517 20068 net.cpp:150] Setting up res5a_p_res5a_relu_p_0_split
I0302 13:10:16.278535 20068 net.cpp:157] Top shape: 8 2048 7 7 (802816)
I0302 13:10:16.278545 20068 net.cpp:157] Top shape: 8 2048 7 7 (802816)
I0302 13:10:16.278553 20068 net.cpp:165] Memory required for data: 3667394592
I0302 13:10:16.278559 20068 layer_factory.hpp:77] Creating layer res5b_branch2a_p
I0302 13:10:16.278583 20068 net.cpp:100] Creating Layer res5b_branch2a_p
I0302 13:10:16.278611 20068 net.cpp:434] res5b_branch2a_p <- res5a_p_res5a_relu_p_0_split_0
I0302 13:10:16.278630 20068 net.cpp:408] res5b_branch2a_p -> res5b_branch2a_p
I0302 13:10:16.288378 20068 net.cpp:150] Setting up res5b_branch2a_p
I0302 13:10:16.288440 20068 net.cpp:157] Top shape: 8 512 7 7 (200704)
I0302 13:10:16.288452 20068 net.cpp:165] Memory required for data: 3668197408
I0302 13:10:16.288471 20068 net.cpp:493] Sharing parameters 'res5b_branch2a_w' owned by layer 'res5b_branch2a', param index 0
I0302 13:10:16.288486 20068 layer_factory.hpp:77] Creating layer bn5b_branch2a_p
I0302 13:10:16.288511 20068 net.cpp:100] Creating Layer bn5b_branch2a_p
I0302 13:10:16.288527 20068 net.cpp:434] bn5b_branch2a_p <- res5b_branch2a_p
I0302 13:10:16.288542 20068 net.cpp:395] bn5b_branch2a_p -> res5b_branch2a_p (in-place)
I0302 13:10:16.289624 20068 net.cpp:150] Setting up bn5b_branch2a_p
I0302 13:10:16.289670 20068 net.cpp:157] Top shape: 8 512 7 7 (200704)
I0302 13:10:16.289681 20068 net.cpp:165] Memory required for data: 3669000224
I0302 13:10:16.289705 20068 layer_factory.hpp:77] Creating layer scale5b_branch2a_p
I0302 13:10:16.289731 20068 net.cpp:100] Creating Layer scale5b_branch2a_p
I0302 13:10:16.289744 20068 net.cpp:434] scale5b_branch2a_p <- res5b_branch2a_p
I0302 13:10:16.289762 20068 net.cpp:395] scale5b_branch2a_p -> res5b_branch2a_p (in-place)
I0302 13:10:16.289958 20068 layer_factory.hpp:77] Creating layer scale5b_branch2a_p
I0302 13:10:16.290555 20068 net.cpp:150] Setting up scale5b_branch2a_p
I0302 13:10:16.290577 20068 net.cpp:157] Top shape: 8 512 7 7 (200704)
I0302 13:10:16.290585 20068 net.cpp:165] Memory required for data: 3669803040
I0302 13:10:16.290601 20068 net.cpp:493] Sharing parameters 'scale5b_branch2a_alpha' owned by layer 'scale5b_branch2a', param index 0
I0302 13:10:16.290614 20068 net.cpp:493] Sharing parameters 'scale5b_branch2a_beta' owned by layer 'scale5b_branch2a', param index 1
I0302 13:10:16.290624 20068 layer_factory.hpp:77] Creating layer res5b_branch2a_relu_p
I0302 13:10:16.290640 20068 net.cpp:100] Creating Layer res5b_branch2a_relu_p
I0302 13:10:16.290652 20068 net.cpp:434] res5b_branch2a_relu_p <- res5b_branch2a_p
I0302 13:10:16.290665 20068 net.cpp:395] res5b_branch2a_relu_p -> res5b_branch2a_p (in-place)
I0302 13:10:16.291167 20068 net.cpp:150] Setting up res5b_branch2a_relu_p
I0302 13:10:16.291191 20068 net.cpp:157] Top shape: 8 512 7 7 (200704)
I0302 13:10:16.291201 20068 net.cpp:165] Memory required for data: 3670605856
I0302 13:10:16.291209 20068 layer_factory.hpp:77] Creating layer res5b_branch2b_p
I0302 13:10:16.291239 20068 net.cpp:100] Creating Layer res5b_branch2b_p
I0302 13:10:16.291251 20068 net.cpp:434] res5b_branch2b_p <- res5b_branch2a_p
I0302 13:10:16.291270 20068 net.cpp:408] res5b_branch2b_p -> res5b_branch2b_p
I0302 13:10:16.304724 20068 net.cpp:150] Setting up res5b_branch2b_p
I0302 13:10:16.304781 20068 net.cpp:157] Top shape: 8 512 7 7 (200704)
I0302 13:10:16.304793 20068 net.cpp:165] Memory required for data: 3671408672
I0302 13:10:16.304810 20068 net.cpp:493] Sharing parameters 'res5b_branch2b_w' owned by layer 'res5b_branch2b', param index 0
I0302 13:10:16.304877 20068 layer_factory.hpp:77] Creating layer bn5b_branch2b_p
I0302 13:10:16.304898 20068 net.cpp:100] Creating Layer bn5b_branch2b_p
I0302 13:10:16.304911 20068 net.cpp:434] bn5b_branch2b_p <- res5b_branch2b_p
I0302 13:10:16.304930 20068 net.cpp:395] bn5b_branch2b_p -> res5b_branch2b_p (in-place)
I0302 13:10:16.306179 20068 net.cpp:150] Setting up bn5b_branch2b_p
I0302 13:10:16.306219 20068 net.cpp:157] Top shape: 8 512 7 7 (200704)
I0302 13:10:16.306229 20068 net.cpp:165] Memory required for data: 3672211488
I0302 13:10:16.306252 20068 layer_factory.hpp:77] Creating layer scale5b_branch2b_p
I0302 13:10:16.306278 20068 net.cpp:100] Creating Layer scale5b_branch2b_p
I0302 13:10:16.306293 20068 net.cpp:434] scale5b_branch2b_p <- res5b_branch2b_p
I0302 13:10:16.306308 20068 net.cpp:395] scale5b_branch2b_p -> res5b_branch2b_p (in-place)
I0302 13:10:16.306491 20068 layer_factory.hpp:77] Creating layer scale5b_branch2b_p
I0302 13:10:16.307065 20068 net.cpp:150] Setting up scale5b_branch2b_p
I0302 13:10:16.307088 20068 net.cpp:157] Top shape: 8 512 7 7 (200704)
I0302 13:10:16.307098 20068 net.cpp:165] Memory required for data: 3673014304
I0302 13:10:16.307111 20068 net.cpp:493] Sharing parameters 'scale5b_branch2b_alpha' owned by layer 'scale5b_branch2b', param index 0
I0302 13:10:16.307123 20068 net.cpp:493] Sharing parameters 'scale5b_branch2b_beta' owned by layer 'scale5b_branch2b', param index 1
I0302 13:10:16.307133 20068 layer_factory.hpp:77] Creating layer res5b_branch2b_relu_p
I0302 13:10:16.307147 20068 net.cpp:100] Creating Layer res5b_branch2b_relu_p
I0302 13:10:16.307157 20068 net.cpp:434] res5b_branch2b_relu_p <- res5b_branch2b_p
I0302 13:10:16.307168 20068 net.cpp:395] res5b_branch2b_relu_p -> res5b_branch2b_p (in-place)
I0302 13:10:16.307689 20068 net.cpp:150] Setting up res5b_branch2b_relu_p
I0302 13:10:16.307713 20068 net.cpp:157] Top shape: 8 512 7 7 (200704)
I0302 13:10:16.307723 20068 net.cpp:165] Memory required for data: 3673817120
I0302 13:10:16.307730 20068 layer_factory.hpp:77] Creating layer res5b_branch2c_p
I0302 13:10:16.307751 20068 net.cpp:100] Creating Layer res5b_branch2c_p
I0302 13:10:16.307762 20068 net.cpp:434] res5b_branch2c_p <- res5b_branch2b_p
I0302 13:10:16.307780 20068 net.cpp:408] res5b_branch2c_p -> res5b_branch2c_p
I0302 13:10:16.326537 20068 net.cpp:150] Setting up res5b_branch2c_p
I0302 13:10:16.326589 20068 net.cpp:157] Top shape: 8 2048 7 7 (802816)
I0302 13:10:16.326602 20068 net.cpp:165] Memory required for data: 3677028384
I0302 13:10:16.326618 20068 net.cpp:493] Sharing parameters 'res5b_branch2c_w' owned by layer 'res5b_branch2c', param index 0
I0302 13:10:16.326632 20068 layer_factory.hpp:77] Creating layer bn5b_branch2c_p
I0302 13:10:16.326661 20068 net.cpp:100] Creating Layer bn5b_branch2c_p
I0302 13:10:16.326675 20068 net.cpp:434] bn5b_branch2c_p <- res5b_branch2c_p
I0302 13:10:16.326690 20068 net.cpp:395] bn5b_branch2c_p -> res5b_branch2c_p (in-place)
I0302 13:10:16.329452 20068 net.cpp:150] Setting up bn5b_branch2c_p
I0302 13:10:16.329494 20068 net.cpp:157] Top shape: 8 2048 7 7 (802816)
I0302 13:10:16.329504 20068 net.cpp:165] Memory required for data: 3680239648
I0302 13:10:16.329527 20068 layer_factory.hpp:77] Creating layer scale5b_branch2c_p
I0302 13:10:16.329552 20068 net.cpp:100] Creating Layer scale5b_branch2c_p
I0302 13:10:16.329569 20068 net.cpp:434] scale5b_branch2c_p <- res5b_branch2c_p
I0302 13:10:16.329588 20068 net.cpp:395] scale5b_branch2c_p -> res5b_branch2c_p (in-place)
I0302 13:10:16.329784 20068 layer_factory.hpp:77] Creating layer scale5b_branch2c_p
I0302 13:10:16.330350 20068 net.cpp:150] Setting up scale5b_branch2c_p
I0302 13:10:16.330370 20068 net.cpp:157] Top shape: 8 2048 7 7 (802816)
I0302 13:10:16.330380 20068 net.cpp:165] Memory required for data: 3683450912
I0302 13:10:16.330394 20068 net.cpp:493] Sharing parameters 'scale5b_branch2c_alpha' owned by layer 'scale5b_branch2c', param index 0
I0302 13:10:16.330405 20068 net.cpp:493] Sharing parameters 'scale5b_branch2c_beta' owned by layer 'scale5b_branch2c', param index 1
I0302 13:10:16.330415 20068 layer_factory.hpp:77] Creating layer res5b_p
I0302 13:10:16.330426 20068 net.cpp:100] Creating Layer res5b_p
I0302 13:10:16.330435 20068 net.cpp:434] res5b_p <- res5a_p_res5a_relu_p_0_split_1
I0302 13:10:16.330446 20068 net.cpp:434] res5b_p <- res5b_branch2c_p
I0302 13:10:16.330461 20068 net.cpp:408] res5b_p -> res5b_p
I0302 13:10:16.330554 20068 net.cpp:150] Setting up res5b_p
I0302 13:10:16.330569 20068 net.cpp:157] Top shape: 8 2048 7 7 (802816)
I0302 13:10:16.330577 20068 net.cpp:165] Memory required for data: 3686662176
I0302 13:10:16.330585 20068 layer_factory.hpp:77] Creating layer res5b_relu_p
I0302 13:10:16.330597 20068 net.cpp:100] Creating Layer res5b_relu_p
I0302 13:10:16.330605 20068 net.cpp:434] res5b_relu_p <- res5b_p
I0302 13:10:16.330617 20068 net.cpp:395] res5b_relu_p -> res5b_p (in-place)
I0302 13:10:16.332739 20068 net.cpp:150] Setting up res5b_relu_p
I0302 13:10:16.332794 20068 net.cpp:157] Top shape: 8 2048 7 7 (802816)
I0302 13:10:16.332829 20068 net.cpp:165] Memory required for data: 3689873440
I0302 13:10:16.332841 20068 layer_factory.hpp:77] Creating layer res5b_p_res5b_relu_p_0_split
I0302 13:10:16.332866 20068 net.cpp:100] Creating Layer res5b_p_res5b_relu_p_0_split
I0302 13:10:16.332897 20068 net.cpp:434] res5b_p_res5b_relu_p_0_split <- res5b_p
I0302 13:10:16.332952 20068 net.cpp:408] res5b_p_res5b_relu_p_0_split -> res5b_p_res5b_relu_p_0_split_0
I0302 13:10:16.332993 20068 net.cpp:408] res5b_p_res5b_relu_p_0_split -> res5b_p_res5b_relu_p_0_split_1
I0302 13:10:16.335144 20068 net.cpp:150] Setting up res5b_p_res5b_relu_p_0_split
I0302 13:10:16.335222 20068 net.cpp:157] Top shape: 8 2048 7 7 (802816)
I0302 13:10:16.335280 20068 net.cpp:157] Top shape: 8 2048 7 7 (802816)
I0302 13:10:16.335332 20068 net.cpp:165] Memory required for data: 3696295968
I0302 13:10:16.335356 20068 layer_factory.hpp:77] Creating layer res5c_branch2a_p
I0302 13:10:16.335441 20068 net.cpp:100] Creating Layer res5c_branch2a_p
I0302 13:10:16.335467 20068 net.cpp:434] res5c_branch2a_p <- res5b_p_res5b_relu_p_0_split_0
I0302 13:10:16.335528 20068 net.cpp:408] res5c_branch2a_p -> res5c_branch2a_p
I0302 13:10:16.361135 20068 net.cpp:150] Setting up res5c_branch2a_p
I0302 13:10:16.361192 20068 net.cpp:157] Top shape: 8 512 7 7 (200704)
I0302 13:10:16.361204 20068 net.cpp:165] Memory required for data: 3697098784
I0302 13:10:16.361220 20068 net.cpp:493] Sharing parameters 'res5c_branch2a_w' owned by layer 'res5c_branch2a', param index 0
I0302 13:10:16.361234 20068 layer_factory.hpp:77] Creating layer bn5c_branch2a_p
I0302 13:10:16.361255 20068 net.cpp:100] Creating Layer bn5c_branch2a_p
I0302 13:10:16.361268 20068 net.cpp:434] bn5c_branch2a_p <- res5c_branch2a_p
I0302 13:10:16.361281 20068 net.cpp:395] bn5c_branch2a_p -> res5c_branch2a_p (in-place)
I0302 13:10:16.362520 20068 net.cpp:150] Setting up bn5c_branch2a_p
I0302 13:10:16.362557 20068 net.cpp:157] Top shape: 8 512 7 7 (200704)
I0302 13:10:16.362566 20068 net.cpp:165] Memory required for data: 3697901600
I0302 13:10:16.362587 20068 layer_factory.hpp:77] Creating layer scale5c_branch2a_p
I0302 13:10:16.362610 20068 net.cpp:100] Creating Layer scale5c_branch2a_p
I0302 13:10:16.362622 20068 net.cpp:434] scale5c_branch2a_p <- res5c_branch2a_p
I0302 13:10:16.362639 20068 net.cpp:395] scale5c_branch2a_p -> res5c_branch2a_p (in-place)
I0302 13:10:16.362823 20068 layer_factory.hpp:77] Creating layer scale5c_branch2a_p
I0302 13:10:16.363373 20068 net.cpp:150] Setting up scale5c_branch2a_p
I0302 13:10:16.363389 20068 net.cpp:157] Top shape: 8 512 7 7 (200704)
I0302 13:10:16.363396 20068 net.cpp:165] Memory required for data: 3698704416
I0302 13:10:16.363407 20068 net.cpp:493] Sharing parameters 'scale5c_branch2a_alpha' owned by layer 'scale5c_branch2a', param index 0
I0302 13:10:16.363426 20068 net.cpp:493] Sharing parameters 'scale5c_branch2a_beta' owned by layer 'scale5c_branch2a', param index 1
I0302 13:10:16.363438 20068 layer_factory.hpp:77] Creating layer res5c_branch2a_relu_p
I0302 13:10:16.363456 20068 net.cpp:100] Creating Layer res5c_branch2a_relu_p
I0302 13:10:16.363467 20068 net.cpp:434] res5c_branch2a_relu_p <- res5c_branch2a_p
I0302 13:10:16.363479 20068 net.cpp:395] res5c_branch2a_relu_p -> res5c_branch2a_p (in-place)
I0302 13:10:16.364316 20068 net.cpp:150] Setting up res5c_branch2a_relu_p
I0302 13:10:16.364373 20068 net.cpp:157] Top shape: 8 512 7 7 (200704)
I0302 13:10:16.364403 20068 net.cpp:165] Memory required for data: 3699507232
I0302 13:10:16.364425 20068 layer_factory.hpp:77] Creating layer res5c_branch2b_p
I0302 13:10:16.364461 20068 net.cpp:100] Creating Layer res5c_branch2b_p
I0302 13:10:16.364476 20068 net.cpp:434] res5c_branch2b_p <- res5c_branch2a_p
I0302 13:10:16.364490 20068 net.cpp:408] res5c_branch2b_p -> res5c_branch2b_p
I0302 13:10:16.390316 20068 net.cpp:150] Setting up res5c_branch2b_p
I0302 13:10:16.390390 20068 net.cpp:157] Top shape: 8 512 7 7 (200704)
I0302 13:10:16.390415 20068 net.cpp:165] Memory required for data: 3700310048
I0302 13:10:16.390441 20068 net.cpp:493] Sharing parameters 'res5c_branch2b_w' owned by layer 'res5c_branch2b', param index 0
I0302 13:10:16.390470 20068 layer_factory.hpp:77] Creating layer bn5c_branch2b_p
I0302 13:10:16.390489 20068 net.cpp:100] Creating Layer bn5c_branch2b_p
I0302 13:10:16.390502 20068 net.cpp:434] bn5c_branch2b_p <- res5c_branch2b_p
I0302 13:10:16.390530 20068 net.cpp:395] bn5c_branch2b_p -> res5c_branch2b_p (in-place)
I0302 13:10:16.391396 20068 net.cpp:150] Setting up bn5c_branch2b_p
I0302 13:10:16.391425 20068 net.cpp:157] Top shape: 8 512 7 7 (200704)
I0302 13:10:16.391432 20068 net.cpp:165] Memory required for data: 3701112864
I0302 13:10:16.391450 20068 layer_factory.hpp:77] Creating layer scale5c_branch2b_p
I0302 13:10:16.391469 20068 net.cpp:100] Creating Layer scale5c_branch2b_p
I0302 13:10:16.391477 20068 net.cpp:434] scale5c_branch2b_p <- res5c_branch2b_p
I0302 13:10:16.391489 20068 net.cpp:395] scale5c_branch2b_p -> res5c_branch2b_p (in-place)
I0302 13:10:16.391638 20068 layer_factory.hpp:77] Creating layer scale5c_branch2b_p
I0302 13:10:16.393797 20068 net.cpp:150] Setting up scale5c_branch2b_p
I0302 13:10:16.393844 20068 net.cpp:157] Top shape: 8 512 7 7 (200704)
I0302 13:10:16.393852 20068 net.cpp:165] Memory required for data: 3701915680
I0302 13:10:16.393867 20068 net.cpp:493] Sharing parameters 'scale5c_branch2b_alpha' owned by layer 'scale5c_branch2b', param index 0
I0302 13:10:16.393882 20068 net.cpp:493] Sharing parameters 'scale5c_branch2b_beta' owned by layer 'scale5c_branch2b', param index 1
I0302 13:10:16.393893 20068 layer_factory.hpp:77] Creating layer res5c_branch2b_relu_p
I0302 13:10:16.393908 20068 net.cpp:100] Creating Layer res5c_branch2b_relu_p
I0302 13:10:16.393919 20068 net.cpp:434] res5c_branch2b_relu_p <- res5c_branch2b_p
I0302 13:10:16.393934 20068 net.cpp:395] res5c_branch2b_relu_p -> res5c_branch2b_p (in-place)
I0302 13:10:16.397863 20068 net.cpp:150] Setting up res5c_branch2b_relu_p
I0302 13:10:16.397945 20068 net.cpp:157] Top shape: 8 512 7 7 (200704)
I0302 13:10:16.397972 20068 net.cpp:165] Memory required for data: 3702718496
I0302 13:10:16.397986 20068 layer_factory.hpp:77] Creating layer res5c_branch2c_p
I0302 13:10:16.398036 20068 net.cpp:100] Creating Layer res5c_branch2c_p
I0302 13:10:16.398049 20068 net.cpp:434] res5c_branch2c_p <- res5c_branch2b_p
I0302 13:10:16.398088 20068 net.cpp:408] res5c_branch2c_p -> res5c_branch2c_p
I0302 13:10:16.416577 20068 net.cpp:150] Setting up res5c_branch2c_p
I0302 13:10:16.416631 20068 net.cpp:157] Top shape: 8 2048 7 7 (802816)
I0302 13:10:16.416643 20068 net.cpp:165] Memory required for data: 3705929760
I0302 13:10:16.416659 20068 net.cpp:493] Sharing parameters 'res5c_branch2c_w' owned by layer 'res5c_branch2c', param index 0
I0302 13:10:16.416671 20068 layer_factory.hpp:77] Creating layer bn5c_branch2c_p
I0302 13:10:16.416693 20068 net.cpp:100] Creating Layer bn5c_branch2c_p
I0302 13:10:16.416707 20068 net.cpp:434] bn5c_branch2c_p <- res5c_branch2c_p
I0302 13:10:16.416721 20068 net.cpp:395] bn5c_branch2c_p -> res5c_branch2c_p (in-place)
I0302 13:10:16.417747 20068 net.cpp:150] Setting up bn5c_branch2c_p
I0302 13:10:16.417770 20068 net.cpp:157] Top shape: 8 2048 7 7 (802816)
I0302 13:10:16.417779 20068 net.cpp:165] Memory required for data: 3709141024
I0302 13:10:16.417798 20068 layer_factory.hpp:77] Creating layer scale5c_branch2c_p
I0302 13:10:16.417820 20068 net.cpp:100] Creating Layer scale5c_branch2c_p
I0302 13:10:16.417830 20068 net.cpp:434] scale5c_branch2c_p <- res5c_branch2c_p
I0302 13:10:16.417845 20068 net.cpp:395] scale5c_branch2c_p -> res5c_branch2c_p (in-place)
I0302 13:10:16.418016 20068 layer_factory.hpp:77] Creating layer scale5c_branch2c_p
I0302 13:10:16.418555 20068 net.cpp:150] Setting up scale5c_branch2c_p
I0302 13:10:16.418572 20068 net.cpp:157] Top shape: 8 2048 7 7 (802816)
I0302 13:10:16.418581 20068 net.cpp:165] Memory required for data: 3712352288
I0302 13:10:16.418592 20068 net.cpp:493] Sharing parameters 'scale5c_branch2c_alpha' owned by layer 'scale5c_branch2c', param index 0
I0302 13:10:16.418617 20068 net.cpp:493] Sharing parameters 'scale5c_branch2c_beta' owned by layer 'scale5c_branch2c', param index 1
I0302 13:10:16.418628 20068 layer_factory.hpp:77] Creating layer res5c_p
I0302 13:10:16.418643 20068 net.cpp:100] Creating Layer res5c_p
I0302 13:10:16.418654 20068 net.cpp:434] res5c_p <- res5b_p_res5b_relu_p_0_split_1
I0302 13:10:16.418668 20068 net.cpp:434] res5c_p <- res5c_branch2c_p
I0302 13:10:16.418680 20068 net.cpp:408] res5c_p -> res5c_p
I0302 13:10:16.420272 20068 net.cpp:150] Setting up res5c_p
I0302 13:10:16.420311 20068 net.cpp:157] Top shape: 8 2048 7 7 (802816)
I0302 13:10:16.420321 20068 net.cpp:165] Memory required for data: 3715563552
I0302 13:10:16.420331 20068 layer_factory.hpp:77] Creating layer res5c_relu_p
I0302 13:10:16.420347 20068 net.cpp:100] Creating Layer res5c_relu_p
I0302 13:10:16.420358 20068 net.cpp:434] res5c_relu_p <- res5c_p
I0302 13:10:16.420374 20068 net.cpp:395] res5c_relu_p -> res5c_p (in-place)
I0302 13:10:16.420933 20068 net.cpp:150] Setting up res5c_relu_p
I0302 13:10:16.420964 20068 net.cpp:157] Top shape: 8 2048 7 7 (802816)
I0302 13:10:16.420974 20068 net.cpp:165] Memory required for data: 3718774816
I0302 13:10:16.420984 20068 layer_factory.hpp:77] Creating layer pool_p
I0302 13:10:16.421001 20068 net.cpp:100] Creating Layer pool_p
I0302 13:10:16.421015 20068 net.cpp:434] pool_p <- res5c_p
I0302 13:10:16.421037 20068 net.cpp:408] pool_p -> pool_p
I0302 13:10:16.421721 20068 net.cpp:150] Setting up pool_p
I0302 13:10:16.421756 20068 net.cpp:157] Top shape: 8 2048 1 1 (16384)
I0302 13:10:16.421764 20068 net.cpp:165] Memory required for data: 3718840352
I0302 13:10:16.421772 20068 layer_factory.hpp:77] Creating layer ip1_p
I0302 13:10:16.421793 20068 net.cpp:100] Creating Layer ip1_p
I0302 13:10:16.421804 20068 net.cpp:434] ip1_p <- pool_p
I0302 13:10:16.421820 20068 net.cpp:408] ip1_p -> ip1_p
I0302 13:10:16.457412 20068 net.cpp:150] Setting up ip1_p
I0302 13:10:16.457501 20068 net.cpp:157] Top shape: 8 512 (4096)
I0302 13:10:16.457509 20068 net.cpp:165] Memory required for data: 3718856736
I0302 13:10:16.457525 20068 net.cpp:493] Sharing parameters 'ip1_w' owned by layer 'ip1', param index 0
I0302 13:10:16.457545 20068 net.cpp:493] Sharing parameters 'ip1_b' owned by layer 'ip1', param index 1
I0302 13:10:16.457567 20068 layer_factory.hpp:77] Creating layer relu1_p
I0302 13:10:16.458325 20068 net.cpp:100] Creating Layer relu1_p
I0302 13:10:16.458348 20068 net.cpp:434] relu1_p <- ip1_p
I0302 13:10:16.458361 20068 net.cpp:395] relu1_p -> ip1_p (in-place)
I0302 13:10:16.458856 20068 net.cpp:150] Setting up relu1_p
I0302 13:10:16.458881 20068 net.cpp:157] Top shape: 8 512 (4096)
I0302 13:10:16.458889 20068 net.cpp:165] Memory required for data: 3718873120
I0302 13:10:16.458896 20068 layer_factory.hpp:77] Creating layer ip2_p
I0302 13:10:16.458920 20068 net.cpp:100] Creating Layer ip2_p
I0302 13:10:16.458937 20068 net.cpp:434] ip2_p <- ip1_p
I0302 13:10:16.458978 20068 net.cpp:408] ip2_p -> ip2_p
I0302 13:10:16.466590 20068 net.cpp:150] Setting up ip2_p
I0302 13:10:16.466644 20068 net.cpp:157] Top shape: 8 512 (4096)
I0302 13:10:16.466653 20068 net.cpp:165] Memory required for data: 3718889504
I0302 13:10:16.466668 20068 net.cpp:493] Sharing parameters 'ip2_w' owned by layer 'ip2', param index 0
I0302 13:10:16.466681 20068 net.cpp:493] Sharing parameters 'ip2_b' owned by layer 'ip2', param index 1
I0302 13:10:16.466688 20068 layer_factory.hpp:77] Creating layer feat_p
I0302 13:10:16.466711 20068 net.cpp:100] Creating Layer feat_p
I0302 13:10:16.466722 20068 net.cpp:434] feat_p <- ip2_p
I0302 13:10:16.466739 20068 net.cpp:408] feat_p -> feat_p
I0302 13:10:16.480057 20068 net.cpp:150] Setting up feat_p
I0302 13:10:16.480121 20068 net.cpp:157] Top shape: 8 512 (4096)
I0302 13:10:16.480132 20068 net.cpp:165] Memory required for data: 3718905888
I0302 13:10:16.480149 20068 net.cpp:493] Sharing parameters 'feat_w' owned by layer 'feat', param index 0
I0302 13:10:16.480161 20068 net.cpp:493] Sharing parameters 'feat_b' owned by layer 'feat', param index 1
I0302 13:10:16.480183 20068 layer_factory.hpp:77] Creating layer loss
I0302 13:10:16.480202 20068 net.cpp:100] Creating Layer loss
…
